jordan_elman_2024/exp1/jordan_sequence_level/run_3/export/model.safetensors (safetensors, 6976 bytes, 7 tensors)

layers.embed.emb.weight f4 [22, 22]
00000000: 0000 803f 0000 0000 0000 0000 0000 0000
00000010: 0000 0000 0000 0000 0000 0000 0000 0000
00000020: 0000 0000 0000 0000 0000 0000 0000 0000
00000030: 0000 0000 0000 0000 0000 0000 0000 0000
00000040: 0000 0000 0000 0000 0000 0000 0000 0000
00000050: 0000 0000 0000 0000 0000 0000 0000 803f
00000060: 0000 0000 0000 0000 0000 0000 0000 0000
00000070: 0000 0000 0000 0000 0000 0000 0000 0000
00000080: 0000 0000 0000 0000 0000 0000 0000 0000
00000090: 0000 0000 0000 0000 0000 0000 0000 0000
000000a0: 0000 0000 0000 0000 0000 0000 0000 0000
000000b0: 0000 0000 0000 0000 0000 803f 0000 0000
000000c0: 0000 0000 0000 0000 0000 0000 0000 0000
000000d0: 0000 0000 0000 0000 0000 0000 0000 0000
000000e0: 0000 0000 0000 0000 0000 0000 0000 0000
000000f0: 0000 0000 0000 0000 0000 0000 0000 0000
00000100: 0000 0000 0000 0000 0000 0000 0000 0000
00000110: 0000 0000 0000 803f 0000 0000 0000 0000
00000120: 0000 0000 0000 0000 0000 0000 0000 0000
00000130: 0000 0000 0000 0000 0000 0000 0000 0000
00000140: 0000 0000 0000 0000 0000 0000 0000 0000
00000150: 0000 0000 0000 0000 0000 0000 0000 0000
00000160: 0000 0000 0000 0000 0000 0000 0000 0000
00000170: 0000 803f 0000 0000 0000 0000 0000 0000
00000180: 0000 0000 0000 0000 0000 0000 0000 0000
00000190: 0000 0000 0000 0000 0000 0000 0000 0000
000001a0: 0000 0000 0000 0000 0000 0000 0000 0000
000001b0: 0000 0000 0000 0000 0000 0000 0000 0000
000001c0: 0000 0000 0000 0000 0000 0000 0000 803f
000001d0: 0000 0000 0000 0000 0000 0000 0000 0000
000001e0: 0000 0000 0000 0000 0000 0000 0000 0000
000001f0: 0000 0000 0000 0000 0000 0000 0000 0000
00000200: 0000 0000 0000 0000 0000 0000 0000 0000
00000210: 0000 0000 0000 0000 0000 0000 0000 0000
00000220: 0000 0000 0000 0000 0000 803f 0000 0000
00000230: 0000 0000 0000 0000 0000 0000 0000 0000
00000240: 0000 0000 0000 0000 0000 0000 0000 0000
00000250: 0000 0000 0000 0000 0000 0000 0000 0000
00000260: 0000 0000 0000 0000 0000 0000 0000 0000
00000270: 0000 0000 0000 0000 0000 0000 0000 0000
00000280: 0000 0000 0000 803f 0000 0000 0000 0000
00000290: 0000 0000 0000 0000 0000 0000 0000 0000
000002a0: 0000 0000 0000 0000 0000 0000 0000 0000
000002b0: 0000 0000 0000 0000 0000 0000 0000 0000
000002c0: 0000 0000 0000 0000 0000 0000 0000 0000
000002d0: 0000 0000 0000 0000 0000 0000 0000 0000
000002e0: 0000 803f 0000 0000 0000 0000 0000 0000
000002f0: 0000 0000 0000 0000 0000 0000 0000 0000
00000300: 0000 0000 0000 0000 0000 0000 0000 0000
00000310: 0000 0000 0000 0000 0000 0000 0000 0000
00000320: 0000 0000 0000 0000 0000 0000 0000 0000
00000330: 0000 0000 0000 0000 0000 0000 0000 803f
00000340: 0000 0000 0000 0000 0000 0000 0000 0000
00000350: 0000 0000 0000 0000 0000 0000 0000 0000
00000360: 0000 0000 0000 0000 0000 0000 0000 0000
00000370: 0000 0000 0000 0000 0000 0000 0000 0000
00000380: 0000 0000 0000 0000 0000 0000 0000 0000
00000390: 0000 0000 0000 0000 0000 803f 0000 0000
000003a0: 0000 0000 0000 0000 0000 0000 0000 0000
000003b0: 0000 0000 0000 0000 0000 0000 0000 0000
000003c0: 0000 0000 0000 0000 0000 0000 0000 0000
000003d0: 0000 0000 0000 0000 0000 0000 0000 0000
000003e0: 0000 0000 0000 0000 0000 0000 0000 0000
000003f0: 0000 0000 0000 803f 0000 0000 0000 0000
1.0 0.0 0.0 0.0 0.0 0.0 0.0 0.0
0.0 0.0 0.0 0.0 0.0 0.0 0.0 0.0
0.0 0.0 0.0 0.0 0.0 0.0 0.0 1.0
0.0 0.0 0.0 0.0 0.0 0.0 0.0 0.0
0.0 0.0 0.0 0.0 0.0 0.0 0.0 0.0
0.0 0.0 0.0 0.0 0.0 0.0 1.0 0.0
0.0 0.0 0.0 0.0 0.0 0.0 0.0 0.0
0.0 0.0 0.0 0.0 0.0 0.0 0.0 0.0
0.0 0.0 0.0 0.0 0.0 1.0 0.0 0.0
0.0 0.0 0.0 0.0 0.0 0.0 0.0 0.0
0.0 0.0 0.0 0.0 0.0 0.0 0.0 0.0
0.0 0.0 0.0 0.0 1.0 0.0 0.0 0.0
0.0 0.0 0.0 0.0 0.0 0.0 0.0 0.0
0.0 0.0 0.0 0.0 0.0 0.0 0.0 0.0
0.0 0.0 0.0 1.0 0.0 0.0 0.0 0.0
0.0 0.0 0.0 0.0 0.0 0.0 0.0 0.0
0.0 0.0 0.0 0.0 0.0 0.0 0.0 0.0
0.0 0.0 1.0 0.0 0.0 0.0 0.0 0.0
0.0 0.0 0.0 0.0 0.0 0.0 0.0 0.0
0.0 0.0 0.0 0.0 0.0 0.0 0.0 0.0
0.0 1.0 0.0 0.0 0.0 0.0 0.0 0.0
0.0 0.0 0.0 0.0 0.0 0.0 0.0 0.0
0.0 0.0 0.0 0.0 0.0 0.0 0.0 0.0
1.0 0.0 0.0 0.0 0.0 0.0 0.0 0.0
0.0 0.0 0.0 0.0 0.0 0.0 0.0 0.0
0.0 0.0 0.0 0.0 0.0 0.0 0.0 1.0
0.0 0.0 0.0 0.0 0.0 0.0 0.0 0.0
0.0 0.0 0.0 0.0 0.0 0.0 0.0 0.0
0.0 0.0 0.0 0.0 0.0 0.0 1.0 0.0
0.0 0.0 0.0 0.0 0.0 0.0 0.0 0.0
0.0 0.0 0.0 0.0 0.0 0.0 0.0 0.0
0.0 0.0 0.0 0.0 0.0 1.0 0.0 0.0

layers.jordan.hx.bias f4 [16]
00000000: 71ae 4fbc 5cf7 38bd 4a24 c5bd b8b1 8a3c
00000010: aace 16be 84fd 9ebe e928 50bd a1c4 ad3d
00000020: 67f7 52be 7808 313e 8dc3 3cbe f193 933e
00000030: 2f14 bf3e 45a1 403d b6aa e4bd 360e 933d
-0.012675867 -0.045157775 -0.09626062 0.016930446 -0.14727274 -0.31052792 -0.050820265 0.084847696
-0.20602189 0.17288387 -0.18433972 0.28823808 0.37320086 0.0470288 -0.11165373 0.07180445

layers.jordan.hx.weight f4 [16, 22]
00000000: 9a20 83be 7ccd 043e ae56 25be f09d a7bf
00000010: 4cb8 0ebe 1eb8 40be 4149 63be d1d7 0ebf
00000020: 5e46 f7be d6a9 fabe dfd2 5a3e 9fa5 a93d
00000030: d61e 7f3e 8f5e 23bf 02ae c0be 259c 2dbf
00000040: 8b60 423f 201f 423f ade8 523f 142a 293f
00000050: 9cec 403f e8ca 643f 7e9e a1bd d07d 353e
00000060: 1ad3 b63c 50d5 07bf 4cfe 47be a5f5 4ebe
00000070: a1eb 18be ba08 133f c1dd d43e 0bf0 2c3f
00000080: 8c5d 86be 138e 58be ea38 89be c2ca 0e3f
00000090: 596b 293f b065 ba3e 75fa dfbe 682e 09bf
000000a0: 73e5 bebe 11d3 85bd 7817 68be 2626 30be
000000b0: 7259 963d 399e 303d 7c34 3b3d 41df c8be
000000c0: 8244 b23c 07e9 84bd 1900 61bd 6e7e 8f3d
000000d0: 71ee 4b3e 8bb3 b53d 73f7 fcbe 4311 96be
000000e0: 53da 71be aa42 493e c188 963d a9b2 71bd
000000f0: deed 063f 9c5b 063f 05e4 0a3f 42ce 42be
00000100: f328 78be f4ba f0bd bc76 cb3d e344 093e
00000110: 5cc0 133e c5be 843f fbb8 5abf cb63 5cbf
00000120: c4e3 4dbf 9e38 0f3f 5ad7 113f cdd5 de3e
00000130: 237e 163f 49df f53e bfd8 063f c82e e63e
00000140: 4e91 c33e 9c32 133f cbc7 13bf 7c90 b7be
00000150: 31e4 eebe d812 11bf d8b7 02bf 7415 c1be
00000160: d609 fe3e d52e 2abe 31c2 01bd a169 973f
00000170: 7050 cebe b64c bcbe 3a55 efbe 7661 c13e
00000180: 0043 0d3f e853 c93e 0573 a3be 7f30 c6be
00000190: db0b e4be 3aad a63e 5060 133f 715e 273e
000001a0: 041e 4ebe c1bd adbe 9482 3dbe c19c e2be
000001b0: df91 eebe a335 dcbe aa52 263f 3859 0b3e
000001c0: 1952 043e 9c95 c23f a011 a7bd 65f3 efbd
000001d0: 26de 343a 9c3e 14be c39f 24be 018b 0fbe
000001e0: cf5d e7bd 180a 9fbe 7ebd 96be 159a 74bd
000001f0: f880 0cbe 1984 84be 1807 babe 5f0a 91be
00000200: f1a5 68be f01d 86be c2d5 b9be 6e1d cabd
00000210: 4208 27be 60f7 1a3d 8fd7 1c3e 3162 45be
00000220: e767 09bf d7d8 f1be 59f6 17bf a101 debe
00000230: 648e c3be ac7c c7be 68af f8bd 51ef 26be
00000240: 9e39 40be 3d82 b7be 5f9d 9bbe 1fa3 02bf
00000250: 363c 523f 68dc 603f c1ff 673f 280b 363f
00000260: b9af 213f ff63 123f 6a6c 3abe 68b0 18bd
00000270: 42a4 c23c bc63 7fbf b454 5d3f 99cf 5a3f
00000280: dcf0 4b3f bd78 213e 6a14 b03e 50e1 1a3e
00000290: 18e5 1c3f 0fb6 1a3f 9c92 1b3f 74e5 a23e
000002a0: ea98 9a3d c262 a13d faeb 80bf 0535 72bf
000002b0: 3717 58bf b5f0 6abf eebe 58bf a051 5abf
000002c0: 74f2 a83d 5625 e4bd 934e 10be dfa0 3cbe
000002d0: bf1b efbe e739 e9be ddb0 02bf 1b1f fc3e
000002e0: 8857 b93e 3c17 2c3f 302e 793e 6847 b43e
000002f0: 43b3 fe3e 3666 033f e479 1c3f aa24 213f
00000300: 7a8b febe ed19 f4be 30d7 f9be da8d cfbe
00000310: c5ed 04bf ddf9 02bf b9a7 12be d883 dabd
00000320: 7046 1d3e c647 923d 7ab1 65bf 4ebf 64bf
00000330: 9a93 5abf 24e6 c13e e8a4 f03e 104a c33e
00000340: 9740 3abf 3be6 46bf 3a0c 60bf f93b ad3e
00000350: 8238 883e e474 e83e fa81 d13e 3c0c d73e
00000360: efd7 f43e f61f 993e 89f5 cb3e 5a4d ee3e
00000370: d939 84bd 708e c9bd 2177 28be b0f8 53bf
00000380: d27f 193f 63c8 1a3f de1c 493f 518a 07bf
00000390: 260c f8be 648e d4be d6f1 583f adc9 6e3f
000003a0: 1238 483f 343e cabe 80fd 1abf 1978 21bf
000003b0: 4218 04bd a939 0abe fd77 3bbe 44d7 6ebd
000003c0: bf0a 31be 8b7e 23be 76f7 1cbf a777 31be
000003d0: f008 cc3d 3d86 ccbf 4df9 82bd 2a10 0cbd
000003e0: 484d c3bd 685e 063f 092b e43e f50f e13e
000003f0: 685a ab3e 1494 353e 4dc5 a43e 816e f43e
-0.2561081 0.12969011 -0.16146347 -1.3095074 -0.13937491 -0.18820235 -0.22195913 -0.5579806
-0.48295873 -0.489577 0.21369503 0.08283543 0.24914107 -0.6381616 -0.37632757 -0.6781638
0.7592856 0.75828743 0.82386285 0.6607983 0.7536104 0.8937211 -0.07891558 0.17723775
0.022317458 -0.53059864 -0.195306 -0.20210893 -0.14933635 0.5743519 0.41575435 0.67553777
-0.26243246 -0.21147947 -0.26801234 0.55778134 0.66179425 0.36405706 -0.4374577 -0.53586435
-0.3728443 -0.06534398 -0.22665203 -0.17202052 0.07341279 0.043119643 0.04570435 -0.3923283
0.021761183 -0.06489759 -0.054931734 0.070065364 0.19915177 0.08872136 -0.4940754 -0.29310045
-0.2361844 0.19654337 0.073503025 -0.059008274 0.52706707 0.52483535 0.5425418 -0.19023994
-0.24234371 -0.117544085 0.09934756 0.13405184 0.14428848 1.0370718 -0.8543851 -0.8608977
-0.8042567 0.55945766 0.56969225 0.43522492 0.5878622 0.48021916 0.5267448 0.44957566
0.38196796 0.574991 -0.57726735 -0.3585242 -0.4665847 -0.5666938 -0.51061773 -0.3771168
0.4961688 -0.16619428 -0.031679336 1.182911 -0.40295744 -0.36777276 -0.4674471 0.3776967
0.5518036 0.39321828 -0.3192369 -0.38708875 -0.44540295 0.32554036 0.57568836 0.1634462
-0.20128638 -0.33933833 -0.18506843 -0.4426022 -0.46595666 -0.43009672 0.64969885 0.13608253
0.12921943 1.5201907 -0.081576586 -0.11716346 0.0006899558 -0.14477009 -0.1607657 -0.1401787
-0.112971894 -0.31062388 -0.29441446 -0.059717257 -0.13721073 -0.25882033 -0.36333537 -0.28328225
-0.22719552 -0.26194715 -0.36295897 -0.098688945 -0.16311744 0.03783357 0.15316604 -0.19275738
-0.5367417 -0.47235748 -0.5936027 -0.43360618 -0.38194573 -0.38962305 -0.12142831 -0.1630223
-0.18771979 -0.3584155 -0.30393502 -0.51030153 0.82123125 0.87836313 0.90624624 0.71110773
0.63158756 0.5718383 -0.18205419 -0.03727761 0.023759965 -0.9976156 0.8645737 0.8547302
0.796644 0.15768714 0.34390575 0.15125012 0.6128707 0.6043405 0.60770583 0.31815684
0.07548697 0.07880165 -1.0072014 -0.9461215 -0.84410423 -0.9177354 -0.84666336 -0.852808
0.08249369 -0.11139934 -0.14092474 -0.18420742 -0.46700856 -0.45551988 -0.5105112 0.49242482
0.36199594 0.6722295 0.24334025 0.3521073 0.4974614 0.51327837 0.6112349 0.6294657
-0.49715787 -0.4767603 -0.48796988 -0.40537912 -0.5192531 -0.5116251 -0.14321794 -0.106696784
0.15358901 0.07142596 -0.8972393 -0.8935441 -0.8538147 0.37870896 0.47000813 0.38142443
-0.72754806 -0.77695054 -0.87518656 0.33834818 0.26605612 0.4540168 0.40919477 0.42001522
0.47820994 0.29907197 0.39835766 0.4654339 -0.06456346 -0.09841621 -0.16451694 -0.8280134
0.59960663 0.60462016 0.7855967 -0.5294543 -0.4844677 -0.41514885 0.8474401 0.9327648
0.78210557 -0.39500582 -0.6054306 -0.6307388 -0.032249697 -0.13498558 -0.1830749 -0.058310762
-0.17289256 -0.15966241 -0.61315095 -0.173308 0.09962642 -1.5978466 -0.063952066 -0.034195103
-0.095362246 0.524878 0.44564083 0.43957487 0.33467412 0.17732269 0.3218178 0.47740558

layers.jordan.hy.bias f4 [16]
00000000: 7753 89bc a158 90be 13e4 5ebd dfa7 0bbe
00000010: 12ed 6dbe 1e92 bcbe d563 98be 3a77 053d
00000020: 9aba b9bd becd 34bd 5d5f 903d 9bab 9d3e
00000030: 4d05 d63d f969 f0bb 9e3a c83b 5f13 fdbc
-0.016763432 -0.28192618 -0.054416727 -0.13638256 -0.23234966 -0.3683023 -0.29763666 0.032584406
-0.090687945 -0.044141524 0.07049439 0.30794987 0.1045023 -0.0073368517 0.0061105033 -0.030893026

layers.jordan.hy.weight f4 [16, 22]
00000000: 0d5a 163d 751e 91bd ec0a 873d bc45 83be
00000010: c0d6 053e 289e 0d3c 7bc3 d3bc 1c61 89be
00000020: c8d7 0d3b 5603 04be ed81 7cbe 44ab 99bd
00000030: 4c4b 7a3c 75cb 2bbe 447d 11be fb5f 223e
00000040: 526d dd3d 22f8 503e 67d0 bb3e dc4e d2bd
00000050: 1d4c 41bc 5668 87bd 6b51 37bd 8240 d13c
00000060: cf0f 973e a136 be3c 7567 89be e8a1 fcbb
00000070: c947 80be f386 8e3e b01e 793e 6aed 343d
00000080: d7f2 62be 417d 5dbe 3d21 86be 7061 f3bc
00000090: 905d 1ebe 02c7 66bd 41dd c1be 5d8f 30be
000000a0: 8a68 e4bd 59bb 213e 37e7 3d3e 099b 073e
000000b0: ac62 273d 0e9f 9c3e d65e fd3d 2d71 2ebf
000000c0: 8ea6 64bc 9c4a f0bc 32aa 8cbd 6d77 023c
000000d0: b9dc fd3d 2fe2 0abe 6de7 b53d 7170 04be
000000e0: ad99 bf3e ad95 383c df26 303e 5bee 39bd
000000f0: 2da4 593b 754f af3e 127f 7a3e a7ff 5fbd
00000100: f319 3cbd 516d cdbe d78c 023e a085 633c
00000110: 349d bb3d 4277 3b3e 0249 b33d 71e1 223e
00000120: 3f1d 1fbd ae57 473e e2fc a2bd 1334 2cbe
00000130: bdbc cebd 64ba 283e 87a2 95bd baad 4c3e
00000140: ef79 953d 2f3b ee3d a563 20be 9d3a 6bbd
00000150: d9d5 a93d a7f2 07bd 3f0b c3bd 0af5 6c3d
00000160: 4b53 313e 127a 2e3c a700 983c ff50 673e
00000170: ba70 083e 8288 45be 03eb a4bd 24cf 073e
00000180: 5d6a 993d 2be7 3c3e 6aa5 873d f264 fdbd
00000190: ef67 fa3d ba99 d83d 02ee 803e c550 bcbc
000001a0: 4918 e4bb ac47 d93d 4b6c 6c3c cd01 6abe
000001b0: 6bf0 41be 0a0a 47be 0e65 713d 002b d5bd
000001c0: f274 a73e 1766 b13e 869a d13d 9696 f8bc
000001d0: 09d0 febc 1ee7 273e 1763 2fbd 03ac 31be
000001e0: 0b0a 08be 7d11 f5bc 6347 c33c 67fd 1ebe
000001f0: 6aaa 8cbd ace1 eabc 70a3 a5bd 18a4 ec3c
00000200: 16d2 803c 688a 2abd bcae 38be f1df 24be
00000210: 9a47 903e 900d 5e3e 1063 d03c 78c8 f2be
00000220: 1d6e b33c eb84 44be 5d87 25be c6ff dcbd
00000230: 60bc 3a3e 82c9 6cbe fed5 5fbd cbc0 0a3e
00000240: aa90 f23d 4c34 8c3d 0769 173e 9287 5dbe
00000250: 5202 1a3e 1390 253e 0ecf 013e 9301 60be
00000260: e22b 97be 1900 5fbd 9911 853d 5bb8 06be
00000270: 684c ecbd 921b 06be 59f9 493e ec65 d53d
00000280: 5093 433e 0b91 a93d d0d2 2bbc 1beb 9f3e
00000290: be15 a03e d5a2 413b ee57 cb3b 4eb7 073e
000002a0: 6766 6f3d 7df5 673d c900 0b3d 0fb7 d3bd
000002b0: ae2e 66be 1cff 043e b455 313e bba0 32be
000002c0: 4a3c 98bd 046f 3fbd 3ba8 2f3e abfd 38bd
000002d0: 1a77 57be 6acb 253e 4c28 3fbe 0183 6e3c
000002e0: c6ce 653e 51cb e53d 53c1 42bd 1999 d53d
000002f0: c85d 1e3e f996 d3bd d925 45bd e141 ab3a
00000300: 99e6 85be 8537 c0bc c31c 933d 70f1 0ebe
00000310: a572 1bbd d3aa 72be f04f 23be 01d3 713e
00000320: db91 1b3e d287 e5bd 1004 7abe 2944 86be
00000330: a64a 4c3d 5602 883c c8de 793c 7323 703e
00000340: c136 bf3d 00c8 8dbe b069 0c3c 1ebe f13c
00000350: 1417 6b3e d5a9 2abe 0dd5 37bd b802 f63d
00000360: 69c0 07be 1979 ac3d b6f8 2a3e ba9b 5f3e
00000370: 29fd fa3d de92 91be cd66 58be 9e0a 5c3d
00000380: ce3e 8cbd add0 4e3e 8569 8a3e 38ff 763d
00000390: 5360 7a3d 528f 7bbe c98f 8a3e f924 b1bd
000003a0: f940 05be 5f63 9cbd 2a02 5abe a225 3a3d
000003b0: f6ce 1ebe dec8 32be 705e 36be 544b 883e
000003c0: 038c 5c3d 091b a13d b1ce 00be 1fd2 903e
000003d0: 23af b3bd 33c8 28bf bcfc 273e 480d 8f3e
000003e0: 0f70 f0bd 5ef5 73be fe5f 0d3e 2037 963e
000003f0: 896e b73d 03c3 e9bd c708 9d3e 9292 cebd
0.036706973 -0.07085887 0.0659388 -0.2563914 0.13070202 0.008643664 -0.025850048 -0.268319
0.0021643508 -0.12891898 -0.24658938 -0.075033695 0.015276741 -0.16776831 -0.14207941 0.15856926
0.10811867 0.20407155 0.36682436 -0.102689475 -0.011797932 -0.066116974 -0.04475538 0.025543455
0.29504248 0.023219408 -0.26836744 -0.0077097304 -0.25054768 0.27837333 0.24328113 0.04417173
-0.22162949 -0.21629812 -0.26197234 -0.029709548 -0.15465379 -0.056342132 -0.37864116 -0.17242189
-0.11152752 0.15794124 0.18545233 0.13242735 0.040865585 0.305901 0.12371604 -0.6814144
-0.013955725 -0.029332452 -0.068684 0.007963044 0.12395615 -0.13562845 0.088820316 -0.12933518
0.37421933 0.011266154 0.17202328 -0.04539333 0.0033209429 0.34240308 0.24462536 -0.05468717
-0.045923185 -0.40122464 0.12749039 0.013886839 0.091608435 0.18307212 0.087541595 0.15906312
-0.03884625 0.19467041 -0.0795839 -0.1681674 -0.10094593 0.16477352 -0.0730639 0.19988146
0.072986476 0.11632382 -0.15663011 -0.057428945 0.08292741 -0.033190396 -0.095236294 0.057850875
0.1731693 0.010649221 0.018554999 0.22589491 0.13324252 -0.19290355 -0.080526374 0.13262612
0.0749099 0.18447559 0.06623347 -0.123727694 0.12226855 0.10576196 0.25181586 -0.022987733
-0.006960903 0.106093735 0.014430116 -0.2285225 -0.18939368 -0.19437423 0.058934264 -0.10408592
0.3270641 0.346482 0.10234551 -0.030345242 -0.031105058 0.16396758 -0.04281911 -0.17350774
-0.13285081 -0.029915566 0.02383775 -0.15526353 -0.068684414 -0.028672062 -0.08087814 0.02888684
0.015725177 -0.0416359 -0.18035406 -0.16101052 0.28179628 0.21684861 0.025437862 -0.4741857
0.021903092 -0.19191329 -0.16164918 -0.107909724 0.18235922 -0.23123744 -0.05464744 0.13550107
0.11843999 0.06845912 0.14786159 -0.21633747 0.15039948 0.16168241 0.12676641 -0.218756
-0.29525667 -0.054443453 0.06497497 -0.13156264 -0.11538011 -0.13096455 0.19724025 0.10419831
0.19099164 0.08279618 -0.010487273 0.3123406 0.31266588 0.0029546518 0.0062055504 0.13253519
0.058447268 0.0566306 0.033936296 -0.1033765 -0.22478744 0.12987942 0.1731785 -0.17444126
-0.07433374 -0.046736732 0.17154019 -0.04516379 -0.21041527 0.16190878 -0.18667716 0.014557601
0.22442159 0.1122042 -0.04754765 0.10429592 0.15465462 -0.1033153 -0.048131797 0.0013065898
-0.26152495 -0.023463974 0.0718322 -0.13959289 -0.03795113 -0.23697977 -0.15948462 0.23615648
0.15192358 -0.11207546 -0.24415612 -0.26223877 0.049875878 0.016602676 0.015250869 0.23451023
0.09336615 -0.2769165 0.00857012 0.0295096 0.22958022 -0.16666348 -0.044880915 0.12012237
-0.13256992 0.08421535 0.16696438 0.21836749 0.12255318 -0.28432363 -0.21132965 0.053721063
-0.068479165 0.20196791 0.2703363 0.06030199 0.06112702 -0.24566391 0.27062824 -0.0864963
-0.13013066 -0.07636141 -0.21289888 0.045446046 -0.15508637 -0.17459437 -0.17809463 0.2661997
0.053844463 0.07866485 -0.12578847 0.2828531 -0.08773639 -0.6593048 0.16405004 0.2793982
-0.117401235 -0.23824069 0.1380615 0.29338932 0.0895663 -0.11414149 0.3067076 -0.1008655

layers.jordan.lm_head.bias f4 [22]
00000000: 9e91 84bf 481c 79bf 3c66 9cbf b7de 113f
00000010: 9d41 893c 6888 003d 174a 37bd 1c90 283e
00000020: 3010 0b3e d7a7 c93d db3d 9fbd b1ad 263d
00000030: c3de c93c ceea 763e 3d61 9c3e 913d 9b3e
00000040: ea39 bd3e b6f9 903e dfa0 983e d784 983e
00000050: f4a4 a53e 3502 be3e
-1.0356939 -0.9730878 -1.22187 0.5698046 0.01675492 0.031380087 -0.044748392 0.16461223
0.13580394 0.09846466 -0.0777547 0.04069299 0.024642354 0.24113008 0.30542937 0.3032041
0.36958247 0.28315514 0.29810235 0.2978885 0.32352412 0.3711106

layers.jordan.lm_head.weight f4 [22, 16]
00000000: 0b2a f9bd b770 043f 045a 47be 9522 91be
00000010: 3cc0 c33e 11f0 bf3e 491b fc3e 07c8 563e
00000020: 76af a83e 6d05 103e 6064 993e 0ed1 1dbe
00000030: 8e6f e93c 97ed 15bd b8a3 96bb a01f 523d
00000040: 9bc5 28bd 9d88 993e a941 bb3d 38e5 0abf
00000050: ade8 f53d 4c3f 0a3f 95c1 103f d6d2 75bd
00000060: 876e c23e 6109 7ebd d4e7 863e dbb2 a7be
00000070: 9ec5 2bbe 37e4 6abe 4018 52be 6873 613d
00000080: 8145 aa3e 9e14 e23e b2f8 a63d 4ba1 a3bd
00000090: 2d81 983e d3f6 8a3e dbc6 5a3e d0b3 f83d
000000a0: 9322 5e3e 9db3 543e fc2f c13e 1c5e 84be
000000b0: d852 e43d 90e3 873e de72 c13d dade b9bc
000000c0: 4d11 bebf 4e61 d93f 1c47 b03e 7a69 b23f
000000d0: 6d0c 8d3f 1694 bbbe 3a1c 94bf 1c76 333f
000000e0: 6d75 cc3f 7fb4 a93f 4a09 cfbf 2744 d63f
000000f0: 9b85 eb3f bc9c d13e 2d77 05c0 12ab 923e
00000100: 8eb0 45bf 204d d8bd d27d 48bd 4569 193f
00000110: 51e5 bf3e dd33 383f 2363 a2be f7b5 60be
00000120: 9ff3 d5bb 1780 193e 55d3 f6be a9e0 7bbf
00000130: ef5f 72bf dcfb d23e 8cfe ae3e ddbb 1ebe
00000140: c3b9 2bbf fda6 12be f77f d3be 94b2 ff3e
00000150: d345 dd3e 3eb8 313f 678c a53d 16e4 91be
00000160: 3ec5 173e d4ce f93d bbe7 08bf f580 6abf
00000170: 4a2d 3fbf 446e ad3e 38b1 1f3f 3457 02bf
00000180: 8c2f 1dbf cc6a d4bd 08aa 9bbe 7938 4d3f
00000190: b02f fb3e 34df 363f 3244 95be 9642 02bf
000001a0: efc0 2c3d 65c3 c33d 3684 08bf 9fae 4dbf
000001b0: 2e24 34bf b96a 3b3e 785d e83e 1c40 f0bd
000001c0: 3bfd 693f 79b0 dcbe 80b2 893f 3cdd a3be
000001d0: 93b1 54be 897a 04bf 153a 893f 323e 89bf
000001e0: 4ec1 0bbf a6c0 423f 05a7 98be 3e29 203f
000001f0: c856 2c3f 2e29 4ebe 344e 3ebf 6308 abbd
00000200: 83c8 663f 1a72 21bf 5151 733f 2105 09bf
00000210: 1144 7dbe b9ac 05bf 185f 973f 47bf 54bf
00000220: 9bd4 f1be 51aa 2d3f c156 e4be 77f3 1d3f
00000230: c984 e83e f50b 48be 18d1 43bf af80 a4bd
00000240: 9bb5 853f 0da3 0abf 8336 773f 0b95 2cbf
00000250: 3a77 99be f325 6bbe c98e 723f 5519 8dbf
00000260: 0939 e1be ff97 1d3f 50ba c0be cd31 533f
00000270: e221 9c3e fb96 95be fcf7 3bbf 9f22 34be
00000280: c0fb 33bf 812e e3bd 327d 99bd 7c35 dc3e
00000290: 3bba 1e3f cb77 463f 214e aabc b128 febe
000002a0: fef9 86be 2897 163e a8f7 02bf cc86 45bf
000002b0: 2542 71bf fd74 a43e 8ac5 ea3e 0684 44be
000002c0: 383e 56bf 66e2 dfbd 3d62 b2be 3d62 3d3f
000002d0: eb79 363f 5d48 373f 362e fc3b 101e 5cbe
000002e0: f722 d8bd 07f1 073e 6244 febe a855 31bf
000002f0: d99e 31bf c4d2 ca3e 095e ab3e f0fb 8cbd
00000300: 89d5 3ebf 9a86 4abd c02c b4bd ebe3 413e
00000310: 4f2f 473f 1c04 463f b007 86be 8e00 fbbe
00000320: 6eeb 2dbe ff2f 3b3e 063a f4be 94e5 37bf
00000330: 8ec1 77bf 6d7b dabd 7371 df3e 2268 b6be
00000340: b488 7a3f 02e6 883e 6267 dcbe 232f c3be
00000350: 4a4b 3dbf 61f3 1fbf ddde ad3e d282 60bf
00000360: d6cf b8be 3e93 e73e b542 0bbe 7cd5 d4be
00000370: 2240 b23e 3630 d13e 61e9 9abf 534d a3bf
00000380: beac 723f 1bd1 1c3e 2992 bcbe 0944 3bbf
00000390: f5bd 08bf 06fc 11bf 263f 873e 6c84 0dbf
000003a0: 1815 bcbe eb35 2b3f ac01 10be 238b ffbe
000003b0: c12b a93e 6ce0 a83e 2997 9cbf 43f7 b4bf
000003c0: 441b 783f 5e1e 903e d54a f5be 07bd ccbe
000003d0: 3da2 45bf d231 0bbf 1409 053f 66d2 20bf
000003e0: dab1 08bf f90d 163f 225d 00be c3b9 00bf
000003f0: 49ac b23e d614 e83e 84e1 8fbf c779 93bf
-0.12166222 0.5173449 -0.19467932 -0.28346696 0.382326 0.37487844 0.49239567 0.20974742
0.32946366 0.1406457 0.29959393 -0.1541178 0.028495576 -0.036603536 -0.0045971535 0.05129969
-0.041204076 0.2998704 0.09143383 -0.5425601 0.1200727 0.54002833 0.5654538 -0.060015522
0.3797495 -0.062020663 0.26348746 -0.32753643 -0.16774604 -0.2293862 -0.20517063 0.0550417
0.33256152 0.44156355 0.081529036 -0.079897486 0.29786053 0.27141437 0.2136492 0.121436715
0.21692877 0.20771642 0.37731922 -0.2585305 0.11148614 0.26540804 0.09445737 -0.022689272
-1.484903 1.698282 0.34429252 1.3938439 1.1019417 -0.36636418 -1.1571114 0.70102096
1.5973336 1.3258208 -1.617471 1.6739548 1.8400148 0.4093989 -2.085399 0.2864614
-0.77222526 -0.105615854 -0.048948117 0.59926254 0.37479642 0.7195414 -0.3171626 -0.21944414
-0.006529286 0.14990269 -0.4820811 -0.9838968 -0.94677633 0.41207778 0.3417858 -0.15501352
-0.67080325 -0.14321513 -0.41308567 0.49940932 0.43217334 0.69421756 0.0808342 -0.28494328
0.14821336 0.121976525 -0.5347859 -0.9160302 -0.7467848 0.33873188 0.6237979 -0.5091431
-0.61400676 -0.103719324 -0.3040316 0.80164295 0.4905982 0.7143433 -0.2915359 -0.5088285
0.042176183 0.09558753 -0.5332674 -0.80344576 -0.70367706 0.1830243 0.4538381 -0.11730978
0.91402024 -0.43103388 1.0757599 -0.32004726 -0.20770864 -0.51749474 1.072085 -1.0722106
-0.54591835 0.7607521 -0.29814926 0.6256293 0.6731992 -0.20132896 -0.7433808 -0.08351209
0.90149707 -0.6306473 0.95045954 -0.5352345 -0.24732997 -0.5221668 1.1825895 -0.83104366
-0.47232518 0.6783801 -0.44597438 0.6169962 0.45413807 -0.19535811 -0.76490927 -0.08032357
1.0446047 -0.54155046 0.96567553 -0.6741492 -0.29973775 -0.22963695 0.9474912 -1.1023356
-0.43988827 0.6156005 -0.37642145 0.82497865 0.304946 -0.2921675 -0.7342527 -0.17591332
-0.70306015 -0.11092854 -0.07494582 0.43009555 0.62002915 0.7752654 -0.020789208 -0.4964042
-0.26362604 0.14706099 -0.51159143 -0.7715881 -0.94241554 0.32120505 0.45853835 -0.19190988
-0.8368869 -0.10931854 -0.34840575 0.73978025 0.7127978 0.7159479 0.0076959385 -0.21495843
-0.10553544 0.13275538 -0.49661547 -0.69271326 -0.6938301 0.39613926 0.3347018 -0.06883991
-0.7454458 -0.049444772 -0.08797598 0.189346 0.7780656 0.7735002 -0.2617774 -0.4902386
-0.1698434 0.18280028 -0.47700518 -0.71834683 -0.96779716 -0.10668073 0.43641242 -0.35626322
0.9786484 0.26737982 -0.43047625 -0.381219 -0.73943007 -0.6248074 0.33959094 -0.87699616
-0.36096066 0.45229524 -0.13599665 -0.41569126 0.34814554 0.40857095 -1.2102472 -1.2757972
0.94794834 0.15314142 -0.3683026 -0.7315069 -0.5341485 -0.5702518 0.26415366 -0.55280185
-0.36734843 0.6687915 -0.14063138 -0.4991084 0.33041194 0.3298372 -1.223363 -1.4137958
0.96916604 0.28148168 -0.47908655 -0.39987966 -0.7720068 -0.54372895 0.5196698 -0.6282104
-0.5339638 0.5861507 -0.12535527 -0.5028345 0.34897068 0.45328397 -1.1240697 -1.1521538
