jordan_elman_2024/exp1/jordan_item_level/run_14/export/model.safetensors (safetensors, 6976 bytes, 7 tensors)

layers.embed.emb.weight f4 [22, 22]
1.0 0.0 0.0 0.0 0.0 0.0 0.0 0.0
0.0 0.0 0.0 0.0 0.0 0.0 0.0 0.0
0.0 0.0 0.0 0.0 0.0 0.0 0.0 1.0
0.0 0.0 0.0 0.0 0.0 0.0 0.0 0.0
0.0 0.0 0.0 0.0 0.0 0.0 0.0 0.0
0.0 0.0 0.0 0.0 0.0 0.0 1.0 0.0
0.0 0.0 0.0 0.0 0.0 0.0 0.0 0.0
0.0 0.0 0.0 0.0 0.0 0.0 0.0 0.0
0.0 0.0 0.0 0.0 0.0 1.0 0.0 0.0
0.0 0.0 0.0 0.0 0.0 0.0 0.0 0.0
0.0 0.0 0.0 0.0 0.0 0.0 0.0 0.0
0.0 0.0 0.0 0.0 1.0 0.0 0.0 0.0
0.0 0.0 0.0 0.0 0.0 0.0 0.0 0.0
0.0 0.0 0.0 0.0 0.0 0.0 0.0 0.0
0.0 0.0 0.0 1.0 0.0 0.0 0.0 0.0
0.0 0.0 0.0 0.0 0.0 0.0 0.0 0.0
0.0 0.0 0.0 0.0 0.0 0.0 0.0 0.0
0.0 0.0 1.0 0.0 0.0 0.0 0.0 0.0
0.0 0.0 0.0 0.0 0.0 0.0 0.0 0.0
0.0 0.0 0.0 0.0 0.0 0.0 0.0 0.0
0.0 1.0 0.0 0.0 0.0 0.0 0.0 0.0
0.0 0.0 0.0 0.0 0.0 0.0 0.0 0.0
0.0 0.0 0.0 0.0 0.0 0.0 0.0 0.0
1.0 0.0 0.0 0.0 0.0 0.0 0.0 0.0
0.0 0.0 0.0 0.0 0.0 0.0 0.0 0.0
0.0 0.0 0.0 0.0 0.0 0.0 0.0 1.0
0.0 0.0 0.0 0.0 0.0 0.0 0.0 0.0
0.0 0.0 0.0 0.0 0.0 0.0 0.0 0.0
0.0 0.0 0.0 0.0 0.0 0.0 1.0 0.0
0.0 0.0 0.0 0.0 0.0 0.0 0.0 0.0
0.0 0.0 0.0 0.0 0.0 0.0 0.0 0.0
0.0 0.0 0.0 0.0 0.0 1.0 0.0 0.0
00000000: 0000 803f 0000 0000 0000 0000 0000 0000
00000010: 0000 0000 0000 0000 0000 0000 0000 0000
00000020: 0000 0000 0000 0000 0000 0000 0000 0000
00000030: 0000 0000 0000 0000 0000 0000 0000 0000
00000040: 0000 0000 0000 0000 0000 0000 0000 0000
00000050: 0000 0000 0000 0000 0000 0000 0000 803f
00000060: 0000 0000 0000 0000 0000 0000 0000 0000
00000070: 0000 0000 0000 0000 0000 0000 0000 0000
00000080: 0000 0000 0000 0000 0000 0000 0000 0000
00000090: 0000 0000 0000 0000 0000 0000 0000 0000
000000a0: 0000 0000 0000 0000 0000 0000 0000 0000
000000b0: 0000 0000 0000 0000 0000 803f 0000 0000
000000c0: 0000 0000 0000 0000 0000 0000 0000 0000
000000d0: 0000 0000 0000 0000 0000 0000 0000 0000
000000e0: 0000 0000 0000 0000 0000 0000 0000 0000
000000f0: 0000 0000 0000 0000 0000 0000 0000 0000
00000100: 0000 0000 0000 0000 0000 0000 0000 0000
00000110: 0000 0000 0000 803f 0000 0000 0000 0000
00000120: 0000 0000 0000 0000 0000 0000 0000 0000
00000130: 0000 0000 0000 0000 0000 0000 0000 0000
00000140: 0000 0000 0000 0000 0000 0000 0000 0000
00000150: 0000 0000 0000 0000 0000 0000 0000 0000
00000160: 0000 0000 0000 0000 0000 0000 0000 0000
00000170: 0000 803f 0000 0000 0000 0000 0000 0000
00000180: 0000 0000 0000 0000 0000 0000 0000 0000
00000190: 0000 0000 0000 0000 0000 0000 0000 0000
000001a0: 0000 0000 0000 0000 0000 0000 0000 0000
000001b0: 0000 0000 0000 0000 0000 0000 0000 0000
000001c0: 0000 0000 0000 0000 0000 0000 0000 803f
000001d0: 0000 0000 0000 0000 0000 0000 0000 0000
000001e0: 0000 0000 0000 0000 0000 0000 0000 0000
000001f0: 0000 0000 0000 0000 0000 0000 0000 0000
00000200: 0000 0000 0000 0000 0000 0000 0000 0000
00000210: 0000 0000 0000 0000 0000 0000 0000 0000
00000220: 0000 0000 0000 0000 0000 803f 0000 0000
00000230: 0000 0000 0000 0000 0000 0000 0000 0000
00000240: 0000 0000 0000 0000 0000 0000 0000 0000
00000250: 0000 0000 0000 0000 0000 0000 0000 0000
00000260: 0000 0000 0000 0000 0000 0000 0000 0000
00000270: 0000 0000 0000 0000 0000 0000 0000 0000
00000280: 0000 0000 0000 803f 0000 0000 0000 0000
00000290: 0000 0000 0000 0000 0000 0000 0000 0000
000002a0: 0000 0000 0000 0000 0000 0000 0000 0000
000002b0: 0000 0000 0000 0000 0000 0000 0000 0000
000002c0: 0000 0000 0000 0000 0000 0000 0000 0000
000002d0: 0000 0000 0000 0000 0000 0000 0000 0000
000002e0: 0000 803f 0000 0000 0000 0000 0000 0000
000002f0: 0000 0000 0000 0000 0000 0000 0000 0000
00000300: 0000 0000 0000 0000 0000 0000 0000 0000
00000310: 0000 0000 0000 0000 0000 0000 0000 0000
00000320: 0000 0000 0000 0000 0000 0000 0000 0000
00000330: 0000 0000 0000 0000 0000 0000 0000 803f
00000340: 0000 0000 0000 0000 0000 0000 0000 0000
00000350: 0000 0000 0000 0000 0000 0000 0000 0000
00000360: 0000 0000 0000 0000 0000 0000 0000 0000
00000370: 0000 0000 0000 0000 0000 0000 0000 0000
00000380: 0000 0000 0000 0000 0000 0000 0000 0000
00000390: 0000 0000 0000 0000 0000 803f 0000 0000
000003a0: 0000 0000 0000 0000 0000 0000 0000 0000
000003b0: 0000 0000 0000 0000 0000 0000 0000 0000
000003c0: 0000 0000 0000 0000 0000 0000 0000 0000
000003d0: 0000 0000 0000 0000 0000 0000 0000 0000
000003e0: 0000 0000 0000 0000 0000 0000 0000 0000
000003f0: 0000 0000 0000 803f 0000 0000 0000 0000

layers.jordan.hx.bias f4 [16]
-0.20977622 0.33501244 0.09865113 0.3899968 -0.09331011 -0.07136312 0.009040638 -0.08559701
0.0078084096 0.15656619 0.24814665 -0.10027628 -0.17408104 -0.20588681 -0.1449223 -0.06536497
00000000: 94cf 56be c086 ab3e 9b09 ca3d a9ad c73e
00000010: 5f19 bfbd d426 92bd 2f1f 143c 7c4d afbd
00000020: b0dd ff3b e352 203e 281a 7e3e a65d cdbd
00000030: 4d42 32be fed3 52be 8366 14be 12de 85bd

layers.jordan.hx.weight f4 [16, 22]
0.09716668 -0.17225786 -0.19272095 0.10369603 -0.11296326 0.14352815 0.13551755 -0.18833779
-0.11199668 0.084110044 0.035745952 0.14891838 -0.062423527 -0.16603167 -0.19847074 -0.30210587
-0.043341465 -0.03309576 0.13045698 0.20717257 -0.13981232 -0.11083231 0.11381721 -0.12022991
0.1524535 0.31008235 -0.7573536 -0.62088823 -0.6915793 0.20447038 0.060316384 0.20813292
0.6930045 0.5105688 0.5321296 0.28743038 0.021989247 0.2762868 -0.4213305 -0.24786106
-0.3747747 0.2672451 0.05676124 0.16913638 0.21314791 0.1581857 0.18494669 0.46325764
0.0155529175 0.022981592 -0.06598641 0.10400689 -0.15117322 -0.2664417 0.10612814 -0.10651125
-0.14138177 -0.040921845 0.023074267 0.08415556 0.16607802 0.059322715 0.04060569 -0.024549818
-0.102814466 0.040858276 0.011212315 0.20260288 -0.20112438 0.01770818 0.18900013 -0.06755717
-0.107007995 -0.044343702 0.053374838 0.054494213 -0.14683892 -0.13745895 0.024873504 -0.058611993
0.15796284 -0.04879483 -0.051486876 -0.20445079 0.04534112 0.026522616 -0.076933675 0.14876315
-0.15383245 -0.16473429 0.21090192 -0.4127754 0.02932777 -0.0011291886 0.29234394 -0.25300676
-0.2787537 -0.21061148 0.19543095 0.33885574 0.3457862 -0.021449171 -0.1698398 -0.13336608
-0.07357764 -0.14260682 -0.0511997 0.022595374 0.19555818 -0.16509983 -0.13662434 -0.07841454
0.085091725 -0.6095377 0.009085717 -0.030435046 -0.022012904 0.2709151 0.20239402 0.3237755
0.10253949 0.21535067 -0.10342601 0.35382864 0.20462161 0.3501536 -0.2050768 -0.21850875
-0.12047008 0.029234568 -0.17130628 -0.091588795 0.08798114 0.19424637 -0.033846416 0.2881262
-0.15311715 0.1486895 0.22612123 -0.25108486 -0.1611932 -0.08925795 0.14575568 -0.0964313
0.0381864 -0.24287193 -0.18622242 -0.28237894 -0.1548067 0.23658796 -0.11976295 0.121022925
0.014009869 -0.017704995 -0.17315716 -0.024871564 -0.12592225 -0.22513959 0.00788706 0.2352068
-0.034075912 -0.06112482 -0.2449584 -0.26022145 0.27657163 0.14972739 0.13777296 0.0150033785
-0.02682782 0.08676165 0.004513438 -0.0840232 0.23698774 0.27520064 0.008293376 0.13359843
-0.12532337 -0.116159536 0.17902608 -0.24541193 -0.24804235 -0.3601082 -0.13380463 -0.10253302
-0.11144247 -0.2636043 0.25902826 0.35536474 0.30739427 -0.008506837 -0.25257045 -0.2990409
-0.04690882 -0.006358607 0.0633781 0.3021146 0.2448674 0.22231711 0.1345124 0.16824625
-0.08172137 0.24020407 0.060976278 0.20074213 0.039518308 -0.17520116 -0.029011538 -0.17767933
0.27321556 -0.01497031 0.05013692 -0.195271 0.03163309 -0.16550684 0.26850554 0.37172836
0.429496 -0.22900349 -0.36976597 -0.22486062 -0.15645836 -0.16301137 0.08323959 -0.716962
0.1832232 0.19647524 -0.084936865 0.23609401 0.19638914 0.25986534 0.013325199 0.13941227
0.14008647 0.1594392 0.082078986 -0.008942798 0.1020377 0.17478344 -0.1647472 -0.25979033
-0.11886164 -0.23414174 0.3400683 0.14591616 -0.20876904 0.31286103 -0.8361696 -0.8004152
-0.80222917 0.076964244 -0.088930376 -0.21430783 0.9399823 1.1127335 1.094964 -0.1919134
00000000: 53ff c63d 5d64 30be a458 45be 965e d43d
00000010: 4859 e7bd 0bf9 123e 1dc5 0a3e 9fdb 40be
00000020: 845e e5bd e341 ac3d 596a 123d 0f7e 183e
00000030: d0af 7fbd 3504 2abe ea3b 4bbe 9fad 9abe
00000040: d286 31bd 6b8f 07bd 8496 053e 0c25 543e
00000050: f62a 0fbe 0dfc e2bd ff18 e93d 193b f6bd
00000060: c51c 1c3e 1dc3 9e3e ede1 41bf 88f2 1ebf
00000070: 570b 31bf af60 513e 500e 773d cc20 553e
00000080: be68 313f a3b4 023f a539 083f 132a 933e
00000090: cb22 b43c 7775 8d3e a2b8 d7be 4acf 7dbe
000000a0: 78e2 bfbe 5ad4 883e 797e 683d 1632 2d3e
000000b0: 7243 5a3e 6ffb 213e aa62 3d3e 1b30 ed3e
000000c0: aad1 7e3c e443 bc3c e223 87bd 9001 d53d
000000d0: 27cd 1abe 0c6b 88be b659 d93d 9222 dabd
000000e0: 62c6 10be aa9d 27bd 3f06 bd3c c059 ac3d
000000f0: 5b10 2a3e 60fc 723d 2752 263d b31c c9bc
00000100: 6490 d2bd 025b 273d dcb3 373c 2177 4f3e
00000110: 8df3 4dbe bf10 913c 4089 413e 6a5b 8abd
00000120: 0227 dbbd bea1 35bd 939f 5a3d 5335 5f3d
00000130: f15c 16be 0ac2 0cbe 85c3 cb3c 2113 70bd
00000140: 03c1 213e 16dd 47bd e7e3 52bd 8c5b 51be
00000150: 9cb7 393d f545 d93c 678f 9dbd 5e55 183e
00000160: 4186 1dbe 1bb0 28be acf6 573e 4c57 d3be
00000170: cb40 f03c 4801 94ba 1bae 953e 1a8a 81be
00000180: ceb8 8ebe 89aa 57be 0d1f 483e 807e ad3e
00000190: e40a b13e 2cb6 afbc 7cea 2dbe 1e91 08be
000001a0: e0af 96bd 8607 12be c7b6 51bd ef19 b93c
000001b0: 6740 483e ee0f 29be 40e7 0bbe cd97 a0bd
000001c0: 9244 ae3d aa0a 1cbf 42dc 143c eb52 f9bc
000001d0: 6854 b4bc 62b5 8a3e 6140 4f3e e7c5 a53e
000001e0: 3900 d23d e384 5c3e 04d1 d3bd 0729 b53e
000001f0: 5488 513e 5547 b33e a7ff 51be c2c0 5fbe
00000200: 04b9 f6bd 557d ef3c ea6a 2fbe e892 bbbd
00000210: 752f b43d 85e8 463e 8aa2 0abd 4785 933e
00000220: beca 1cbe 0f42 183e 538c 673e 328e 80be
00000230: d50f 25be dfcc b6bd fa40 153e c67d c5bd
00000240: 5869 1c3d 6bb3 78be 17b1 3ebe f993 90be
00000250: a685 1ebe 1d44 723e 4746 f5bd deda f73d
00000260: a689 653c 110a 91bc 1c50 31be 73bf cbbc
00000270: c3f1 00be fe8a 66be ba38 013c 0dda 703e
00000280: 2f93 0bbd 055e 7abd 60d6 7abe bf3b 85be
00000290: cc9a 8d3e 2352 193e 5b14 0d3e bbd0 753c
000002a0: 04c6 dbbc 18b0 b13d 76e5 933b 5b14 acbd
000002b0: eaac 723e 19e7 8c3e f1e0 073c 07ce 083e
000002c0: c554 00be 0de5 edbd 9d52 373e 444d 7bbe
000002d0: d0fe 7dbe 1a60 b8be 1504 09be d5fc d1bd
000002e0: f33b e4bd 25f7 86be 5a9f 843e 5ef2 b53e
000002f0: c862 9d3e 4360 0bbc ea50 81be e41b 99be
00000300: 7623 40bd dd5b d0bb 61cc 813d c4ae 9a3e
00000310: 85be 7a3e 19a7 633e 9ebd 093e bf48 2c3e
00000320: 895d a7bd 0ef8 753e 43c2 793d 588f 4d3e
00000330: f3dd 213d ef67 33be 9ba9 edbc 92f1 35be
00000340: e9e2 8b3e 0846 75bc 5f5c 4d3d 1ff5 47be
00000350: b391 013d a07a 29be 8f79 893e 2e53 be3e
00000360: e6e6 db3e e47f 6abe f751 bdbe dd41 66be
00000370: 9f36 20be 74ec 26be 8579 aa3d d28a 37bf
00000380: dd9e 3b3e ce30 493e 61f3 adbd a1c2 713e
00000390: 3c1a 493e 120d 853e ef51 5a3c 17c2 0e3e
000003a0: d472 0f3e 0844 233e 0719 a83d d084 12bc
000003b0: 24f9 d03d 6efa 323e 7db3 28be 3d03 85be
000003c0: bb6d f3bd dac2 6fbe 6f1d ae3e 0c6b 153e
000003d0: 8dc7 55be 522f a03e 360f 56bf 03e8 4cbf
000003e0: e45e 4dbf 6e9f 9d3d 2121 b6bd 8373 5bbe
000003f0: aea2 703f 0d6e 8e3f c827 8c3f f284 44be

layers.jordan.hy.bias f4 [16]
0.035136737 0.26298666 0.13669784 0.37371057 -0.14032549 0.005903046 0.015684327 -0.026889812
-0.14019051 -0.04894161 0.12995201 -0.13837843 -0.28265283 -0.12532698 0.21451917 -0.16990882
00000000: 8aeb 0f3d 30a6 863e 85fa 0b3e fe56 bf3e
00000010: 7cb1 0fbe 576e c13b 6b7c 803c 0648 dcbc
00000020: 1a8e 0fbe ff76 48bd 2412 053e 13b3 0dbe
00000030: dfb7 90be b755 00be eaaa 5b3e 94fc 2dbe

layers.jordan.hy.weight f4 [16, 22]
-0.09812203 0.026859159 0.004901139 -0.10738667 0.014486023 -0.006364841 0.12739167 -0.23037457
0.063079886 0.038135346 0.10319024 0.11020388 0.14472158 -0.16323778 -0.1555254 0.009561067
0.10046081 -0.22138481 -0.064017296 -0.1936938 0.09423486 -0.23894307 -0.12875879 -0.1359164
-0.13479558 0.19099218 -0.124113746 -0.018687591 -0.31696126 -0.010051139 -0.112582214 0.07587309
0.27362406 -0.13591075 -0.030792508 0.1414516 -0.001463348 -0.047436096 -0.5986083 -0.44151643
-0.66531557 0.61181575 0.23886262 0.5328878 0.084478475 0.07072029 -0.16040829 0.19452631
-0.032727655 -0.07271767 0.25741342 0.032715194 -0.1367498 -0.27445716 0.12247222 -0.14322124
-0.1518178 -0.14488281 -0.1971213 -0.2073097 -0.020080859 -0.30591878 -0.1371713 -0.0915182
0.114235334 -0.24525689 -0.1881607 -0.078727156 0.04875604 0.20315543 -0.076297306 0.056810267
-0.15832458 -0.12017901 0.17810482 -0.046229202 0.15863615 0.12415547 0.13418047 0.021393621
0.17885394 0.16691214 -0.16833174 -0.09291732 -0.21351637 -0.08120742 -0.08131449 0.01900875
0.10103816 0.12259668 -0.22529714 -0.26902115 0.2131843 0.067489 0.22999434 0.06830743
0.04670648 -0.15674719 0.15153036 -0.023147674 0.061735906 0.03673686 -0.083425246 -0.30519834
0.05753802 -0.25640482 -0.094990715 -0.12449252 -0.044174302 0.20299143 -0.028057149 -0.081639044
0.02685792 -0.33034056 -0.025211157 -0.09527513 0.07509053 -0.036826763 0.1816892 0.2272501
0.28609568 0.32800066 0.01623846 -0.1696444 0.08951439 0.1024774 -0.19225255 -0.0455282
-0.14418684 0.12456021 0.06461204 -0.2550956 -0.122884795 0.13455327 0.09938479 0.24459735
0.02935388 0.16240357 0.23314397 -0.061675724 -0.019331826 -0.19662547 0.15267746 0.12558155
-0.20852768 -0.040643103 0.16813552 -0.22080629 -0.075546555 -0.0553144 -0.21631345 0.1324141
-0.12727338 -0.17501263 -0.21187437 -0.109230876 -0.19062513 -0.14418574 0.33526668 0.3326326
-0.016840823 -0.18782526 0.17995799 -0.07794763 0.16207477 0.06488293 0.26650453 -0.024379032
0.112969436 -0.03462025 0.3133915 -0.13480629 0.21916988 0.15119593 0.15826942 0.15326908
0.21673411 0.16873018 0.050537203 -0.1047831 -0.015534898 0.14836924 -0.031092836 -0.18245322
-0.0019155496 -0.22182862 0.07670112 -0.035133608 0.009292398 0.06757644 -0.043372843 -0.0858093
-0.22651723 -0.2951943 -0.22240973 0.23441309 0.25626144 0.29795277 -0.5251236 -0.17535864
-0.11374039 -0.025192825 0.16941552 -0.09075347 0.52801275 0.159034 0.60430944 0.4642969
-0.2181182 -0.065449774 0.2695 -0.25181913 -0.0701012 -0.31817302 0.4762937 0.54747415
0.58871704 -0.82265437 -0.37939832 -0.32916033 -0.33558005 -0.29777744 -0.17903608 -0.40418702
0.09677472 -0.08926786 0.22843874 0.22498675 0.12105696 0.2666751 -0.13193226 0.3029845
0.22579157 0.058053765 0.00092957093 0.27742544 0.20534728 0.1936588 0.35104585 -0.13176808
-0.41020337 -0.096556 -0.005010975 0.10708 0.18471095 0.09945198 0.027490687 -0.1969899
0.18302298 0.053639416 0.040208556 -0.26334676 0.08480801 -0.21241373 -0.16932756 -0.01101691
00000000: 34f4 c8bd bd07 dc3c bc99 a03b 8bed dbbd
00000010: c956 6d3c 2890 d0bb f672 023e 50e7 6bbe
00000020: 0730 813d cf33 1c3d 6855 d33d 92b2 e13d
00000030: e531 143e ce27 27be 0d42 1fbe 06a6 1c3c
00000040: 66be cd3d b3b2 62be 801b 83bd ab57 46be
00000050: 35fe c03d 7ead 74be 58d9 03be ab2d 0bbe
00000060: da07 0abe 7493 433e 592f febd b816 99bc
00000070: bf48 a2be 88ad 24bc 8191 e6bd 5a63 9b3d
00000080: 7418 8c3e 302c 0bbe 9240 fcbc b0d8 103e
00000090: d0cd bfba 5a4c 42bd 653e 19bf 710e e2be
000000a0: 1f52 2abf f59f 1c3f 6798 743e 566b 083f
000000b0: 0d03 ad3d cdd5 903d 1242 24be e831 473e
000000c0: 6f0d 06bd 00ed 94bd b1cb 833e 5e00 063d
000000d0: 2408 0cbe a685 8cbe b7d2 fa3d 97a8 12be
000000e0: 2076 1bbe 295c 14be 2bda 49be fe48 54be
000000f0: 9d80 a4bc 63a1 9cbe a276 0cbe e56d bbbd
00000100: 37f4 e93d 9f24 7bbe 33ad 40be b43b a1bd
00000110: 6ab4 473d fa07 503e c341 9cbd e2b1 683d
00000120: d71f 22be 6a20 f6bd 1c61 363e d55a 3dbd
00000130: 8471 223e 3945 fe3d 9b66 093e ad41 af3c
00000140: 7d25 373e 04eb 2a3e 285f 2cbe 704b bebd
00000150: 09a4 5abe 1350 a6bd 3688 a6bd 3db8 9b3c
00000160: 18ed ce3d f813 fb3d 4bb4 66be 24bd 89be
00000170: fc4c 5a3e ac37 8a3d a383 6b3e c4e4 8b3d
00000180: 4b4f 3f3d 5682 20be c62a 1b3e 31a0 bdbc
00000190: cade 7c3d 6479 163d dbda aabd f542 9cbe
000001a0: fdac 6b3d 7e47 83be 7e8a c2bd eff5 febd
000001b0: 1df0 34bd fcdc 4f3e 1bd8 e5bc 5f32 a7bd
000001c0: 2405 dc3c 6622 a9be a187 cebc 9b1f c3bd
000001d0: 10c9 993d a9d7 16bd bc0c 3a3e 40b4 683e
000001e0: 227b 923e b4ef a73e 8506 853c 43b7 2dbe
000001f0: 5253 b73d acdf d13d dadd 44be c77b 3abd
00000200: b7a5 13be 6c19 ff3d 5153 843d e49b 82be
00000210: 06ab fbbd 55c8 093e 418a cb3d ba77 7a3e
00000220: 8c77 f03c 1f4d 263e 4bbd 6e3e af9f 7cbd
00000230: c75d 9ebc 3058 49be 7b57 1c3e 7398 003e
00000240: 4888 55be 6279 26bd b82b 2c3e 0b1b 62be
00000250: 27b8 9abd 5a91 62bd 4681 5dbe 9097 073e
00000260: f453 02be 8336 33be 98f5 58be 70b4 dfbd
00000270: 3c33 43be 6da5 13be 13a8 ab3e d24e aa3e
00000280: c4f5 89bc 4455 40be e846 383e 02a3 9fbd
00000290: eef6 253e 57e1 843d 4873 883e 89b6 c7bc
000002a0: 855c e73d f7cd 0dbd da74 a03e a90a 0abe
000002b0: 126e 603e 1bd3 1a3e 6111 223e 92f2 1c3e
000002c0: 8cef 5d3e 9bc7 2c3e 1900 4f3d 8698 d6bd
000002d0: 1686 7ebc 1bee 173e 67b6 febc 04d5 3abe
000002e0: 2e13 fbba 0b27 63be 7a15 9d3d 42e8 0fbd
000002f0: 243f 183c 8465 8a3d b9a7 31bd c9bc afbd
00000300: 22f4 67be b523 97be 60bf 63be fc09 703e
00000310: b334 833e 448d 983e 806e 06bf 3791 33be
00000320: b9f0 e8bd 2f61 cebc 437b 2d3e f5dc b9bd
00000330: d82b 073f cfd9 223e 06b4 1a3f 53b8 ed3e
00000340: 615a 5fbe 880a 86bd e7fb 893e 70ee 80be
00000350: 3891 8fbd 93e7 a2be c5dc f33e 4427 0c3f
00000360: 29b6 163f 7a99 52bf 7f40 c2be b487 a8be
00000370: 26d1 abbe 4976 98be 3c55 37be 9af1 cebe
00000380: d331 c63d 11d2 b6bd d8eb 693e ed62 663e
00000390: b6ec f73d a489 883e 4019 07be c920 9b3e
000003a0: e835 673e c9c9 6d3d 73ae 733a b50a 8e3e
000003b0: 8f46 523e 7e4e 463e 48bc b33e 36ee 06be
000003c0: 2d06 d2be 27bf c5bd 1b33 a4bb c24c db3d
000003d0: de24 3d3e 7bad cb3d 2634 e13c b8b7 49be
000003e0: 606a 3b3e 01b5 5b3d bab1 243d 63d5 86be
000003f0: d2af ad3d fc82 59be 3464 2dbe 4580 34bc

layers.jordan.lm_head.bias f4 [22]
-0.6089011 -0.7765371 -0.6349099 0.5470929 0.10083934 0.2163704 0.03819515 0.13593781
0.26476246 0.10462362 0.15468809 0.32417485 0.00362558 0.18016891 0.050506942 0.12394468
-0.028932407 0.2653157 0.051135357 0.19044514 0.25930595 0.21064699
00000000: f1e0 1bbf 23cb 46bf 7589 22bf 480e 0c3f
00000010: db84 ce3d 3490 5d3e 8572 1c3d 4833 0b3e
00000020: f28e 873e e944 d63d 8e66 1e3e 3ffa a53e
00000030: 249b 6d3b 337e 383e 5ee0 4e3d b5d6 fd3d
00000040: a803 edbc 76d7 873e 4f73 513d 0d04 433e
00000050: c0c3 843e d8b3 573e

layers.jordan.lm_head.weight f4 [22, 16]
0.15404205 -0.2640918 -0.26630434 -0.3224755 0.05623372 0.11763464 -0.1844305 -0.10359
0.004587688 -0.16211823 -0.29525104 0.38565564 0.07821623 0.3587708 0.03397885 -0.10240812
-0.10120279 -0.33134612 -0.41702175 -0.2051617 0.20393288 0.0127267875 -0.19056112 0.04113382
-0.12764487 0.18598339 -0.28012338 0.35815617 -0.0469402 0.17418842 -0.2019529 0.034920134
0.21355185 -0.2567165 -0.36065772 -0.44894266 0.09927775 0.13151868 0.021649428 -0.2978721
-0.079445824 -0.034847956 -0.14718573 0.1460122 -0.021176077 0.30349407 -0.06899454 0.2591681
-0.40511364 0.53075224 -0.6942469 0.48236266 -0.31524977 1.5496874 -0.7625195 -0.6499414
-0.9504807 -0.45219138 0.9499014 -0.56596655 0.8442051 -0.2575359 -0.6284471 -1.1259135
0.07291837 0.12339653 0.52158564 0.090528205 -0.19140749 -0.39388406 0.24262674 -0.5736297
-0.5398445 0.23295367 -0.50598216 0.40553916 -0.3325934 -0.33168307 -0.60415256 -0.09773076
0.12597212 0.40053028 0.47580388 0.13551442 -0.34221846 -0.21228535 0.250706 -0.6538513
-0.397669 0.09805874 -0.58314717 0.33488747 -0.33677772 -0.27067244 -0.46432805 -0.08759254
0.13373256 0.25180396 0.56562316 0.19653767 -0.27706727 -0.4507786 0.34117925 -0.6426619
-0.54599357 -0.041098922 -0.5704316 0.15501732 -0.38339734 -0.18976824 -0.56628436 -0.08740548
-0.5005551 -1.1174026 -0.41339743 -0.4682554 -0.19669376 -0.3721798 -0.44289708 0.46558776
0.09828646 0.6664636 0.5094101 -0.5452472 0.9966201 -0.2865002 0.17177285 0.21014422
-0.39021587 -1.0449078 -0.47487935 -0.45704147 -0.20874764 -0.40968037 -0.46311203 0.21296266
0.04010096 0.64660186 0.45155326 -0.4159293 0.9347543 -0.20824187 0.43815812 0.33550608
-0.5443307 -1.136043 -0.1809052 -0.69794965 -0.4165297 -0.35097066 -0.49827147 0.2764256
0.064875156 0.72034013 0.52972114 -0.55112725 0.845494 -0.15437612 0.27095976 0.06271787
0.14179221 0.5582072 0.24995188 0.16371141 -0.453503 -0.4481352 0.352491 -0.30889454
-0.5032818 0.025033923 -0.6280572 0.37466955 -0.30175465 -0.118595615 -0.5692169 -0.118054695
0.07457455 0.3072099 0.54403543 0.15821028 -0.2539227 -0.31898105 0.14749667 -0.43857214
-0.36661875 0.18511541 -0.7177961 0.38742664 -0.20756844 -0.09405412 -0.7074362 -0.051900566
0.16596775 0.39681208 0.18616319 0.23862769 -0.57415444 -0.47780636 0.39234066 -0.37732974
-0.7503134 0.16015588 -0.5037567 0.19746292 -0.4111667 -0.053009912 -0.39724034 -0.10086619
-0.2993572 0.5683063 -0.17143951 -0.31565347 -0.058146335 -0.372786 -0.7072301 0.3379524
0.7257657 -1.2624803 -0.2514126 -0.48969966 -0.2081777 -0.09309725 0.38690677 0.6571243
-0.37240973 0.41423127 -0.19705097 -0.26805556 -0.13656656 -0.30524388 -0.44180498 0.51056916
0.75700384 -1.2716867 -0.27607432 -0.46437755 -0.30613485 -0.49893582 0.30219436 0.58196306
-0.5936485 0.47495195 -0.37012875 -0.35050264 -0.2024196 -0.32636726 -0.26546198 0.34039187
0.727545 -1.1579441 -0.23409261 -0.47417983 -0.3898763 -0.23351192 0.3853617 0.41400623
00000000: 33bd 1d3e 0a37 87be 0b59 88be 821b a5be
00000010: 5455 663d 6eea f03d 59db 3cbe fe26 d4bd
00000020: 5154 963b 5202 26be 252b 97be a874 c53e
00000030: d52f a03d ceb0 b73e 682d 0b3d 59bb d1bd
00000040: 6943 cfbd 33a6 a9be e083 d5be e915 52be
00000050: c8d3 503e 0484 503c 7422 43be f07b 283d
00000060: 56b5 02be 6e72 3e3e 556c 8fbe 3f60 b73e
00000070: 5e44 40bd 735e 323e becc 4ebe 6a08 0f3d
00000080: 56ad 5a3e 5870 83be 21a8 b8be d0db e5be
00000090: 2252 cb3d d5ac 063e 245a b13c b182 98be
000000a0: 7eb4 a2bd bbbc 0ebd dbb7 16be 3984 153e
000000b0: 7479 adbc 9363 9b3e 024d 8dbd aeb1 843e
000000c0: 0e6b cfbe 61df 073f 2aba 31bf 3df8 f63e
000000d0: 6b68 a1be 285c c63f 7a34 43bf 8f62 26bf
000000e0: b452 73bf a185 e7be bd2c 733f 2fe3 10bf
000000f0: d31d 583f bfdb 83be e9e1 20bf ef1d 90bf
00000100: 3a56 953d 52b7 fc3d a386 053f da66 b93d
00000110: 5300 44be 2cab c9be 2573 783e 65d9 12bf
00000120: 4033 0abf 688b 6e3e 0c88 01bf d4a2 cf3e
00000130: af49 aabe 5dd2 a9be bea9 1abf 1127 c8bd
00000140: d6fe 003e 4e12 cd3e 919c f33e 4bc4 0a3e
00000150: 4237 afbe 5561 59be 895c 803e cc62 27bf
00000160: 459b cbbe 05d3 c83d 2249 15bf 5f76 ab3e
00000170: 216e acbe 9495 8abe 68bc edbe b863 b3bd
00000180: 30f1 083e 73ec 803e aecc 103f 2c41 493e
00000190: c3db 8dbe 74cc e6be 0caf ae3e 7e85 24bf
000001a0: 3cc6 0bbf 5857 28bd ce07 12bf dcbc 1e3e
000001b0: a84c c4be 9b52 42be 03f8 10bf a501 b3bd
000001c0: 6124 00bf 0c07 8fbf d4a8 d3be 2cbf efbe
000001d0: 176a 49be 5a8e bebe 68c3 e2be 8561 ee3e
000001e0: 694a c93d 5c9d 2a3f b368 023f 5295 0bbf
000001f0: 7f22 7f3f 27b0 92be 39e5 2f3e 0c30 573e
00000200: 60ca c7be 8abf 85bf 6323 f3be 5701 eabe
00000210: f1c1 55be a0c1 d1be 051d edbe e212 5a3e
00000220: e740 243d b387 253f fd31 e73e aff4 d4be
00000230: 0f4c 6f3f 5b3d 55be 4356 e03e 74c7 ab3e
00000240: 4259 0bbf db69 91bf 363f 39be d4ac 32bf
00000250: 6143 d5be 6db2 b3be 701d ffbe a887 8d3e
00000260: 44dd 843d 3668 383f ce9b 073f ad16 0dbf
00000270: 4b72 583f c614 1ebe 3dbb 8a3e 3a72 803d
00000280: fa31 113e abe6 0e3f 63f3 7f3e f7a3 273e
00000290: 8c31 e8be fa71 e5be b379 b43e 6d27 9ebe
000002a0: 13d7 00bf f113 cd3c 5bc8 20bf b0d4 bf3e
000002b0: 967f 9abe 42e2 f2bd 33b8 11bf a9c6 f1bd
000002c0: 8bba 983d 9e4a 9d3e e845 0b3f e001 223e
000002d0: 2802 82be 7c51 a3be 5e09 173e 878c e0be
000002e0: 74b5 bbbe e58e 3d3e 7cc1 37bf c95c c63e
000002f0: d28c 54be 729f c0bd 8a1a 35bf b095 54bd
00000300: 73f3 293e f42a cb3e 90a1 3e3e d15a 743e
00000310: c9fb 12bf 09a3 f4be e0e0 c83e 5d31 c1be
00000320: 8a14 40bf e7ff 233e 33f6 00bf b833 4a3e
00000330: 7184 d2be ec20 59bd 1663 cbbe ef92 cebd
00000340: 5945 99be 867c 113f d78d 2fbe 559d a1be
00000350: da2a 6ebd cedd bebe 080d 35bf 1908 ad3e
00000360: c8cb 393f f498 a1bf 27b9 80be eab9 fabe
00000370: 892c 55be c5a9 bebd a518 c63e 4c39 283f
00000380: 7dac bebe 1f16 d43e bbc7 49be 943e 89be
00000390: 1bd8 0bbe ed48 9cbe 4334 e2be a9b4 023f
000003a0: 01cb 413f a1c6 a2bf 9d59 8dbe e5c2 edbe
000003b0: b5bd 9cbe 8474 ffbe 38b9 9a3e 88fb 143f
000003c0: 59f9 17bf e72c f33e 8481 bdbe 1575 b3be
000003d0: 1547 4fbe 9c19 a7be a2ea 87be d847 ae3e
000003e0: 6440 3a3f 8337 94bf f9b5 6fbe b3c7 f2be
000003f0: de9d c7be c01d 6fbe 214e c53e a0f8 d33e
