jordan_elman_2024/exp2/jordan_item_level/run_21/export/model.safetensors (safetensors, 6976 bytes, 7 tensors)

layers.embed.emb.weight f4 [22, 22]
000000 00 00 80 3f 00 00 00 00 00 00 00 00 00 00 00 00
       1.0 0.0 0.0 0.0
000010 00 00 00 00 00 00 00 00 00 00 00 00 00 00 00 00
       0.0 0.0 0.0 0.0
000020 00 00 00 00 00 00 00 00 00 00 00 00 00 00 00 00
       0.0 0.0 0.0 0.0
000030 00 00 00 00 00 00 00 00 00 00 00 00 00 00 00 00
       0.0 0.0 0.0 0.0
000040 00 00 00 00 00 00 00 00 00 00 00 00 00 00 00 00
       0.0 0.0 0.0 0.0
000050 00 00 00 00 00 00 00 00 00 00 00 00 00 00 80 3f
       0.0 0.0 0.0 1.0
000060 00 00 00 00 00 00 00 00 00 00 00 00 00 00 00 00
       0.0 0.0 0.0 0.0
000070 00 00 00 00 00 00 00 00 00 00 00 00 00 00 00 00
       0.0 0.0 0.0 0.0
000080 00 00 00 00 00 00 00 00 00 00 00 00 00 00 00 00
       0.0 0.0 0.0 0.0
000090 00 00 00 00 00 00 00 00 00 00 00 00 00 00 00 00
       0.0 0.0 0.0 0.0
0000a0 00 00 00 00 00 00 00 00 00 00 00 00 00 00 00 00
       0.0 0.0 0.0 0.0
0000b0 00 00 00 00 00 00 00 00 00 00 80 3f 00 00 00 00
       0.0 0.0 1.0 0.0
0000c0 00 00 00 00 00 00 00 00 00 00 00 00 00 00 00 00
       0.0 0.0 0.0 0.0
0000d0 00 00 00 00 00 00 00 00 00 00 00 00 00 00 00 00
       0.0 0.0 0.0 0.0
0000e0 00 00 00 00 00 00 00 00 00 00 00 00 00 00 00 00
       0.0 0.0 0.0 0.0
0000f0 00 00 00 00 00 00 00 00 00 00 00 00 00 00 00 00
       0.0 0.0 0.0 0.0
000100 00 00 00 00 00 00 00 00 00 00 00 00 00 00 00 00
       0.0 0.0 0.0 0.0
000110 00 00 00 00 00 00 80 3f 00 00 00 00 00 00 00 00
       0.0 1.0 0.0 0.0
000120 00 00 00 00 00 00 00 00 00 00 00 00 00 00 00 00
       0.0 0.0 0.0 0.0
000130 00 00 00 00 00 00 00 00 00 00 00 00 00 00 00 00
       0.0 0.0 0.0 0.0
000140 00 00 00 00 00 00 00 00 00 00 00 00 00 00 00 00
       0.0 0.0 0.0 0.0
000150 00 00 00 00 00 00 00 00 00 00 00 00 00 00 00 00
       0.0 0.0 0.0 0.0
000160 00 00 00 00 00 00 00 00 00 00 00 00 00 00 00 00
       0.0 0.0 0.0 0.0
000170 00 00 80 3f 00 00 00 00 00 00 00 00 00 00 00 00
       1.0 0.0 0.0 0.0
000180 00 00 00 00 00 00 00 00 00 00 00 00 00 00 00 00
       0.0 0.0 0.0 0.0
000190 00 00 00 00 00 00 00 00 00 00 00 00 00 00 00 00
       0.0 0.0 0.0 0.0
0001a0 00 00 00 00 00 00 00 00 00 00 00 00 00 00 00 00
       0.0 0.0 0.0 0.0
0001b0 00 00 00 00 00 00 00 00 00 00 00 00 00 00 00 00
       0.0 0.0 0.0 0.0
0001c0 00 00 00 00 00 00 00 00 00 00 00 00 00 00 80 3f
       0.0 0.0 0.0 1.0
0001d0 00 00 00 00 00 00 00 00 00 00 00 00 00 00 00 00
       0.0 0.0 0.0 0.0
0001e0 00 00 00 00 00 00 00 00 00 00 00 00 00 00 00 00
       0.0 0.0 0.0 0.0
0001f0 00 00 00 00 00 00 00 00 00 00 00 00 00 00 00 00
       0.0 0.0 0.0 0.0
000200 00 00 00 00 00 00 00 00 00 00 00 00 00 00 00 00
       0.0 0.0 0.0 0.0
000210 00 00 00 00 00 00 00 00 00 00 00 00 00 00 00 00
       0.0 0.0 0.0 0.0
000220 00 00 00 00 00 00 00 00 00 00 80 3f 00 00 00 00
       0.0 0.0 1.0 0.0
000230 00 00 00 00 00 00 00 00 00 00 00 00 00 00 00 00
       0.0 0.0 0.0 0.0
000240 00 00 00 00 00 00 00 00 00 00 00 00 00 00 00 00
       0.0 0.0 0.0 0.0
000250 00 00 00 00 00 00 00 00 00 00 00 00 00 00 00 00
       0.0 0.0 0.0 0.0
000260 00 00 00 00 00 00 00 00 00 00 00 00 00 00 00 00
       0.0 0.0 0.0 0.0
000270 00 00 00 00 00 00 00 00 00 00 00 00 00 00 00 00
       0.0 0.0 0.0 0.0
000280 00 00 00 00 00 00 80 3f 00 00 00 00 00 00 00 00
       0.0 1.0 0.0 0.0
000290 00 00 00 00 00 00 00 00 00 00 00 00 00 00 00 00
       0.0 0.0 0.0 0.0
0002a0 00 00 00 00 00 00 00 00 00 00 00 00 00 00 00 00
       0.0 0.0 0.0 0.0
0002b0 00 00 00 00 00 00 00 00 00 00 00 00 00 00 00 00
       0.0 0.0 0.0 0.0
0002c0 00 00 00 00 00 00 00 00 00 00 00 00 00 00 00 00
       0.0 0.0 0.0 0.0
0002d0 00 00 00 00 00 00 00 00 00 00 00 00 00 00 00 00
       0.0 0.0 0.0 0.0
0002e0 00 00 80 3f 00 00 00 00 00 00 00 00 00 00 00 00
       1.0 0.0 0.0 0.0
0002f0 00 00 00 00 00 00 00 00 00 00 00 00 00 00 00 00
       0.0 0.0 0.0 0.0
000300 00 00 00 00 00 00 00 00 00 00 00 00 00 00 00 00
       0.0 0.0 0.0 0.0
000310 00 00 00 00 00 00 00 00 00 00 00 00 00 00 00 00
       0.0 0.0 0.0 0.0
000320 00 00 00 00 00 00 00 00 00 00 00 00 00 00 00 00
       0.0 0.0 0.0 0.0
000330 00 00 00 00 00 00 00 00 00 00 00 00 00 00 80 3f
       0.0 0.0 0.0 1.0
000340 00 00 00 00 00 00 00 00 00 00 00 00 00 00 00 00
       0.0 0.0 0.0 0.0
000350 00 00 00 00 00 00 00 00 00 00 00 00 00 00 00 00
       0.0 0.0 0.0 0.0
000360 00 00 00 00 00 00 00 00 00 00 00 00 00 00 00 00
       0.0 0.0 0.0 0.0
000370 00 00 00 00 00 00 00 00 00 00 00 00 00 00 00 00
       0.0 0.0 0.0 0.0
000380 00 00 00 00 00 00 00 00 00 00 00 00 00 00 00 00
       0.0 0.0 0.0 0.0
000390 00 00 00 00 00 00 00 00 00 00 80 3f 00 00 00 00
       0.0 0.0 1.0 0.0
0003a0 00 00 00 00 00 00 00 00 00 00 00 00 00 00 00 00
       0.0 0.0 0.0 0.0
0003b0 00 00 00 00 00 00 00 00 00 00 00 00 00 00 00 00
       0.0 0.0 0.0 0.0
0003c0 00 00 00 00 00 00 00 00 00 00 00 00 00 00 00 00
       0.0 0.0 0.0 0.0
0003d0 00 00 00 00 00 00 00 00 00 00 00 00 00 00 00 00
       0.0 0.0 0.0 0.0
0003e0 00 00 00 00 00 00 00 00 00 00 00 00 00 00 00 00
       0.0 0.0 0.0 0.0
0003f0 00 00 00 00 00 00 80 3f 00 00 00 00 00 00 00 00
       0.0 1.0 0.0 0.0

layers.jordan.hx.bias f4 [16]
000000 74 fa 91 3e da ad aa bc a5 e9 f5 3c 0f 0a 0e 3e
       0.28511393 -0.020834852 0.030018637 0.13871025
000010 bc 65 24 bd 61 85 83 3e c7 06 45 3e 1f a1 90 bd
       -0.040136084 0.25687698 0.19240867 -0.070619814
000020 66 6e 83 be 22 3d 90 3d 09 4a bd bd f6 d5 98 3e
       -0.25670165 0.0704291 -0.09242637 0.2985074
000030 d0 29 f1 3c 90 87 df 3d c2 43 57 be 92 92 00 be
       0.029438883 0.10914528 -0.21021941 -0.12555912

layers.jordan.hx.weight f4 [16, 22]
000000 4b 16 64 3d 9f a2 2b 3e a5 0c 9e bc 31 d7 2a 3f
       0.055685323 0.16761254 -0.019293139 0.66734606
000010 c5 af 2e 3d a7 08 02 be 7d 87 2c be 6a 28 79 bd
       0.042648096 -0.12698613 -0.1684856 -0.060829557
000020 bb c9 1e bc 09 1e c5 3a ae 8d 00 bd fd 8b 1e 3e
       -0.009691651 0.0015038858 -0.031385116 0.15483089
000030 1a ed ff bd 35 2e f9 bc bf 0b 6e be 55 8a 13 be
       -0.124963954 -0.030417541 -0.23246668 -0.14408238
000040 1d 29 2c 3e 1d b7 22 be ab a3 22 3e 86 14 0c 3e
       0.16812558 -0.15890165 0.15882747 0.13679704
000050 41 90 5b 3d 98 f7 c2 bd 53 e4 83 3e 00 96 52 be
       0.053604368 -0.09519881 0.25760135 -0.20565033
000060 34 00 0e 3e 92 41 18 3f 7d 46 0e 3e dc e7 1e 3e
       0.13867265 0.5947505 0.13894077 0.15518135
000070 30 e8 36 3e 9d af ca bd e1 0b 97 be 85 31 96 be
       0.1786201 -0.09896777 -0.2950125 -0.29334655
000080 30 e7 97 bd f8 73 30 be 4b dd f9 bc 6c 91 6e be
       -0.074171424 -0.17231739 -0.030501029 -0.23297662
000090 74 54 2c 3c ff 59 9e be c5 2d 30 3e b8 9b a9 bc
       0.010518182 -0.30928037 0.1720496 -0.020704135
0000a0 db d9 b8 bd 8c 01 c4 3d df b1 20 3e 4a 60 50 be
       -0.09025928 0.095706075 0.15692852 -0.20349231
0000b0 15 d8 0e 3e 76 6c 0e be c7 01 25 3c d7 6c 9e bc
       0.13949616 -0.13908562 0.0100712245 -0.019339008
0000c0 2c 38 4f 3d db 7c 6d be 86 1e 6b bc b5 97 af 3d
       0.05059068 -0.2319216 -0.014350539 0.08573858
0000d0 c9 38 c2 3d 5f bd 20 3e e2 4a 31 be d8 b7 25 be
       0.09483487 0.1569724 -0.17313722 -0.16183412
0000e0 7e 94 7d be b0 92 73 3e 95 f6 9c 3d 7b 34 93 bd
       -0.24763677 0.23786426 0.07664219 -0.07187744
0000f0 f3 5e 01 3c 5f c3 d1 3d 58 24 e0 3d cd a8 b7 3c
       0.007896173 0.10242342 0.10944432 0.022419358
000100 eb bb b9 bd fd f0 73 3d 65 30 bb 3e 65 42 31 3e
       -0.09069046 0.059555996 0.3656036 0.17310484
000110 9d b6 0b be 96 b4 18 3f e0 59 bd bd e7 bf f7 3d
       -0.1364388 0.5965055 -0.09245658 0.12097149
000120 a6 60 88 bb 4b 2e 13 3a e8 1f 92 be 9a 27 a4 be
       -0.004161912 0.0005614503 -0.28539968 -0.32061464
000130 19 c4 b0 3d a8 f1 de bc 82 ce 84 3d d2 6b 8f be
       0.08631153 -0.02721484 0.06484701 -0.28011948
000140 82 60 ed bb 7a f3 92 be 36 2c d2 bd 92 20 d9 bb
       -0.0072441706 -0.28701383 -0.10262339 -0.006626197
000150 21 51 b1 3d 07 93 0d be 59 57 7c 3c ad 1e f5 bd
       0.08658052 -0.13825618 0.015401685 -0.119687416
000160 27 8b cf 3e ef ba f1 bd a7 1d 2c be 0f ca e2 3e
       0.40535852 -0.11803233 -0.16808186 0.44294783
000170 36 dc 22 be a0 15 04 3e 6a ea 1a 3e 95 19 79 bc
       -0.15904316 0.12898874 0.15128484 -0.015203853
000180 ce 3e 7b be 33 38 5a be 8f 5e f5 bd 67 eb bc 3c
       -0.24535677 -0.21310501 -0.11980926 0.023061467
000190 f6 61 ec 3d 5e 21 ff bd 9e b3 85 be 79 27 02 be
       0.11542122 -0.12457536 -0.261136 -0.1271037
0001a0 08 87 10 bc 00 d5 a5 3d d1 25 eb bd 97 aa ee 3d
       -0.008821256 0.08097267 -0.11481822 0.11653631
0001b0 2c 3e 30 3e 35 db 3d be 9c 04 37 bd 71 ae d8 3d
       0.17211217 -0.18540652 -0.04468213 0.10580147
0001c0 14 3f 07 3d a1 c2 8e bd aa a4 c4 bd 6c fd 8d bd
       0.03301914 -0.06970716 -0.0960172 -0.06933102
0001d0 bf 3a a8 bd 27 ce 36 3c 6a 78 09 3e bd 63 07 3d
       -0.0821433 0.011157549 0.1342484 0.033054102
0001e0 99 2e 18 be 61 9b 26 be ce 1c 46 bd c3 86 ac 3d
       -0.14861526 -0.1627021 -0.048367314 0.08424141
0001f0 dd fc 80 3e 71 c9 07 be 44 f3 07 3e 4e 86 65 3e
       0.2519292 -0.13260438 0.13276392 0.22414514
000200 e5 48 8d 3d 23 00 26 3e 71 23 9d bd fc c0 b4 bd
       0.06898669 0.1621099 -0.076727755 -0.08825871
000210 c1 55 96 3e a3 dd 54 be 62 86 9d 3d 60 75 c5 3e
       0.293623 -0.20787673 0.07691647 0.38566113
000220 6e a9 06 bd ed 06 0a bd a9 bf 29 3c 46 84 64 be
       -0.032876424 -0.03369801 0.010360637 -0.22316083
000230 23 04 0b be d8 9e 00 3d d5 13 42 3d 90 d2 37 be
       -0.13575797 0.031401485 0.047382195 -0.17951417
000240 0a 68 02 3c 82 53 96 be 1a 9d 24 be 6b b7 96 be
       0.007959375 -0.29360586 -0.16075554 -0.29436812
000250 2b 52 1e 3d c1 ed 28 3e 66 3e 60 3e 0f d0 61 3e
       0.03865258 0.16496946 0.21898803 0.22052024
000260 9f be 9a 3c 31 86 2f 3e 6f d2 93 be 75 f4 29 bd
       0.018889723 0.17141034 -0.28871486 -0.041492898
000270 c7 23 1c bd 5c 90 bb be 73 3c f5 bd cd a4 a3 bd
       -0.038120057 -0.36633575 -0.119744204 -0.07990418
000280 14 0d 10 3e a0 4c 07 3e 1f 0a 4e 3d 4f 0c b3 3d
       0.14067489 0.13212824 0.05030262 0.08742582
000290 66 2e 11 bd 20 ac 78 be 9d 3c 16 3e 40 6d 98 3d
       -0.03544464 -0.2428441 0.1467156 0.07442713
0002a0 73 ce 59 3e 10 1e aa 3c 67 b9 cd 3d fd 7f 88 be
       0.2127016 0.020766288 0.10045128 -0.26660147
0002b0 da a9 d1 3c 8a 11 29 be c1 b7 25 be 68 e0 54 3d
       0.025593687 -0.16510597 -0.16183378 0.051971823
0002c0 2a c8 1e bd eb b6 14 3e d6 3e 03 be d9 d9 58 3e
       -0.03876511 0.14522903 -0.12816939 0.21176852
0002d0 6e 95 d1 bc 48 7b 47 3e c6 58 b4 3d ba 49 ed 3d
       -0.025583949 0.19480622 0.08805995 0.11586328
0002e0 76 6e 9e bc e1 36 9c bd 9a 1e e0 3d a5 79 f2 3d
       -0.019339781 -0.07627655 0.10943337 0.11839608
0002f0 fc 81 1b 3e b2 6e b1 3d 7c 28 7e bd 02 46 51 be
       0.15186304 0.086636916 -0.062050328 -0.20436862
000300 9e b8 af 3d 93 7a 8c bd eb 99 40 3e fa 1d 0e 3d
       0.08580135 -0.06859317 0.18808715 0.034696557
000310 b8 c5 89 3d b7 04 a8 3d 98 6c 79 be 5b be 02 3e
       0.06727165 0.08204024 -0.24357831 0.12767927
000320 20 4b 99 3d 73 d0 25 3e 2b c2 40 3e 07 0c 23 3e
       0.07485032 0.16192798 0.18824069 0.15922557
000330 e2 07 65 3e fa 67 98 be a2 0f 7e be cc 0e 9a 3d
       0.22366288 -0.29766828 -0.24810651 0.075223535
000340 0f ec 08 be 45 5a 8b bc 68 c9 0d be 02 e8 5d bc
       -0.13371299 -0.017010817 -0.13846362 -0.0135440845
000350 bd ca e3 bc a0 15 88 be fa e8 a2 bd 08 9f 9b bd
       -0.027806634 -0.26579 -0.07954593 -0.07598692
000360 5d 23 8d 3e d8 ee 9e bd 9c 25 00 3e ee c8 7c 3e
       0.27566043 -0.077603996 0.12514347 0.24686024
000370 40 8b 2e be b5 b7 30 be bf c4 f5 3d 39 0c 85 bd
       -0.17045307 -0.17257579 0.12000417 -0.06496472
000380 c6 35 a5 bd c0 15 bf bd 3c c4 95 bc 7f d3 a7 3e
       -0.08066897 -0.0933032 -0.018282048 0.32778546
000390 88 94 ff 3d e3 b1 4c 3e 89 ff 89 3c 7e d8 06 be
       0.12479502 0.19989733 0.016845481 -0.13168523
0003a0 a9 df bf bd 9d 5a 8e 3e 51 d4 be 3d e7 6d e8 3d
       -0.09368832 0.27803507 0.0931784 0.11349087
0003b0 ae 79 d8 bd c9 59 68 bd 58 0b d4 bd f6 ca a4 bd
       -0.105700836 -0.05672625 -0.10353726 -0.08046524
0003c0 6b 87 a6 bd 6c e2 40 bd f7 94 96 3e ca bc 51 be
       -0.08131298 -0.047090933 0.29410526 -0.20482174
0003d0 a2 9e 56 be a2 5e dd 3d c1 3d e6 bd 76 dc ce bd
       -0.20958951 0.108090654 -0.112422474 -0.10100643
0003e0 b2 24 e6 bd c8 81 47 be 74 06 9f bd 06 b8 8b bd
       -0.11237468 -0.19483101 -0.07764903 -0.06822209
0003f0 c9 2d 2e be 3f 27 14 be a9 29 25 3e 33 70 36 be
       -0.17009653 -0.14468096 0.16129173 -0.17816238

layers.jordan.hy.bias f4 [16]
000000 4f 0a 78 3e 40 92 b1 bd a1 66 2a be ac a6 aa 3e
       0.24222682 -0.08670473 -0.16640712 0.33330286
000010 c7 93 87 3e 7d bf cb 3d a9 57 bf bd af fe 95 bd
       0.26479933 0.09948633 -0.09342892 -0.07323968
000020 22 15 a2 be 7f 6a 37 3c e4 ac 2e bd d8 d2 75 3e
       -0.31656748 0.011194824 -0.04264535 0.24006212
000030 0a 5a 62 bc dc 1b 1e 3e 27 a8 ba 3d 01 f4 65 bd
       -0.013815412 0.15440315 0.09114104 -0.056140903

layers.jordan.hy.weight f4 [16, 22]
000000 66 2a 1f be be ba 7d 3b 05 4a 10 3e 7a 63 86 3e
       -0.15543517 0.0038716043 0.14090736 0.2624777
000010 74 32 79 3e b8 86 03 bd 22 4f c2 3a 3d c2 d4 bd
       0.24335653 -0.0321109 0.0014824609 -0.103886105
000020 4d 76 89 be 44 e4 65 be 95 0c ed bd 68 5d 1a 3e
       -0.2684807 -0.22450358 -0.115746655 0.15074694
000030 87 ff 99 3d 1b b0 be bd bb 62 50 bc d2 ed f2 bd
       0.07519441 -0.09310933 -0.012718852 -0.11861767
000040 98 31 9f be 31 8e f9 bd 74 ce 80 be 3d a5 93 3d
       -0.31092525 -0.12185324 -0.2515751 0.07209251
000050 d3 8d 49 3d 61 5c ae be dc 68 62 3e db 9f ca 3d
       0.04920752 -0.34054855 0.22110313 0.09893771
000060 a4 47 da 3e 78 e1 a1 3e 0b 39 4c 3d 9d 4e d3 bc
       0.42632782 0.31617332 0.049859088 -0.025794322
000070 7f ec 07 bd cb ff 36 3e 52 8f 88 bc 7e 4a 65 3b
       -0.033184525 0.17871015 -0.016669903 0.0034987028
000080 58 bf 15 be 05 aa 8a 3d 63 ca a4 bd 4b 47 17 be
       -0.14623773 0.0677071 -0.08046415 -0.1477329
000090 8b d4 d8 be 1d 04 be bd eb 31 30 be 03 ce 5d bd
       -0.42349657 -0.09278128 -0.17206542 -0.054151546
0000a0 58 6f 12 bd f4 d2 cb bd 52 98 00 bd 2b aa 78 bd
       -0.035750717 -0.099523455 -0.031395264 -0.06070916
0000b0 d2 62 0c 3e 79 67 7e 3e 49 49 0a 3e 84 11 97 be
       0.13709572 0.24844159 0.13504519 -0.2950555
0000c0 1a 6d d1 bd 7d 98 2e 3d 18 00 20 be 7e 10 bb bd
       -0.102258876 0.042625893 -0.15625036 -0.09134005
0000d0 d9 1b 2a be 70 66 32 3e b1 b0 93 3d 8e aa 9d be
       -0.16612186 0.1742189 0.072114356 -0.30794185
0000e0 2e 54 61 be b8 a6 51 3c e2 7b ad bd e7 4e 3c bd
       -0.22004768 0.0127960965 -0.084708944 -0.045973685
0000f0 91 99 69 bc 17 c1 41 3e 4f 5e 6b 3e fe 7b 20 3e
       -0.0142578045 0.18921314 0.22985195 0.156723
000100 1d ce 00 3e 09 94 3a 3c e3 d4 47 bd 61 7d 17 be
       0.12578626 0.011387833 -0.04878701 -0.14793922
000110 7d 6b 59 3e 20 8e 6a 3e e1 47 5e 3e a1 ce 09 bd
       0.2123241 0.22905779 0.21707107 -0.033644322
000120 f1 93 af 3e 77 89 e5 bd bc d1 86 bd 07 cb 14 be
       0.34292558 -0.1120786 -0.065829724 -0.14530574
000130 54 ba d9 bd f7 02 c7 bd 62 2b 48 3e a4 0e a8 be
       -0.106312424 -0.097173624 0.19547799 -0.3282367
000140 e7 5f 73 bd 76 27 9d bd 22 ff a7 be e9 6a 9b 3d
       -0.05941763 -0.07673542 -0.32811838 0.07588751
000150 0b 0b 8b bd 9d b8 ee bb 57 7d 21 be e9 4e 47 be
       -0.06789216 -0.007285191 -0.1577047 -0.19463696
000160 27 27 ee 3d 22 0d 2d 3e 3f 7a 1b bd 1f ad 82 3e
       0.116285615 0.16899541 -0.03795838 0.25522706
000170 34 76 35 be e1 f1 c8 bd ee 20 75 be 32 eb 7c 3d
       -0.17720872 -0.0981176 -0.23938343 0.061747737
000180 e4 6e 42 be 4f 0c 8b be 69 78 84 3d ca 55 5d be
       -0.18987614 -0.27157828 0.06468279 -0.21614757
000190 60 bd 28 be b3 2e 61 3d 92 2f 50 be c3 2b 14 3d
       -0.16478491 0.054976176 -0.20330647 0.036174547
0001a0 63 a0 86 3e 20 57 d9 3d ef 3f 36 bd 74 bc 0f be
       0.2629424 0.10612321 -0.044494566 -0.14036733
0001b0 f1 d1 7d 3e 4d 3b 4e 3e a9 a0 81 3d 8c 68 36 be
       0.24787118 0.20139809 0.063294716 -0.17813319
0001c0 6d 7d 0b be 23 f4 f5 3e 62 bd 75 be 8b 5f 0b be
       -0.13622065 0.48037824 -0.23998025 -0.13610666
0001d0 28 5f b5 be 42 4c 70 3d c7 68 0d 3e 7e 94 f6 3d
       -0.3542416 0.058666475 0.138095 0.120400414
0001e0 5c e8 77 3c 5d b0 3d be 8f 5b e1 3c c4 b1 3b 3e
       0.015131082 -0.18524309 0.027509479 0.18329531
0001f0 11 5a 03 bc 31 3b e8 bc 0b 9f 8f 3e d9 80 3a 3e
       -0.008017079 -0.028348537 0.28051028 0.18213214
000200 7f 57 48 3e 11 b7 81 be de c2 b9 bd 94 5c 17 3d
       0.19564627 -0.2533498 -0.09070371 0.036953524
000210 98 75 1c be 80 3f 97 bb 4c e8 93 ba da 4e f3 3d
       -0.15279233 -0.004615724 -0.001128444 0.11880274
000220 c6 68 70 be 2a b6 83 be 30 fe 41 be dd a5 ae bd
       -0.23477468 -0.25724918 -0.18944621 -0.0852773
000230 64 ac 10 be fa 02 5f be 09 18 58 be e2 30 7a be
       -0.14128262 -0.21778479 -0.21102919 -0.2443271
000240 3f 0b ed 3c 55 14 3c be 4e 2f 6f be bb f5 35 3d
       0.028936027 -0.18367131 -0.23357889 0.0444238
000250 41 a2 b2 3c 5c 35 f4 3d 2a 8a 08 be 94 d0 27 3e
       0.021805884 0.1192424 -0.13333955 0.1638816
000260 36 42 9a 3e eb 4c b1 3c 4d fd 65 3e 6a fd 4d be
       0.3012864 0.021643123 0.22459908 -0.20116201
000270 0e b2 90 be 77 98 43 be cb 57 34 3e f4 cf 64 3e
       -0.28260845 -0.1910113 0.17611615 0.22344953
000280 54 12 6d 3e e8 d2 b5 bd 6a 50 10 3d 6e 8c 13 3e
       0.23151523 -0.08878118 0.03523294 0.14409038
000290 98 08 35 3e af cd 80 3e b4 76 00 be f5 04 a0 3d
       0.1767906 0.25156924 -0.12545282 0.078134455
0002a0 64 a2 c0 3d 98 03 33 3d 27 1a 53 3c 39 fd 4b bd
       0.094059736 0.0437046 0.012884653 -0.04980204
0002b0 b5 26 9e be 00 7e 90 be 0e 13 86 be 7e 21 18 bd
       -0.30888906 -0.2822113 -0.26186413 -0.037141316
0002c0 51 67 aa 3d ff 5f ef bc 79 82 63 bd dd 47 8d be
       0.08320487 -0.02922058 -0.05554435 -0.2759389
0002d0 8e 6d b0 3d cc 35 c8 3b 6d 42 a5 3e f9 64 1c 3e
       0.08614646 0.0061099287 0.3227724 0.15272893
0002e0 46 c5 26 3c 67 d6 66 be 4b cb 51 bd 50 29 74 3e
       0.01017887 -0.22542726 -0.051219266 0.23843884
0002f0 62 4b 5f 3d 80 f5 68 3d 1f 3e 75 be d0 d8 0c be
       0.05451525 0.056874752 -0.23949479 -0.13754582
000300 a7 7f 6f bd c9 9b 00 be 7c 16 fa 3d 11 24 9f 3d
       -0.058471348 -0.12559427 0.1221132 0.07770551
000310 e5 39 96 be 4c b7 66 3d 09 91 12 be b3 f6 6b 3e
       -0.29341045 0.05632715 -0.14313139 0.23043327
000320 ac 08 2b bd 0b 61 e6 be 08 a9 86 be f1 e4 00 3d
       -0.041756317 -0.44995913 -0.26300836 0.031468336
000330 2f 74 a1 3d 9e 15 1d 3e 31 00 cb bd df 48 15 bd
       0.078834884 0.15340278 -0.09912146 -0.03644645
000340 96 5e 7d bd 56 7d 09 3e 7e 12 46 3e 13 89 26 be
       -0.061857782 0.13426718 0.19342992 -0.16263227
000350 fe 9f 58 be 71 7a bd bd 01 c8 77 bd 5c c9 82 3e
       -0.21154782 -0.092518695 -0.060493473 0.2554425
000360 34 59 45 bd 42 9e b7 3e cc 42 86 bd db 80 5a 3d
       -0.048180774 0.3586293 -0.06555709 0.053345542
000370 6e 86 70 be 3f 94 94 3e c0 57 9c be 24 16 2f c0
       -0.23488781 0.29019353 -0.30535698 -2.7357264
000380 a9 15 4a bf b1 23 70 bf 7c 1f 49 bf b2 c0 49 3f
       -0.789393 -0.9380446 -0.78563666 0.78809655
000390 f1 f7 37 3f 94 4c 99 3e ef d8 b9 be a2 74 ad be
       0.71862704 0.29941237 -0.3629832 -0.33878046
0003a0 98 86 14 bf 8e d1 90 3f 48 26 97 3f 5b 70 c2 3e
       -0.58017874 1.1313951 1.1808558 0.37976345
0003b0 9b ff 99 3e ad 96 86 3c bf f2 e6 bd 41 95 85 be
       0.30077824 0.01642927 -0.11276769 -0.26090434
0003c0 13 06 ca bd 6e ab 84 3d de fb 4b be 70 ee 26 3c
       -0.0986444 0.0647801 -0.19920298 0.010188684
0003d0 01 63 05 be 45 79 b6 3e a6 f1 34 3e 7d bd 81 3e
       -0.13026048 0.35639396 0.17670307 0.2533988
0003e0 aa b8 85 3e 50 48 3e bc 5b b7 d6 bd 8b e0 08 3e
       0.2611745 -0.01161392 -0.10484191 0.13366906
0003f0 d6 a7 2a be 16 a3 2d bd 6e 68 4c 3e b7 2b f1 3c
       -0.16665587 -0.04239186 0.19961712 0.02943979

layers.jordan.lm_head.bias f4 [22]
000000 5a 65 34 bf b3 79 0d bf ad 79 45 bf 70 e1 21 3f
       -0.7046715 -0.55263823 -0.7713879 0.63234615
000010 5c 3d 13 3c 6d 37 5d 3e 85 f1 36 bd f7 f5 4c bd
       0.008986797 0.21603175 -0.044663925 -0.050039258
000020 6b b0 33 3e 78 1f 92 bd 40 f4 b2 3d 1d 13 09 3e
       0.17547767 -0.071349084 0.08737993 0.13386197
000030 14 3f 3d 3e d5 72 12 be f9 db a7 be ed ca 97 3b
       0.18481094 -0.14301617 -0.32785013 0.004632345
000040 4c 6c 95 3d fb 7d fc 3d ca e1 49 3e 3a 81 83 3d
       0.072960466 0.12328716 0.19715038 0.064211324
000050 17 56 7e 3d 78 12 ac 3c
       0.06209382 0.0210049

layers.jordan.lm_head.weight f4 [22, 16]
000000 db 23 8a be 06 f5 ca 3e 0c 69 56 3d 47 4e 05 be
       -0.2698048 0.39640063 0.052346274 -0.13018142
000010 87 9b 3c bd 96 22 5a be 3f c3 89 3d 17 ac 1d 3e
       -0.04604676 -0.21302256 0.06726693 0.15397678
000020 57 cf 63 3e 15 4c 40 be 3a 2f 89 bc c3 4a e5 be
       0.22247063 -0.18779023 -0.016746152 -0.447836
000030 1e ab 9a be 16 dc 58 bb d6 be c5 3e e0 1a 47 be
       -0.30208677 -0.0033090166 0.3862216 -0.19443846
000040 4d c3 be be 0a 2e 09 3f b5 b7 22 3e de df e9 3d
       -0.37258378 0.53585875 0.15890391 0.114196524
000050 a4 84 f1 bd 3e 04 0a be 73 d7 4c 3c 60 55 94 bd
       -0.11792877 -0.13478181 0.012502539 -0.072428465
000060 ef 66 d4 3e f0 92 43 3d 0f f3 89 3e 38 5c 84 be
       0.41484782 0.047747552 0.26943251 -0.25851607
000070 6c 92 12 be 99 ef 19 be c0 58 2c 3e 1f ad 4b bd
       -0.14313668 -0.15032806 0.1683073 -0.049725648
000080 d9 8f 80 be 2a 3c b1 3e 02 ab 08 3e dc 6b 80 ba
       -0.25109747 0.34616214 0.13346484 -0.000979777
000090 17 e0 80 be a2 9e ac be 7d 6a 1c 3c 72 1d 4e be
       -0.25170967 -0.33714777 0.009546873 -0.2012842
0000a0 a1 5e 9a 3c 0a c2 40 be f2 ff 20 3e 1a ae 91 be
       0.01884395 -0.1882402 0.15722635 -0.2845314
0000b0 28 b4 7e be 58 44 2a be 53 96 ad 3e 96 0f 1c be
       -0.24873412 -0.16627634 0.3390375 -0.1524032
0000c0 31 20 3b bf d3 71 38 bf 6e 47 6c be 10 e1 5f bf
       -0.73095995 -0.7204868 -0.23074123 -0.87452793
0000d0 3d 1e 54 bf 74 21 38 3f f5 2c 93 bf 43 8f 80 3f
       -0.8285864 0.71926045 -1.1498095 1.004372
0000e0 8e 37 0d bf d1 0f 9e bf 67 f3 96 3f 56 eb 01 bc
       -0.55162895 -1.2348577 1.179303 -0.007929644
0000f0 9b df 23 bf 08 a0 74 be 0a 03 cc be 89 a6 09 bf
       -0.6401307 -0.23889172 -0.3984607 -0.5376974
000100 bb 1d 2a 3f bd ad f7 3e e9 f2 a9 bb 94 b7 ed 3e
       0.66451615 0.4837474 -0.005186428 0.46429121
000110 18 cd 03 3f b9 da b3 3e 76 cd 7c 3e 79 33 f0 be
       0.51484823 0.3512781 0.24687752 -0.4691427
000120 ef d7 30 bd 16 16 9b be 0d 58 ce bc 39 40 fe 3e
       -0.04317468 -0.30290288 -0.02518847 0.49658373
000130 75 71 e9 be 7d 7f b2 3e 21 3b d3 be f4 a0 0e bf
       -0.45594373 0.3486289 -0.4125605 -0.55714345
000140 4a 64 e1 3e 87 ef dc 3e 49 4c 80 bc 2a a4 fd 3e
       0.44021827 0.43151495 -0.015661376 0.4953931
000150 d4 ef 07 3f 98 bc 31 3e ee b8 ff 3e 36 dc 6e be
       0.53100324 0.17357099 0.49945778 -0.23326191
000160 8d 41 3f bd 96 b1 bb be a6 3c 3b be 09 1f f2 3e
       -0.046693373 -0.36658925 -0.18284854 0.47289303
000170 ce e5 fa be 3d fd b6 3e 21 bd 83 be 31 c7 2e bf
       -0.49003452 0.3574008 -0.2573023 -0.6827269
000180 2f e2 19 3f 51 19 ad 3e e0 e7 4e bc 2c 62 41 3f
       0.60110754 0.33808377 -0.0126285255 0.75540423
000190 8d 96 dd 3e 43 af 8c 3e 10 07 ba 3e 45 53 d1 be
       0.43278924 0.27477464 0.36333513 -0.40883842
0001a0 c1 ba a1 be fd a1 a6 be d4 6d b9 bc 00 21 81 3e
       -0.31587794 -0.32545462 -0.022635378 0.2522049
0001b0 88 0e 09 bf 8a 23 7d 3e 5e 63 df be 21 be 1e bf
       -0.535378 0.24720588 -0.436305 -0.62008864
0001c0 be a1 41 be dc 11 6c be 7c 18 00 3f 2c 5f 32 bf
       -0.18909356 -0.23053688 0.5003736 -0.6967647
0001d0 04 8a 09 3e 18 52 01 3f 7b b3 31 3e 89 5f c8 be
       0.13431555 0.5051589 0.17353623 -0.39135388
0001e0 08 e5 89 be 93 f9 95 3e c2 b2 b7 3f a8 9b e9 be
       -0.2693255 0.29291973 1.4351428 -0.4562657
0001f0 5e 0d d1 3e 7d dd e4 3e 41 fb ce 3f 79 89 ee 3e
       0.4083051 0.44700232 1.6170427 0.46589258
000200 9c 54 05 bf 9c d5 a4 be 6e fe 0a 3f 59 c3 dc be
       -0.5208223 -0.3219422 0.5429448 -0.43117788
000210 12 df 06 3e 9e fc a3 3e 83 2a ad 3e b7 f6 c3 be
       0.13171032 0.3202867 0.33821496 -0.38274166
000220 cb f8 b2 bd 44 88 b7 3e d9 21 b5 3f 3d fb 0f bf
       -0.0873886 0.3584615 1.4150954 -0.56242734
000230 02 8e b6 3d e8 08 d3 3e 05 d0 d1 3f f6 68 dd 3e
       0.089138046 0.41217732 1.6391608 0.4324414
000240 bc 99 f5 be 8a ca aa be 14 e4 16 3f ce 4d 11 bf
       -0.47968853 -0.3335765 0.5894177 -0.56759346
000250 b5 d0 01 3f e5 4c bd 3e ff b1 e9 3e 44 32 b1 be
       0.50709087 0.36972728 0.45643613 -0.34608662
000260 3f 3a df bc 7e 59 be 3d 26 c1 b9 3f 10 ae 8a be
       -0.027249454 0.09294413 1.4512069 -0.27085924
000270 ce 36 10 3f c1 af 5f 3e 9a a1 cc 3f df b9 ba 3e
       0.56333625 0.21844389 1.5986817 0.36469933
000280 a5 77 07 3f 97 b7 12 3f c5 de cc bd 88 63 11 3f
       0.5291694 0.57311386 -0.100034274 0.567925
000290 ae 39 fb 3e 19 65 fb 3e 4a 24 da 3e 74 cd 55 be
       0.49067444 0.4910057 0.4260581 -0.20879155
0002a0 cb 29 fa bd ee 79 87 be 08 57 74 be 29 56 be 3e
       -0.122150026 -0.26460212 -0.23861325 0.3717511
0002b0 13 f4 aa be 76 e3 a9 3d 2f 51 f2 be 9b c0 05 bf
       -0.3338934 0.08295338 -0.47327563 -0.5224702
0002c0 20 c5 72 3e 2b 9e 31 3f f3 5a 71 bd 90 49 35 3f
       0.2370801 0.6938197 -0.058924627 0.7081537
0002d0 03 6a f3 3e ad f6 d5 3e b5 bb 7c 3e ad 1f 45 be
       0.47541818 0.4178976 0.2468098 -0.19250365
0002e0 da a1 70 be cd 4b 02 be 31 98 99 be c6 3d c0 3e
       -0.23499241 -0.12724228 -0.29998925 0.3754713
0002f0 36 47 1b bf cc 88 49 3e 22 d3 ac be a0 84 10 bf
       -0.60655534 0.1968109 -0.33754832 -0.5645237
000300 c4 62 7f 3e 0f f2 bf 3e b1 89 82 be 4e fc 06 3f
       0.2494002 0.37489364 -0.25495675 0.52728736
000310 ba a8 03 3f 73 3b e3 3c 9d d0 e1 3e c2 03 51 be
       0.5142933 0.027738309 0.44104472 -0.2041159
000320 cf b4 49 be a4 55 61 be 08 68 5c be 32 68 e1 3e
       -0.19697879 -0.22005326 -0.2152406 0.44024807
000330 dd 69 43 bf f7 10 e0 3e 98 ae b1 be aa 6c ea be
       -0.7633341 0.43762943 -0.34703517 -0.4578603
000340 42 8e f3 be a7 18 13 bf 2e 9f 3c 3f 9a 65 f4 be
       -0.47569472 -0.5745949 0.7368039 -0.47733766
000350 22 44 c6 3e e6 f0 ac 3e a2 7e e2 3e 4d a6 2f be
       0.38723856 0.3377754 0.44237238 -0.17153282
000360 d9 2d f8 bb 13 13 1f 3f 30 d3 a4 bf 98 fd ef be
       -0.007573825 0.6213848 -1.2876949 -0.46873164
000370 41 a2 86 3e ea 78 d6 bc c9 13 d0 bf a2 e7 fc 3e
       0.26295665 -0.026180703 -1.6256038 0.49395472
000380 cc 39 1e bf 13 ac e8 be d7 6e 27 3f 05 1f 02 bf
       -0.6180694 -0.45443782 0.65403503 -0.5082858
000390 39 64 82 3e 22 d0 ab 3e 11 12 93 3e 48 ab 37 be
       0.2546709 0.3355723 0.2872472 -0.17936432
0003a0 e5 ea 6a be d2 94 09 3f 22 1a a2 bf cf 6c 9e be
       -0.22941168 0.53742707 -1.2664225 -0.3094239
0003b0 37 b9 12 3f 16 b2 43 3e 4b 40 d4 bf 82 7a d1 3e
       0.57313865 0.19110903 -1.6582121 0.4091378
0003c0 c9 fa 17 bf b6 b3 03 bf af a1 ee 3e 54 d0 35 bf
       -0.5936704 -0.5144609 0.4660773 -0.7102101
0003d0 d8 db 6e 3e d8 df 84 3e c6 67 b2 3e 94 63 cd be
       0.23326051 0.2595203 0.34844798 -0.40115035
0003e0 96 af e0 3b dd 77 ca 3e 93 4c a6 bf 07 3d 14 bf
       0.006856869 0.39544573 -1.2992119 -0.5790562
0003f0 34 b2 0d 3f 52 a1 e4 3c c1 83 d1 bf ee 3e 0d 3e
       0.5535004 0.027908955 -1.6368333 0.13793537
