jordan_elman_2024/exp1/jordan_sequence_level/run_21/export/model.safetensors (safetensors, 6976 bytes, 7 tensors)

layers.embed.emb.weight f4 [22, 22]
1.0 0.0 0.0 0.0 0.0 0.0 0.0 0.0
0.0 0.0 0.0 0.0 0.0 0.0 0.0 0.0
0.0 0.0 0.0 0.0 0.0 0.0 0.0 1.0
0.0 0.0 0.0 0.0 0.0 0.0 0.0 0.0
0.0 0.0 0.0 0.0 0.0 0.0 0.0 0.0
0.0 0.0 0.0 0.0 0.0 0.0 1.0 0.0
0.0 0.0 0.0 0.0 0.0 0.0 0.0 0.0
0.0 0.0 0.0 0.0 0.0 0.0 0.0 0.0
0.0 0.0 0.0 0.0 0.0 1.0 0.0 0.0
0.0 0.0 0.0 0.0 0.0 0.0 0.0 0.0
0.0 0.0 0.0 0.0 0.0 0.0 0.0 0.0
0.0 0.0 0.0 0.0 1.0 0.0 0.0 0.0
0.0 0.0 0.0 0.0 0.0 0.0 0.0 0.0
0.0 0.0 0.0 0.0 0.0 0.0 0.0 0.0
0.0 0.0 0.0 1.0 0.0 0.0 0.0 0.0
0.0 0.0 0.0 0.0 0.0 0.0 0.0 0.0
0.0 0.0 0.0 0.0 0.0 0.0 0.0 0.0
0.0 0.0 1.0 0.0 0.0 0.0 0.0 0.0
0.0 0.0 0.0 0.0 0.0 0.0 0.0 0.0
0.0 0.0 0.0 0.0 0.0 0.0 0.0 0.0
0.0 1.0 0.0 0.0 0.0 0.0 0.0 0.0
0.0 0.0 0.0 0.0 0.0 0.0 0.0 0.0
0.0 0.0 0.0 0.0 0.0 0.0 0.0 0.0
1.0 0.0 0.0 0.0 0.0 0.0 0.0 0.0
0.0 0.0 0.0 0.0 0.0 0.0 0.0 0.0
0.0 0.0 0.0 0.0 0.0 0.0 0.0 1.0
0.0 0.0 0.0 0.0 0.0 0.0 0.0 0.0
0.0 0.0 0.0 0.0 0.0 0.0 0.0 0.0
0.0 0.0 0.0 0.0 0.0 0.0 1.0 0.0
0.0 0.0 0.0 0.0 0.0 0.0 0.0 0.0
0.0 0.0 0.0 0.0 0.0 0.0 0.0 0.0
0.0 0.0 0.0 0.0 0.0 1.0 0.0 0.0
00000000: 0000 803f 0000 0000 0000 0000 0000 0000
00000010: 0000 0000 0000 0000 0000 0000 0000 0000
00000020: 0000 0000 0000 0000 0000 0000 0000 0000
00000030: 0000 0000 0000 0000 0000 0000 0000 0000
00000040: 0000 0000 0000 0000 0000 0000 0000 0000
00000050: 0000 0000 0000 0000 0000 0000 0000 803f
00000060: 0000 0000 0000 0000 0000 0000 0000 0000
00000070: 0000 0000 0000 0000 0000 0000 0000 0000
00000080: 0000 0000 0000 0000 0000 0000 0000 0000
00000090: 0000 0000 0000 0000 0000 0000 0000 0000
000000a0: 0000 0000 0000 0000 0000 0000 0000 0000
000000b0: 0000 0000 0000 0000 0000 803f 0000 0000
000000c0: 0000 0000 0000 0000 0000 0000 0000 0000
000000d0: 0000 0000 0000 0000 0000 0000 0000 0000
000000e0: 0000 0000 0000 0000 0000 0000 0000 0000
000000f0: 0000 0000 0000 0000 0000 0000 0000 0000
00000100: 0000 0000 0000 0000 0000 0000 0000 0000
00000110: 0000 0000 0000 803f 0000 0000 0000 0000
00000120: 0000 0000 0000 0000 0000 0000 0000 0000
00000130: 0000 0000 0000 0000 0000 0000 0000 0000
00000140: 0000 0000 0000 0000 0000 0000 0000 0000
00000150: 0000 0000 0000 0000 0000 0000 0000 0000
00000160: 0000 0000 0000 0000 0000 0000 0000 0000
00000170: 0000 803f 0000 0000 0000 0000 0000 0000
00000180: 0000 0000 0000 0000 0000 0000 0000 0000
00000190: 0000 0000 0000 0000 0000 0000 0000 0000
000001a0: 0000 0000 0000 0000 0000 0000 0000 0000
000001b0: 0000 0000 0000 0000 0000 0000 0000 0000
000001c0: 0000 0000 0000 0000 0000 0000 0000 803f
000001d0: 0000 0000 0000 0000 0000 0000 0000 0000
000001e0: 0000 0000 0000 0000 0000 0000 0000 0000
000001f0: 0000 0000 0000 0000 0000 0000 0000 0000
00000200: 0000 0000 0000 0000 0000 0000 0000 0000
00000210: 0000 0000 0000 0000 0000 0000 0000 0000
00000220: 0000 0000 0000 0000 0000 803f 0000 0000
00000230: 0000 0000 0000 0000 0000 0000 0000 0000
00000240: 0000 0000 0000 0000 0000 0000 0000 0000
00000250: 0000 0000 0000 0000 0000 0000 0000 0000
00000260: 0000 0000 0000 0000 0000 0000 0000 0000
00000270: 0000 0000 0000 0000 0000 0000 0000 0000
00000280: 0000 0000 0000 803f 0000 0000 0000 0000
00000290: 0000 0000 0000 0000 0000 0000 0000 0000
000002a0: 0000 0000 0000 0000 0000 0000 0000 0000
000002b0: 0000 0000 0000 0000 0000 0000 0000 0000
000002c0: 0000 0000 0000 0000 0000 0000 0000 0000
000002d0: 0000 0000 0000 0000 0000 0000 0000 0000
000002e0: 0000 803f 0000 0000 0000 0000 0000 0000
000002f0: 0000 0000 0000 0000 0000 0000 0000 0000
00000300: 0000 0000 0000 0000 0000 0000 0000 0000
00000310: 0000 0000 0000 0000 0000 0000 0000 0000
00000320: 0000 0000 0000 0000 0000 0000 0000 0000
00000330: 0000 0000 0000 0000 0000 0000 0000 803f
00000340: 0000 0000 0000 0000 0000 0000 0000 0000
00000350: 0000 0000 0000 0000 0000 0000 0000 0000
00000360: 0000 0000 0000 0000 0000 0000 0000 0000
00000370: 0000 0000 0000 0000 0000 0000 0000 0000
00000380: 0000 0000 0000 0000 0000 0000 0000 0000
00000390: 0000 0000 0000 0000 0000 803f 0000 0000
000003a0: 0000 0000 0000 0000 0000 0000 0000 0000
000003b0: 0000 0000 0000 0000 0000 0000 0000 0000
000003c0: 0000 0000 0000 0000 0000 0000 0000 0000
000003d0: 0000 0000 0000 0000 0000 0000 0000 0000
000003e0: 0000 0000 0000 0000 0000 0000 0000 0000
000003f0: 0000 0000 0000 803f 0000 0000 0000 0000

layers.jordan.hx.bias f4 [16]
-0.23090538 -0.21611212 0.1818174 -0.12497724 -0.25464115 0.093054585 0.0065948507 0.040929276
-0.1587574 0.015550927 -0.11226252 0.15776874 0.47469434 0.06722894 -0.11357044 0.16438852
00000000: 7672 6cbe 7f4c 5dbe 572e 3a3e 11f4 ffbd
00000010: 5360 82be 6793 be3d 9e19 d83b 75a5 273d
00000020: 4d91 22be 51c9 7e3c e4e9 e5bd 218e 213e
00000030: 230b f33e 54af 893d 9e97 e8bd 7755 283e

layers.jordan.hx.weight f4 [16, 22]
0.32619646 0.16761254 -0.019293139 1.5632257 -0.2961771 -0.4678052 -0.48018542 -0.13637161
-0.08377637 -0.0797932 0.26286817 0.38524714 0.08912919 -0.097267434 -0.29850104 -0.21381776
-0.024823904 -0.26825067 -0.008334549 -0.060777456 -0.15877987 -0.2119997 0.32194486 -0.20565033
0.13867265 1.4066061 0.44092077 0.4392893 0.4436614 -0.43704757 -0.5630127 -0.59964365
-0.23706903 -0.32154867 -0.2119455 -0.5405049 -0.37975046 -0.59885037 0.41194353 0.30474404
0.27618203 -0.087766066 -0.10441423 -0.21969324 0.17025796 -0.13908562 0.0100712245 0.18279316
-0.85568064 -0.9571927 -0.9149469 0.41390243 0.3817309 0.48029837 -1.1173583 -1.1031656
-1.2085738 0.51520973 0.38424337 0.3286937 0.5978062 0.60133404 0.66938084 0.57220024
0.5558054 0.58834076 0.7062304 0.17310484 -0.1364388 1.4287851 0.44941023 0.55500317
0.5288426 -0.33876938 -0.5325574 -0.59878486 0.6721291 0.5601192 0.6990348 -0.544022
-0.33712327 -0.56823635 -0.5715661 -0.47323158 -0.50660247 -0.59228283 -0.56820697 -0.5666167
0.6192269 -0.11803233 -0.16808186 1.0465442 -0.5286631 -0.39231285 -0.36036003 -0.41655195
-0.5847138 -0.6071094 -0.27093792 -0.22280061 -0.18713874 -0.5163433 -0.62434494 -0.52629685
0.50101966 0.5515021 0.40598467 0.6607622 0.7341748 0.56613535 -0.28393662 0.10580147
0.03301914 -0.24576074 -0.8492483 -0.7943093 -0.85922974 0.11754863 0.2051542 0.13521606
-0.8972386 -0.90776294 -0.91715366 0.17504074 0.31663316 -0.004558606 0.83017975 0.84615207
0.849407 0.7853994 0.72214264 0.6961523 0.31863734 -0.20787673 0.07691647 0.6075729
-0.41703027 -0.45412388 -0.40710846 -0.67913735 -0.6222093 -0.59120166 -0.35796878 -0.5358041
-0.4258992 -0.75298685 -0.683323 -0.75437295 0.9359514 0.9467899 1.0285597 0.96123594
0.89903504 1.0536349 -0.51234394 -0.041492898 -0.038120057 -0.87872404 -0.088507265 -0.00017586352
0.1342047 0.47805738 0.3971528 0.4771491 -0.07081742 -0.2304386 0.09097547 0.44509357
0.55805796 0.4109393 -0.21522361 -0.47955036 -0.2624515 -0.30873427 -0.2988188 -0.2176799
0.26428422 0.14522903 -0.12816939 0.7652433 -0.33561856 -0.16900732 -0.2165573 -0.043056875
-0.14975543 -0.22695923 0.93012214 0.9530099 0.94617987 -0.06482184 -0.1930601 -0.33872443
-0.17175362 -0.27896008 -0.1106474 -0.17337891 -0.15363783 -0.09520676 -0.045630343 0.12767927
0.07485032 0.6593726 0.6339197 0.6000318 0.6289035 -0.57017225 -0.52468395 -0.28268835
-0.6299798 -0.5729949 -0.60166657 -0.34569657 -0.36743084 -0.56288713 0.09262976 0.05856741
0.286085 0.30032775 0.45428732 0.5720283 0.11349012 -0.17257579 0.12000417 0.59731376
-0.5609381 -0.5597328 -0.5028297 0.8068027 0.651319 0.79015213 -0.26172835 -0.38001826
-0.375333 0.8109908 0.6819899 0.717441 -0.50420356 -0.3500045 -0.43627727 -0.4544085
-0.44802898 -0.32983243 0.33769807 -0.20482174 -0.20958951 0.25646845 -0.92775226 -0.94003385
-0.9177307 -0.43289554 -0.30708447 -0.33770725 0.56056905 0.5439279 0.6827176 -0.4245161
00000000: 3903 a73e 9fa2 2b3e a50c 9ebc c817 c83f
00000010: 86a4 97be 2a84 efbe ddda f5be 00a5 0bbe
00000020: f292 abbd 9e6a a3bd a896 863e 1d3f c53e
00000030: 5d89 b63d 2634 c7bd 21d5 98be 0bf3 5abe
00000040: 805b cbbc 2758 89be a28d 08bc c8f1 78bd
00000050: 3197 22be 7316 59be f5d5 a43e 0096 52be
00000060: 3400 0e3e ab0b b43f 5ec0 e13e 87ea e03e
00000070: 9627 e33e b3c4 dfbe 9a21 10bf 3f82 19bf
00000080: 39c2 72be 07a2 a4be 3e08 59be 875e 0abf
00000090: a76e c2be 424e 19bf 43ea d23e 6907 9c3e
000000a0: bb67 8d3e b2be b3bd 21d7 d5bd 44f7 60be
000000b0: 1a58 2e3e 766c 0ebe c701 253c 212e 3b3e
000000c0: e30d 5bbf 950a 75bf f639 6abf 05eb d33e
000000d0: 3c72 c33e abe9 f53e 9905 8fbf 8834 8dbf
000000e0: 8cb2 9abf c9e4 033f 8cbb c43e 8a4a a83e
000000f0: d409 193f 07f1 193f 8b5c 2b3f b77b 123f
00000100: 4349 0e3f 809d 163f 84cb 343f 6542 313e
00000110: 9db6 0bbe 6ee2 b63f 1919 e63e b014 0e3f
00000120: 3b62 073f 2e73 adbe af55 08bf f749 19bf
00000130: a710 2c3f f963 0f3f f2f3 323f 0745 0bbf
00000140: 6c9b acbe f077 11bf 2852 12bf 694b f2be
00000150: b3b0 01bf d99f 17bf 0376 11bf cb0d 11bf
00000160: a785 1e3f efba f1bd a71d 2cbe 29f5 853f
00000170: 7756 07bf 3bdd c8be 1c81 b8be 4c46 d5be
00000180: ceaf 15bf 866b 1bbf 60b8 8abe d825 64be
00000190: 4ca1 3fbe 132f 04bf 12d5 1fbf 64bb 06bf
000001a0: d342 003f 3e2f 0d3f 39dd cf3e b627 293f
000001b0: e1f2 3b3f 3fee 103f 2460 91be 71ae d83d
000001c0: 143f 073d b4a8 7bbe 5668 59bf db57 4bbf
000001d0: 7bf6 5bbf 56bd f03d f113 523e 1476 0a3e
000001e0: 6eb1 65bf 2763 68bf 95ca 6abf e13d 333e
000001f0: be1d a23e 5c60 95bb a986 543f 6c9d 583f
00000200: bd72 593f ef0f 493f 57de 383f 0a37 323f
00000210: 6f24 a33e a3dd 54be 6286 9d3d e689 1b3f
00000220: fe84 d5be ed82 e8be 8570 d0be f2db 2dbf
00000230: 1c49 1fbf fe58 17bf af47 b7be 752a 09bf
00000240: 760f dabe bfc3 40bf 42ee 2ebf 961e 41bf
00000250: 839a 6f3f d360 723f d8a7 833f 8f13 763f
00000260: 2927 663f 82dd 863f f928 03bf 75f4 29bd
00000270: c723 1cbd 0ff4 60bf 4c43 b5bd 0168 38b9
00000280: f56c 093e f0c3 f43e 9d57 cb3e e34c f43e
00000290: b908 91bd 19f8 6bbe 5951 ba3d 4ee3 e33e
000002a0: e3dc 0e3f a366 d23e 9463 5cbe a087 f5be
000002b0: 0b60 86be 6b12 9ebe c7fe 98be 7be7 5ebe
000002c0: 4350 873e ebb6 143e d63e 03be fce6 433f
000002d0: 32d6 abbe 4110 2dbe 32c1 5dbe 685c 30bd
000002e0: 7d59 19be 0068 68be 7c1c 6e3f 75f8 733f
000002f0: d838 723f 50c1 84bd 8cb1 45be 4a6d adbe
00000300: 2ee0 2fbe dbd3 8ebe 1b9b e2bd 3e8a 31be
00000310: 3c53 1dbe c3fb c2bd e2e6 3abd 5bbe 023e
00000320: 204b 993d a5cc 283f 9048 223f af9b 193f
00000330: d2ff 203f cff6 11bf b051 06bf 87bc 90be
00000340: 5b46 21bf cbaf 12bf d206 1abf 24ff b0be
00000350: e51f bcbe 5f19 10bf acb4 bd3d 61e4 6f3d
00000360: bc79 923e 8fc4 993e 5998 e83e 7270 123f
00000370: 826d e83d b5b7 30be bfc4 f53d 8ee9 183f
00000380: a499 0fbf a64a 0fbf 72b9 00bf 9f8a 4e3f
00000390: d8bc 263f 6947 4a3f 4201 86be c191 c2be
000003a0: a62b c0be 189d 4f3f e496 2e3f 37aa 373f
000003b0: 7c13 01bf ca33 b3be bc5f dfbe 3ba8 e8be
000003c0: 0e64 e5be ccdf a8be c3e6 ac3e cabc 51be
000003d0: a29e 56be d54f 833e 2c81 6dbf 0fa6 70bf
000003e0: 66f0 6abf 7ca4 ddbe 2d3a 9dbe f7e7 acbe
000003f0: 7481 0f3f dc3e 0b3f 95c6 2e3f 2d5a d9be

layers.jordan.hy.bias f4 [16]
-0.27374586 -0.28199476 -0.01464246 0.069473684 0.050226655 -0.064348705 -0.27925462 0.03830736
-0.2186212 -0.0436856 -0.06248136 0.09936977 0.43143538 0.11248918 0.18779568 0.23380694
00000000: 6b28 8cbe 9e61 90be eee6 6fbc 3848 8e3d
00000010: 77ba 4d3d 41c9 83bd 76fa 8ebe 2ee8 1c3d
00000020: 3cde 5fbe acef 32bd 74ec 7fbd 6182 cb3d
00000030: 19e5 dc3e ba60 e63d 834d 403e 166b 6f3e

layers.jordan.hy.weight f4 [16, 22]
-0.16216928 0.017825034 0.11775651 0.2083591 0.1815336 -0.105737954 -0.08556468 -0.059878226
-0.16476995 -0.17639394 -0.20241301 0.03921913 -0.03749225 0.03195364 0.084931575 -0.06374583
-0.22377759 -0.06465065 -0.23272437 0.011942042 0.10973692 -0.32177615 -0.19155763 -0.24358246
-0.0118358405 -0.10469596 0.0028310537 -0.16228016 -0.07025136 0.29954502 0.35130617 0.14625621
-0.1338752 0.22156437 -0.13462985 -0.004150371 -0.25999364 -0.06390035 0.15033485 0.22056778
0.32769638 -0.33298144 -0.20517938 -0.30047432 0.03638335 0.11525223 -0.011527773 0.14073277
-0.10263888 0.05347445 -0.1491528 -0.040255252 -0.16155477 0.2725539 0.13405032 -0.26664737
-0.2675206 0.023353519 -0.029490111 -0.013756844 -0.053759445 0.16304056 0.19940875 0.06629613
0.033812974 -0.033333763 -0.10977761 -0.1596476 0.09924429 0.33937913 0.23971358 -0.09246845
0.31131512 -0.12168756 0.07335737 -0.07546019 -0.20639284 -0.18118358 0.15063624 -0.21344969
0.056907944 -0.0022036266 -0.2787407 0.03675193 -0.15350065 -0.14392553 -0.13390984 -0.24673653
0.17311037 0.23986532 0.0243899 0.07361262 0.010132417 0.023503616 -0.05140176 -0.050263815
-0.2855131 -0.32142705 0.1038645 -0.15221679 -0.052260324 0.04154376 -0.2532227 0.04164321
0.14827943 0.016980276 -0.19676314 -0.13977517 0.25089374 0.20151462 0.095971815 -0.12869929
-0.09646034 0.30400905 -0.23917182 -0.119186126 -0.3165648 0.03771903 0.07356877 0.13235782
0.05121118 -0.14321372 0.014780537 0.19267933 -0.011543011 -0.048937052 0.27155676 0.22085813
0.23675887 -0.21332118 -0.09437954 0.08052698 -0.11107732 0.056122847 0.02972579 0.04505632
-0.0923989 -0.23403148 -0.048597153 -0.2620267 -0.27552715 -0.3055815 -0.19149317 -0.18965916
0.0741643 -0.2772194 -0.30803195 -0.0063382424 0.05856306 0.13778803 -0.17232156 0.16358243
0.31992438 0.015211608 0.16389024 -0.27440035 -0.30678388 0.029221606 0.015645562 0.21158187
0.08215304 -0.016123546 -0.0131160375 0.123724826 0.20692027 0.19236909 -0.17502387 0.05130214
0.0445372 0.028535867 0.025934214 0.00089682435 -0.21478866 -0.15834808 -0.20707911 0.077147
0.011323957 -0.058851913 -0.12596674 0.114911914 0.008051029 -0.1025283 0.20400162 0.18854916
0.060763225 -0.19126222 -0.20776263 0.06783831 -0.050714005 0.10254154 -0.18817712 -0.06499145
-0.02950049 -0.12665896 0.023593372 0.059132956 -0.18879297 0.10225612 -0.10719469 0.30157492
-0.037436295 0.33812147 -0.12843606 0.08601553 0.15052359 0.0754639 -0.20923047 0.01245249
-0.19165374 -0.06145719 0.23410383 -0.22239786 -0.28669065 0.0011310666 -0.28978506 0.0041352734
-0.42970532 0.4458789 0.09590209 0.17018068 0.21333826 0.05711015 0.15066561 0.11581255
-0.20879777 -0.18524466 -0.08464286 0.26105827 -0.066664144 0.13558733 0.19848958 -0.11824305
-0.23543438 0.08406159 0.344466 -0.16441275 0.31493393 0.1879296 0.038650814 -0.39424804
-0.17628825 0.00824709 -0.046583418 0.23689263 0.044241607 0.26497468 0.07829582 0.20258126
0.15192097 -0.13341582 -0.2313514 0.041224334 -0.26349747 -0.20248872 0.15605393 0.035104763
00000000: b40f 26be ce05 923c 532a f13d 175c 553e
00000010: f2e3 393e 248d d8bd 893c afbd df42 75bd
00000020: 74b9 28be 9da0 34be 5b45 4fbe 3da4 203d
00000030: 7991 19bd d2e1 023d 9bf0 ad3d 2c8d 82bd
00000040: f425 65be 8f67 84bd 4c4f 6ebe 8ea8 433c
00000050: c0bd e03d d8bf a4be af27 44be ae6d 79be
00000060: 1deb 41bc d66a d6bd 3389 393b c52c 26be
00000070: f2df 8fbd f75d 993e 67de b33e 30c4 153e
00000080: 9516 09be c5e1 623e 68dc 09be d6ff 87bb
00000090: e31d 85be 30de 82bd 61f1 193e 85dc 613e
000000a0: d2c7 a73e 8b7c aabe 8b1a 52be c5d7 99be
000000b0: b506 153d 5c09 ec3d fcde 3cbc 401c 103e
000000c0: 5534 d2bd 0608 5b3d 83bb 18be b1e2 24bd
000000d0: 9d6e 25be 2f8c 8b3e 7d44 093e 0186 88be
000000e0: 76f8 88be e14f bf3c 3f95 f1bc 6364 61bc
000000f0: dd32 5cbd 1bf4 263e cf31 4c3e 44c6 873d
00000100: 797f 0a3d fc88 08bd 15d3 e0bd a97a 23be
00000110: 9740 cb3d 1ac3 ad3e 7a77 753e 1960 bdbd
00000120: b264 9f3e 5437 f9bd 643c 963d df8a 9abd
00000130: a558 53be 3088 39be 6340 1a3e 8e92 5abe
00000140: 4e18 693d b86a 10bb 1ab7 8ebe 3189 163d
00000150: 462f 1dbe 3761 13be a91f 09be 80a8 7cbe
00000160: d843 313e 419f 753e 54cd c73c 37c2 963d
00000170: 7002 263c a88a c03c a78a 52bd 6ee1 4dbd
00000180: c62e 92be 1692 a4be e9b6 d43d b8de 1bbe
00000190: ec0e 56bd ca29 2a3d 68a6 81be 1292 2a3d
000001a0: 90d6 173e 381a 8b3c 477c 49be 3921 0fbe
000001b0: 2575 803e d959 4e3e df8c c43d bfc9 03be
000001c0: 008d c5bd 13a7 9b3e 75e9 74be db17 f4bd
000001d0: c814 a2be 457f 1a3d 39ab 963d cf88 073e
000001e0: d0c2 513d 9ea6 12be 112a 723c bb4d 453e
000001f0: e61e 3dbc 3872 48bd 7d09 8b3e a228 623e
00000200: eb70 723e de70 5abe 0f4a c1bd 54eb a43d
00000210: 827c e3bd 12e1 653d 8083 f33c fa8c 383d
00000220: a23b bdbd f3a5 6fbe cf0d 47bd 5d28 86be
00000230: e511 8dbe 2e75 9cbe c916 44be 0336 42be
00000240: 74e3 973d b4ef 8dbe 5db6 9dbe 08b1 cfbb
00000250: d2df 6f3d 4e18 0d3e 1075 30be 2782 273e
00000260: 21cd a33e 1c3a 793c d8d2 273e 347e 8cbe
00000270: c712 9dbe 2662 ef3c 1f2b 803c eba8 583e
00000280: da3f a83d 8715 84bc a6e4 56bc 7163 fd3d
00000290: e8e2 533e 67fc 443e 7539 33be 3122 523d
000002a0: a46c 363d 0dc4 e93c fd73 d43c dd18 6b3a
000002b0: 8ff1 5bbe 0026 22be 8c0c 54be 3fff 9d3d
000002c0: 1e88 393c b40e 71bd 6dfd 00be f056 eb3d
000002d0: 77e8 033c 5bfa d1bd cde5 503e 0813 413e
000002e0: dce2 783d 3eda 43be babf 54be d0ee 8a3d
000002f0: 7db9 4fbd 4d01 d23d 81b1 40be 3d1a 85bd
00000300: 03ab f1bc e3b2 01be e346 c13c 6635 723d
00000310: f252 41be a86b d13d e488 dbbd 0768 9a3e
00000320: cd56 19bd 421e ad3e be84 03be e928 b03d
00000330: db22 1a3e d18c 9a3d 8340 56be 8705 4c3c
00000340: e140 44be 89ba 7bbd eab8 6f3e 44bc 63be
00000350: 1ec9 92be 4c40 943a b55e 94be 3081 873b
00000360: 5602 dcbe 3d4a e43e 5168 c43d d843 2e3e
00000370: 5875 5a3e 55ec 693d 1648 1a3e 212f ed3d
00000380: 15cf 55be c7b0 3dbe 3c59 adbd 6ea9 853e
00000390: 3687 88bd 68d7 0a3e da40 4b3e 6a29 f2bd
000003a0: b615 71be 7c28 ac3d d95d b03e d15b 28be
000003b0: 053f a13e 9e70 403e 5150 1e3d e1da c9be
000003c0: e884 34be cd1e 073c 41ce 3ebd fb93 723e
000003d0: b036 353d c3aa 873e 8f59 a03d 7671 4f3e
000003e0: 2c91 1b3e 289e 08be 62e7 6cbe d9da 283d
000003f0: 24e9 86be 3459 4fbe 9acc 1f3e 03ca 0f3d

layers.jordan.lm_head.bias f4 [22]
-1.1487527 -1.1695532 -1.1588722 0.66115105 -0.038568288 0.017235188 -0.06650581 0.15391949
0.28361312 0.05123498 0.036406573 0.03906777 0.017858513 -0.06656075 -0.24628986 0.120329075
0.23183165 0.26587954 0.26484188 0.31746298 0.2576039 0.3029241
00000000: 540a 93bf ebb3 95bf ed55 94bf 3241 293f
00000010: c8f9 1dbd cf30 8d3c 3334 88bd 129d 1d3e
00000020: bd35 913e c5db 513d 0f1f 153d 8705 203d
00000030: 044c 923c 0151 88bd 6933 7cbe 176f f63d
00000040: 4765 6d3e 5d21 883e 5b99 873e 828a a23e
00000050: a9e4 833e de18 9b3e

layers.jordan.lm_head.weight f4 [22, 16]
-0.15976134 0.36725512 -0.09066604 -0.18656 -0.010864852 -0.014485583 0.19654985 0.23425679
0.17547601 -0.2487206 -0.120698236 -0.5164943 -0.47963598 0.026088541 0.3582716 -0.2531869
-0.21964186 0.28475407 -0.11063706 0.061408456 -0.11034166 -0.08478447 -0.015512838 0.0540564
0.5338307 -0.19946039 0.315133 -0.3044383 -0.3667939 -0.19007444 0.24712962 -0.0792396
-0.13643534 0.34105408 0.00017710368 0.0036196986 -0.24394165 -0.25947914 0.018458392 -0.10726929
-0.019264506 -0.25361887 0.15856452 -0.37721407 -0.45611036 -0.15523137 0.30857146 -0.22583933
-0.47716418 -1.6359167 1.2815112 -1.393232 -1.6633531 0.64707667 -2.3781128 1.4885869
-0.6103066 -1.4705467 2.3181422 -0.81816983 -0.07981229 1.136895 -0.62482494 -0.6535767
0.87087893 0.50730616 0.27220082 0.6483 0.6416046 -0.041452613 0.2613266 -0.6058631
0.39344656 0.15380827 0.34481868 0.2830537 -0.74456936 0.4187093 -0.39431068 -0.72027403
0.76833445 0.43424085 0.19087122 0.7068632 0.63763857 -0.050023314 0.5397536 -0.3610188
0.50622255 -0.023349755 0.18486418 0.4709757 -0.8517127 0.4611402 -0.24831201 -0.89985055
0.81677836 0.3361369 0.3094542 0.936954 0.6139149 0.018059032 0.3902233 -0.57408756
0.19060896 0.13763385 0.41062477 0.13111103 -0.7903703 0.3678282 -0.43508142 -0.7785116
-0.32280007 0.26229247 0.80822206 -1.0543586 0.20513235 1.2273571 0.70954525 -0.2612542
-0.5540123 -0.28581342 -0.100199744 -0.031646833 0.77776283 0.99904513 0.2828273 0.90654874
-0.6033916 0.21030377 0.88225406 -0.8611523 0.19622236 1.0353752 0.83339936 -0.21167305
-0.46921578 -0.26650286 -0.17593305 -0.13653396 0.5241565 1.0269597 0.28078368 0.9378725
-0.49562925 0.28481817 0.85436946 -0.8607046 0.3171462 1.0817128 0.88588214 -0.04699023
-0.3860401 -0.34277058 -0.103241235 0.03024332 0.93294966 0.9197508 0.33582833 0.8514603
0.8659999 0.86114824 0.124080576 0.8791283 0.6336812 0.1523983 0.5059901 -0.36213362
0.33062175 0.23293026 0.018093467 0.19234052 -0.6938926 0.19792141 -0.42156202 -0.7295234
0.4621194 0.89700854 0.29253495 0.953047 0.6148058 0.13023567 0.30640963 -0.3541316
0.17423606 0.40109134 0.07772007 0.1091533 -0.92407006 0.31127086 -0.32622373 -0.71029323
0.5370911 0.3516956 -0.024177777 0.77238315 0.62890655 -0.0056501254 0.45340332 -0.40294906
0.3851442 0.039680548 0.38970333 0.422919 -1.1695638 0.5868985 -0.34529132 -0.6715354
-0.43111157 -0.96512234 0.8808856 -0.8289244 0.6380998 0.9594637 0.9419594 -0.04399791
-0.32981065 0.60787517 -0.86346966 0.6312331 0.3920291 -0.67877597 -0.54069555 0.18806432
-0.5233178 -0.8058631 0.8210929 -0.8030153 0.57017136 0.9509408 0.89625245 -0.020420153
-0.47965255 0.74665904 -0.83448046 0.68709505 0.6447065 -0.6054345 -0.6973654 0.17547344
-0.4215397 -1.050455 0.5922879 -1.0076383 0.5471827 0.9403291 0.9176026 -0.1701041
-0.29213974 0.4003812 -0.59277546 0.69467086 0.5392294 -0.6403069 -0.50755066 0.04414113
00000000: 7a98 23be dd08 bc3e 1eaf b9bd 9609 3fbe
00000010: 7e02 32bc f054 6dbc 5d44 493e 03e1 6f3e
00000020: fcaf 333e 9db0 7ebe a330 f7bd f838 04bf
00000030: d992 f5be a3b7 d53c 606f b73e b7a1 81be
00000040: cce9 60be 49cb 913e af95 e2bd 6f87 7b3d
00000050: cffa e1bd 7ba3 adbd 8f29 7ebc 3e6a 5d3d
00000060: 21a9 083f 583f 4cbe 1d59 a13e 56df 9bbe
00000070: 69cc bbbe e0a2 42be 8c0f 7d3e 5f48 a2bd
00000080: b5b5 0bbe a49e ae3e e8b4 3939 7738 6d3b
00000090: d7cb 79be 73da 84be 0e36 973c 00b0 dbbd
000000a0: 99d0 9dbc 55da 81be bd5e 223e 3422 c1be
000000b0: 4c87 e9be f9f4 1ebe 14fd 9d3e 6d42 67be
000000c0: dd4e f4be b865 d1bf 8f08 a43f 6d55 b2bf
000000d0: c1e8 d4bf d1a6 253f 0033 18c0 048a be3f
000000e0: 0e3d 1cbf e03a bcbf 715c 1440 9473 51bf
000000f0: a074 a3bd c685 913f 87f4 1fbf cd50 27bf
00000100: ecf1 5e3f d1de 013f e85d 8b3e fdf6 253f
00000110: 3340 243f 37ca 29bd 9acc 853e d819 1bbf
00000120: d471 c93e ea7f 1d3e 138c b03e 6aec 903e
00000130: 199c 3ebf 1161 d63e 17e3 c9be e163 38bf
00000140: 91b1 443f d154 de3e bf73 433e fdf4 343f
00000150: 483c 233f 3fe5 4cbd 4b2d 0a3f 75d7 b8be
00000160: cd97 013f fc47 bfbc 094d 3d3e ba23 f13e
00000170: d809 5abf 911a ec3e 8145 7ebe 9b5c 66bf
00000180: 6318 513f 231a ac3e c870 9e3e 38dc 6f3f
00000190: 8729 1d3f 89f0 933c 59cb c73e 67f7 12bf
000001a0: ff2e 433e e3ef 0c3e 693d d23e f841 063e
000001b0: b555 4abf fa53 bc3e fec2 debe 894c 47bf
000001c0: 0d46 a5be 334b 863e a4e7 4e3f 39f5 86bf
000001d0: 370e 523e 0a1a 9d3f c2a4 353f 1cc3 85be
000001e0: c0d3 0dbf 2356 92be 8635 cdbd 1ca0 01bd
000001f0: 771b 473f 6cc1 7f3f bdce 903e 9413 683f
00000200: df77 1abf df59 573e 67db 613f 7a74 5cbf
00000210: 84ee 483e 2d87 843f a959 553f d2c0 58be
00000220: 0d3d f0be 1073 88be cb27 34be 8fcf 0bbe
00000230: 1f2f 063f 6a73 833f e1c2 8f3e 6a18 703f
00000240: 1ec3 fdbe b0d3 913e f5b7 5a3f 2357 5cbf
00000250: fd60 a23e 9175 8a3f 2cc9 623f d478 40bd
00000260: 0ca7 c5be a07f afbe 2470 d3bd d7c0 f73c
00000270: cad5 6e3f ca74 6b3f b1f1 ab3e 4df9 593f
00000280: 2bb2 5d3f 3674 5c3f f51d fe3d 8d0e 613f
00000290: ee38 223f 4d0e 1c3e 9188 013f 9469 b9be
000002a0: 4147 a93e 4585 6e3e c038 943c eaf4 443e
000002b0: f2a2 31bf e9ab 4a3e fad6 d7be 0cc2 3abf
000002c0: ea9a ec3e 5aa2 653f 24c7 953e e3fa 733f
000002d0: ea63 1d3f 805c 053e b9e1 9c3e bd50 b5be
000002e0: f06a 323e d85b cd3e b32b 9f3d c48b df3d
000002f0: db8f 6cbf e55e 9f3e cc06 a7be c7d5 35bf
00000300: cd7e 093f 7211 b43e 7910 c6bc e7ba 453f
00000310: 0500 213f b024 b9bb 7b24 e83e 574f cebe
00000320: 9f31 c53e 1288 223d 3287 c73e d788 d83e
00000330: 44b4 95bf fb3e 163f 06ca b0be bee9 2bbf
00000340: a8ba dcbe 4212 77bf b881 613f 6434 54bf
00000350: 825a 233f 6a9f 753f 4024 713f 2737 34bd
00000360: f1dc a8be b59d 1b3f 590c 5dbf 7e98 213f
00000370: 0ab8 c83e 43c4 2dbf 066b 0abf ef93 403e
00000380: 28f8 05bf 0b4d 4ebf 2533 523f 6992 4dbf
00000390: c0f6 113f db70 733f cd70 653f 2a48 a7bc
000003a0: 0595 f5be 0c25 3f3f 83a0 55bf 76e5 2f3f
000003b0: 7c0b 253f c1fd 1abf 8a86 32bf 4faf 333e
000003c0: 0dd4 d7be 4f75 86bf 2ea0 173f 4bfa 80bf
000003d0: 2a14 0c3f 68b9 703f 01e8 6a3f c52f 2ebe
000003e0: 5793 95be c4fe cc3e 22c0 17bf f3d5 313f
000003f0: f00a 0a3f 27eb 23bf d7ee 01bf 54cd 343d
