jordan_elman_2024/exp4/elman_sequence_level/run_2/export/model.safetensors (safetensors, 6576 bytes, 7 tensors)

layers.elman.hh.bias f4 [16]
0.058145776 0.051679503 -0.22974542 0.08394804 -0.107278414 -0.05933199 -0.020835433 0.038135525
0.40359724 -0.099462464 0.12327996 -0.156888 -0.046167344 -0.10185462 0.16487373 -0.20493527
00000000: 442a 6e3d e3ad 533d 6242 6bbe f3ec ab3d
00000010: c9b4 dbbd 1a06 73bd 12af aabc ff33 1c3d
00000020: 4ca4 ce3e fab2 cbbd 347a fc3d 3fa7 20be
00000030: f819 3dbd 2899 d0bd a9d4 283e 8dda 51be

layers.elman.hh.weight f4 [16, 16]
-0.01945795 -0.05690542 -0.03568044 0.06225464 -0.13745718 -0.14020614 0.34911534 0.019959563
-0.0034320243 0.08576294 0.15729444 -0.10393551 0.20774634 0.25409898 -0.27980837 -0.15150122
0.12041806 -0.35771155 0.20736259 0.113404736 -0.06718742 -0.030178308 0.014442821 -0.07495096
0.28979692 -0.0044450057 0.25796854 -0.030573836 0.011898784 -0.40899026 0.002532546 0.046531
0.17194143 -0.4531888 -0.041295268 0.13393593 0.27034396 -0.18536127 -0.36321184 -0.23963438
0.00933059 0.08617685 -0.15455566 0.062342305 -0.121667415 -0.10742067 -0.22481792 -0.020750463
0.24953873 -0.1304892 0.11104873 0.2174498 -0.055666737 -0.006846563 0.015707685 -0.20207545
0.2652025 0.030150574 0.32481933 -0.015713489 -0.11630551 -0.23734646 -0.12531045 0.051539294
0.27693558 0.3391543 0.22618337 0.022582393 0.06806354 -0.12644313 -0.33891025 0.25075656
0.072847575 0.20709023 -0.2861002 -0.107351735 0.36148736 -0.21710978 0.23229472 0.043874063
0.250389 0.054925997 -0.019392451 -0.17519934 0.2873096 -0.21856195 -0.23124464 0.3771953
0.09658091 0.5188163 -0.08578847 0.06898068 0.3461903 -0.36350766 -0.2027534 0.0786814
-0.57160175 -0.23710689 0.3189374 0.027235113 -0.11990773 0.10362863 0.53555197 -0.6097468
-0.29340976 -0.7273313 -0.359902 0.26574698 -0.7466475 0.5630282 -0.13672428 -0.54670995
-0.19091487 -0.13665333 0.10933579 -0.20406984 0.082573116 0.44552797 -0.07652965 -0.024784751
-0.36917606 -0.0076821535 -0.009091177 0.07095763 -0.42560077 0.023414489 0.0051840013 0.19685368
0.60382104 0.3657443 0.159483 -0.51690173 0.39480433 0.00933397 -0.18940854 0.6515336
-0.11790599 0.5835379 0.6376567 -0.14169478 0.33408782 -0.46567327 0.16609284 0.6918686
-0.30140853 0.17472146 0.045778073 -0.06357741 -0.06505225 -0.04328413 0.13789369 -0.1385088
-0.111412704 -0.15989847 -0.19857037 -0.2907654 -0.01696756 -0.019221652 -0.13116013 -0.26266912
-0.30017322 -0.019021157 0.2445009 -0.20663704 0.016342485 0.36961094 0.17056587 -0.316597
-0.48982096 -0.24891458 0.05798424 -0.028187614 -0.08757457 0.24714528 -0.15703183 -0.18355006
0.38120738 0.56747603 0.17328341 0.056672953 0.23027596 0.030125422 -0.22556193 0.07306501
0.01871361 0.39040506 0.23878843 -0.067525044 0.36092108 -0.4116881 -0.04089273 0.4251285
-0.18700759 0.9604971 -0.09605867 0.38887358 -0.64037615 -0.5677677 -0.20025751 -0.028853457
0.21903065 -0.07259803 -0.26194638 -0.5285208 1.1650825 0.46359295 0.7499429 -0.13926256
0.013478449 0.13100031 -0.16903631 -0.27300236 -0.015514703 -0.30915365 -0.030226933 0.33297572
-0.14236727 0.23987752 0.029134996 -0.06416787 0.078593485 -0.1249687 -0.21631594 0.24513526
-0.4081235 -0.20292854 -0.16354819 0.014533489 -0.6693091 -0.09591018 0.17458157 -0.750909
-0.020274118 -0.7108255 -0.4674005 -0.12556306 -0.43853936 0.51865554 -0.107179075 -0.643721
-0.30835077 -0.4352749 0.04872361 0.24177688 -0.46689346 -0.05525325 -0.11395198 -1.0317258
-0.09812581 -0.46633896 -0.59997123 0.10284561 -0.25235558 0.4225731 -0.021370905 -0.5365652
00000000: 4766 9fbc a815 69bd a725 12bd b9fe 7e3d
00000010: 93c1 0cbe 3392 0fbe 3fbf b23e 3d82 a33c
00000020: d0eb 60bb 7ba4 af3d cb11 213e 24dc d4bd
00000030: 75bb 543e 4319 823e 0b43 8fbe 2323 1bbe
00000040: be9d f63d f825 b7be dc56 543e be40 e83d
00000050: 8f99 89bd 8038 f7bc 95a1 6c3c e47f 99bd
00000060: 4360 943e 69a7 91bb 7414 843e fb75 fabc
00000070: 1ef3 423c 2c67 d1be 12f9 253b 4a97 3e3d
00000080: 6a11 303e 5d08 e8be 3a25 29bd 8026 093e
00000090: 866a 8a3e 58cf 3dbe e7f6 b9be b762 75be
000000a0: 55df 183c 7d7d b03d d743 1ebe a55a 7f3d
000000b0: c42c f9bd 5eff dbbd ab36 66be e0fc a9bc
000000c0: 1587 7f3e f69e 05be 846d e33d 29ab 5e3e
000000d0: ce02 64bd 2259 e0bb 67ad 803c deec 4ebe
000000e0: 9fc8 873e 56fe f63c b84e a63e 93b9 80bc
000000f0: 9531 eebd f30a 73be 6251 00be de1a 533d
00000100: 80ca 8d3e a2a5 ad3e 9d9c 673e b6fe b83c
00000110: e664 8b3d 4f7a 01be a585 adbe 2a63 803e
00000120: 1c31 953d 760f 543e ba7b 92be 3adb dbbd
00000130: df14 b93e 0752 5ebe abde 6d3e 4ab5 333d
00000140: fd32 803e 15fa 603d ebdc 9ebc 7567 33be
00000150: 3e1a 933e b4ce 5fbe 65cb 6cbe be1f c13e
00000160: 36cc c53d 25d1 043f deb1 afbd be45 8d3d
00000170: db3f b13e ad1d babe 969e 4fbe b723 a13d
00000180: 7e54 12bf 26cc 72be c34b a33e 2c1c df3c
00000190: 2f92 f5bd 3f3b d43d ef19 093f 5e18 1cbf
000001a0: ce39 96be 6232 3abf 1345 b8be fd0f 883e
000001b0: 4a24 3fbf 9e22 103f 7301 0cbe 2ff5 0bbf
000001c0: 307f 43be daee 0bbe 71eb df3d aff7 50be
000001d0: 181c a93d 3e1c e43e 94bb 9cbd 6409 cbbc
000001e0: a504 bdbe 93ba fbbb 29f3 14bc 3c52 913d
000001f0: 58e8 d9be becf bf3c 8ede a93b 0394 493e
00000200: 0494 1a3f d642 bb3e 834f 233e ac53 04bf
00000210: cb23 ca3e 82ed 183c 50f4 41be e8ca 263f
00000220: b278 f1bd bd62 153f 783d 233f 7018 11be
00000230: 8f0d ab3e ba6c eebe 3e14 2a3e 4d1e 313f
00000240: 3852 9abe 2fea 323e ca81 3b3d e034 82bd
00000250: 1d3a 85bd b34a 31bd 0134 0d3e 40d5 0dbe
00000260: 582c e4bd 6dbc 23be 0856 4bbe 34df 94be
00000270: 8dff 8abc ba76 9dbc d74e 06be 917c 86be
00000280: 4eb0 99be 42d2 9bbc 725e 7a3e a998 53be
00000290: ade0 853c a53d bd3e d2a8 2e3e 0119 a2be
000002a0: d0c9 fabe 77e3 7ebe e280 6d3d b6e9 e6bc
000002b0: 4c5a b3bd a713 7d3e f4cc 20be 8cf4 3bbe
000002c0: 9d2d c33e 1c46 113f 3571 313e e621 683d
000002d0: 76cd 6b3e 97c9 f63c b5f9 66be 1ca3 953d
000002e0: 494d 993c 2ce3 c73e f484 743e 924a 8abd
000002f0: a6ca b83e c8c8 d2be 237f 27bd 71aa d93e
00000300: eb7e 3fbe 23e3 753f 68ba c4bd 701a c73e
00000310: b1ef 23bf 3959 11bf 4e10 4dbe 165e ecbc
00000320: 9249 603e 47ae 94bd d61d 86be 244d 07bf
00000330: 6c21 953f 0e5c ed3e 42fc 3f3f d89a 0ebe
00000340: b6d4 5c3c f224 063e db17 2dbe f7c6 8bbe
00000350: 6131 7ebc 6349 9ebe 799e f7bc cb7b aa3e
00000360: bac8 11be 74a2 753e 84ac ee3c 726a 83bd
00000370: 9ff5 a03d 97ef ffbd ed81 5dbe bd04 7b3e
00000380: 90f5 d0be 80cc 4fbe 2d79 27be df1d 6e3c
00000390: d757 2bbf 8e6c c4bd 83c5 323e 923b 40bf
000003a0: e815 a6bc a9f8 35bf 1e4f efbe 9a93 00be
000003b0: 3b88 e0be 9cc6 043f b480 dbbd e6ca 24bf
000003c0: 27e0 9dbe 5adc debe 6892 473d 5c94 773e
000003d0: a90c efbe 3b51 62bd a85f e9bd 970f 84bf
000003e0: 2ff6 c8bd fbc3 eebe b797 19bf b8a0 d23d
000003f0: c034 81be 805b d83e 0912 afbc 565c 09bf

layers.elman.hx.bias f4 [16]
-0.3074843 0.0032535985 0.07442936 0.12420619 -0.14427775 0.0124171 0.1621941 0.36254928
0.06672023 -0.07270567 -0.124588884 -0.2877912 0.09385728 0.057832822 0.10407519 -3.273357e-05
00000000: 956e 9dbe 533a 553b 6c6e 983d d15f fe3d
00000010: 8cbd 13be 1871 4b3c 3616 263e 0fa0 b93e
00000020: 9ea4 883d b6e6 94bd 7528 ffbd 5e59 93be
00000030: 3f38 c03d 1ce2 6c3d 6025 d53d 674b 09b8

layers.elman.hx.weight f4 [16, 22]
1.5063577 -0.902907 0.20276082 2.0985575 -0.9099964 -0.6938001 0.23734696 0.5052162
0.039146673 -0.05978364 0.47486064 0.61673003 0.38197225 -0.59701604 -0.5723624 0.34807718
-0.71883774 -0.77535886 -0.73748106 -0.87666 -1.2279975 -0.49091792 0.08561487 0.031108499
-0.12617159 -1.3511474 -0.789434 -0.85506296 -0.7843612 0.0688125 -0.8352112 -1.1157298
-0.8100056 0.41724363 0.2735399 -0.15271331 -0.5056011 -0.2094131 0.685261 0.9079607
0.2593371 1.1378387 0.6293888 1.0901875 0.73822397 0.39118528 -0.6022762 0.8637967
-0.59094214 0.21556671 -0.88201123 -0.93725616 -0.5217773 -0.0894772 -0.46976948 0.11993947
-0.7910786 -1.1938634 -0.22309655 -1.0297297 1.0524323 0.42824376 0.59232 0.9267572
0.714531 0.8214606 -0.06999023 -0.59288764 -0.599002 -0.061077196 0.38053516 1.2763181
0.99526876 -0.6135177 -0.93180126 -0.7207474 0.3616676 0.8579829 1.1627325 -0.5869159
-0.75174 -1.2012155 -0.22804712 -0.94100314 -1.0362955 -0.89435047 -0.9122669 -1.1495675
0.13470654 -0.76402247 -0.12553203 0.56751865 -1.0453684 -0.82145137 0.6132574 -0.6955985
-0.0510456 -0.33092603 0.74523354 -0.8397714 0.06825094 -0.9629306 -0.3551527 0.9055083
0.46215355 0.6681199 -0.7226192 1.191489 0.98701584 0.44717392 0.6955278 -0.047316074
0.84242296 1.7517018 -0.8813673 -1.109417 -0.49967414 -0.7494326 -0.3477983 -0.8853402
-0.81137836 -0.87953526 -1.2428907 0.11204541 -0.65251756 -0.8571903 0.3863632 0.090600565
0.5699214 1.4438722 1.3416706 1.12631 0.07045974 -0.27296686 0.038140774 0.04019081
-0.40475956 -0.6148296 -0.2101463 0.80127203 0.90924275 1.1844406 -0.85644287 -1.1549553
-0.98445773 1.0560323 0.7901244 0.9009198 0.34766057 0.43045828 0.3909465 -3.108532
2.5830715 2.635123 -1.0277079 0.86951804 -0.039837956 -1.86287 -0.83402145 -0.44169182
-0.9239837 0.29857102 0.58567744 1.1177412 0.85391086 0.866187 0.18254638 0.6622033
0.6344848 0.31127864 0.57498676 0.34504497 0.39721748 0.98269826 -0.27776355 0.051801514
-0.37950486 -0.87595165 -0.29140353 -0.5480896 0.3526721 0.58222497 0.38122672 0.9479537
0.36116403 0.0766507 0.6474454 0.94040346 0.747476 0.032106817 -0.5228295 0.77644646
-2.0470464 -1.8888106 -1.9621603 -0.14900172 -0.27688903 0.30217355 0.93185395 -0.08306241
0.23519266 0.33671334 -0.944635 -0.9290433 -0.514868 -0.020252313 0.060116578 0.2696229
0.5536694 0.7412058 0.051643696 0.6968356 0.7089387 -0.42613915 -0.56522924 -1.0077921
-0.66703844 -0.52690065 -0.23423687 0.42660394 1.0680308 -0.77146494 -0.7921132 1.413975
-0.89242876 -1.105286 -1.337745 0.59711474 0.9430086 0.38600585 -0.57098764 -0.845966
-0.42835736 0.40004134 0.6615412 0.2010735 -0.43175492 0.21012878 -0.27260974 0.7197714
0.69001806 0.7483308 -0.7845997 0.28721547 -0.43813765 1.4666431 0.8544664 0.6818161
-0.45072332 0.99407077 1.0808692 -0.34100908 0.7010977 0.27827734 0.22646458 -0.6355357
00000000: 54d0 c03f ea24 67bf 88a0 4f3e c44e 0640
00000010: 86f5 68bf e29c 31bf 150b 733e d955 013f
00000020: 4358 203d b1df 74bd ef20 f33e 05e2 1d3f
00000030: de91 c33e 0bd6 18bf 5886 12bf 2c37 b23e
00000040: c005 38bf eb7d 46bf 8fcb 3cbf ca6c 60bf
00000050: 062f 9dbf 9859 fbbe d956 af3d 40d7 fe3c
00000060: 2033 01be 66f2 acbf 5918 4abf 68e5 5abf
00000070: e5cb 48bf 91ed 8c3d 67d0 55bf 3cd0 8ebf
00000080: 875c 4fbf f5a0 d53e 6c0d 8c3e e160 1cbe
00000090: 136f 01bf 6370 56be 446d 2f3f 1d70 683f
000000a0: d5c7 843e b3a4 913f a01f 213f 448b 8b3f
000000b0: 3ffc 3c3f 7049 c83e c62e 1abf c821 5d3f
000000c0: fc47 17bf 85bd 5c3e 7dcb 61bf 05f0 6fbf
000000d0: 3293 05bf d23f b7bd a085 f0be d3a2 f53d
000000e0: 2184 4abf 84d0 98bf 6c73 64be 2fce 83bf
000000f0: 1ab6 863f c442 db3e 49a2 173f f63f 6d3f
00000100: 81eb 363f 3e4b 523f 0a57 8fbd 7cc7 17bf
00000110: 3258 19bf 152c 7abd 81d5 c23e 645e a33f
00000120: efc9 7e3f 7f0f 1dbf 878a 6ebf e782 38bf
00000130: 7f2c b93e c4a4 5b3f 6bd4 943f 1f40 16bf
00000140: 0872 40bf 6ec1 99bf 2f85 69be 95e5 70bf
00000150: 55a5 84bf 27f4 64bf 538a 69bf 0725 93bf
00000160: 83f0 093e fa96 43bf 788b 00be e748 113f
00000170: a2ce 85bf a34a 52bf 70fe 1c3f be12 32bf
00000180: 3115 51bd 236f a9be a0c7 3e3f 42fb 56bf
00000190: 26c7 8b3d 9f82 76bf 93d6 b5be 64cf 673f
000001a0: 649f ec3e e809 2b3f 92fd 38bf b682 983f
000001b0: 12ad 7c3f fbf3 e43e 1c0e 323f 80ce 41bd
000001c0: 08a9 573f c437 e03f 4aa1 61bf 6001 8ebf
000001d0: 4ad5 ffbe d1da 3fbf 9e12 b2be a8a5 62bf
000001e0: 7eb6 4fbf 3929 61bf 0b17 9fbf 1078 e53d
000001f0: 640b 27bf d370 5bbf 66d1 c53e ca8c b93d
00000200: 5ee6 113f ced0 b83f ddbb ab3f ed2a 903f
00000210: 324d 903d 50c2 8bbe 8039 1c3d 1e9f 243d
00000220: a53c cfbe 7965 1dbf 9730 57be 2a20 4d3f
00000230: 22c4 683f c09b 973f d73f 5bbf 93d5 93bf
00000240: 6c05 7cbf 112c 873f 9845 4a3f aea2 663f
00000250: 9100 b23e 0765 dc3e 242a c83e 30f2 46c0
00000260: 0b51 2540 dba5 2840 ef8b 83bf bc98 5e3f
00000270: 202d 23bd 8672 eebf 6e82 55bf 6e25 e2be
00000280: 328a 6cbf 4dde 983e f5ee 153f 2512 8f3f
00000290: e799 5a3f 6ebe 5d3f 70ed 3a3e 2886 293f
000002a0: 996d 223f ea5f 9f3e 5532 133f bca9 b03e
000002b0: 1760 cb3e 1d92 7b3f 0637 8ebe d32d 543d
000002c0: 764e c2be 5e3e 60bf d832 95be 9a4f 0cbf
000002d0: 7091 b43e b20c 153f 2630 c33e 18ad 723f
000002e0: 7eea b83e 0bfb 9c3d fbbe 253f 48be 703f
000002f0: 965a 3f3f 7082 033d 27d8 05bf 32c5 463f
00000300: cf02 03c0 8cc4 f1bf 1228 fbbf e893 18be
00000310: 66c4 8dbe 7eb6 9a3e fb8d 6e3f a01c aabd
00000320: 58d6 703e b165 ac3e 99d3 71bf c8d5 6dbf
00000330: 64ce 03bf 2ee8 a5bc cd3c 763d 030c 8a3e
00000340: 47bd 0d3f aabf 3d3f 5788 533d d163 323f
00000350: 027d 353f e92e dabe ddb2 10bf 55ff 80bf
00000360: 08c3 2abf f6e2 06bf cadb 6fbe d56b da3e
00000370: 3cb5 883f ba7e 45bf eec7 4abf 22fd b43f
00000380: 3676 64bf 037a 8dbf 3a3b abbf 83dc 183f
00000390: 0369 713f 8fa2 c53e 3f2c 12bf 3a91 58bf
000003a0: a851 dbbe 38d2 cc3e c45a 293f 36e6 4d3e
000003b0: fb0e ddbe 002c 573e 8193 8bbe f042 383f
000003c0: 06a5 303f 9b92 3f3f 87db 48bf e80d 933e
000003d0: 9453 e0be f6ba bb3f 4fbe 5a3f 808b 2e3f
000003e0: 35c5 e6be 6c7b 7e3f ec59 8a3f be98 aebe
000003f0: 247b 333f 5e7a 8e3e 55e6 673e 78b2 22bf

layers.embed.emb.weight f4 [22, 22]
1.0 0.0 0.0 0.0 0.0 0.0 0.0 0.0
0.0 0.0 0.0 0.0 0.0 0.0 0.0 0.0
0.0 0.0 0.0 0.0 0.0 0.0 0.0 1.0
0.0 0.0 0.0 0.0 0.0 0.0 0.0 0.0
0.0 0.0 0.0 0.0 0.0 0.0 0.0 0.0
0.0 0.0 0.0 0.0 0.0 0.0 1.0 0.0
0.0 0.0 0.0 0.0 0.0 0.0 0.0 0.0
0.0 0.0 0.0 0.0 0.0 0.0 0.0 0.0
0.0 0.0 0.0 0.0 0.0 1.0 0.0 0.0
0.0 0.0 0.0 0.0 0.0 0.0 0.0 0.0
0.0 0.0 0.0 0.0 0.0 0.0 0.0 0.0
0.0 0.0 0.0 0.0 1.0 0.0 0.0 0.0
0.0 0.0 0.0 0.0 0.0 0.0 0.0 0.0
0.0 0.0 0.0 0.0 0.0 0.0 0.0 0.0
0.0 0.0 0.0 1.0 0.0 0.0 0.0 0.0
0.0 0.0 0.0 0.0 0.0 0.0 0.0 0.0
0.0 0.0 0.0 0.0 0.0 0.0 0.0 0.0
0.0 0.0 1.0 0.0 0.0 0.0 0.0 0.0
0.0 0.0 0.0 0.0 0.0 0.0 0.0 0.0
0.0 0.0 0.0 0.0 0.0 0.0 0.0 0.0
0.0 1.0 0.0 0.0 0.0 0.0 0.0 0.0
0.0 0.0 0.0 0.0 0.0 0.0 0.0 0.0
0.0 0.0 0.0 0.0 0.0 0.0 0.0 0.0
1.0 0.0 0.0 0.0 0.0 0.0 0.0 0.0
0.0 0.0 0.0 0.0 0.0 0.0 0.0 0.0
0.0 0.0 0.0 0.0 0.0 0.0 0.0 1.0
0.0 0.0 0.0 0.0 0.0 0.0 0.0 0.0
0.0 0.0 0.0 0.0 0.0 0.0 0.0 0.0
0.0 0.0 0.0 0.0 0.0 0.0 1.0 0.0
0.0 0.0 0.0 0.0 0.0 0.0 0.0 0.0
0.0 0.0 0.0 0.0 0.0 0.0 0.0 0.0
0.0 0.0 0.0 0.0 0.0 1.0 0.0 0.0
00000000: 0000 803f 0000 0000 0000 0000 0000 0000
00000010: 0000 0000 0000 0000 0000 0000 0000 0000
00000020: 0000 0000 0000 0000 0000 0000 0000 0000
00000030: 0000 0000 0000 0000 0000 0000 0000 0000
00000040: 0000 0000 0000 0000 0000 0000 0000 0000
00000050: 0000 0000 0000 0000 0000 0000 0000 803f
00000060: 0000 0000 0000 0000 0000 0000 0000 0000
00000070: 0000 0000 0000 0000 0000 0000 0000 0000
00000080: 0000 0000 0000 0000 0000 0000 0000 0000
00000090: 0000 0000 0000 0000 0000 0000 0000 0000
000000a0: 0000 0000 0000 0000 0000 0000 0000 0000
000000b0: 0000 0000 0000 0000 0000 803f 0000 0000
000000c0: 0000 0000 0000 0000 0000 0000 0000 0000
000000d0: 0000 0000 0000 0000 0000 0000 0000 0000
000000e0: 0000 0000 0000 0000 0000 0000 0000 0000
000000f0: 0000 0000 0000 0000 0000 0000 0000 0000
00000100: 0000 0000 0000 0000 0000 0000 0000 0000
00000110: 0000 0000 0000 803f 0000 0000 0000 0000
00000120: 0000 0000 0000 0000 0000 0000 0000 0000
00000130: 0000 0000 0000 0000 0000 0000 0000 0000
00000140: 0000 0000 0000 0000 0000 0000 0000 0000
00000150: 0000 0000 0000 0000 0000 0000 0000 0000
00000160: 0000 0000 0000 0000 0000 0000 0000 0000
00000170: 0000 803f 0000 0000 0000 0000 0000 0000
00000180: 0000 0000 0000 0000 0000 0000 0000 0000
00000190: 0000 0000 0000 0000 0000 0000 0000 0000
000001a0: 0000 0000 0000 0000 0000 0000 0000 0000
000001b0: 0000 0000 0000 0000 0000 0000 0000 0000
000001c0: 0000 0000 0000 0000 0000 0000 0000 803f
000001d0: 0000 0000 0000 0000 0000 0000 0000 0000
000001e0: 0000 0000 0000 0000 0000 0000 0000 0000
000001f0: 0000 0000 0000 0000 0000 0000 0000 0000
00000200: 0000 0000 0000 0000 0000 0000 0000 0000
00000210: 0000 0000 0000 0000 0000 0000 0000 0000
00000220: 0000 0000 0000 0000 0000 803f 0000 0000
00000230: 0000 0000 0000 0000 0000 0000 0000 0000
00000240: 0000 0000 0000 0000 0000 0000 0000 0000
00000250: 0000 0000 0000 0000 0000 0000 0000 0000
00000260: 0000 0000 0000 0000 0000 0000 0000 0000
00000270: 0000 0000 0000 0000 0000 0000 0000 0000
00000280: 0000 0000 0000 803f 0000 0000 0000 0000
00000290: 0000 0000 0000 0000 0000 0000 0000 0000
000002a0: 0000 0000 0000 0000 0000 0000 0000 0000
000002b0: 0000 0000 0000 0000 0000 0000 0000 0000
000002c0: 0000 0000 0000 0000 0000 0000 0000 0000
000002d0: 0000 0000 0000 0000 0000 0000 0000 0000
000002e0: 0000 803f 0000 0000 0000 0000 0000 0000
000002f0: 0000 0000 0000 0000 0000 0000 0000 0000
00000300: 0000 0000 0000 0000 0000 0000 0000 0000
00000310: 0000 0000 0000 0000 0000 0000 0000 0000
00000320: 0000 0000 0000 0000 0000 0000 0000 0000
00000330: 0000 0000 0000 0000 0000 0000 0000 803f
00000340: 0000 0000 0000 0000 0000 0000 0000 0000
00000350: 0000 0000 0000 0000 0000 0000 0000 0000
00000360: 0000 0000 0000 0000 0000 0000 0000 0000
00000370: 0000 0000 0000 0000 0000 0000 0000 0000
00000380: 0000 0000 0000 0000 0000 0000 0000 0000
00000390: 0000 0000 0000 0000 0000 803f 0000 0000
000003a0: 0000 0000 0000 0000 0000 0000 0000 0000
000003b0: 0000 0000 0000 0000 0000 0000 0000 0000
000003c0: 0000 0000 0000 0000 0000 0000 0000 0000
000003d0: 0000 0000 0000 0000 0000 0000 0000 0000
000003e0: 0000 0000 0000 0000 0000 0000 0000 0000
000003f0: 0000 0000 0000 803f 0000 0000 0000 0000

layers.lm_head.proj.bias f4 [22]
-1.2823205 -1.3590523 -1.2896932 0.6806985 -0.02359687 0.12593642 -0.08271025 -0.02350058
0.036801867 0.03445308 -0.0006096367 -0.115905136 -0.034262992 0.028750643 0.14401594 0.05101391
0.54534435 0.57624847 0.52193147 0.5110653 0.5389076 0.48899788
00000000: 1423 a4bf 6df5 adbf ab14 a5bf 4242 2e3f
00000010: 394e c1bc 7af5 003e fe63 a9bd 4a84 c0bc
00000020: 8ebd 163d ac1e 0d3d 07d0 1fba ac5f edbd
00000030: 5a57 0cbd 7886 eb3c ea78 133e f6f3 503d
00000040: b09b 0b3f 0585 133f 4d9d 053f 2dd5 023f
00000050: d9f5 093f ee5d fa3e

layers.lm_head.proj.weight f4 [22, 16]
0.215973 0.21750885 -0.17291687 0.05639145 -0.3115148 -0.06806764 0.007218913 -0.1333108
-0.22761925 0.6308139 -0.07410383 -0.1797847 -0.19489294 0.20204332 -0.5350512 -0.38723904
0.12102247 0.43226162 -0.34942177 0.23719503 -0.28496784 0.23434111 -0.012009426 -0.375337
-0.1414609 0.47796965 -0.21917354 -0.0012179132 0.019835575 0.18483584 -0.2739544 -0.29637837
0.012427954 0.095898 -0.27498794 -0.009378967 -0.425961 -0.09234488 0.0781107 -0.3706046
-0.064188905 0.52855474 -0.17849423 0.011708495 0.045443058 0.41345164 -0.52439195 -0.27510738
-0.25926006 -0.93195707 -2.034762 -1.6776595 -0.79287934 -1.7912691 2.4561896 1.6937599
0.8209196 0.45847896 1.0347888 0.27041215 1.9151235 0.9381651 -2.50628 -2.5728197
1.3863596 -0.69174206 0.5395913 0.013064006 0.2229454 1.1615647 -0.11536613 -1.2299072
-0.38395932 0.33101153 0.7848313 0.45808482 0.05111469 -0.8244532 -0.28540683 0.36765304
1.5595804 -0.57059413 0.51773566 -0.0016204328 0.20863122 0.8879073 -0.19193393 -1.103198
-0.39732152 0.3924367 0.978363 0.60485095 0.029144643 -0.69104093 -0.29198548 0.3418378
1.2904615 -0.74500287 0.57405126 0.05085546 0.16683553 1.0529444 -0.20831731 -1.138492
-0.29778755 0.3707729 1.0177668 0.52961516 0.0568077 -0.7584083 -0.30041838 0.32487485
-1.28763 0.98526984 0.3449112 -0.97422564 0.65690637 1.0529989 -1.5096354 0.2990526
-1.7565925 -0.17990023 0.6579361 -0.14236858 -1.4940863 1.2062713 1.5095773 1.5971842
-1.1435817 1.0351105 0.32256517 -1.00012 0.6644005 1.0914319 -1.4894458 0.3104098
-1.822127 -0.17002507 0.62345576 -0.15831414 -1.472037 1.1995765 1.436892 1.5468923
-1.2654115 1.0426631 0.3528847 -0.9901317 0.6544915 1.0676863 -1.5003978 0.30585736
-1.7952559 -0.19465974 0.64336896 -0.15942274 -1.4785777 1.2233407 1.4787462 1.5997247
1.4661852 -0.69847286 0.5171303 0.024692433 0.19215263 1.1714834 0.08227228 -0.92201823
-0.31557497 0.35536352 0.8730169 0.62648296 0.12604158 -0.6280919 -0.331625 0.28153557
1.3126613 -0.75856674 0.5416608 0.0068812054 0.14101584 0.96499944 0.035747122 -1.3134824
-0.36871168 0.26620483 0.9650725 0.72659206 0.16426046 -0.71887255 -0.26045203 0.27730694
1.2098532 -0.7730604 0.5171106 0.044707187 0.21894109 1.0287138 0.108345516 -1.2400657
-0.37856203 0.41156414 1.0430038 0.6092152 0.15371889 -0.71171916 -0.31690747 0.2907879
-1.3698127 1.0492426 0.86712587 -0.9193285 0.15914184 0.23873061 2.387909 0.8209269
0.35716584 -0.9183869 -0.25116417 -1.2023065 1.8742087 0.8396138 -0.5252824 -0.3167866
-1.367122 1.090624 0.85262513 -0.8853887 0.14044708 0.26658964 2.3594809 0.7963521
0.31234637 -0.8813726 -0.24623238 -1.2116721 1.8617754 0.8203474 -0.5835526 -0.28450063
-1.388564 1.06218 0.8610442 -0.93109703 0.15577985 0.19993453 2.3477867 0.80618274
0.3264113 -0.8676583 -0.25365898 -1.175259 1.8379912 0.854982 -0.5147018 -0.36111692
00000000: 0728 5d3e a4ba 5e3e 1f11 31be b9fa 663d
00000010: de7e 9fbe 0c67 8bbd a28c ec3b a082 08be
00000020: 0515 69be 057d 213f c0c3 97bd 7b19 38be
00000030: 0492 47be 72e4 4e3e 1ef9 08bf 3244 c6be
00000040: a1da f73d 6551 dd3e 69e7 b2be 41e3 723e
00000050: 4ee7 91be 1ef7 6f3e 2fc3 44bc 2c2c c0be
00000060: 20db 10be 70b8 f43e 076f 60be 63a2 9fba
00000070: 377e a23c 9b45 3d3e c043 8cbe e8be 97be
00000080: 9e9e 4b3c 2c66 c43d 38cb 8cbe 3daa 19bc
00000090: 8f17 dabe 501f bdbd 81f8 9f3d e3bf bdbe
000000a0: 7975 83bd 5d4f 073f 31c7 36be fdd4 3f3c
000000b0: 8022 3a3d efaf d33e 8d3e 06bf e0da 8cbe
000000c0: bcbd 84be bd94 6ebf 8a39 02c0 8cbd d6bf
000000d0: 24fa 4abf 4e48 e5bf 3632 1d40 20cd d83f
000000e0: c927 523f c1bd ea3e f673 843f 7673 8a3e
000000f0: c422 f53f 972b 703f e466 20c0 14a9 24c0
00000100: 3b74 b13f 0216 31bf a822 0a3f 6a0a 563c
00000110: cd4b 643e 27ae 943f 1445 ecbd 996d 9dbf
00000120: 5196 c4be 587a a93e b4ea 483f 188a ea3e
00000130: a35d 513d 5d0f 53bf d820 92be 053d bc3e
00000140: 55a0 c73f 7512 12bf 538a 043f b464 d4ba
00000150: 6ca3 553e e54d 633f 548a 44be 9835 8dbf
00000160: ba6d cbbe 77ed c83e ff75 7a3f 83d7 1a3f
00000170: bfc0 ee3c 0fe8 30bf 1f7f 95be 5d05 af3e
00000180: d82d a53f 82b8 3ebf 06f5 123f d14d 503d
00000190: efd6 2a3e e2c6 863f 2251 55be 1bba 91bf
000001a0: 9c77 98be f2d5 bd3e 2f46 823f dc94 073f
000001b0: 31af 683d 0c27 42bf 70d0 99be ff55 a63e
000001c0: 0fd1 a4bf a53a 7c3f 3398 b03e da66 79bf
000001d0: 042b 283f abc8 863f bc3b c1bf 6c1d 993e
000001e0: 06d8 e0bf c437 38be 806e 283f 12c9 11be
000001f0: 383e bfbf 1967 9a3f d439 c13f 8870 cc3f
00000200: e360 92bf 807e 843f 4327 a53e ef03 80bf
00000210: 2716 2a3f 0ab4 8b3f 29a6 bebf 09ee 9e3e
00000220: 753b e9bf 0d1b 2ebe cc9a 1f3f 1a1d 22be
00000230: b56b bcbf b98b 993f 14ec b73f 9100 c63f
00000240: 01f9 a1bf fc75 853f 4ead b43e 4579 7dbf
00000250: c18c 273f f2a9 883f 090d c0bf 5699 9c3e
00000260: f2ca e5bf e254 47be d4b3 243f b73f 23be
00000270: 0942 bdbf 6e96 9c3f 8e47 bd3f c7c3 cc3f
00000280: f5ab bb3f 1ecf 32bf a762 043f c947 ca3c
00000290: a9c3 443e 2bf3 953f 5e7e a83d 6309 6cbf
000002a0: 0b93 a1be 35f2 b53e 097e 5f3f 3061 203f
000002b0: 0b11 013e a1ca 20bf c1ca a9be 6e25 903e
000002c0: 4905 a83f 6e31 42bf 48aa 0a3f bc7b e13b
000002d0: 7566 103e 340a 773f 936b 123d 3120 a8bf
000002e0: c7c7 bcbe 004c 883e fe0e 773f f001 3a3f
000002f0: e533 283e 0808 38bf f859 85be 2dfb 8d3e
00000300: 78dc 9a3f 49e7 45bf 5c61 043f e21e 373d
00000310: 1832 603e e5ac 833f 41e4 dd3d 79ba 9ebf
00000320: e2d2 c1be 89b8 d23e 2681 853f 87f5 1b3f
00000330: 7c68 1d3e 3a33 36bf b241 a2be 27e2 943e
00000340: 0656 afbf 954d 863f f6fb 5d3f 1d59 6bbf
00000350: 14f6 223e cc75 743e 80d3 1840 4428 523f
00000360: 71de b63e 671b 6bbf 9798 80be 2ee5 99bf
00000370: 12e6 ef3f eef0 563f e878 06bf da31 a2be
00000380: dbfd aebf 9199 8b3f a445 5a3f d5a8 62bf
00000390: 5cd1 0f3e 707e 883e bc01 1740 bbdd 4b3f
000003a0: ddeb 9f3e a2a1 61bf 5724 7cbe 1218 9bbf
000003b0: a84e ee3f 4a02 523f b463 15bf 11aa 91be
000003c0: 77bc b1bf 84f5 873f 656d 5c3f 605c 6ebf
000003d0: c184 1f3e a3bb 4c3e 2342 1640 fe61 4e3f
000003e0: 621f a73e db1e 5ebf 97df 81be e36e 96bf
000003f0: 4c43 eb3f 1ae0 5a3f 7fc3 03bf 51e4 b8be
