jordan_elman_2024/exp4/elman_item_level/run_24/export/model.safetensors (safetensors, 6576 bytes, 7 tensors)

layers.elman.hh.bias f4 [16]
000000 d9 e0 ba 3e 0e 67 8b be bd 5f 0a 3e c5 eb ac 3e
       0.3649967 -0.27227062 0.13513084 0.33773628
000010 e9 f8 d1 be 9b a3 ba be 28 48 b7 3d 43 7d 92 3d
       -0.41010216 -0.36452946 0.089493096 0.07152798
000020 44 60 d6 bd 2f 68 93 3e 61 8c 77 3d 27 b2 70 3d
       -0.1046758 0.28790423 0.06043661 0.05876365
000030 52 21 2f be 02 ec 7b 3d 4f 22 26 3e 6b 78 0c bf
       -0.17102554 0.06150437 0.16224025 -0.54871243

layers.elman.hh.weight f4 [16, 16]
000000 d9 f0 71 bb ca a0 f0 3d 5c 2a a9 be 39 7a c2 3e
       -0.0036917238 0.11749418 -0.3304013 0.37983873
000010 e7 16 8d 3e b9 a7 1e be 4a 52 d8 3c f6 d4 7b be
       0.27556536 -0.15493669 0.026406426 -0.24592957
000020 c0 b5 9d 3e 89 b1 28 3d 5f 20 b0 3e 1b 46 0b bf
       0.30802727 0.041184936 0.34399697 -0.5440385
000030 79 d3 65 be b9 da 3b 3e 53 b6 c7 3d cd 13 34 3e
       -0.22443952 0.18345155 0.097515725 0.17585678
000040 28 bc d1 3e e6 00 b7 be 8a 96 45 be 79 33 ab be
       0.40963864 -0.35742873 -0.19295707 -0.33437708
000050 a6 36 46 be 6c 2f 4b 3e b2 ee 2b 3d 64 8d c1 3e
       -0.19356784 0.19842309 0.041975684 0.37803185
000060 1a b9 9a 3d 24 0f a2 3e af 15 bf 3e d0 3a 33 be
       0.075548366 0.31652176 0.3732123 -0.17502904
000070 79 4c 5f be 63 92 92 be aa 7a d0 bd cf 6c e4 bd
       -0.21806516 -0.2862731 -0.10179646 -0.11153566
000080 fe f0 35 3e 48 2b 79 be a3 e1 ae be 5a 2e a8 be
       0.17767712 -0.24332917 -0.34156522 -0.32847863
000090 d6 90 a0 be 16 9b 88 bc 4b 75 b5 be 45 0b a5 3e
       -0.313605 -0.016675513 -0.3544105 0.3223516
0000a0 b9 2a a8 be da 10 af bb 9c 74 16 3c 4d d3 87 3e
       -0.32845095 -0.005342585 0.009183075 0.26528397
0000b0 5e fc 74 be 1b 16 88 3d d8 f6 6b 3e 1f 16 04 3d
       -0.23924395 0.06644841 0.23043382 0.03224766
0000c0 16 16 2b c0 aa 0f 7f 3f 9c eb 2b bf 00 51 13 3f
       -2.673223 0.99633276 -0.67156386 0.5754547
0000d0 70 8b 99 be 64 28 f9 3c f8 12 26 bf 36 f1 10 bf
       -0.29989195 0.030414768 -0.64872694 -0.5661806
0000e0 1a 25 a5 3f 67 af 53 bf bb f3 86 3d ab 2d fa 3f
       1.2901947 -0.8268952 0.06589457 1.9545187
0000f0 45 4a 5e 3d fa 9b c6 bf d9 07 35 3f b4 18 dd 3d
       0.054270048 -1.551635 0.707151 0.10795727
000100 46 a2 8d bd f5 c7 01 be 4b b8 d0 3c 29 0d 05 bf
       -0.06915717 -0.12673934 0.025478503 -0.51973206
000110 7c 71 0a be 6f cc f1 3e a8 a0 c6 be 29 76 16 3e
       -0.13519853 0.47226283 -0.38794446 0.14693512
000120 5b bf cc bd b6 ba 4c 3e 76 89 26 be ca 74 07 3f
       -0.09997436 0.199931 -0.16263375 0.5291258
000130 1d 51 22 3e 4d 68 d5 bd fa f8 8e 3d ae a8 26 bd
       0.15851255 -0.104202844 0.06981082 -0.04068821
000140 ba 7c c9 3d 8f 4a 6c 3e 52 5a 9b bc 17 27 7d be
       0.09838243 0.23075317 -0.018963967 -0.24721943
000150 a4 b3 31 bf e5 46 b8 bd f3 bc 19 be 31 9c e4 3d
       -0.69414735 -0.08997897 -0.15013485 0.11162604
000160 0a 4f 39 bf b3 5a c3 be 51 09 0f be 49 b1 31 3e
       -0.7238623 -0.38155136 -0.13968398 0.17352785
000170 ab 2e 55 bd 81 ea 80 3e ec 67 13 bd f5 8b ee be
       -0.05204646 0.25178912 -0.03598778 -0.46591154
000180 d7 f8 f7 be e4 18 b2 be a5 8f 1a be c8 fd 82 be
       -0.48432037 -0.34784615 -0.15093859 -0.25584245
000190 46 00 7f 3d 9e 76 40 3e 05 a5 a9 3c 27 6d 85 3c
       0.06225612 0.18795249 0.02070857 0.0162874
0001a0 36 4c 48 3e df c6 80 3e 62 1c 96 be 68 2a ec 3d
       0.19560322 0.25151727 -0.2931853 0.11531526
0001b0 e7 1f 9c bd a9 63 07 be 97 09 5c 3d f5 e0 1b be
       -0.076232724 -0.13221611 0.053720083 -0.15222533
0001c0 22 81 e8 3c 1b 93 0e 3f 66 f5 6f 3e 3a 26 85 3e
       0.028381888 0.55693215 0.23433456 0.26005727
0001d0 d9 7f b4 bd 32 ff b5 be d5 73 51 3e 73 bf e0 be
       -0.088134475 -0.3554626 0.20454343 -0.43896064
0001e0 e2 d5 2d be fa 81 a5 bd bb 51 42 be b7 3e e4 3d
       -0.16976121 -0.08081432 -0.1897649 0.111447744
0001f0 54 68 4b 3d 10 dc c2 3e c9 5f 84 be db ce 8a 3e
       0.049660042 0.3805852 -0.25854328 0.27110943
000200 3e 4f 11 c0 3b ba 38 3f b4 c3 92 be 34 6b 9d 3e
       -2.2704616 0.72159165 -0.28664935 0.30745852
000210 cb d3 b8 bd f0 8e b9 3e f7 2e 8b be 66 a0 0c bf
       -0.09024771 0.36241865 -0.2718427 -0.5493225
000220 74 b3 8d 3e aa be 13 bf e3 5f 82 3d 86 2a cc 3f
       0.27675974 -0.57712805 0.06365945 1.5950477
000230 72 de a3 3d 7e 81 8c bf c3 e4 20 3e 86 bc fe 3d
       0.080014125 -1.0977018 0.15712266 0.12438302
000240 2a 5f aa 3f c3 8a 93 be a9 00 00 3f 62 1b cb be
       1.3310292 -0.28816804 0.5000101 -0.3966933
000250 68 9d 45 3e ff 77 ef 3e fc 6a 3b 3e dd d9 35 3c
       0.19298327 0.46771237 0.1830253 0.011099306
000260 52 27 40 bf 38 cf 93 3e 0f c3 bb be 47 ad fe be
       -0.7506 0.28869033 -0.36672255 -0.49741575
000270 1c a5 a4 bd d0 4d 44 3f 82 96 94 3d 55 b0 0d 3d
       -0.080393046 0.7668123 0.072552696 0.03459199
000280 00 c8 e6 bf 95 a4 6a 3f 5f 47 dc be 1a 81 60 3f
       -1.8029785 0.9165738 -0.43023202 0.87696993
000290 d4 e9 3b bd 5c dc 1d be 04 12 49 be f2 b2 2b bf
       -0.045877293 -0.15416092 -0.19635779 -0.67069924
0002a0 57 41 60 3f 66 ef 6a be f7 b4 96 3e 50 40 84 3f
       0.875997 -0.22942886 0.2943494 1.0332127
0002b0 69 87 1c 3e 4a e6 82 bf 45 18 3e 3e 6a 67 16 be
       0.1528603 -1.0226529 0.18563946 -0.14687887
0002c0 35 c1 1f 3f 1d ab 7e bd 41 82 8d bc 59 20 82 3e
       0.62404186 -0.062174905 -0.017274024 0.25415304
0002d0 bf ff 59 be 48 f0 dc be ee 1c 51 3e c0 e2 bd 3e
       -0.21288966 -0.4315207 0.20421192 0.3708706
0002e0 19 59 8d be 75 7a f7 bd 30 fa b9 3e d3 5e 04 be
       -0.2760704 -0.12083904 0.3632369 -0.12926798
0002f0 3d de 8d 3d 7c 11 84 bd c2 3c af bd 72 17 2f be
       0.06927154 -0.064486474 -0.085565105 -0.17098787
000300 75 a6 73 3e 03 c0 a3 bc 33 32 ff bd b4 14 9a bb
       0.23793967 -0.01998902 -0.124607466 -0.004702175
000310 41 45 2b bd 66 e3 d6 3d 16 37 0e be 26 24 8c 3e
       -0.041814093 0.104925916 -0.13888201 0.2737133
000320 ff 35 7d 39 34 56 4a bd 86 1f 0b be 58 71 e8 bc
       0.00024148075 -0.049398616 -0.13586244 -0.028374359
000330 74 b7 82 3d 2c b9 5b bd 3f 67 97 be cb bb 9c be
       0.06382647 -0.05364339 -0.29570958 -0.30612025
000340 65 5f bf 3e a3 82 db be bc 6e 4c be 82 64 66 be
       0.37377468 -0.42873105 -0.19964117 -0.22499278
000350 1f db 19 be df 2e b9 3d 20 a7 cb bd 0b 11 35 3d
       -0.15024994 0.09042143 -0.09943986 0.044205707
000360 03 dd 04 3e 7b 93 a8 3e 4b 09 fa 3d 78 f6 24 be
       0.12974934 0.3292502 0.12208804 -0.16109645
000370 c8 c1 9f 3e f6 6b 26 be e5 24 cb 3d 25 23 ea 3d
       0.3120253 -0.16252121 0.099191464 0.114324845
000380 af 1e 11 3f 72 49 2e be 21 93 d5 3e d0 98 89 be
       0.56687444 -0.17020205 0.41713813 -0.268744
000390 26 08 e2 bd 1c f4 df 3e 54 e7 41 3e 40 b0 2e 3e
       -0.110367104 0.43740928 0.18935901 0.17059422
0003a0 09 ea 1b bf 3d da 2e 3e 91 5c fd bd c1 96 0c be
       -0.60903984 0.17075439 -0.12371171 -0.13729383
0003b0 2f d0 87 bd 63 94 fa 3e 07 0d 89 be 39 d0 11 be
       -0.06631505 0.48941335 -0.26767752 -0.14239587
0003c0 40 6c 1c be 5a 95 5c be 23 5f ce bd 3f 2f ee be
       -0.15275669 -0.21541348 -0.1007674 -0.4652042
0003d0 79 d4 53 be a3 ed 93 3e 95 af 28 be 3a eb f2 3e
       -0.2068652 0.2889224 -0.16473229 0.4744509
0003e0 e1 7e 99 be 7f 4e 94 3d fe 12 32 be de ea c1 3e
       -0.29979613 0.072415344 -0.17390057 0.37874502
0003f0 e3 c9 15 be 67 94 40 be 98 a2 02 3e dd c2 c7 bd
       -0.14627795 -0.18806611 0.12757337 -0.09753964

layers.elman.hx.bias f4 [16]
000000 af 0c 1d 3e 33 eb 2d 3d d8 f9 fc bd 01 05 ea 3e
       0.1533687 0.04246063 -0.123523414 0.45706943
000010 4b 23 f0 be 6d f0 27 be ff f9 8d bb da 64 db bd
       -0.46901926 -0.16400309 -0.0043327804 -0.10712595
000020 10 d0 50 be ca df 84 3e ae f8 17 3d d4 b8 1b be
       -0.2039187 0.25951988 0.037102394 -0.15207225
000030 0f 8d e0 3d 37 81 d8 bd 42 9e 15 3e 9e 79 40 be
       0.10964405 -0.10571521 0.14611152 -0.18796393

layers.elman.hx.weight f4 [16, 22]
000000 6d e7 40 be 8e ac 11 3f 34 47 2c 3f 0a a7 2f 3f
       -0.18838282 0.5690392 0.6729615 0.68614256
000010 f7 0a 5f bf 2f 0e 63 be ef bf bc be ad df a3 3d
       -0.87126106 -0.2217338 -0.36865184 0.08001647
000020 2c 0d c1 3e 6d e7 81 3e db ff 3e 3f 57 f4 eb 3e
       0.37705362 0.25371876 0.74609154 0.46084854
000030 c0 d0 3e 3f a0 87 10 3f 7a 54 0b be 84 c8 18 3f
       0.7453728 0.5645695 -0.13606444 0.5968096
000040 06 55 7d bf 85 61 22 3d a1 3e 47 3f 41 9c 9d 3d
       -0.9895786 0.039643783 0.7782994 0.07695819
000050 2d 89 63 bf 8d 72 01 3f f1 39 67 3f 6e f1 5f bf
       -0.8888119 0.50565416 0.90322787 -0.8747777
000060 7c f4 58 bf 46 32 7f 3f 0c 38 b3 be 5e 26 76 be
       -0.84748054 0.99686086 -0.35003698 -0.24038073
000070 4f 29 b9 3e 6c d1 3f bf c9 84 99 bd 84 70 42 3f
       0.36164328 -0.7492893 -0.0749603 0.75952935
000080 73 e9 c2 be 31 bd f9 3e ac c2 17 bf 69 ec 1c 3f
       -0.38068733 0.48777154 -0.5928142 0.61298233
000090 f9 cb 04 3f 82 bd 86 be 2a a2 09 bf ab 44 3e be
       0.5187374 -0.26316458 -0.5376307 -0.18580882
0000a0 6b ad ed 3e d9 97 80 3f f0 a5 bc 3e e4 c9 67 3f
       0.4642137 1.004634 0.3684535 0.90542436
0000b0 57 c0 27 3d 90 9d 1b bf 08 f1 83 3e 16 dc 89 3e
       0.040954914 -0.60787296 0.2576983 0.26925725
0000c0 a6 9b af be 0b b6 22 bf 98 18 05 3f a2 9f 33 bf
       -0.34298438 -0.63559026 0.5199065 -0.70165455
0000d0 0e f1 9e 3e be b2 fb be 01 0c 0f bd 9a d8 5b 3f
       0.31043285 -0.49159807 -0.034923557 0.8587738
0000e0 d3 e8 b1 be cb 64 03 bf 1f cd 1b 3f 64 4e f1 3e
       -0.34747943 -0.5132567 0.60859865 0.4713012
0000f0 0c 86 a5 be 52 d3 db 3d 87 5e 80 3e bb ae 4d 3f
       -0.32328832 0.107336655 0.2507212 0.8034474
000100 26 b0 13 be 46 ef 40 3e d0 33 06 bf d6 0b 5c bf
       -0.14422664 0.18841276 -0.5242281 -0.8595556
000110 2c 37 10 bf 73 ec 88 3f 55 c8 cf 3e 18 11 51 bf
       -0.56334186 1.0697159 0.4058253 -0.8166671
000120 b8 c4 8a 3e 68 d8 a0 bb d1 d5 2e 3f 4a 04 1b 3f
       0.2710321 -0.00490861 0.6829501 0.6055342
000130 3c 0b 63 bf da 9c 32 bf ef bf 3e bf b6 f7 b6 3c
       -0.8868902 -0.69770586 -0.7451162 0.022334915
000140 3a 67 d9 be 3a 1c 56 bd 0a b0 c8 bf 9d 73 c9 bf
       -0.42461568 -0.052273013 -1.5678723 -1.5738407
000150 f2 be ce bf 2c e3 00 40 a2 5a 02 40 73 99 04 40
       -1.6152022 2.0138655 2.0367818 2.0718658
000160 9e 2c 81 3e dc 68 99 3e 3a 31 30 bf ee 27 84 bf
       0.25229353 0.29962814 -0.68825114 -1.0324686
000170 8d 49 43 3e 7f ca 54 3e 9c 4a bd be 90 2e 24 be
       0.19071026 0.20780371 -0.36970985 -0.16033387
000180 7a 2a 82 bf 76 da 5f bf 35 20 30 be 54 e9 01 bf
       -1.0169213 -0.8744272 -0.17199786 -0.50746655
000190 16 13 a2 3e 33 cf 24 bf 70 76 df be e7 b4 60 bf
       0.31655186 -0.6437866 -0.43645048 -0.87776035
0001a0 c4 a1 00 3f 0b e3 92 3d 98 a8 b9 3d 08 c0 4b 3f
       0.50246835 0.07172211 0.0906536 0.7958989
0001b0 e8 16 2f bf b3 2c 5c 3f cf 41 7a bf c0 5a 12 be
       -0.6839433 0.86005706 -0.97756666 -0.14292431
0001c0 a0 84 30 bf 9b cc 43 bf 44 6f f5 3e 6a 2d 36 be
       -0.6895237 -0.7648408 0.4793645 -0.17790762
0001d0 d9 a6 22 3f 11 2d 72 bf 35 24 ab 3c 39 6e 2a 3f
       0.6353584 -0.94600016 0.020891288 0.66574436
0001e0 f5 e0 30 bf b7 64 38 3f 1d 1c 5a 3f 6a d9 47 3e
       -0.6909326 0.7202868 0.8519915 0.1951653
0001f0 61 9e a7 be 61 8f 03 be 61 53 cd 3d 82 e3 07 3f
       -0.3273802 -0.12847663 0.10025669 0.53081524
000200 0e c7 4c bf 76 58 a1 be 50 96 1d 3f 57 24 50 3f
       -0.79991233 -0.31512803 0.61557484 0.8130545
000210 d3 f9 01 3f f6 a6 4c 3f 2e a1 73 bf 5d 57 97 3e
       0.50771827 0.7994226 -0.95167816 0.2955884
000220 91 fc 31 bf 61 41 8f bd ca e1 d6 be 26 b1 ab 3d
       -0.6952601 -0.06994892 -0.41969138 0.08383398
000230 f5 bf 45 3f 07 d6 0b 3f 5c 62 1a be f8 f5 0a bf
       0.7724603 0.54623455 -0.15076584 -0.5428157
000240 74 fb db 3e fc 11 3e be 55 82 58 3f 05 4d bd 3d
       0.4296528 -0.18561548 0.8457387 0.09243206
000250 07 91 91 3e e0 be 11 3f 48 39 b9 3d 3b ee 39 bf
       0.2843096 0.5693188 0.09044129 -0.72629136
000260 76 41 2e be 5b bd 4c 3f b4 42 3b 3f a4 b1 66 bf
       -0.17017159 0.79976434 0.73148656 -0.9011481
000270 44 10 1b 3f 13 57 80 bf f6 de 3e bf f8 44 0c bf
       0.60571694 -1.0026573 -0.7455896 -0.5479274
000280 5b b3 a0 be a7 3c 34 bf f1 01 d3 3d 21 23 08 3c
       -0.31386837 -0.7040505 0.10303105 0.008309157
000290 dc 07 2a 3e 37 a6 b0 3e c3 d5 20 3e 21 0a d4 be
       0.1660456 0.34501812 0.15706544 -0.41413978
0002a0 da 03 ee 3e a8 e6 a6 3e 09 1c e2 be 4f a9 d0 be
       0.46487314 0.32597852 -0.44162014 -0.40754172
0002b0 0e da 3e bf 4e f4 ec 3e 2f 13 17 bf 8d 27 05 bf
       -0.74551475 0.4628014 -0.59013647 -0.52013475
0002c0 6d cc 71 bf e8 7f 62 be 82 63 74 3f 3d 46 4f bf
       -0.94452554 -0.22119105 0.95464337 -0.8096655
0002d0 6f 42 ce 3d 50 bb 88 3e 52 98 38 3f 3b 63 2a 3f
       0.10071265 0.26705408 0.7210742 0.66557664
0002e0 23 26 f8 3e 2d f6 7b 3f 77 3f e3 be 4a 07 d5 3e
       0.48466596 0.9842251 -0.44384357 0.41607124
0002f0 fc 39 20 bf d2 4a 37 3e f7 14 a0 be 31 54 1b 3f
       -0.6258848 0.17899635 -0.31265995 0.6067534
000300 bc 85 a6 3f a9 87 95 3f dc 4e b9 3f 27 d7 14 bf
       1.3009562 1.1682025 1.4477191 -0.58140796
000310 25 d9 12 bf 43 52 13 bf 18 e0 8b bf b0 67 19 3f
       -0.57362586 -0.57547396 -1.0927763 0.5992384
000320 10 f2 4c bf 12 57 50 bf b2 43 60 bf 3f 73 63 3f
       -0.8005686 -0.8138286 -0.87603295 0.88847727
000330 48 83 39 bf d7 cf 1d be 76 b8 b6 3e 7b 1b 6c 3f
       -0.72465944 -0.15411316 0.35687608 0.9222943
000340 9f 93 3a 3f e6 bd 26 be e2 f6 62 bf 3d 3b d1 3e
       0.728815 -0.16283378 -0.88657963 0.40865508
000350 c0 a0 36 3f 7b 69 55 bd 5a 27 95 bf e2 5e 90 bf
       0.71339035 -0.052102547 -1.1652634 -1.1278956
000360 fa 2f 8b bf 8d 09 92 3f 8f 61 92 3f 73 48 ae 3f
       -1.0874016 1.1409165 1.1436023 1.361586
000370 d3 d5 0e 3e f0 3b 80 be 64 d2 2a bf 4e 10 21 3f
       0.13948755 -0.2504573 -0.6672728 0.62915504
000380 21 29 19 be 45 b4 ca 3d f7 19 39 bf b6 73 2c 3f
       -0.14957096 0.09897665 -0.72305244 0.6736406
000390 b0 b5 4f bf 04 60 63 bf 3e ab b2 3e 3a 43 88 be
       -0.8113661 -0.88818383 0.34896272 -0.2661379
0003a0 ec 72 2a bf 54 e9 4c 3f f4 0f 41 3e 78 9e 0a bf
       -0.66581607 0.8004353 0.18853742 -0.54148054
0003b0 33 da c6 bf e2 0a ce bf a4 12 b9 bf 40 a1 19 3f
       -1.5535339 -1.6097071 -1.4458814 0.6001167
0003c0 bf d4 3b 3f 6d 87 1b 3f d4 f9 a9 bd 24 c8 b2 be
       0.733715 0.6075352 -0.08299604 -0.3491832
0003d0 82 f5 11 bf 01 55 cc 3e 97 41 44 3f 88 c4 40 3f
       -0.5701524 0.39908603 0.7666258 0.7529988
0003e0 62 82 36 3f 4a d3 3c bf e0 c4 c6 be bc dc 12 bf
       0.712927 -0.737599 -0.3882208 -0.57368064
0003f0 34 4d 8d be 66 53 11 bf 16 74 65 3e bb e8 45 3f
       -0.27597964 -0.5676788 0.22407565 0.77308244

layers.embed.emb.weight f4 [22, 22]
000000 00 00 80 3f 00 00 00 00 00 00 00 00 00 00 00 00
       1.0 0.0 0.0 0.0
000010 00 00 00 00 00 00 00 00 00 00 00 00 00 00 00 00
       0.0 0.0 0.0 0.0
000020 00 00 00 00 00 00 00 00 00 00 00 00 00 00 00 00
       0.0 0.0 0.0 0.0
000030 00 00 00 00 00 00 00 00 00 00 00 00 00 00 00 00
       0.0 0.0 0.0 0.0
000040 00 00 00 00 00 00 00 00 00 00 00 00 00 00 00 00
       0.0 0.0 0.0 0.0
000050 00 00 00 00 00 00 00 00 00 00 00 00 00 00 80 3f
       0.0 0.0 0.0 1.0
000060 00 00 00 00 00 00 00 00 00 00 00 00 00 00 00 00
       0.0 0.0 0.0 0.0
000070 00 00 00 00 00 00 00 00 00 00 00 00 00 00 00 00
       0.0 0.0 0.0 0.0
000080 00 00 00 00 00 00 00 00 00 00 00 00 00 00 00 00
       0.0 0.0 0.0 0.0
000090 00 00 00 00 00 00 00 00 00 00 00 00 00 00 00 00
       0.0 0.0 0.0 0.0
0000a0 00 00 00 00 00 00 00 00 00 00 00 00 00 00 00 00
       0.0 0.0 0.0 0.0
0000b0 00 00 00 00 00 00 00 00 00 00 80 3f 00 00 00 00
       0.0 0.0 1.0 0.0
0000c0 00 00 00 00 00 00 00 00 00 00 00 00 00 00 00 00
       0.0 0.0 0.0 0.0
0000d0 00 00 00 00 00 00 00 00 00 00 00 00 00 00 00 00
       0.0 0.0 0.0 0.0
0000e0 00 00 00 00 00 00 00 00 00 00 00 00 00 00 00 00
       0.0 0.0 0.0 0.0
0000f0 00 00 00 00 00 00 00 00 00 00 00 00 00 00 00 00
       0.0 0.0 0.0 0.0
000100 00 00 00 00 00 00 00 00 00 00 00 00 00 00 00 00
       0.0 0.0 0.0 0.0
000110 00 00 00 00 00 00 80 3f 00 00 00 00 00 00 00 00
       0.0 1.0 0.0 0.0
000120 00 00 00 00 00 00 00 00 00 00 00 00 00 00 00 00
       0.0 0.0 0.0 0.0
000130 00 00 00 00 00 00 00 00 00 00 00 00 00 00 00 00
       0.0 0.0 0.0 0.0
000140 00 00 00 00 00 00 00 00 00 00 00 00 00 00 00 00
       0.0 0.0 0.0 0.0
000150 00 00 00 00 00 00 00 00 00 00 00 00 00 00 00 00
       0.0 0.0 0.0 0.0
000160 00 00 00 00 00 00 00 00 00 00 00 00 00 00 00 00
       0.0 0.0 0.0 0.0
000170 00 00 80 3f 00 00 00 00 00 00 00 00 00 00 00 00
       1.0 0.0 0.0 0.0
000180 00 00 00 00 00 00 00 00 00 00 00 00 00 00 00 00
       0.0 0.0 0.0 0.0
000190 00 00 00 00 00 00 00 00 00 00 00 00 00 00 00 00
       0.0 0.0 0.0 0.0
0001a0 00 00 00 00 00 00 00 00 00 00 00 00 00 00 00 00
       0.0 0.0 0.0 0.0
0001b0 00 00 00 00 00 00 00 00 00 00 00 00 00 00 00 00
       0.0 0.0 0.0 0.0
0001c0 00 00 00 00 00 00 00 00 00 00 00 00 00 00 80 3f
       0.0 0.0 0.0 1.0
0001d0 00 00 00 00 00 00 00 00 00 00 00 00 00 00 00 00
       0.0 0.0 0.0 0.0
0001e0 00 00 00 00 00 00 00 00 00 00 00 00 00 00 00 00
       0.0 0.0 0.0 0.0
0001f0 00 00 00 00 00 00 00 00 00 00 00 00 00 00 00 00
       0.0 0.0 0.0 0.0
000200 00 00 00 00 00 00 00 00 00 00 00 00 00 00 00 00
       0.0 0.0 0.0 0.0
000210 00 00 00 00 00 00 00 00 00 00 00 00 00 00 00 00
       0.0 0.0 0.0 0.0
000220 00 00 00 00 00 00 00 00 00 00 80 3f 00 00 00 00
       0.0 0.0 1.0 0.0
000230 00 00 00 00 00 00 00 00 00 00 00 00 00 00 00 00
       0.0 0.0 0.0 0.0
000240 00 00 00 00 00 00 00 00 00 00 00 00 00 00 00 00
       0.0 0.0 0.0 0.0
000250 00 00 00 00 00 00 00 00 00 00 00 00 00 00 00 00
       0.0 0.0 0.0 0.0
000260 00 00 00 00 00 00 00 00 00 00 00 00 00 00 00 00
       0.0 0.0 0.0 0.0
000270 00 00 00 00 00 00 00 00 00 00 00 00 00 00 00 00
       0.0 0.0 0.0 0.0
000280 00 00 00 00 00 00 80 3f 00 00 00 00 00 00 00 00
       0.0 1.0 0.0 0.0
000290 00 00 00 00 00 00 00 00 00 00 00 00 00 00 00 00
       0.0 0.0 0.0 0.0
0002a0 00 00 00 00 00 00 00 00 00 00 00 00 00 00 00 00
       0.0 0.0 0.0 0.0
0002b0 00 00 00 00 00 00 00 00 00 00 00 00 00 00 00 00
       0.0 0.0 0.0 0.0
0002c0 00 00 00 00 00 00 00 00 00 00 00 00 00 00 00 00
       0.0 0.0 0.0 0.0
0002d0 00 00 00 00 00 00 00 00 00 00 00 00 00 00 00 00
       0.0 0.0 0.0 0.0
0002e0 00 00 80 3f 00 00 00 00 00 00 00 00 00 00 00 00
       1.0 0.0 0.0 0.0
0002f0 00 00 00 00 00 00 00 00 00 00 00 00 00 00 00 00
       0.0 0.0 0.0 0.0
000300 00 00 00 00 00 00 00 00 00 00 00 00 00 00 00 00
       0.0 0.0 0.0 0.0
000310 00 00 00 00 00 00 00 00 00 00 00 00 00 00 00 00
       0.0 0.0 0.0 0.0
000320 00 00 00 00 00 00 00 00 00 00 00 00 00 00 00 00
       0.0 0.0 0.0 0.0
000330 00 00 00 00 00 00 00 00 00 00 00 00 00 00 80 3f
       0.0 0.0 0.0 1.0
000340 00 00 00 00 00 00 00 00 00 00 00 00 00 00 00 00
       0.0 0.0 0.0 0.0
000350 00 00 00 00 00 00 00 00 00 00 00 00 00 00 00 00
       0.0 0.0 0.0 0.0
000360 00 00 00 00 00 00 00 00 00 00 00 00 00 00 00 00
       0.0 0.0 0.0 0.0
000370 00 00 00 00 00 00 00 00 00 00 00 00 00 00 00 00
       0.0 0.0 0.0 0.0
000380 00 00 00 00 00 00 00 00 00 00 00 00 00 00 00 00
       0.0 0.0 0.0 0.0
000390 00 00 00 00 00 00 00 00 00 00 80 3f 00 00 00 00
       0.0 0.0 1.0 0.0
0003a0 00 00 00 00 00 00 00 00 00 00 00 00 00 00 00 00
       0.0 0.0 0.0 0.0
0003b0 00 00 00 00 00 00 00 00 00 00 00 00 00 00 00 00
       0.0 0.0 0.0 0.0
0003c0 00 00 00 00 00 00 00 00 00 00 00 00 00 00 00 00
       0.0 0.0 0.0 0.0
0003d0 00 00 00 00 00 00 00 00 00 00 00 00 00 00 00 00
       0.0 0.0 0.0 0.0
0003e0 00 00 00 00 00 00 00 00 00 00 00 00 00 00 00 00
       0.0 0.0 0.0 0.0
0003f0 00 00 00 00 00 00 80 3f 00 00 00 00 00 00 00 00
       0.0 1.0 0.0 0.0

layers.lm_head.proj.bias f4 [22]
000000 41 0b 5e bf 00 62 63 bf 06 c4 37 bf 10 89 25 3f
       -0.8673592 -0.8882141 -0.71783483 0.64662266
000010 f2 31 73 bc c8 13 bc 3c bf 2c a3 3d 4a 7f 57 3e
       -0.014843451 0.022958651 0.07967519 0.2104465
000020 4d 3e 8d 3e ec 65 8c 3e a5 b8 3b 3e cf 4e e3 3d
       0.27586594 0.2742151 0.18332155 0.11099016
000030 3a c9 15 3e f7 1a 02 bd 80 5a 42 3d 1d ad ed bd
       0.14627543 -0.031763997 0.04744959 -0.11605284
000040 9c d0 dd bb 68 3e 1e 3e 1a 75 e9 3d 91 90 29 3e
       -0.006769253 0.15453494 0.113992885 0.16559054
000050 ea 8d 8c 3e 10 b3 14 bd
       0.27452022 -0.03630358

layers.lm_head.proj.weight f4 [22, 16]
000000 db 5b 8c 3e ed c3 a3 bd f9 3b dd be 82 5c 9b bb
       0.2741383 -0.07996354 -0.43209818 -0.0047412524
000010 6a 50 62 3e f5 86 10 3e 07 d1 c6 3d c7 fc f6 3d
       0.22100988 0.14113982 0.097078376 0.12059932
000020 ca 8c 85 3d 51 4b fd bd b0 ed b0 3e 21 20 9a bd
       0.06520994 -0.12367881 0.3455634 -0.07525659
000030 cb 62 5a be 61 80 88 be 8f ac 9a be 5b cc 92 3e
       -0.21326749 -0.26660445 -0.30209777 0.28671536
000040 ab 98 0b 3b d8 42 2f be 3e e9 c3 be 42 bc 01 be
       0.0021300714 -0.17115343 -0.38263887 -0.12669471
000050 04 af 44 3d 8a 5e 4a bd a3 76 06 3d 42 d1 76 3e
       0.04801847 -0.049406566 0.032827985 0.24103263
000060 23 88 f9 3d f4 06 72 bd c8 e6 09 3f 07 47 91 be
       0.12184169 -0.059088662 0.5386777 -0.28374502
000070 cc f4 36 be c9 7c c8 3d b5 26 53 be 4a d0 63 3e
       -0.1786682 0.09789426 -0.20620234 0.22247425
000080 32 fd 0a bd 2f 76 36 be d9 66 ae be ad 84 c6 3b
       -0.033932872 -0.17818521 -0.34062842 0.0060582967
000090 4d 9b a9 3e c8 5a a3 3d 39 86 c3 bd 65 03 65 3e
       0.33126298 0.079762995 -0.09547085 0.22364576
0000a0 50 82 2c 3c 62 dc 54 be 01 74 13 3f 68 14 92 be
       0.010529116 -0.20787194 0.5759888 -0.28531194
0000b0 17 90 12 be 4c da 5b be 74 af e2 be 24 5b fd 3d
       -0.14312778 -0.21469992 -0.44274485 0.12370899
0000c0 12 24 0b 3f 98 89 87 bf a5 46 b1 bf e0 d4 99 3f
       0.54351914 -1.0588865 -1.3849684 1.2018089
0000d0 42 fd 36 bf a3 57 ad bf 37 79 b6 3d 8c 07 02 3f
       -0.7148019 -1.354237 0.08909839 0.50792766
0000e0 be ca a5 3f 32 6c 8a 3f 6a 29 77 3f 26 50 a7 bf
       1.2952497 1.0814269 0.9654757 -1.3071334
0000f0 0a 3d 2f bf 89 4a 00 bf 32 4a 03 3e 65 46 0e bf
       -0.68452513 -0.5011373 0.12821272 -0.55576164
000100 51 96 11 3f e7 dd 2d 3f 53 b8 97 3d 4f 75 e0 3d
       0.5686999 0.6791672 0.07408204 0.10959875
000110 a9 35 4d bf 82 e2 41 bf 1e 03 09 3e 49 df f4 be
       -0.80160004 -0.7573625 0.13380095 -0.47826603
000120 8d 46 01 bf 35 0e 36 bf 6b 65 4a 3e 03 be b2 3e
       -0.50498277 -0.7111543 0.1976525 0.34910592
000130 c2 d0 81 3e 27 d5 c5 3e 19 e6 23 bf 3c 69 ed be
       0.25354582 0.38639185 -0.64022976 -0.4636935
000140 48 1f 4f 3f 32 81 2a 3f 3a 11 9c 3e 75 e3 87 3e
       0.80907106 0.66603386 0.30481893 0.26540723
000150 c6 b1 31 bf d0 6f 26 bf 1d 80 36 3e 0a 9a 86 be
       -0.69411886 -0.6501436 0.17822309 -0.26289397
000160 6f 59 19 bf b4 0c 2b bf 64 8b c4 3d ae 91 bf 3d
       -0.5990209 -0.6681626 0.09596899 0.09353958
000170 a9 38 8f 3e 8f 29 1d 3f ae df 45 bf e0 00 e1 be
       0.27972916 0.6139154 -0.77294433 -0.4394598
000180 7f fc 09 3f fa 91 14 3f 8f b4 50 3e 7b 42 87 3e
       0.53900903 0.5803524 0.20381378 0.26417908
000190 cc 3c 5c bf b4 74 36 bf b1 c6 dc 3d 0b d6 bc be
       -0.8603027 -0.71271825 0.10780085 -0.36882052
0001a0 d5 8d 07 bf 98 ba 1f bf b7 70 1b 3e 3d fc 95 3e
       -0.52950794 -0.62394094 0.15179716 0.29294005
0001b0 c2 cc 58 3e ee cb 11 3f 8e 23 3a bf 3f d6 ca be
       0.21171859 0.56951797 -0.727105 -0.39616582
0001c0 e7 e2 45 bf a4 30 28 3f c3 71 96 3e f9 b9 fc bf
       -0.7729935 0.6569922 0.29383668 -1.9744254
0001d0 ac e2 80 3f ce 11 fa 3e c4 63 e3 3e 62 7d 16 bf
       1.0069175 0.4884171 0.44412053 -0.5878507
0001e0 bc 63 0c 40 20 50 bb 3f 73 cc b4 3f c9 b0 0c bf
       2.1935873 1.4633827 1.4124893 -0.5495725
0001f0 b0 2f 0a 3e 07 a7 23 3f c7 3d 6a be db 68 52 3f
       0.13494754 0.6392674 -0.22875129 0.82191247
000200 fb ce 40 bf 98 e2 26 3f b0 17 02 3f 33 22 fe bf
       -0.7531583 0.65189505 0.50817394 -1.9854187
000210 7e 0e 83 3f 5c 7a 03 3f 20 e9 fa 3e b4 7b d5 be
       1.0238798 0.5135858 0.49005985 -0.4169594
000220 3d 3b 04 40 43 8d b3 3f d3 46 b8 3f d4 6b f4 be
       2.0661156 1.4027485 1.4396614 -0.47738516
000230 8c ff 41 3e 16 b5 25 3f 9a 14 73 be 0b ad 4e 3f
       0.1894514 0.6472944 -0.23738328 0.8073279
000240 0a 0f 4a bf 09 e7 44 3f 64 3c a6 3e 46 60 fe bf
       -0.789292 0.7691503 0.3246795 -1.987313
000250 19 0f 84 3f e9 a0 08 3f 58 e8 01 3f 81 96 ed be
       1.0317107 0.5337053 0.50745153 -0.46403888
000260 84 90 0a 40 0d f8 c1 3f a0 b9 b0 3f 8e 42 f5 be
       2.1650705 1.5153824 1.3806648 -0.4790234
000270 13 56 63 3e fb dc 30 3f 35 ad 88 be 40 37 3f 3f
       0.22200803 0.6908719 -0.26694646 0.7469368
000280 d6 6c 4c 3f 08 b0 d8 3e c9 8d d2 3d c7 ae 7c 3e
       0.7985357 0.423218 0.102809496 0.24676047
000290 09 9b cc be bf df 3e bf c1 df 20 bd b2 06 f4 be
       -0.39962032 -0.7456016 -0.03927589 -0.47661358
0002a0 fa da 34 bf 8b c7 3a bf b9 fa 3d 3e 0b 26 9d 3e
       -0.7064663 -0.7296073 0.18552674 0.30693087
0002b0 a3 38 a1 3e 1b 9e f0 3e 2b b5 33 bf 8c 0e bf be
       0.31488523 0.46995625 -0.70198315 -0.37315786
0002c0 2d ef 42 3f bd 14 d3 3e e4 7f 72 3e 2f 33 c8 3e
       0.76146203 0.4122676 0.23681599 0.3910155
0002d0 3b cb 52 bf 11 bd 3b bf 0f 4d 98 3d a1 48 e3 be
       -0.82341355 -0.7333537 0.07436573 -0.4439135
0002e0 87 c4 e4 be 16 af 3c bf 6a cc 06 3e c8 2a be 3e
       -0.44681188 -0.7370466 0.13163915 0.37142015
0002f0 60 47 aa 3e f8 f9 de 3e 4f 71 3d bf 97 49 ca be
       0.3325758 0.43550086 -0.7400102 -0.3950927
000300 74 ae 21 3f 79 c2 14 3f b9 15 39 3e 23 f9 66 3e
       0.6315682 0.5810924 0.18074693 0.22555976
000310 68 81 20 bf bf d7 30 bf c4 e5 8a bc 10 d8 cf be
       -0.6269746 -0.690792 -0.016955264 -0.4059453
000320 5e 0a 09 bf 16 16 27 bf 10 ba 23 3e 29 3c ce 3e
       -0.53531444 -0.65268075 0.15988946 0.40280274
000330 e1 e3 cd 3e d9 ca f7 3e 33 94 35 bf 9a 12 f9 be
       0.4021292 0.48396948 -0.7092926 -0.48647004
000340 9c bc 40 bf 28 9e db 3d 76 f0 51 3e f7 05 35 40
       -0.75287795 0.10723525 0.20501885 2.828489
000350 dc 9b 2f 3f 8c c4 a1 3e 98 27 91 3e 53 90 e4 be
       0.685972 0.31595266 0.2835052 -0.4464136
000360 91 30 49 bf b7 35 a0 bf 6b 6c e6 bf eb 97 3c be
       -0.7858973 -1.2516392 -1.8001837 -0.18417327
000370 aa a5 e2 bd f6 58 7e be 60 be 48 3f fe ed 6c 3f
       -0.11066754 -0.24838623 0.7841549 0.9255065
000380 b9 d8 1a bf 53 fb 49 3d f1 14 cf 3e 34 8c 32 40
       -0.6048694 0.049311947 0.40445665 2.7898073
000390 f4 c8 61 3f 18 00 8c 3e c4 ee be 3d 7e 26 0e bf
       0.88197255 0.27343822 0.09322885 -0.55527484
0003a0 99 38 4a bf 79 19 a3 bf d2 f0 da bf eb 75 68 be
       -0.7899261 -1.2742149 -1.7104743 -0.22701232
0003b0 54 26 67 bd 5e 10 32 be 84 97 49 3f d6 b5 50 3f
       -0.056433037 -0.17389056 0.7874682 0.8152746
0003c0 f4 11 33 bf 2c 84 a6 3d 7e d2 ce 3e 27 19 37 40
       -0.6994927 0.081306785 0.40394968 2.8609102
0003d0 f1 06 4b 3f d8 2b 8e 3e 72 a5 60 3e 34 7b cc be
       0.79307467 0.27767825 0.21938112 -0.39937747
0003e0 84 58 3d bf d4 c8 9a bf ac b1 e1 bf fb 8a 6c be
       -0.7396319 -1.2092538 -1.7632346 -0.23099892
0003f0 a7 9d 9c bd 4d a8 46 be 9a 96 44 3f b7 16 51 3f
       -0.07647257 -0.19400139 0.767923 0.81675285
