ayb_2022/lstm-16/run_4/export/model.safetensors (safetensors, 12432 bytes, 5 tensors)

layers_by_name.embed.emb.weight f4 [19, 19]
000000 00 00 80 3f 00 00 00 00 00 00 00 00 00 00 00 00
       1.0 0.0 0.0 0.0
000010 00 00 00 00 00 00 00 00 00 00 00 00 00 00 00 00
       0.0 0.0 0.0 0.0
000020 00 00 00 00 00 00 00 00 00 00 00 00 00 00 00 00
       0.0 0.0 0.0 0.0
000030 00 00 00 00 00 00 00 00 00 00 00 00 00 00 00 00
       0.0 0.0 0.0 0.0
000040 00 00 00 00 00 00 00 00 00 00 00 00 00 00 00 00
       0.0 0.0 0.0 0.0
000050 00 00 80 3f 00 00 00 00 00 00 00 00 00 00 00 00
       1.0 0.0 0.0 0.0
000060 00 00 00 00 00 00 00 00 00 00 00 00 00 00 00 00
       0.0 0.0 0.0 0.0
000070 00 00 00 00 00 00 00 00 00 00 00 00 00 00 00 00
       0.0 0.0 0.0 0.0
000080 00 00 00 00 00 00 00 00 00 00 00 00 00 00 00 00
       0.0 0.0 0.0 0.0
000090 00 00 00 00 00 00 00 00 00 00 00 00 00 00 00 00
       0.0 0.0 0.0 0.0
0000a0 00 00 80 3f 00 00 00 00 00 00 00 00 00 00 00 00
       1.0 0.0 0.0 0.0
0000b0 00 00 00 00 00 00 00 00 00 00 00 00 00 00 00 00
       0.0 0.0 0.0 0.0
0000c0 00 00 00 00 00 00 00 00 00 00 00 00 00 00 00 00
       0.0 0.0 0.0 0.0
0000d0 00 00 00 00 00 00 00 00 00 00 00 00 00 00 00 00
       0.0 0.0 0.0 0.0
0000e0 00 00 00 00 00 00 00 00 00 00 00 00 00 00 00 00
       0.0 0.0 0.0 0.0
0000f0 00 00 80 3f 00 00 00 00 00 00 00 00 00 00 00 00
       1.0 0.0 0.0 0.0
000100 00 00 00 00 00 00 00 00 00 00 00 00 00 00 00 00
       0.0 0.0 0.0 0.0
000110 00 00 00 00 00 00 00 00 00 00 00 00 00 00 00 00
       0.0 0.0 0.0 0.0
000120 00 00 00 00 00 00 00 00 00 00 00 00 00 00 00 00
       0.0 0.0 0.0 0.0
000130 00 00 00 00 00 00 00 00 00 00 00 00 00 00 00 00
       0.0 0.0 0.0 0.0
000140 00 00 80 3f 00 00 00 00 00 00 00 00 00 00 00 00
       1.0 0.0 0.0 0.0
000150 00 00 00 00 00 00 00 00 00 00 00 00 00 00 00 00
       0.0 0.0 0.0 0.0
000160 00 00 00 00 00 00 00 00 00 00 00 00 00 00 00 00
       0.0 0.0 0.0 0.0
000170 00 00 00 00 00 00 00 00 00 00 00 00 00 00 00 00
       0.0 0.0 0.0 0.0
000180 00 00 00 00 00 00 00 00 00 00 00 00 00 00 00 00
       0.0 0.0 0.0 0.0
000190 00 00 80 3f 00 00 00 00 00 00 00 00 00 00 00 00
       1.0 0.0 0.0 0.0
0001a0 00 00 00 00 00 00 00 00 00 00 00 00 00 00 00 00
       0.0 0.0 0.0 0.0
0001b0 00 00 00 00 00 00 00 00 00 00 00 00 00 00 00 00
       0.0 0.0 0.0 0.0
0001c0 00 00 00 00 00 00 00 00 00 00 00 00 00 00 00 00
       0.0 0.0 0.0 0.0
0001d0 00 00 00 00 00 00 00 00 00 00 00 00 00 00 00 00
       0.0 0.0 0.0 0.0
0001e0 00 00 80 3f 00 00 00 00 00 00 00 00 00 00 00 00
       1.0 0.0 0.0 0.0
0001f0 00 00 00 00 00 00 00 00 00 00 00 00 00 00 00 00
       0.0 0.0 0.0 0.0
000200 00 00 00 00 00 00 00 00 00 00 00 00 00 00 00 00
       0.0 0.0 0.0 0.0
000210 00 00 00 00 00 00 00 00 00 00 00 00 00 00 00 00
       0.0 0.0 0.0 0.0
000220 00 00 00 00 00 00 00 00 00 00 00 00 00 00 00 00
       0.0 0.0 0.0 0.0
000230 00 00 80 3f 00 00 00 00 00 00 00 00 00 00 00 00
       1.0 0.0 0.0 0.0
000240 00 00 00 00 00 00 00 00 00 00 00 00 00 00 00 00
       0.0 0.0 0.0 0.0
000250 00 00 00 00 00 00 00 00 00 00 00 00 00 00 00 00
       0.0 0.0 0.0 0.0
000260 00 00 00 00 00 00 00 00 00 00 00 00 00 00 00 00
       0.0 0.0 0.0 0.0
000270 00 00 00 00 00 00 00 00 00 00 00 00 00 00 00 00
       0.0 0.0 0.0 0.0
000280 00 00 80 3f 00 00 00 00 00 00 00 00 00 00 00 00
       1.0 0.0 0.0 0.0
000290 00 00 00 00 00 00 00 00 00 00 00 00 00 00 00 00
       0.0 0.0 0.0 0.0
0002a0 00 00 00 00 00 00 00 00 00 00 00 00 00 00 00 00
       0.0 0.0 0.0 0.0
0002b0 00 00 00 00 00 00 00 00 00 00 00 00 00 00 00 00
       0.0 0.0 0.0 0.0
0002c0 00 00 00 00 00 00 00 00 00 00 00 00 00 00 00 00
       0.0 0.0 0.0 0.0
0002d0 00 00 80 3f 00 00 00 00 00 00 00 00 00 00 00 00
       1.0 0.0 0.0 0.0
0002e0 00 00 00 00 00 00 00 00 00 00 00 00 00 00 00 00
       0.0 0.0 0.0 0.0
0002f0 00 00 00 00 00 00 00 00 00 00 00 00 00 00 00 00
       0.0 0.0 0.0 0.0
000300 00 00 00 00 00 00 00 00 00 00 00 00 00 00 00 00
       0.0 0.0 0.0 0.0
000310 00 00 00 00 00 00 00 00 00 00 00 00 00 00 00 00
       0.0 0.0 0.0 0.0
000320 00 00 80 3f 00 00 00 00 00 00 00 00 00 00 00 00
       1.0 0.0 0.0 0.0
000330 00 00 00 00 00 00 00 00 00 00 00 00 00 00 00 00
       0.0 0.0 0.0 0.0
000340 00 00 00 00 00 00 00 00 00 00 00 00 00 00 00 00
       0.0 0.0 0.0 0.0
000350 00 00 00 00 00 00 00 00 00 00 00 00 00 00 00 00
       0.0 0.0 0.0 0.0
000360 00 00 00 00 00 00 00 00 00 00 00 00 00 00 00 00
       0.0 0.0 0.0 0.0
000370 00 00 80 3f 00 00 00 00 00 00 00 00 00 00 00 00
       1.0 0.0 0.0 0.0
000380 00 00 00 00 00 00 00 00 00 00 00 00 00 00 00 00
       0.0 0.0 0.0 0.0
000390 00 00 00 00 00 00 00 00 00 00 00 00 00 00 00 00
       0.0 0.0 0.0 0.0
0003a0 00 00 00 00 00 00 00 00 00 00 00 00 00 00 00 00
       0.0 0.0 0.0 0.0
0003b0 00 00 00 00 00 00 00 00 00 00 00 00 00 00 00 00
       0.0 0.0 0.0 0.0
0003c0 00 00 80 3f 00 00 00 00 00 00 00 00 00 00 00 00
       1.0 0.0 0.0 0.0
0003d0 00 00 00 00 00 00 00 00 00 00 00 00 00 00 00 00
       0.0 0.0 0.0 0.0
0003e0 00 00 00 00 00 00 00 00 00 00 00 00 00 00 00 00
       0.0 0.0 0.0 0.0
0003f0 00 00 00 00 00 00 00 00 00 00 00 00 00 00 00 00
       0.0 0.0 0.0 0.0

layers_by_name.lm_head.proj.bias f4 [19]
000000 4e 8c 9a c0 35 3c 99 c0 50 27 57 c0 76 91 11 3d
       -4.829627 -4.7885995 -3.3617744 0.035539113
000010 39 97 05 3d a6 94 bf 3d ce 17 2a be 54 2a 0b be
       0.03261492 0.09354524 -0.16610643 -0.13590366
000020 92 25 0c be 34 ec 33 3d 54 ec 86 bc ca a1 6f 3d
       -0.13686207 0.043926433 -0.016470112 0.058503903
000030 cc 95 8b be f7 d9 0d 3e a5 a4 f8 bc f1 ef 05 be
       -0.27262723 0.13852678 -0.030351946 -0.13079812
000040 26 48 2d be bf 9c 04 be 2c 69 99 c0
       -0.16922054 -0.12950419 -4.7940884

layers_by_name.lm_head.proj.weight f4 [19, 16]
000000 5e 90 21 be 5d 9a f4 bd 7f 34 a1 40 a2 f0 f7 3e
       -0.15777728 -0.11943505 5.037658 0.48425776
000010 52 df 4e 3f 75 d0 28 c1 b8 9a 65 bf a6 62 92 bf
       0.8080951 -10.550893 -0.8968921 -1.1436355
000020 5c c9 a1 bf dc d0 cc 40 fc 90 87 be 12 b1 06 41
       -1.2639575 6.4004955 -0.26477802 8.41823
000030 85 2f 01 40 4f ef 21 40 4b c2 9c bf eb 6c 01 c0
       2.0185254 2.5302312 -1.2246794 -2.0222728
000040 00 8f 45 be 96 82 74 bc 89 d7 a4 40 ec 49 10 3f
       -0.19292831 -0.014923712 5.1513104 0.56362796
000050 d9 7f f4 3e 81 88 2a c1 25 d1 6f bf 94 1f 88 bf
       0.4775379 -10.658326 -0.93678504 -1.0634637
000060 09 4e a8 bf fa 65 ca 40 b2 b2 2e be 65 c2 03 41
       -1.3148814 6.3249483 -0.17060354 8.23496
000070 63 56 ff 3f 4c 32 23 40 aa 94 aa bf 5d 53 f6 bf
       1.9948238 2.5499449 -1.3326619 -1.924419
000080 95 ef 46 c0 e8 db 12 c0 2b 06 ce be 7a b8 50 40
       -3.108373 -2.294672 -0.4023908 3.2612596
000090 f7 ad 8d c0 68 bc ec c0 4c e7 36 c0 ad 2e d1 40
       -4.427486 -7.397999 -2.8578672 6.5369477
0000a0 11 cd 88 bf a9 9f 1a 41 ca 7c b9 3f 8b 5a 47 41
       -1.0687581 9.66398 1.4491208 12.459605
0000b0 89 c8 e0 bf 16 64 b2 40 00 cf 82 3e eb 36 ce 3f
       -1.7561198 5.5747175 0.25548553 1.611051
0000c0 5a 1e 85 3f 0c a0 57 3f 5e d5 85 40 92 da 26 be
       1.0399888 0.8422859 4.182296 -0.16294315
0000d0 30 e5 5a bf b3 b6 88 3f 60 e1 88 3f ba ec 10 3e
       -0.8550596 1.0680755 1.0693779 0.14152804
0000e0 3c 3d e4 bf bd 4a 8d 3f ef 20 29 3f e8 f3 20 40
       -1.7831187 1.1038433 0.6606588 2.5148869
0000f0 61 49 c4 3f 4a 5f c0 3f be d8 b3 bf 15 ea 20 3f
       1.5334893 1.502908 -1.405052 0.6285718
000100 54 d2 84 3f f1 53 1e 3f 2c 08 77 40 fa f3 d5 bd
       1.0376687 0.61846834 3.8598738 -0.104469255
000110 e2 7d 39 bf c8 d8 5b 3f 35 c4 65 3f 4d b7 54 be
       -0.72457707 0.85877657 0.89752513 -0.20773049
000120 e3 07 00 c0 a8 57 47 3f 61 c9 19 3f 0f 5a 25 40
       -2.0004814 0.7786813 0.60072905 2.5836217
000130 22 c2 c3 3f d0 19 b7 3f 0b 63 95 bf ac 8a 97 3f
       1.529362 1.4304752 -1.167085 1.1839194
000140 f2 fe 88 3f 05 78 6e 3f d7 8b 88 40 2a 5b 74 be
       1.0702803 0.93151885 4.2670703 -0.23862901
000150 1e 69 5a bf 7d 12 5c 3f 32 80 84 3f be 50 4f bd
       -0.85316646 0.8596571 1.0351622 -0.05061411
000160 61 69 d4 bf 83 4d c1 3f a4 cd 20 3f 51 67 23 40
       -1.6594659 1.510178 0.6281378 2.553181
000170 96 cd bb 3f eb 8d aa 3f a9 49 b9 bf d2 d7 10 3f
       1.4672115 1.332456 -1.4475604 0.56579316
000180 a0 cb ac 3f 4c 77 ab bf a2 49 74 40 ec ba 96 bf
       1.3499641 -1.3395782 3.8169942 -1.1775794
000190 ab b7 35 3f 81 31 ad c0 a4 4a 95 3f b3 a0 bc 3f
       0.7098338 -5.412293 1.1663404 1.4736542
0001a0 98 a2 a2 3e 16 00 91 bf 4f f5 cf 3f 75 03 0c 40
       0.31764674 -1.1328151 1.6246737 2.187711
0001b0 99 fe da bf 66 84 54 3e f9 2e a2 3f 6a af ea bf
       -1.7108947 0.20753631 1.2670585 -1.8334782
0001c0 bf 1a 9b bd 10 c7 c4 bf a0 00 69 40 21 97 e0 3f
       -0.07573461 -1.5373249 3.6406631 1.7546121
0001d0 00 b0 3b 3f 71 b4 ae c0 26 c2 a3 3f 26 69 be 3f
       0.7331543 -5.4595265 1.2793624 1.4875839
0001e0 63 6d a8 3e 71 22 c2 bf 5e 8f b5 3f 17 2b 9a 40
       0.32895955 -1.5166761 1.4184377 4.81776
0001f0 0d dc 1a bf 3c ce a0 bf 14 ca 4c 3f 2e 0b 9b bf
       -0.6049202 -1.2562938 0.79995847 -1.2112787
000200 2f 56 14 c0 53 db c3 bf 88 b0 75 40 ce af 44 bd
       -2.3177602 -1.5301307 3.8388996 -0.048019223
000210 86 13 2b 3f 2a 49 ae c0 8e dc 90 3f d2 2d c0 3f
       0.66826665 -5.446431 1.1317308 1.5013983
000220 c7 02 66 be b4 ae fe bf 1f a1 a3 3f 58 af 0a 40
       -0.22461997 -1.9897065 1.2783545 2.1669521
000230 a9 98 51 bf d4 7b 98 bd 13 68 0b 3f 58 ef 95 bf
       -0.81873566 -0.07445493 0.5445568 -1.1713667
000240 d4 e5 86 3f fe 70 2e 3f ff 4f 8b 40 be 2b d9 bd
       1.0538888 0.6814116 4.353515 -0.10604046
000250 53 ce 43 bf f9 c9 7f 3f 88 b6 7e 3f 0d 76 69 be
       -0.764867 0.9991756 0.9949727 -0.22798939
000260 62 0b e9 bf 9b 04 5e 3f fd e2 09 3f 78 6c 1a 40
       -1.8206599 0.8672578 0.5386198 2.4128704
000270 f3 1d c3 3f d8 da aa 3f 02 fc 98 bf 5b bd 4c 3f
       1.5243515 1.3348036 -1.1951907 0.79976434
000280 73 31 7f 3f 95 7a 34 3f 39 9f 7f 40 68 0e cc bd
       0.9968483 0.70499545 3.9940932 -0.09963685
000290 0e 2c 48 bf 61 79 81 3f 22 a9 86 3f 0a d8 08 be
       -0.7819222 1.0115167 1.0520365 -0.13363662
0002a0 4f 4a d7 bf e7 d6 3d 3f 1b 0e 14 3f ec 0d 13 40
       -1.6819552 0.7415604 0.57834023 2.2977247
0002b0 16 3d c5 3f d2 1f bf 3f 11 70 9d bf e1 67 81 3f
       1.5409267 1.4931586 -1.2299825 1.0109826
0002c0 2c d4 86 3f d7 96 72 3f 38 88 73 40 f2 21 42 be
       1.05335 0.94761413 3.8051891 -0.18958262
0002d0 c8 2e 53 bf 33 6c 6b 3f 9d 02 8a 3f f4 cd cd bd
       -0.8249326 0.91961974 1.0782048 -0.10049048
0002e0 b0 09 e8 bf 41 f3 96 3f 63 58 1a 3f 37 20 12 40
       -1.8127956 1.1792985 0.6029112 2.2832162
0002f0 e7 5b c1 3f b3 27 ac 3f c6 4c b2 bf aa f4 26 3f
       1.5106171 1.3449615 -1.3929679 0.6521708
000300 df c5 e6 3d bc 84 bc bf ba 10 5f 40 3a 3f f7 bf
       0.1126821 -1.4728007 3.485396 -1.931617
000310 75 69 69 3f 13 42 ad c0 9a 9e 47 bf c5 ef b9 3f
       0.9117654 -5.4143157 -0.7797638 1.4526297
000320 21 b2 3f be 78 90 b5 bf 95 4a bd bf 4d 99 c0 40
       -0.18720295 -1.4184713 -1.4788386 6.0187135
000330 2d 36 ca bf a3 1e f0 be d1 f0 a9 bf de e4 51 3f
       -1.5797783 -0.46898374 -1.3276616 0.8198985
000340 cf 9d 00 c0 87 ac f7 bf 29 b9 64 40 07 47 03 be
       -2.0096319 -1.9349526 3.5738013 -0.12820064
000350 ea e4 5f 3f 97 a5 ae c0 43 30 7a 3e 24 09 c1 3f
       0.8745867 -5.4577136 0.24432473 1.5080914
000360 e1 ea f6 3e 56 0c b7 bf d4 a1 ef bf 79 c9 da 40
       0.48226073 -1.430064 -1.8721261 6.837094
000370 87 85 5e 3e 68 44 37 bf 0b ad af bf 8c e4 4d 3f
       0.21730624 -0.71588755 -1.3724684 0.8042686
000380 32 47 ca 3f ce 8e bd bf c8 95 5e 40 28 11 09 bd
       1.5802977 -1.4809206 3.477892 -0.033463627
000390 1d fd 60 3f bc 52 ac c0 9d 1b 40 3e 8c f6 bd 3f
       0.8788622 -5.3850994 0.18760534 1.4840865
0003a0 62 8d b5 3f 9c bc b8 bf 68 59 dd bf d1 df d5 40
       1.4183772 -1.4432559 -1.729291 6.6835713
0003b0 40 76 c4 be d6 50 29 3e 7e 2e d7 bf 7e 59 57 3f
       -0.38371468 0.16534743 -1.6811063 0.8412093
0003c0 36 1e 14 bf 63 c7 85 3f 34 a1 2f bf 7b b4 10 3e
       -0.578586 1.0451473 -0.6860535 0.14131348
0003d0 59 bd 99 3f ad a0 48 c0 41 4b 72 bf a9 b0 9a bf
       1.2010909 -3.1348069 -0.9464608 -1.2085162
0003e0 77 f3 82 3f c6 40 ab 3f 78 95 77 bf bd 41 80 bf
       1.023055 1.3379142 -0.96712446 -1.0020062
0003f0 5e 3c 83 3f 0a a4 1b bd d8 b7 59 3f 72 78 a2 3e
       1.0252798 -0.037998237 0.8504615 0.31732517

layers_by_name.lstm.cell.gates.bias f4 [64]
000000 ef c4 8e 3f ba a0 d4 3f 10 01 59 3f a1 71 a5 3f
       1.1153849 1.661155 0.84767246 1.2925302
000010 fb 73 3a 3e 18 63 be 3e 69 41 c7 be 46 a2 94 3f
       0.18208306 0.37184978 -0.3891709 1.1612022
000020 76 d7 d3 3f 73 95 58 3f f4 cc 07 bf 37 fb c4 3e
       1.6550128 0.8460304 -0.5304711 0.38472912
000030 37 b6 f4 3f 5f 5f 81 3f 5f 01 67 bf d2 99 c2 bf
       1.9118108 1.010723 -0.9023647 -1.5203192
000040 ff 3a 3d 40 bd 9c 49 3f 38 cd 7a bf c0 1b 42 40
       2.9567258 0.7875479 -0.9796939 3.0329437
000050 c1 04 50 be ce 02 74 3f 3b bb 1a 40 63 1b 12 40
       -0.20314313 0.9531678 2.4176776 2.2829216
000060 d5 7d 68 3f 8a 0e b5 3f cd 0b 02 40 e4 04 37 bf
       0.90817004 1.4145062 2.0319703 -0.7149184
000070 f3 ff 3d 40 ca 4b 93 3f 52 e7 62 3f f6 54 9e 3f
       2.968747 1.1507504 0.88634217 1.2369678
000080 7b e5 7a bf 69 a0 27 bf 74 6b 2e bf fb dd ed 3e
       -0.9800641 -0.6547914 -0.6813271 0.4645842
000090 83 d7 0b bf cd 42 2e 3f 66 f9 93 be 8c f7 9d bc
       -0.5462572 0.6807068 -0.28901213 -0.019283079
0000a0 42 11 69 3f e9 7b b1 bc 39 9b 2e 3e 0f 95 80 be
       0.9104196 -0.02166553 0.170514 -0.25113723
0000b0 83 fb 9b be 63 17 b4 be 76 2e 98 3d 5f 82 39 3e
       -0.30465326 -0.35174093 0.07430737 0.18116139
0000c0 e3 62 9a bf 9a 07 d6 bd ae 92 aa 3f 5d c8 16 c0
       -1.2061428 -0.10450669 1.3326013 -2.3559792
0000d0 d6 0a 9f bf c5 41 cf 3e 98 91 4d bf b5 54 4f be
       -1.2425182 0.40479866 -0.80300283 -0.20247157
0000e0 fe 0a ad 3f dd be 26 3f 97 ff c3 bf 1d a2 2a 3f
       1.351898 0.65134984 -1.5312375 0.66653615
0000f0 f4 90 56 3f 8b b7 bd be ef 15 97 bf 38 f9 0d c0
       0.8381493 -0.37054095 -1.1803569 -2.218336

layers_by_name.lstm.cell.gates.weight f4 [64, 35]
000000 c6 4e 18 be 73 97 af bd af ed fd bd 55 70 2b 40
       -0.148738 -0.085738085 -0.1239885 2.6787312
000010 7a c0 b3 3e 81 07 75 40 9d d2 e3 3f 9f cd c0 3f
       0.35107785 3.828583 1.7798649 1.506275
000020 a4 26 e6 3f 06 d2 58 c0 d3 d6 fe 3f df 8e ed 3f
       1.7980542 -3.3878188 1.9909309 1.8559226
000030 05 5a 98 3f 07 ab a3 3f 98 a1 9d 3f 22 48 99 bf
       1.1902472 1.2786568 1.231494 -1.1975138
000040 f2 9d 99 bf 74 1f 97 bf da 61 a8 3e 00 bc a7 40
       -1.2001326 -1.1806474 0.32887155 5.241699
000050 21 47 86 bf 64 14 55 3e 21 4a 39 40 90 1a cd 3e
       -1.0490457 0.2080856 2.8951495 0.40059328
000060 2c d5 80 3f cb cb 66 3f ce ac a1 3f 3a 9b 56 3e
       1.0065055 0.90154713 1.2630861 0.20957652
000070 0d 83 65 3f 95 85 5c bf c0 dc 40 3f 0e ea 40 c0
       0.8965309 -0.8614133 0.7533684 -3.0142856
000080 a0 de f1 bf b2 17 bf 3d af 3b 77 3f a2 11 76 3d
       -1.8896065 0.093306914 0.96575445 0.06007541
000090 21 b4 9d bc 8e f5 11 c0 23 1d 02 40 24 a3 3d 40
       -0.019250931 -2.2806125 2.0330284 2.9630823
0000a0 13 05 17 40 8d f7 c1 bd 1c 81 77 3f 91 1c 66 be
       2.3596847 -0.09471045 0.9668138 -0.22471835
0000b0 26 2b a7 bd 91 92 5a 40 9d 01 46 bf 27 75 89 3d
       -0.08162527 3.4151957 -0.7734621 0.06711798
0000c0 9e b3 bd be c1 7c 03 bf 0a a4 81 3f 6e 39 68 3f
       -0.370511 -0.51362234 1.0128186 0.9071263
0000d0 be 69 86 3f 12 2c 83 3f 5d 5b 31 bf bf 4e 08 be
       1.050102 1.0247824 -0.69280034 -0.13311289
0000e0 05 1c 30 bf 7d 9b 22 3f 1e 1f 5d bf 87 7e 44 3f
       -0.68792754 0.63518506 -0.86375606 0.76755565
0000f0 4c 37 84 be 67 36 80 bf 7e ba 13 3e 46 b0 73 3f
       -0.25823438 -1.0016602 0.1442661 0.95190847
000100 f8 ac 29 3e d0 4d f7 3d e3 db 39 3f 61 49 bd 3f
       0.16569889 0.120753884 0.72601146 1.4788018
000110 49 fd d2 3e 74 a9 f0 3e 50 26 f8 3d 8b 65 f3 3c
       0.41208866 0.47004282 0.121166825 0.029711505
000120 22 78 38 c0 6b fc 57 40 49 dd 53 40 8d 58 44 40
       -2.8823323 3.3747814 3.3103812 3.0679047
000130 ac 09 95 3f 54 c6 0f 3f ed 95 cf 3e 5a d7 5d 40
       1.1643577 0.56162 0.40544072 3.466269
000140 3b bc 68 40 85 e3 47 40 93 e3 8b bf 63 dd ec 3d
       3.6364887 3.1232617 -1.0928825 0.11565664
000150 5b 4c 91 3c 8c 25 29 c0 73 2e 40 c0 d8 30 1f c0
       0.017736604 -2.6429167 -3.002835 -2.4873562
000160 5d f8 ce bf 62 44 33 3e bd 68 62 bf ce 4a 46 3f
       -1.6169544 0.17506555 -0.8844107 0.7745789
000170 57 83 a5 3f 65 33 b7 be a0 ff 27 40 7c 13 a4 3f
       1.2930707 -0.35781398 2.624977 1.2818446
000180 50 c0 51 3f dd 8e 09 c0 09 f4 3f bf 0a 5d c8 3e
       0.8193407 -2.1493447 -0.74981743 0.39133483
000190 0e 7d c9 3d 8b 3d 2b 3f 23 93 a7 3f e7 3a 0d c0
       0.098383054 0.6689078 1.3091778 -2.20672
0001a0 73 88 ad be 86 80 9d bd 74 2e fe 3d 2d 6b ef bf
       -0.33893165 -0.076905295 0.12411204 -1.8704582
0001b0 10 e5 77 40 c3 b1 be 3f 7d e7 46 3f f2 fd 23 3f
       3.8733559 1.4897999 0.77696973 0.64059365
0001c0 8a ab 60 3f d8 2f 86 be f9 83 96 3f bd b9 02 be
       0.8776175 -0.26208377 1.1759025 -0.12766166
0001d0 6d 18 f7 3f ac aa 64 3f bd c5 a0 3f a8 b6 8d 3f
       1.9304329 0.89322925 1.2560345 1.1071367
0001e0 72 9f 95 bf 5a 77 8b bf df 70 9b bf b4 56 03 bf
       -1.1689284 -1.0895798 -1.214382 -0.51304173
0001f0 ac 3b 69 c0 c8 f3 8b bf 8b d4 ca be 8c 63 d2 c0
       -3.644267 -1.0933771 -0.39615282 -6.5746517
000200 49 be 1f c0 65 62 82 be 7a 65 42 c0 83 29 b1 3f
       -2.495989 -0.25465694 -3.0374436 1.3840793
000210 59 c4 48 3e 04 2a 76 bf ab fc 78 c0 a4 36 cc 3d
       0.1960615 -0.9615786 -3.8904216 0.09971359
000220 e2 86 87 c0 5c 3f c3 3e 2f be d6 3f 14 d7 af bf
       -4.235215 0.38134277 1.677679 -1.3737512
000230 f6 d7 93 3d 6b 6a c1 3c ef b0 d3 3f d5 40 83 3e
       0.07218926 0.023610314 1.6538371 0.256354
000240 f2 99 ad 3e 57 e9 34 3c 6a b1 84 3f 92 dd 1f 3f
       0.33906513 0.011041961 1.0366642 0.62447464
000250 17 46 0a 3f fc c9 ab 3d fa 28 99 3f bc d5 f9 3f
       0.540132 0.08388135 1.196563 1.9518352
000260 69 13 b7 3f bb 45 85 3f 52 f0 bc 3f 9a 08 07 c0
       1.4302799 1.0411905 1.476084 -2.1099
000270 6b 7c 01 c0 3b 3b f7 bf 00 29 71 3d 0d 64 89 bf
       -2.0232189 -1.9314951 0.05887699 -1.0733658
000280 fc 1e ff bf a0 ad 86 3f 1b 2c b0 3e f6 dc 8a be
       -1.9931331 1.0521736 0.3440865 -0.27121705
000290 89 4e 61 3e 0b 11 49 3f fd 41 bd 3f a1 03 08 3f
       0.22002615 0.7854163 1.4785763 0.5313054
0002a0 12 72 b1 bf 93 d4 be 3f 1e 4b 59 3f 0b 85 6f bf
       -1.3862936 1.4908623 0.84880245 -0.9356238
0002b0 e7 d4 2a bf 53 0b 03 3e ae af 0a bf 16 d7 92 bd
       -0.66731113 0.12797289 -0.54174316 -0.07169931
0002c0 51 1d cd 3d db 5f 9d 40 a6 b4 23 bf 1a 34 f6 be
       0.10015357 4.917951 -0.6394752 -0.48086625
0002d0 d1 7f 03 bf fe 03 d7 3e e1 d8 8a bf 56 eb 6d be
       -0.5136691 0.41995233 -1.0847436 -0.23234305
0002e0 0e 0e 64 bf cd af 83 be 48 f5 41 bf 29 95 8e 3f
       -0.89083946 -0.25720063 -0.75764894 1.113927
0002f0 2c b5 b3 3f 75 54 1c 3e 36 f4 0a c0 2f 5f 04 c0
       1.4039664 0.15266593 -2.1711555 -2.0683095
000300 c7 fc 06 c0 a8 59 1b 40 3e b0 06 3e 8d ef d3 bf
       -2.1091783 2.4273472 0.13153169 -1.655748
000310 53 07 7a 3e e8 5f 02 3f 3b 00 b2 bf eb 5a e2 3f
       0.24416856 0.5092759 -1.390632 1.7683996
000320 d7 b8 43 3e 9a 8d b7 3f fa 37 71 bf 2a 4e 1a bf
       0.1911348 1.4340088 -0.9422604 -0.6027552
000330 74 2e b7 3f 55 25 b0 3f f4 2d 8c bf f0 c8 f2 3e
       1.4311051 1.3761393 -1.0951524 0.47418928
000340 02 59 bb be 21 62 84 be 1d d1 81 bc 54 cc 94 bc
       -0.36591345 -0.25856116 -0.015846783 -0.018163837
000350 f1 bf a9 be 61 cb 56 be 4f 51 1a be a3 62 a8 be
       -0.33154252 -0.2097602 -0.1507008 -0.32887754
000360 01 05 c6 3f b2 07 d9 3e 14 c2 4b 3f 68 75 a4 3d
       1.5470277 0.42388684 0.79593015 0.08030206
000370 c7 95 ac 3f 5d 8c dd 3f dc a1 22 be f6 4d 50 3f
       1.3483208 1.730846 -0.15882057 0.8136896
000380 b7 cc ad 3e 66 ee c9 bf 39 4b e7 bf 34 9c ba bf
       0.33945248 -1.5775878 -1.8069831 -1.457892
000390 db 56 3a bd ce 3d b8 bf dc 1e 78 bf 75 62 55 3f
       -0.045492988 -1.4393861 -0.9692209 0.8335336
0003a0 be 88 ef 3f e7 ac a5 3f a9 75 97 bf e2 e9 16 3f
       1.8713605 1.2943391 -1.1832782 0.58950627
0003b0 bc 1b 8b 3f 76 a3 9f 3e dc 9d 1f c0 f3 89 8f 40
       1.0867839 0.31179398 -2.49401 4.4855895
0003c0 b4 47 89 bc b5 d4 ab bf d3 0d 08 3e f4 21 3b 3d
       -0.016757824 -1.3424288 0.13286524 0.045686677
0003d0 b6 6f fb be bb 9f 01 3e 24 08 bc bc f3 6b 3c c0
       -0.49108666 0.12658589 -0.0229531 -2.9440887
0003e0 82 ee 02 40 4b 76 ee 3f 73 44 eb 3f 36 81 71 3f
       2.0458074 1.862985 1.8380264 0.94337785
0003f0 df 85 93 3f f0 e4 a0 3f a5 de 37 3f bc ee b8 3f
       1.1525229 1.2569866 0.71824104 1.4447856
