jordan_elman_2024/exp1/jordan_sequence_level/run_7/export/model.safetensors (safetensors, 6976 bytes, 7 tensors)

layers.embed.emb.weight f4 [22, 22]
1.0 0.0 0.0 0.0 0.0 0.0 0.0 0.0
0.0 0.0 0.0 0.0 0.0 0.0 0.0 0.0
0.0 0.0 0.0 0.0 0.0 0.0 0.0 1.0
0.0 0.0 0.0 0.0 0.0 0.0 0.0 0.0
0.0 0.0 0.0 0.0 0.0 0.0 0.0 0.0
0.0 0.0 0.0 0.0 0.0 0.0 1.0 0.0
0.0 0.0 0.0 0.0 0.0 0.0 0.0 0.0
0.0 0.0 0.0 0.0 0.0 0.0 0.0 0.0
0.0 0.0 0.0 0.0 0.0 1.0 0.0 0.0
0.0 0.0 0.0 0.0 0.0 0.0 0.0 0.0
0.0 0.0 0.0 0.0 0.0 0.0 0.0 0.0
0.0 0.0 0.0 0.0 1.0 0.0 0.0 0.0
0.0 0.0 0.0 0.0 0.0 0.0 0.0 0.0
0.0 0.0 0.0 0.0 0.0 0.0 0.0 0.0
0.0 0.0 0.0 1.0 0.0 0.0 0.0 0.0
0.0 0.0 0.0 0.0 0.0 0.0 0.0 0.0
0.0 0.0 0.0 0.0 0.0 0.0 0.0 0.0
0.0 0.0 1.0 0.0 0.0 0.0 0.0 0.0
0.0 0.0 0.0 0.0 0.0 0.0 0.0 0.0
0.0 0.0 0.0 0.0 0.0 0.0 0.0 0.0
0.0 1.0 0.0 0.0 0.0 0.0 0.0 0.0
0.0 0.0 0.0 0.0 0.0 0.0 0.0 0.0
0.0 0.0 0.0 0.0 0.0 0.0 0.0 0.0
1.0 0.0 0.0 0.0 0.0 0.0 0.0 0.0
0.0 0.0 0.0 0.0 0.0 0.0 0.0 0.0
0.0 0.0 0.0 0.0 0.0 0.0 0.0 1.0
0.0 0.0 0.0 0.0 0.0 0.0 0.0 0.0
0.0 0.0 0.0 0.0 0.0 0.0 0.0 0.0
0.0 0.0 0.0 0.0 0.0 0.0 1.0 0.0
0.0 0.0 0.0 0.0 0.0 0.0 0.0 0.0
0.0 0.0 0.0 0.0 0.0 0.0 0.0 0.0
0.0 0.0 0.0 0.0 0.0 1.0 0.0 0.0
00000000: 0000 803f 0000 0000 0000 0000 0000 0000
00000010: 0000 0000 0000 0000 0000 0000 0000 0000
00000020: 0000 0000 0000 0000 0000 0000 0000 0000
00000030: 0000 0000 0000 0000 0000 0000 0000 0000
00000040: 0000 0000 0000 0000 0000 0000 0000 0000
00000050: 0000 0000 0000 0000 0000 0000 0000 803f
00000060: 0000 0000 0000 0000 0000 0000 0000 0000
00000070: 0000 0000 0000 0000 0000 0000 0000 0000
00000080: 0000 0000 0000 0000 0000 0000 0000 0000
00000090: 0000 0000 0000 0000 0000 0000 0000 0000
000000a0: 0000 0000 0000 0000 0000 0000 0000 0000
000000b0: 0000 0000 0000 0000 0000 803f 0000 0000
000000c0: 0000 0000 0000 0000 0000 0000 0000 0000
000000d0: 0000 0000 0000 0000 0000 0000 0000 0000
000000e0: 0000 0000 0000 0000 0000 0000 0000 0000
000000f0: 0000 0000 0000 0000 0000 0000 0000 0000
00000100: 0000 0000 0000 0000 0000 0000 0000 0000
00000110: 0000 0000 0000 803f 0000 0000 0000 0000
00000120: 0000 0000 0000 0000 0000 0000 0000 0000
00000130: 0000 0000 0000 0000 0000 0000 0000 0000
00000140: 0000 0000 0000 0000 0000 0000 0000 0000
00000150: 0000 0000 0000 0000 0000 0000 0000 0000
00000160: 0000 0000 0000 0000 0000 0000 0000 0000
00000170: 0000 803f 0000 0000 0000 0000 0000 0000
00000180: 0000 0000 0000 0000 0000 0000 0000 0000
00000190: 0000 0000 0000 0000 0000 0000 0000 0000
000001a0: 0000 0000 0000 0000 0000 0000 0000 0000
000001b0: 0000 0000 0000 0000 0000 0000 0000 0000
000001c0: 0000 0000 0000 0000 0000 0000 0000 803f
000001d0: 0000 0000 0000 0000 0000 0000 0000 0000
000001e0: 0000 0000 0000 0000 0000 0000 0000 0000
000001f0: 0000 0000 0000 0000 0000 0000 0000 0000
00000200: 0000 0000 0000 0000 0000 0000 0000 0000
00000210: 0000 0000 0000 0000 0000 0000 0000 0000
00000220: 0000 0000 0000 0000 0000 803f 0000 0000
00000230: 0000 0000 0000 0000 0000 0000 0000 0000
00000240: 0000 0000 0000 0000 0000 0000 0000 0000
00000250: 0000 0000 0000 0000 0000 0000 0000 0000
00000260: 0000 0000 0000 0000 0000 0000 0000 0000
00000270: 0000 0000 0000 0000 0000 0000 0000 0000
00000280: 0000 0000 0000 803f 0000 0000 0000 0000
00000290: 0000 0000 0000 0000 0000 0000 0000 0000
000002a0: 0000 0000 0000 0000 0000 0000 0000 0000
000002b0: 0000 0000 0000 0000 0000 0000 0000 0000
000002c0: 0000 0000 0000 0000 0000 0000 0000 0000
000002d0: 0000 0000 0000 0000 0000 0000 0000 0000
000002e0: 0000 803f 0000 0000 0000 0000 0000 0000
000002f0: 0000 0000 0000 0000 0000 0000 0000 0000
00000300: 0000 0000 0000 0000 0000 0000 0000 0000
00000310: 0000 0000 0000 0000 0000 0000 0000 0000
00000320: 0000 0000 0000 0000 0000 0000 0000 0000
00000330: 0000 0000 0000 0000 0000 0000 0000 803f
00000340: 0000 0000 0000 0000 0000 0000 0000 0000
00000350: 0000 0000 0000 0000 0000 0000 0000 0000
00000360: 0000 0000 0000 0000 0000 0000 0000 0000
00000370: 0000 0000 0000 0000 0000 0000 0000 0000
00000380: 0000 0000 0000 0000 0000 0000 0000 0000
00000390: 0000 0000 0000 0000 0000 803f 0000 0000
000003a0: 0000 0000 0000 0000 0000 0000 0000 0000
000003b0: 0000 0000 0000 0000 0000 0000 0000 0000
000003c0: 0000 0000 0000 0000 0000 0000 0000 0000
000003d0: 0000 0000 0000 0000 0000 0000 0000 0000
000003e0: 0000 0000 0000 0000 0000 0000 0000 0000
000003f0: 0000 0000 0000 803f 0000 0000 0000 0000

layers.jordan.hx.bias f4 [16]
-0.28012505 0.025693754 -0.0825545 0.050949275 -0.019246284 -0.39833087 0.14783958 0.084138535
0.0004080518 -0.23263285 -0.2661506 0.038086884 -0.080003425 -0.038776062 -0.46234566 -0.17030717
00000000: 8d6c 8fbe b57b d23c 5512 a9bd 30b0 503d
00000010: 62aa 9dbc 06f2 cbbe 4263 173e d350 ac3d
00000020: c9ef d539 4e37 6ebe e444 88be fe00 1c3d
00000030: d6d8 a3bd a6d3 1ebd 92b8 ecbe 0165 2ebe

layers.jordan.hx.weight f4 [16, 22]
0.5550657 -0.14428154 0.16499946 1.5992773 -0.57097876 -0.5451368 -0.50872135 0.5800348
0.33385956 0.31034094 -0.02095983 -0.07745164 -0.059511416 0.51578724 0.37381664 0.36828107
-0.43669036 -0.5684072 -0.50026786 -0.6945627 -0.6417128 -0.68995404 0.12904029 0.11366755
0.13103335 -0.043330446 0.6453116 0.55481625 0.6599602 -0.27468634 -0.38171706 -0.5339076
0.4620559 0.5566213 0.5415801 -0.4371662 -0.48735586 -0.262939 0.18500029 0.07991034
0.20115581 -0.4124514 -0.4425258 -0.5058237 -0.25180003 0.10550841 -0.06792459 -0.86020607
-1.1365262 -1.1244166 -1.0822078 0.20398438 0.35905197 0.37131885 -0.48650518 -0.4989549
-0.6730575 0.39136928 0.3103998 0.38291058 0.79880404 0.8214899 0.80433095 0.49226
0.35895082 0.43783802 -0.28034872 -0.144363 -0.20592293 -0.7532303 -0.24026938 -0.16129062
-0.3059577 0.37653735 0.20967229 0.050972294 0.5257166 0.39063546 0.3379018 0.095163725
0.32085702 0.03473418 -0.104854204 -0.116131045 0.06916346 -0.48941383 -0.4523107 -0.37830332
-0.1492565 -0.13483806 0.1193472 -0.34772366 0.59355855 0.6992812 0.6815145 -0.3738607
-0.46807924 -0.585277 0.5043255 0.33508965 0.14270824 -0.54824096 -0.5455835 -0.374605
0.052726317 -0.08289436 0.023172632 0.21791422 0.05621523 0.18933201 0.20473431 -0.017929088
0.11905225 -0.23188162 1.0410984 1.1293939 1.0011075 0.03960269 0.19507556 0.09479001
-0.8208936 -0.74631244 -0.7582184 -0.026004024 -0.10612949 0.19344287 -0.22940294 -0.17502767
-0.23197919 -0.46030152 -0.45884815 -0.45634654 -0.20327991 -0.15882905 0.10173914 -0.8973382
0.0608885 0.21864264 0.2385756 0.2985703 0.34170684 0.48543152 0.29130885 0.47641778
0.40175956 0.25699487 0.31760418 0.44977418 -0.6299733 -0.76780486 -0.42762035 -0.38729516
-0.4547814 -0.35278895 0.1664734 -0.14454907 -0.06763783 0.72289526 -0.7317134 -0.58154577
-0.51509374 0.21889102 0.32379287 0.24214631 -0.9293632 -1.0066286 -0.914059 0.2945433
0.1147958 0.34106737 0.46985662 0.33009797 0.55206597 0.52590877 0.4776525 0.436871
0.42759964 -0.17076595 0.19147371 0.8834849 -0.32296082 -0.44247136 -0.49363622 -0.26420125
-0.31304282 -0.39703885 -1.033427 -0.9510539 -1.0080882 -0.20177439 -0.2885224 -0.43222475
0.95679015 0.8355295 0.9956972 0.8821098 1.0050477 0.98116744 0.5446145 -0.06700265
0.12079149 1.703245 0.009699912 0.20756312 0.29776794 -0.57706267 -0.57865053 -0.5297404
0.05667975 -0.040085535 -0.076010324 -0.4253906 -0.5277641 -0.37044838 -0.060144793 0.058144115
-0.11290087 -0.2685286 -0.24587418 -0.11627891 0.6249367 -0.1403177 -0.031577647 1.7216752
-0.112202294 -0.007914533 -0.22405633 -0.26058805 0.06408435 0.076556556 0.12823789 0.23324141
0.13510598 -0.19383626 -0.22899428 -0.1290228 -0.4308553 -0.38579652 -0.28012326 -0.3199759
-0.43488744 -0.3928006 -0.010731631 -0.12892224 -0.1500396 -0.3933762 0.51339585 0.45494917
0.53933597 -0.88477695 -0.8987602 -0.90362155 0.24935223 0.3859639 0.3915422 -0.8747621
00000000: c918 0e3f 8abe 13be 9ef5 283e 1eb5 cc3f
00000010: aa2b 12bf 168e 0bbf 903b 02bf 297d 143f
00000020: a4ef aa3e 02e5 9e3e f3b3 abbc f79e 9ebd
00000030: 3ec2 73bd a20a 043f e564 bf3e 568f bc3e
00000040: e195 dfbe 2283 11bf 8e11 00bf dcce 31bf
00000050: 4a47 24bf d4a0 30bf 2323 043e 88ca e83d
00000060: 9b2d 063e 447b 31bd 2433 253f 7008 0e3f
00000070: 27f3 283f b0a3 8cbe 6b70 c3be 2bae 08bf
00000080: 9792 ec3e bc7e 0e3f fea4 0a3f 40d4 dfbe
00000090: b586 f9be f19f 86be b770 3d3e 08a8 a33d
000000a0: cafb 4d3e d42c d3be be92 e2be a97d 01bf
000000b0: efeb 80be cb14 d83d 0c1c 8bbd 7736 5cbf
000000c0: b179 91bf e2ec 8fbf c985 8abf 48e1 503e
000000d0: a9d5 b73e 811d be3e 3517 f9be 0477 ffbe
000000e0: 7f4d 2cbf 8e61 c83e b9ec 9e3e db0c c43e
000000f0: 6c7e 4c3f 294d 523f a2e8 4d3f 8109 fc3e
00000100: 67c8 b73e 4e2c e03e de89 8fbe e5d3 13be
00000110: 76dd 52be b3d3 40bf 2d09 76be 5e29 25be
00000120: 7da6 9cbe 81c9 c03e 55b4 563e 53c8 503d
00000130: 5d95 063f 5f01 c83e 7701 ad3e 33e5 c23d
00000140: 5f47 a43e 6d45 0e3d cdbd d6bd 1dd6 edbd
00000150: 92a5 8d3d 7394 fabe 4595 e7be f9b0 c1be
00000160: b2d6 18be fd12 0abe 4e6c f43d d608 b2be
00000170: 74f3 173f 1804 333f bc77 2e3f ab6a bfbe
00000180: 15a8 efbe b7d4 15bf 7a1b 013f df90 ab3e
00000190: 1c22 123e 8559 0cbf 5cab 0bbf 3acc bfbe
000001a0: 8df7 573d 85c4 a9bd 88d4 bd3c e824 5f3e
000001b0: f141 663d 40e0 413e dfa5 513e 06e0 92bc
000001c0: abd1 f33d 6072 6dbe b642 853f fb8f 903f
000001d0: 4a24 803f 6e36 223d e3c1 473e 4421 c23d
000001e0: 1526 52bf 550e 3fbf 9a1a 42bf 6406 d5bc
000001f0: 6b5a d9bd e315 463e 9be8 6abe 743a 33be
00000200: f48b 6dbe a4ac ebbe 25ee eabe 41a6 e9be
00000210: 9c28 50be 15a4 22be 9c5c d03d f5b7 65bf
00000220: 3866 793d dbe3 5f3e 294d 743e 35de 983e
00000230: 33f4 ae3e 7b8a f83e 6f26 953e 08ed f33e
00000240: 6eb3 cd3e d594 833e 049d a23e cd48 e63e
00000250: ee45 21bf dc8e 44bf 0ef1 dabe 8d4b c6be
00000260: 1cd9 e8be c1a0 b4be 0178 2a3e ac04 14be
00000270: b485 8abd aa0f 393f 9251 3bbf 2fe0 14bf
00000280: 2fdd 03bf f824 603e 2ec8 a53e 34f5 773e
00000290: bfea 6dbf 35d9 80bf c5ff 69bf 61ce 963e
000002a0: 0f1a eb3d 62a0 ae3e 0c91 f03e 9a02 a93e
000002b0: 3254 0d3f f5a1 063f de8e f43e 8ead df3e
000002c0: 57ee da3e 45dd 2ebe af11 443e 112c 623f
000002d0: 1f5b a5be 9b8b e2be e3bd fcbe 6345 87be
000002e0: 2647 a0be ad48 cbbe 5647 84bf 4578 73bf
000002f0: 0909 81bf f29d 4ebe 35b9 93be 904c ddbe
00000300: 33f0 743f 43e5 553f 03e6 7e3f f3d1 613f
00000310: 67a5 803f ca2d 7b3f db6b 0b3f af38 89bd
00000320: 8761 f73d ef03 da3f 61ec 1e3c 6d8b 543e
00000330: 0a75 983e 61ba 13bf 7122 14bf 119d 07bf
00000340: 0729 683d bb30 24bd 4dab 9bbd cccc d9be
00000350: 8c1b 07bf 69ab bdbe 635a 76bd 8628 6e3d
00000360: 9238 e7bd 957c 89be 71c6 7bbe a323 eebd
00000370: dafb 1f3f 71af 0fbe 9057 01bd da5f dc3f
00000380: 51ca e5bd f5ab 01bc 066f 65be cc6b 85be
00000390: a83e 833d afc9 9c3d cb50 033e d6d6 6e3e
000003a0: 3959 0a3e 037d 46be 7a7d 6abe 8e1e 04be
000003b0: 1199 dcbe 1f87 c5be 516c 8fbe e2d3 a3be
000003c0: 91a9 debe 291d c9be b9d3 2fbc 3104 04be
000003d0: fba3 19be 9b68 c9be e96d 033f 19ef e83e
000003e0: ec11 0a3f be80 62bf 2615 66bf be53 67bf
000003f0: 3156 7f3e 0f9d c53e 3878 c83e 69f0 5fbf

layers.jordan.hy.bias f4 [16]
-0.08428787 -0.057669804 0.06423748 0.028113972 -0.09352171 -0.078982145 0.12964429 0.093727276
-0.1256765 -0.2765913 -0.32662162 0.1395065 -0.16753656 -0.20151398 -0.4748421 0.035591055
00000000: 1e9f acbd 2c37 6cbd f18e 833d 464f e63c
00000010: 4f88 bfbd 64c1 a1bd 79c1 043e 16f4 bf3d
00000020: 57b1 00be 609d 8dbe f33a a7be cbda 0e3e
00000030: b48e 2bbe ae59 4ebe 811e f3be edc7 113d

layers.jordan.hy.weight f4 [16, 22]
0.10654627 0.34930673 0.16848879 0.15865187 -0.07300578 -0.31011134 0.18014269 0.16467813
-0.16174276 -0.026236886 -0.23986968 -0.34068304 0.05941111 -0.073655754 0.28247955 0.07630729
0.09109767 0.20114064 -0.11894739 -0.10333219 0.026925894 -0.21893871 0.117590025 -0.33317178
0.15785894 -0.587751 -0.070088685 0.165251 0.39756897 -0.29971766 0.07225296 -0.31663775
0.11936688 0.4066214 -0.21039167 0.1824147 -0.2795501 0.07229166 0.13387686 0.25037855
0.117550634 -0.22328366 -0.4183926 -0.045623336 0.30939758 -0.16473797 0.13638285 -0.6209176
0.10954947 -0.21240999 0.028238678 0.05488014 0.11526861 -0.05815941 -0.16662057 0.11604841
-0.13135788 0.056360442 0.04135518 -0.010886684 0.28063318 0.13679872 0.051609486 -0.3351119
-0.32672182 -0.18971474 0.124593675 -0.077774994 0.16452861 -0.58532584 -0.021178564 0.058761872
0.16523248 -0.07486048 0.123770066 -0.17180057 -0.085153304 0.13921878 -0.36964005 0.29936728
0.13673538 0.027132351 0.34725645 0.15700807 -0.010753024 -0.05975843 -0.40050235 -0.15086953
-0.21918362 0.16526376 -0.12086685 0.0037065682 0.2637472 0.19524741 -0.20350406 0.22657344
0.17208262 -0.1899649 0.26039883 -0.06976754 0.32228312 -0.16916968 -0.16948627 -0.11235441
-0.36282152 -0.27259946 0.08064577 0.11781639 0.3382489 0.19697298 0.06388665 -0.1411134
0.07518151 -0.40430096 -0.15114477 0.020769421 0.3069025 0.071170434 0.10279268 -0.0065886183
0.16351317 0.050192043 -0.24756657 0.18060178 0.038516473 -0.05184546 0.11871863 0.19609684
0.03311831 -0.090262346 0.0216687 -0.1629329 0.0026428793 -0.059309915 -0.14014165 -0.045548618
0.102818176 0.024766484 0.06285018 -0.07155533 0.14416172 0.14243597 0.06349287 -0.08706832
0.121495225 0.086258315 0.20250414 -0.16518125 -0.055044226 -0.27316493 -0.22083162 0.18282042
0.1785661 0.27051434 0.14519025 0.018662961 -0.014695494 0.21161933 -0.24224402 0.04693918
-0.06052988 0.19844887 -0.16424035 0.24057198 -0.37659794 0.02641545 -0.022269458 0.0048240353
0.06400353 -0.11265424 0.15339632 -0.08576478 -0.13254847 0.07184907 0.18454275 0.05372378
0.16004461 -0.11782654 0.14361875 0.37888446 0.03551325 0.14063568 -0.1416089 -0.1411878
0.0027836906 -0.05406426 0.09973827 -0.063623406 0.07640891 -0.027087064 0.22385424 0.07118438
0.07746743 -0.00269684 0.17383514 0.067747496 -0.13068034 0.20128742 0.24431543 0.042042065
-0.06682157 0.18728954 -0.045893654 -0.013168167 0.2029071 -0.03873987 -0.16422394 -0.101758696
0.1782621 -0.058827132 -0.0975263 0.11833125 -0.17513219 0.058294144 0.1900973 -0.09758031
0.24569644 0.05108156 0.0051396783 -0.21245894 0.04194854 -0.077317044 0.29567477 0.26016486
0.16202722 -0.104308486 0.15410988 -0.037211597 0.03577242 0.07743021 -0.066198245 -0.12763186
0.112009555 0.05284172 -0.0923129 -0.022536032 -0.20104407 0.09635315 -0.22819768 -0.116314694
0.08623893 -0.2969368 -0.27479422 -0.42706674 -0.030181877 0.021809362 0.3307177 0.0051079122
0.2177092 -0.005458789 0.077522345 0.06861638 0.11576557 0.17081946 0.3000246 0.200069
00000000: ee34 da3d 55d8 b23e 5388 2c3e a375 223e
00000010: 0e84 95bd eac6 9ebe 5377 383e 62a1 283e
00000020: e59f 25be bdee d6bc 66a0 75be 026e aebe
00000030: 1059 733d d4d8 96bd 29a1 903e ff46 9c3d
00000040: 6a91 ba3d d0f7 4d3e b09a f3bd d49f d3bd
00000050: b193 dc3c 7831 60be 0ad3 f03d 7e95 aabe
00000060: c6a5 213e d976 16bf a88a 8fbd 8f37 293e
00000070: 298e cb3e 9874 99be 5cf9 933d 581e a2be
00000080: 9f76 f43d ae30 d03e ea70 57be ebca 3a3e
00000090: 3121 8fbe a60d 943d 0417 093e 9e31 803e
000000a0: 63be f03d 79a4 64be 8e37 d6be 89df 3abd
000000b0: 5c69 9e3e 12b1 28be f2a7 0b3e 75f4 1ebf
000000c0: 795b e03d 0182 59be cd54 e73c ffc9 603d
000000d0: f311 ec3d 9038 6ebd 959e 2abe caaa ed3d
000000e0: ae82 06be 35da 663d 0d64 293d 105e 32bc
000000f0: 27af 8f3e f714 0c3e 7864 533d c993 abbe
00000100: 1548 a7be 9544 42be f82a ff3d 7f48 9fbd
00000110: 307a 283e ead7 15bf ab7e adbc 4ab0 703d
00000120: b432 293e 7450 99bd 297b fd3d 7dec 2fbe
00000130: db64 aebd 5e8f 0e3e 7641 bdbe ab46 993e
00000140: 5c04 0c3e aa44 de3c 99cb b13e b9c6 203e
00000150: 742d 30bc 41c5 74bd a50e cdbe 8b7d 1abe
00000160: ac71 60be e73a 293e 0a89 f7bd e5e9 723b
00000170: df09 873e f0ee 473e 5e63 50be de02 683e
00000180: 6d36 303e 2986 42be ff52 853e 49e2 8ebd
00000190: 4b02 a53e d13a 2dbe cf8d 2dbe 121a e6bd
000001a0: bec3 b9be 2892 8bbe 9c29 a53d b849 f13d
000001b0: f62e ad3e 49b3 493e 01d7 823d 0880 10be
000001c0: c3f8 993d 8900 cfbe b2c5 1abe a224 aa3c
000001d0: 5322 9d3e cec1 913d f884 d23d 56e5 d7bb
000001e0: ff6f 273e 2c96 4d3d 1782 7dbe acef 383e
000001f0: 73c3 1d3d e85b 54bd c122 f33d 9ccd 483e
00000200: 11a7 073d 77db b8bd 8f82 b13c e2d7 26be
00000210: 2834 2d3b f4ee 72bd 4b81 0fbe 3091 3abd
00000220: 5692 d23d 15e3 ca3c 98b7 803d 9a8b 92bd
00000230: 219f 133e bcda 113e 8d08 823d e050 b2bd
00000240: 7dd2 f83d 33a8 b03d 3f5d 4f3e 4625 29be
00000250: 0e76 61bd 46dc 8bbe af21 62be 4735 3b3e
00000260: 08da 363e db80 8a3e c1ac 143e 11e3 983c
00000270: 5fc5 70bc bdb2 583e d10e 78be 4c43 403d
00000280: 2eee 77bd 2e36 4b3e 9f2e 28be 8058 763e
00000290: 72d1 c0be 3765 d83c 706e b6bc f112 9e3b
000002a0: 4814 833d 44b7 e6bd ed13 1d3e 72a5 afbd
000002b0: c9ba 07be 9b25 933d c6f8 3c3e 770d 5c3d
000002c0: bce2 233e 0a4f f1bd cb10 133e 25fd c13e
000002d0: 5776 113d cd02 103e ec01 11be 8993 10be
000002e0: 946e 363b 7c72 5dbd 9443 cc3d fd4c 82bd
000002f0: 467c 9c3d b1e5 ddbc 0c3a 653e 1ec9 913d
00000300: 3ea7 9e3d 78bd 30bb d701 323e 33bf 8a3d
00000310: 11d1 05be 4a1e 4e3e d32d 7a3e 4d34 2c3d
00000320: bfd9 88bd d4c8 3f3e fcfa 3bbd 4cbf 57bc
00000330: e1c6 4f3e b3ad 1ebd 522a 28be dd66 d0bd
00000340: 578a 363e b8f4 70bd debb c7bd a857 f23d
00000350: da55 33be d7c5 6e3d dea8 423e 30d8 c7bd
00000360: d997 7b3e e63a 513d bf6a a83b d68e 59be
00000370: 3bd2 2b3d 6658 9ebd af62 973e 5434 853e
00000380: 77ea 253e b09f d5bd fbce 1d3e 306b 18bd
00000390: 1a86 123d bb93 9e3d f292 87bd edb1 02be
000003a0: 4465 e53d 8f70 583d 8c0e bdbd 7c9d b8bc
000003b0: 7fde 4dbe cd54 c53d a7ac 69be 6636 eebd
000003c0: 099e b03d 1a08 98be d4b1 8cbe 7ea8 dabe
000003d0: fc3f f7bc 8ca9 b23c d553 a93e 4660 a73b
000003e0: 29ef 5e3e a4df b2bb 09c4 9e3d bf86 8c3d
000003f0: 8016 ed3d 4ceb 2e3e d39c 993e e3de 4c3e

layers.jordan.lm_head.bias f4 [22]
-1.249315 -0.9061878 -0.9957255 0.6929758 -0.13074246 -0.20939471 -0.09765027 0.059436116
0.16682099 0.13465925 -0.15698421 -0.14157331 0.31611258 0.12627213 -0.10826473 0.05616627
0.41841638 0.26144242 0.27521148 0.27817616 0.32511467 0.38460726
00000000: 8ee9 9fbf ecfb 67bf dee7 7ebf dd66 313f
00000010: 5ae1 05be 916b 56be ddfc c7bd 4973 733d
00000020: 1fd3 2a3e 1de4 093e 78c0 20be 98f8 10be
00000030: 82d9 a13e 7b4d 013e e6b9 ddbd 9a0e 663d
00000040: ac3a d63e c8db 853e 85e8 8c3e 1b6d 8e3e
00000050: 6e75 a63e 3eeb c43e

layers.jordan.lm_head.weight f4 [22, 16]
0.3501321 -0.13709573 0.035378717 0.058682974 0.33738682 0.50976366 -0.17405985 -0.11848002
-0.17746279 0.15525737 0.055303786 -0.14962249 -0.11854655 0.0056228456 0.2991934 -0.33043417
0.4911467 -0.3251723 0.52659595 0.025664976 0.20889084 0.08656414 -0.49611646 -0.28767788
-0.21347623 -0.096786566 0.39999637 -0.051508714 0.2695364 -0.18622811 0.65241754 0.009414627
0.25668257 -0.15351473 0.20006014 0.24098136 0.36316925 0.53442985 -0.2949382 -0.026698207
0.06483721 -0.16096051 0.44060838 -0.12191472 -0.23594339 0.029710703 0.58491343 -0.040132903
1.18409 -1.0867898 1.129493 0.7913666 -1.6495385 0.111662984 1.3894882 0.5798242
-1.3248398 -1.6632525 -0.3948385 -2.926119 -0.507054 1.2033684 -0.13584098 -2.0616686
0.99949706 -0.10312052 -0.46087483 -0.43687978 -0.107129745 -0.16073485 -0.23264672 0.29086548
0.31607223 0.84756374 1.0057952 -0.18678951 -0.41597843 0.40755233 -0.19746427 0.5777352
0.74967325 0.00269924 -0.43071583 -0.506433 -0.3060291 -0.011379466 -0.34711367 0.5214635
0.13744348 0.8519688 0.886532 -0.18594415 -0.42021355 0.7917225 -0.18482186 0.6399845
0.9247274 0.021468723 -0.6274393 -0.4526336 -0.1840381 0.17782952 -0.23891461 0.6120076
0.62572944 0.83224815 0.66151845 -0.20501927 -0.44998437 0.58482486 0.15358163 0.6604352
-0.53786373 0.56844145 1.4897474 0.6299665 -0.49551263 -0.099597394 -0.5238962 0.46602634
0.9939878 -0.22161861 -0.6906164 0.48218185 0.84154356 -0.4712427 -0.28319594 -0.90024704
-0.719803 0.7313137 1.4291794 0.36752394 -0.31709003 0.017562645 -0.5829855 0.59048647
0.89787364 -0.13056701 -0.40548652 0.40187687 0.90930885 -0.42350498 -0.38834834 -0.89643884
-0.41564417 0.5583276 1.2749522 0.58924603 -0.37679714 -0.06262308 -0.5801257 0.55359805
0.9381006 -0.28359532 -0.44075528 0.26766372 0.99890274 -0.7267829 -0.40873018 -0.9599186
0.8490219 -0.07919963 -0.44841802 -0.1566627 -0.2765306 -0.10977468 -0.19390479 0.20759173
0.28307912 0.93851405 0.87258863 -0.3053504 -0.5680829 0.7239448 -0.21202633 0.699693
0.8807991 0.035842557 -0.56108254 -0.3981304 -0.08857022 -0.047854923 -0.29203 0.42870578
0.53821313 0.71007186 0.7851888 -0.27159727 -0.56555897 0.67021906 0.08632635 0.65185416
1.1851624 -0.21585149 -0.24958876 -0.24940105 -0.30803448 -0.24974765 -0.21176897 0.163096
0.0989508 0.8553551 1.1267581 -0.23611456 -0.17581818 0.5910581 0.052897345 0.4462361
-0.97120565 -0.9069906 0.2629098 -0.6110127 0.26305518 -0.6285956 -0.041675583 0.6560422
0.9953392 -0.45401117 -0.6351386 0.5285506 0.8182832 0.3359863 0.12627594 -0.77200997
-0.9267608 -1.0530404 0.34845144 -0.5998006 0.3046069 -0.7078981 -0.08847302 0.6223909
0.86694145 -0.65126985 -0.7217503 0.42616645 1.0244597 0.37332353 -0.08331946 -0.6181614
-0.67036617 -0.9433274 0.18473744 -0.8507263 0.20821281 -0.5903025 -0.031681478 0.4004762
0.93600875 -0.46532533 -0.61782813 0.55382586 1.1573005 0.10978533 -0.07316629 -0.81674093
00000000: 8444 b33e d362 0cbe 46e9 103d 8f5d 703d
00000010: f7bd ac3e df7f 023f bf3c 32be a7a5 f2bd
00000020: ceb8 35be cafb 1e3e 3986 623d a336 19be
00000030: 89c8 f2bd d93f b83b e12f 993e ab2e a9be
00000040: 9577 fb3e fc7c a6be fece 063f 5b3f d23c
00000050: 7be7 553e 8a48 b13d fa02 febe 844a 93be
00000060: 8399 5abe 0938 c6bd 53cc cc3e cdfa 52bd
00000070: ad00 8a3e 95b2 3ebe d604 273f cf3f 1a3c
00000080: e66b 833e f732 1dbe 91dc 4c3e d1c3 763e
00000090: 52f1 b93e 65d0 083f 2402 97be 33b6 dabc
000000a0: 5fc9 843d d5d2 24be 6c97 e13e 6dae f9bd
000000b0: 259b 71be dc63 f33c e3bc 153f 6662 24bd
000000c0: 4390 973f ee1b 8bbf 3a93 903f 0097 4a3f
000000d0: 1424 d3bf 90af e43d c0da b13f 5c6f 143f
000000e0: 5a94 a9bf 75e5 d4bf 4628 cabe 8945 3bc0
000000f0: 4ace 01bf fa07 9a3f e619 0bbe 61f2 03c0
00000100: 0adf 7f3f da30 d3bd c9f7 ebbe b5ae dfbe
00000110: d766 dbbd ad97 24be f13a 6ebe 52ec 943e
00000120: 38d4 a13e f0f9 583f e6bd 803f c045 3fbe
00000130: 20fb d4be b3aa d03e 1334 4abe 74e6 133f
00000140: 96ea 3f3f bce5 303b c986 dcbe 98a5 01bf
00000150: d9af 9cbe f170 3abc e2b8 b1be a27e 053f
00000160: fcbd 0c3e a11a 5a3f c3f3 623f 2568 3ebe
00000170: 3b26 d7be 53ae 4a3f f141 3dbe 06d6 233f
00000180: efba 6c3f 2ddf af3c dd9f 20bf 97bf e7be
00000190: 7c74 3cbe f118 363e 08a6 74be 88ac 1c3f
000001a0: ce2f 203f 370e 553f 4659 293f 92f0 51be
000001b0: 5a64 e6be 15b7 153f 8144 1d3e 4812 293f
000001c0: 70b1 09bf 6185 113f 0bb0 be3f 7c45 213f
000001d0: d5b3 fdbe b8f9 cbbd 101e 06bf 019b ee3e
000001e0: fc75 7e3f fdef 62be 3dcc 30bf 8ae0 f63e
000001f0: 666f 573f b946 f1be 0fff 90be 9776 66bf
00000200: 0245 38bf 6037 3b3f 5aef b63f 192c bc3e
00000210: a059 a2be 89df 8f3c 8a3e 15bf 1f2a 173f
00000220: 0cdb 653f 5cb3 05be ee9b cfbe cec2 cd3e
00000230: 77c8 683f a5d5 d8be 98d5 c6be 047d 65bf
00000240: 50cf d4be 8fee 0e3f a231 a33f d4d8 163f
00000250: 8eeb c0be 8840 80bd 1e83 14bf 9ab8 0d3f
00000260: 5c27 703f 6833 91be adaa e1be 380b 893e
00000270: 17b8 7f3f 720e 3abf 1545 d1be 3abd 75bf
00000280: 8059 593f 6a33 a2bd 0c97 e5be 306c 20be
00000290: 6b95 8dbe 8cd1 e0bd fa8e 46be ed92 543e
000002a0: bfef 903e 7542 703f f861 5f3f e356 9cbe
000002b0: e26d 11bf 7254 393f 6e1d 59be 151f 333f
000002c0: 0d7c 613f a5cf 123d 1ba3 0fbf bfd7 cbbe
000002d0: 4e64 b5bd 8603 44bd f584 95be 537f db3e
000002e0: 56c8 093f 45c7 353f 2202 493f cc0e 8bbe
000002f0: 79c8 10bf 7a93 2b3f dfcb b03d eadf 263f
00000300: 67b3 973f 2c08 5dbe 3294 7fbe fd62 7fbe
00000310: b2b6 9dbe d9bd 7fbe f7d9 58be a302 273e
00000320: b8a6 ca3d 8df8 5a3f 9c39 903f 04c8 71be
00000330: ae09 34be 954f 173f e3aa 583d 0f79 e43e
00000340: efa0 78bf 8930 68bf 1d9c 863e 546b 1cbf
00000350: 2baf 863e a4eb 20bf 04b4 2abd 62f2 273f
00000360: 8dce 7e3f 2774 e8be 7198 22bf 184f 073f
00000370: 027b 513f 6506 ac3e 7b4e 013e 72a2 45bf
00000380: 3240 6dbf 07ca 86bf 3a68 b23e 888c 19bf
00000390: 70f5 9b3e cf38 35bf 5831 b5bd 0355 1f3f
000003a0: e0ef 5d3f 9fb9 26bf a1c4 38bf 7d32 da3e
000003b0: 7f21 833f 4324 bf3e 65a3 aabd d33f 1ebf
000003c0: 1e9d 2bbf e87d 71bf d02b 3d3e 33c9 59bf
000003d0: bd35 553e 111e 17bf 70c4 01bd 370b cd3e
000003e0: 459e 6f3f 1f3f eebe fc29 1ebf 88c7 0d3f
000003f0: 6c22 943f 22d7 e03d 35d8 95bd ef15 51bf
