jordan_elman_2024/exp4/elman_item_level/run_2/export/model.safetensors (safetensors, 6576 bytes, 7 tensors)

layers.elman.hh.bias f4 [16]
000000 51 b1 81 3e db f3 74 be d4 dc 0c bd 57 b4 64 be
       0.25330594 -0.23921148 -0.034390286 -0.22334419
000010 0f 07 65 3e f7 72 5a 3c dd cb d7 bd 6b 83 4f be
       0.22365974 0.013333074 -0.10536931 -0.20264976
000020 2c 69 fe 3d f2 9d da bd 8f f3 45 3e b3 19 76 be
       0.12422404 -0.10674657 0.19331191 -0.24033241
000030 88 9a c5 3e 3f 2b d5 be cd b3 3d 39 53 90 30 be
       0.3859446 -0.41634557 0.00018091426 -0.17242555

layers.elman.hh.weight f4 [16, 16]
000000 42 e2 89 3e ac e1 89 be d4 b3 dc 3d d3 07 03 bd
       0.26930434 -0.26929986 0.10776487 -0.031989884
000010 76 7a 29 be 11 d2 92 bd 83 1f 0f 3f e5 c8 84 be
       -0.16550621 -0.07168973 0.5590746 -0.2593452
000020 57 60 ff bd aa 7b 04 3f 05 54 0f 3f 52 f3 9d bd
       -0.12469547 0.51751196 0.5598758 -0.07712425
000030 93 c3 fb 3e 5c ee 35 be 63 bf e8 be ca 36 ec bd
       0.4917265 -0.17766708 -0.45458516 -0.11533888
000040 63 04 8c 3e 1c 51 9f be 2b fb 7c 3d 19 30 b2 3e
       0.27347097 -0.3111657 0.06176297 0.3480232
000050 1f 00 5b be c9 1e e4 bd 92 bc e4 bd d8 b4 dd 3c
       -0.21386765 -0.11138684 -0.111687794 0.027063772
000060 4f 2d c2 3e 8c 2d 49 be bd 0d 04 bd 34 f4 9d bb
       0.37925193 -0.19646281 -0.032239664 -0.004820371
000070 5b 2c b6 be d7 92 cf be 89 1f 19 3e f7 05 18 be
       -0.35580716 -0.40541717 0.14953436 -0.14846025
000080 0d 3e 45 bf 77 2b 9d bf 29 93 0f 3f 24 a0 ac 3e
       -0.77047807 -1.227889 0.56083924 0.33715928
000090 c4 90 a5 bf 3c 6d ca be be f0 cf 3e 24 f6 bf bf
       -1.2934804 -0.39536464 0.4061336 -1.4996991
0000a0 9f d5 e4 3d 84 30 95 bf 0b 67 5d be 92 46 34 bf
       0.111735575 -1.1655431 -0.21621339 -0.7042018
0000b0 20 69 58 bf 68 df f8 3e be e1 9f bf 0c 62 21 bf
       -0.8453541 0.48607945 -1.2490766 -0.6304023
0000c0 41 06 4c 3f 33 2f 9c 3e fb 8b fd bd aa 6e 1d 3c
       0.7969704 0.3050476 -0.12380215 0.009608904
0000d0 1e ca 08 3f 3d 56 cf 3c da a0 4c be 63 87 a6 3e
       0.53433406 0.025309676 -0.19983235 0.32525167
0000e0 a5 77 0d 3e 36 f1 31 3f 13 b7 e8 3e 2e d7 59 3e
       0.13815172 0.69508684 0.45452175 0.21273491
0000f0 db 55 c5 3e 42 63 14 bf 49 f0 7d 3e fd 6b ae 3e
       0.38542065 -0.57963955 0.24798693 0.34066764
000100 8d 3c 8a bd 25 69 7e 3e 9e ea 44 3e de d4 ee 3d
       -0.067498304 0.24844797 0.19230124 0.11661695
000110 23 c3 a0 bc 3c b2 96 bd ac 9e 35 be ea 3e 57 3e
       -0.019624298 -0.07358214 -0.1773631 0.21020094
000120 96 2f 14 3e 0f 83 3a be c0 31 d3 be 8e 24 02 be
       0.14471278 -0.18214057 -0.41248894 -0.12709257
000130 4a 00 90 bd 26 7b 13 3e 7e f1 70 3e e2 27 e0 bc
       -0.07031305 0.14402446 0.23529622 -0.027362768
000140 4e cb af bc 9b 5c 9d bd 0c 1f 66 be 10 92 ed 3d
       -0.021459248 -0.07683679 -0.22472781 0.11600125
000150 53 91 e1 bd 2f dc 0f bf fa b9 33 bc 59 90 f6 3e
       -0.110140465 -0.5619535 -0.010969633 0.48157004
000160 69 9c ef 3e b2 00 1c 3e 80 73 97 be 1b 80 2f bd
       0.4679902 0.1523464 -0.29580307 -0.04284678
000170 e4 1b 74 bd 2c c2 89 be 38 0f 51 be 4c bd 9b be
       -0.05959691 -0.26905954 -0.20415962 -0.3041786
000180 5d 9a 04 bf 59 7f 44 3e ce 83 bd 3e 1b b2 d7 bd
       -0.5179804 0.19189204 0.37014621 -0.10532018
000190 d4 ab 4f be fc 9f cd 3d 3a 9e ab bd 43 70 0a 3e
       -0.20280391 0.1004028 -0.08379789 0.13519387
0001a0 71 98 97 bd 6f 41 7b be 4c cc f4 bd c1 82 e1 3e
       -0.07402123 -0.2453668 -0.11953029 0.4404507
0001b0 3d d6 83 bd 85 5f 76 3e 2b 12 d3 bd fd 8b bc 3d
       -0.06437347 0.24059875 -0.103062 0.09206388
0001c0 71 07 82 3e 39 ea 9f 3e 37 d5 08 be 1f 77 15 be
       0.25396302 0.31233385 -0.13362585 -0.14596222
0001d0 bd 98 14 3f b3 b8 f4 3e b2 bf 28 bf 31 ee 0b 3f
       0.5804556 0.47797164 -0.65917504 0.54660326
0001e0 e7 42 84 be 2c ce bd 3e 77 0c 52 bd 1f 8e a1 3e
       -0.25832292 0.3707136 -0.05128142 0.31553742
0001f0 bd 3e 6e 3d e0 1a a5 be 04 24 2b 3f 9c 3c a1 3e
       0.0581653 -0.32247066 0.6685183 0.31491554
000200 ce 0f 54 3e 0a a5 ec 3d ce 17 c0 3e c6 7d a6 be
       0.20709154 0.11554916 0.37518162 -0.32517833
000210 64 09 85 bd 40 e4 b3 3d d8 c1 bc be 89 53 10 be
       -0.06495932 0.087837696 -0.3686664 -0.14094366
000220 3e a9 de be d3 64 9a 3d 42 f9 0f 3e cb 5a 40 3e
       -0.43488497 0.07538762 0.14059928 0.18784635
000230 0f 76 90 3d 44 93 87 be cc d5 6f 3e 43 4f f1 3e
       0.07053768 -0.26479542 0.23421401 0.47130784
000240 ab cc cb be d2 0b 87 3e 86 02 ca bd bd 3f 92 be
       -0.39804587 0.26376206 -0.098637626 -0.28564253
000250 2a 19 aa bd 4f 4d 70 be 2e 19 d6 3e be 58 a7 3e
       -0.08305581 -0.23466991 0.41816086 0.32684892
000260 64 bb f5 bb 1c e2 5d 3e 16 17 2b 3d 58 99 ab be
       -0.0074991453 0.21668285 0.041770063 -0.3351543
000270 b1 56 5f 3e 07 18 cf 3c 24 ee ba be de 30 79 be
       0.21810414 0.025280012 -0.36509812 -0.24335048
000280 b0 6d 01 c0 7c f9 bc bf b9 7b 48 3f 55 12 0c 3d
       -2.0223198 -1.4763637 0.78313786 0.03419717
000290 93 68 de bf dd 83 a7 3d b6 69 84 3f 4a f8 05 c0
       -1.7375664 0.08179448 1.034476 -2.0932794
0002a0 7d 1e d9 be 0d 4d 19 c0 6f c9 35 be 08 0d 83 bf
       -0.42406073 -2.3953278 -0.17752622 -1.0238352
0002b0 f8 29 91 bf 89 05 87 3f 5f 91 e0 bf 32 69 5a bf
       -1.1340933 1.0548564 -1.7544364 -0.85316765
0002c0 3a ab a6 3e 9b d4 2b 3f 2a 6c 7f be d9 e2 41 bd
       0.3255251 0.67121285 -0.24943605 -0.04733548
0002d0 0e b4 c7 3e 78 66 85 be f6 17 c4 bd 4e cd 0e 3f
       0.39004558 -0.2605474 -0.09574883 0.5578202
0002e0 0c 68 3e 3e cd 5c 42 3f 13 2f 24 3e 7c 2b 81 3e
       0.18594378 0.7592285 0.16033582 0.25228488
0002f0 fc d9 df 3e fa fa a0 be 5d 24 1f 3e bc a9 b7 3e
       0.43720996 -0.3144148 0.15541215 0.35871685
000300 eb c6 67 bf c0 46 73 be eb 76 16 3d ba 2e 9d be
       -0.905379 -0.23757458 0.036734503 -0.30699712
000310 b7 a8 bd be 09 83 3c be 6b fa 21 3f 52 38 21 bf
       -0.37042782 -0.18409361 0.6327273 -0.6297656
000320 31 92 bd bd 1d b8 0e bf d8 ff 52 be 44 35 2e bf
       -0.092563994 -0.55749685 -0.20605409 -0.68050027
000330 9f a1 90 be 91 f4 2d 3f bc 31 10 be cc ab be be
       -0.28248307 0.67951304 -0.14081472 -0.37240446
000340 ed f5 a1 3e 78 7e a4 3b 9f f8 a9 be 4f ca b0 3e
       0.3163294 0.005019959 -0.33197495 0.3452935
000350 40 67 b6 be af 6d 00 bf 1c 46 bd be 01 76 97 3e
       -0.35625648 -0.50167364 -0.36967552 0.29582217
000360 12 10 39 3e 41 02 89 3d d3 8b cc be 39 a1 57 3d
       0.18072537 0.06689883 -0.39950427 0.05264399
000370 75 9f 07 bf e6 4c 93 be 03 2d 8b bd e6 d2 81 3c
       -0.5297769 -0.28769606 -0.06795695 0.015847635
000380 3a 26 b3 3e f9 02 d6 be ec be 47 be 17 35 59 bd
       0.34990102 -0.41799143 -0.19506425 -0.053029146
000390 e9 c5 3b be e1 45 07 3e 1b a1 d7 3d 21 5d 36 bf
       -0.18337215 0.1321025 0.10528775 -0.71235853
0003a0 c5 da 37 3d 68 ed 50 be a1 2a 6d 3c 0e f3 16 be
       0.04488637 -0.20403063 0.014475496 -0.14741156
0003b0 df 13 b9 be b4 b1 1a be 14 bb 9b bd 02 e2 63 be
       -0.36147973 -0.15106851 -0.07604042 -0.22254184
0003c0 43 97 ae 3e bd ee 8c be 97 cb 25 be 71 c2 29 3e
       0.3409978 -0.27525893 -0.16190945 0.1657808
0003d0 e6 ef b9 be a9 7a 95 be fb d5 16 be 33 b4 9e 3d
       -0.3631584 -0.29195145 -0.14730065 0.07749214
0003e0 ea 4d cb 3e a8 5f 60 3e fd 5d a6 be 2e 81 9e 3d
       0.3970788 0.2191149 -0.32493582 0.07739483
0003f0 bf c2 3e be 90 90 db 3c 56 0a b7 3d 1a 87 74 be
       -0.18628977 0.026802331 0.08937518 -0.23879662

layers.elman.hx.bias f4 [16]
000000 08 1d e6 bd 05 41 93 be 69 22 8a 3e 4c 7b 3b be
       -0.11236006 -0.28760543 0.26979378 -0.18308753
000010 d2 22 3f 3e a5 40 ae 3d ab 0f 9f 3d 2d 56 f9 3d
       0.18665627 0.08508424 0.0776666 0.1217464
000020 a7 c0 59 be 8b d4 a3 bd 21 6e 5f bd 35 12 be be
       -0.21264897 -0.07999524 -0.054548386 -0.37123266
000030 f4 a4 06 3f b1 68 83 be 70 49 78 bd cc 0d 05 3d
       0.5259545 -0.2566581 -0.06061691 0.03248386

layers.elman.hx.weight f4 [16, 22]
000000 c9 90 67 3f ea 24 67 bf 88 a0 4f 3e 7b d8 97 3f
       0.904553 -0.902907 0.20276082 1.186294
000010 d5 2e 68 bf 62 7e 24 bf 89 20 57 3f 5a fd f4 3e
       -0.9069646 -0.64255345 0.8403402 0.47849542
000020 bf 5a a4 bd f1 b6 79 be 3d e3 95 3d 3f 04 90 3e
       -0.08025121 -0.24386193 0.07318733 0.2812824
000030 b4 a3 0b 3d e8 78 41 bf 29 c3 0b bf be 2f 9b 3e
       0.034091666 -0.75575113 -0.54594666 0.30309862
000040 29 fd e1 be 6d ef bc bd 38 b7 c6 be 67 7b 01 bf
       -0.44138458 -0.09225354 -0.3881166 -0.5057892
000050 4a 4a 81 bf 26 89 82 3e 55 1f e1 3e 40 d7 fe 3c
       -1.0100796 0.2549526 0.43969217 0.031108499
000060 20 33 01 be f9 6c 80 bf 3a 05 2c bf 9e 9a dd be
       -0.12617159 -1.0033256 -0.67195475 -0.43282026
000070 3a 58 ec be 13 b9 a9 3e e2 d5 40 bf 4a f6 72 bf
       -0.46161062 0.33149013 -0.7532636 -0.9490706
000080 88 62 1d bf 8f f7 10 3f 0e ee ba 3d ed 17 cd 3e
       -0.6147847 0.56627744 0.091274366 0.40057316
000090 2a ad 68 be c3 a8 16 3e 58 a4 94 3e 33 d1 4e 3d
       -0.22722307 0.14712815 0.29031634 0.050492477
0000a0 fd a4 f0 be 13 f3 47 3f 88 77 a8 be b1 99 2b 3f
       -0.47000876 0.78105277 -0.32903695 0.6703139
0000b0 d3 7a 05 3f 70 49 c8 3e c6 2e 1a bf bf 2f 10 3f
       0.5214054 0.39118528 -0.6022762 0.56322855
0000c0 9a af fe be 25 b0 1b 3f 07 90 3c bf 3e 6c 23 bf
       -0.49743348 0.6081565 -0.7365727 -0.6383704
0000d0 21 9c 58 be 49 ab 13 3f 74 62 80 3e 4c 51 f0 3e
       -0.21153308 0.57683235 0.25075114 0.46937025
0000e0 35 63 22 bf 10 49 5c bf a5 6a 47 3d 27 02 27 bf
       -0.6343263 -0.86048985 0.04868569 -0.6523766
0000f0 06 02 5f bf 91 67 7f bf 86 12 7f bf a9 45 aa 3f
       -0.8711246 -0.99767405 -0.9963764 1.3302509
000100 cd 49 a7 3f 40 17 ae 3f 42 e0 76 be 7c c7 17 bf
       1.3069397 1.3600845 -0.24108985 -0.59288764
000110 32 58 19 bf 64 4a 1d 3a 75 7f d2 be 53 7c 57 3f
       -0.599002 0.000600016 -0.41112867 0.8417408
000120 53 cd 83 3e fd 97 8a be 26 49 3d bf 29 eb 36 be
       0.25742587 -0.27069083 -0.7393974 -0.17863144
000130 8e 41 5c bf 05 bc 0b be 57 cb 0c 3f b0 74 0e be
       -0.8603753 -0.13645943 0.5499777 -0.139117
000140 68 57 25 bf 34 3d 81 bf 61 f9 eb 3e 17 1a 85 3e
       -0.64586496 -1.0096803 0.46088699 0.25996467
000150 d7 22 31 be b7 fd 34 bf e4 38 83 bf 3b 2e 9a bf
       -0.17298447 -0.7069964 -1.0251737 -1.2045358
000160 45 2e 0f 3e fa 96 43 bf 78 8b 00 be 7a fa 1b 3f
       0.13982494 -0.76402247 -0.12553203 0.6092907
000170 89 47 68 bf 4b cf e1 be f0 0c 68 3f 76 0c 1d bf
       -0.90734154 -0.44103464 0.9064474 -0.6134714
000180 a1 be 5f bd 52 7a 70 be d7 0a 10 3f 20 a5 44 bf
       -0.054625157 -0.23484161 0.5626654 -0.7681446
000190 17 b4 c0 3e e6 18 62 bf 86 e3 8f be bd 2d 80 3f
       0.37637398 -0.8831924 -0.28103274 1.0013958
0001a0 90 01 21 3f df 7a 46 3f 18 b1 6b bf 50 f8 77 3f
       0.6289301 0.77531236 -0.920671 0.9686327
0001b0 a8 1e 3b 3f 8f 38 99 be 68 10 f5 3d 80 ce 41 bd
       0.7309365 -0.29925963 0.1196602 -0.047316074
0001c0 08 a9 57 3f 04 a4 85 3f 87 e0 3d bf 96 fd 77 bf
       0.84242296 1.0440679 -0.74170727 -0.96871316
0001d0 03 c2 b9 3e e5 96 09 bf 47 ee c2 bd ff bd 25 bf
       0.36280832 -0.5374587 -0.09518104 -0.64743036
0001e0 07 1c a0 3e c8 54 b0 be 97 15 69 bf 17 67 5c 3f
       0.31271383 -0.34439683 -0.9104857 0.860948
0001f0 23 0c 05 bf 9b a5 12 bf 25 5d d1 3d 32 f8 24 bf
       -0.51971644 -0.57283944 0.10222844 -0.64441216
000200 fe 63 13 3e 4e 79 5e 3f 64 dd 44 3f 01 4e 93 3d
       0.14393613 0.86903846 0.76900315 0.071926124
000210 c4 5b 9c be 50 c2 8b be 80 39 1c 3d 46 39 86 3e
       -0.30538762 -0.27296686 0.038140774 0.2621557
000220 fd 40 7f bc 64 d2 1c be 3c 66 14 3f c8 2e a6 3e
       -0.015579459 -0.15314633 0.579685 0.32457566
000230 a2 ea 13 3f 2c bf 40 3f ee 73 de 3d 3d 0d 20 bf
       0.57779896 0.75291705 0.108619556 -0.625202
000240 5b 1f 10 be ea 67 38 3f ae 96 03 3f 5c 9c 92 3e
       -0.14074461 0.7203356 0.51401794 0.28634918
000250 95 e4 b2 3c 0a 5f 4f 3e 60 43 90 3e 47 d3 5f bf
       0.021837512 0.20251098 0.28176403 -0.8743176
000260 07 1d 87 3f 42 f2 92 3f c6 ec f2 be bc 98 5e 3f
       1.0555733 1.1480181 -0.4744627 0.86951804
000270 20 2d 23 bd 01 db 2a bf 9b b7 2e bf 45 3a b6 3d
       -0.039837956 -0.66740423 -0.6824891 0.08897833
000280 4b a6 5c bf d5 a4 77 3c 46 f6 c9 3e 39 16 7f 3f
       -0.8619124 0.015114983 0.39445704 0.99643284
000290 08 0c c6 3e bb e7 4d 3f dd 98 5f be 3b f7 ca 3e
       0.38681054 0.8043172 -0.21835656 0.39641747
0002a0 29 6c 1f 3f e1 c5 97 bd a3 f5 89 3e ad c8 45 3e
       0.62274414 -0.07410789 0.26945218 0.19314833
0002b0 b7 a5 94 3e 79 76 9a 3f d5 29 74 bf d2 01 06 3f
       0.2903268 1.2067405 -0.9537633 0.5234653
0002c0 f6 75 05 bf 5e 3e 60 bf d8 32 95 be 48 b5 51 be
       -0.5213312 -0.87595165 -0.29140353 -0.2047931
0002d0 a2 70 3a bd e1 7d 05 3e cb 1e a2 be 83 49 62 3f
       -0.04551757 0.130363 -0.31664118 0.8839342
0002e0 ab b0 65 3e dc 6a 83 be c9 79 f0 be 75 f2 12 3f
       0.22430675 -0.25667465 -0.46967915 0.5740121
0002f0 74 33 a1 3d 3c 00 d5 be fd bc 27 bf ee 3d 1d 3f
       0.07871142 -0.4160174 -0.6552275 0.6142262
000300 c4 7c 87 bf 42 f5 ee 3b 33 ad 29 bf ea ea 7c bd
       -1.058495 0.0072924206 -0.66279906 -0.06174747
000310 26 62 13 bf 30 80 53 3f 47 bf 7a 3f a0 1c aa bd
       -0.5757164 0.82617474 0.97948116 -0.08306241
000320 58 d6 70 3e 4e 50 ca bd fb 99 50 bf 6f 41 2c bf
       0.23519266 -0.09878598 -0.81484956 -0.67287344
000330 5e 98 81 3c 88 a2 83 bd 75 20 e1 bd 31 4a 34 bd
       0.015819725 -0.06427485 -0.10992519 -0.044016067
000340 77 2a ab 3e 95 e3 36 3f a9 6b 95 be 5a 00 a6 3e
       0.33430836 0.7144101 -0.291837 0.32422143
000350 a4 2b 3b 3f c3 6d 04 bf 62 d1 41 be 71 03 40 bf
       0.73113465 -0.51729983 -0.1892753 -0.7500525
000360 2e b9 c5 be d1 ab 12 bf f9 10 8d be 5e 4c 1f 3f
       -0.38617843 -0.5729342 -0.27552012 0.622259
000370 79 22 42 3f ba 7e 45 bf ee c7 4a bf 18 ac 8c 3f
       0.7583385 -0.77146494 -0.7921132 1.0990019
000380 52 94 c3 be 04 44 c5 be e1 4a 64 bf 89 79 cc 3e
       -0.38199097 -0.38528454 -0.89176756 0.39936474
000390 64 17 3c 3f c9 ed 54 be ee 02 17 3e 44 47 b6 be
       0.7347319 -0.20793833 0.14747211 -0.35601246
0003a0 65 9e 0e 3f 97 41 00 be 6c 53 14 3f 99 8b 4c be
       0.5571044 -0.1252502 0.5793979 -0.19975127
0003b0 5e 72 ce bf 12 80 be bf 62 5c c7 bf dd 29 e3 3f
       -1.6128652 -1.4882834 -1.5575068 1.7747151
0003c0 bc a8 dd 3f e9 10 d3 3f 97 e0 57 bf e8 0d 93 3e
       1.7317119 1.6489536 -0.8432707 0.28721547
0003d0 94 53 e0 be 42 e7 73 3f 52 38 4a 3f 41 78 da 3e
       -0.43813765 0.95274746 0.7899219 0.4266987
0003e0 0c c5 05 bf 4f a6 4d 3f ce 30 72 3f ea 07 f4 be
       -0.52253795 0.8033189 0.9460572 -0.47662288
0003f0 84 d5 fd 3e 99 34 91 3e 07 b0 d3 3e f6 f0 3b bf
       0.49576962 0.2836044 0.41345236 -0.7341455

layers.embed.emb.weight f4 [22, 22]
000000 00 00 80 3f 00 00 00 00 00 00 00 00 00 00 00 00
       1.0 0.0 0.0 0.0
000010 00 00 00 00 00 00 00 00 00 00 00 00 00 00 00 00
       0.0 0.0 0.0 0.0
000020 00 00 00 00 00 00 00 00 00 00 00 00 00 00 00 00
       0.0 0.0 0.0 0.0
000030 00 00 00 00 00 00 00 00 00 00 00 00 00 00 00 00
       0.0 0.0 0.0 0.0
000040 00 00 00 00 00 00 00 00 00 00 00 00 00 00 00 00
       0.0 0.0 0.0 0.0
000050 00 00 00 00 00 00 00 00 00 00 00 00 00 00 80 3f
       0.0 0.0 0.0 1.0
000060 00 00 00 00 00 00 00 00 00 00 00 00 00 00 00 00
       0.0 0.0 0.0 0.0
000070 00 00 00 00 00 00 00 00 00 00 00 00 00 00 00 00
       0.0 0.0 0.0 0.0
000080 00 00 00 00 00 00 00 00 00 00 00 00 00 00 00 00
       0.0 0.0 0.0 0.0
000090 00 00 00 00 00 00 00 00 00 00 00 00 00 00 00 00
       0.0 0.0 0.0 0.0
0000a0 00 00 00 00 00 00 00 00 00 00 00 00 00 00 00 00
       0.0 0.0 0.0 0.0
0000b0 00 00 00 00 00 00 00 00 00 00 80 3f 00 00 00 00
       0.0 0.0 1.0 0.0
0000c0 00 00 00 00 00 00 00 00 00 00 00 00 00 00 00 00
       0.0 0.0 0.0 0.0
0000d0 00 00 00 00 00 00 00 00 00 00 00 00 00 00 00 00
       0.0 0.0 0.0 0.0
0000e0 00 00 00 00 00 00 00 00 00 00 00 00 00 00 00 00
       0.0 0.0 0.0 0.0
0000f0 00 00 00 00 00 00 00 00 00 00 00 00 00 00 00 00
       0.0 0.0 0.0 0.0
000100 00 00 00 00 00 00 00 00 00 00 00 00 00 00 00 00
       0.0 0.0 0.0 0.0
000110 00 00 00 00 00 00 80 3f 00 00 00 00 00 00 00 00
       0.0 1.0 0.0 0.0
000120 00 00 00 00 00 00 00 00 00 00 00 00 00 00 00 00
       0.0 0.0 0.0 0.0
000130 00 00 00 00 00 00 00 00 00 00 00 00 00 00 00 00
       0.0 0.0 0.0 0.0
000140 00 00 00 00 00 00 00 00 00 00 00 00 00 00 00 00
       0.0 0.0 0.0 0.0
000150 00 00 00 00 00 00 00 00 00 00 00 00 00 00 00 00
       0.0 0.0 0.0 0.0
000160 00 00 00 00 00 00 00 00 00 00 00 00 00 00 00 00
       0.0 0.0 0.0 0.0
000170 00 00 80 3f 00 00 00 00 00 00 00 00 00 00 00 00
       1.0 0.0 0.0 0.0
000180 00 00 00 00 00 00 00 00 00 00 00 00 00 00 00 00
       0.0 0.0 0.0 0.0
000190 00 00 00 00 00 00 00 00 00 00 00 00 00 00 00 00
       0.0 0.0 0.0 0.0
0001a0 00 00 00 00 00 00 00 00 00 00 00 00 00 00 00 00
       0.0 0.0 0.0 0.0
0001b0 00 00 00 00 00 00 00 00 00 00 00 00 00 00 00 00
       0.0 0.0 0.0 0.0
0001c0 00 00 00 00 00 00 00 00 00 00 00 00 00 00 80 3f
       0.0 0.0 0.0 1.0
0001d0 00 00 00 00 00 00 00 00 00 00 00 00 00 00 00 00
       0.0 0.0 0.0 0.0
0001e0 00 00 00 00 00 00 00 00 00 00 00 00 00 00 00 00
       0.0 0.0 0.0 0.0
0001f0 00 00 00 00 00 00 00 00 00 00 00 00 00 00 00 00
       0.0 0.0 0.0 0.0
000200 00 00 00 00 00 00 00 00 00 00 00 00 00 00 00 00
       0.0 0.0 0.0 0.0
000210 00 00 00 00 00 00 00 00 00 00 00 00 00 00 00 00
       0.0 0.0 0.0 0.0
000220 00 00 00 00 00 00 00 00 00 00 80 3f 00 00 00 00
       0.0 0.0 1.0 0.0
000230 00 00 00 00 00 00 00 00 00 00 00 00 00 00 00 00
       0.0 0.0 0.0 0.0
000240 00 00 00 00 00 00 00 00 00 00 00 00 00 00 00 00
       0.0 0.0 0.0 0.0
000250 00 00 00 00 00 00 00 00 00 00 00 00 00 00 00 00
       0.0 0.0 0.0 0.0
000260 00 00 00 00 00 00 00 00 00 00 00 00 00 00 00 00
       0.0 0.0 0.0 0.0
000270 00 00 00 00 00 00 00 00 00 00 00 00 00 00 00 00
       0.0 0.0 0.0 0.0
000280 00 00 00 00 00 00 80 3f 00 00 00 00 00 00 00 00
       0.0 1.0 0.0 0.0
000290 00 00 00 00 00 00 00 00 00 00 00 00 00 00 00 00
       0.0 0.0 0.0 0.0
0002a0 00 00 00 00 00 00 00 00 00 00 00 00 00 00 00 00
       0.0 0.0 0.0 0.0
0002b0 00 00 00 00 00 00 00 00 00 00 00 00 00 00 00 00
       0.0 0.0 0.0 0.0
0002c0 00 00 00 00 00 00 00 00 00 00 00 00 00 00 00 00
       0.0 0.0 0.0 0.0
0002d0 00 00 00 00 00 00 00 00 00 00 00 00 00 00 00 00
       0.0 0.0 0.0 0.0
0002e0 00 00 80 3f 00 00 00 00 00 00 00 00 00 00 00 00
       1.0 0.0 0.0 0.0
0002f0 00 00 00 00 00 00 00 00 00 00 00 00 00 00 00 00
       0.0 0.0 0.0 0.0
000300 00 00 00 00 00 00 00 00 00 00 00 00 00 00 00 00
       0.0 0.0 0.0 0.0
000310 00 00 00 00 00 00 00 00 00 00 00 00 00 00 00 00
       0.0 0.0 0.0 0.0
000320 00 00 00 00 00 00 00 00 00 00 00 00 00 00 00 00
       0.0 0.0 0.0 0.0
000330 00 00 00 00 00 00 00 00 00 00 00 00 00 00 80 3f
       0.0 0.0 0.0 1.0
000340 00 00 00 00 00 00 00 00 00 00 00 00 00 00 00 00
       0.0 0.0 0.0 0.0
000350 00 00 00 00 00 00 00 00 00 00 00 00 00 00 00 00
       0.0 0.0 0.0 0.0
000360 00 00 00 00 00 00 00 00 00 00 00 00 00 00 00 00
       0.0 0.0 0.0 0.0
000370 00 00 00 00 00 00 00 00 00 00 00 00 00 00 00 00
       0.0 0.0 0.0 0.0
000380 00 00 00 00 00 00 00 00 00 00 00 00 00 00 00 00
       0.0 0.0 0.0 0.0
000390 00 00 00 00 00 00 00 00 00 00 80 3f 00 00 00 00
       0.0 0.0 1.0 0.0
0003a0 00 00 00 00 00 00 00 00 00 00 00 00 00 00 00 00
       0.0 0.0 0.0 0.0
0003b0 00 00 00 00 00 00 00 00 00 00 00 00 00 00 00 00
       0.0 0.0 0.0 0.0
0003c0 00 00 00 00 00 00 00 00 00 00 00 00 00 00 00 00
       0.0 0.0 0.0 0.0
0003d0 00 00 00 00 00 00 00 00 00 00 00 00 00 00 00 00
       0.0 0.0 0.0 0.0
0003e0 00 00 00 00 00 00 00 00 00 00 00 00 00 00 00 00
       0.0 0.0 0.0 0.0
0003f0 00 00 00 00 00 00 80 3f 00 00 00 00 00 00 00 00
       0.0 1.0 0.0 0.0

layers.lm_head.proj.bias f4 [22]
000000 70 52 4f bf f8 4d 64 bf 9b 7e 51 bf 8b 9c 30 3f
       -0.80985165 -0.8918147 -0.8183381 0.68988866
000010 af 02 74 3d 8e 17 68 3e 06 8c 85 3d b5 02 8e 3e
       0.05957287 0.22665235 0.06520848 0.2773644
000020 23 5a b4 3e 8a d2 af 3e ee 3f 56 3d 3e f7 b0 bd
       0.3522502 0.34340316 0.05230706 -0.08640908
000030 68 a7 43 bb 16 93 3c be 95 cf 4c 3d 81 3d 7d be
       -0.002985442 -0.18415484 0.050002653 -0.24730493
000040 54 bb 4a 3e 32 ff 6d 3e b9 7a 7f 3e a8 b0 93 3b
       0.19798023 0.2324188 0.24949159 0.004507143
000050 36 c8 67 3e 30 f1 b0 3d
       0.22634968 0.08639753

layers.lm_head.proj.weight f4 [22, 16]
000000 d9 07 48 bc 02 a5 6c 3e 11 22 d1 bd d2 f6 00 3e
       -0.012208902 0.2310982 -0.10211576 0.12594154
000010 96 da 2f be e5 cc 3c be 88 7c 34 3e 23 58 9f bd
       -0.17173228 -0.18437536 0.1762563 -0.077804826
000020 7b 2b 7e bc 5f 4d fc 3e 13 54 cd 3c db 68 c5 be
       -0.015513296 0.4927778 0.025064504 -0.3855656
000030 e4 fd 8e bd 16 33 56 3e 0c f5 f3 be 84 89 8d be
       -0.069820195 0.20917925 -0.47647893 -0.2764398
000040 85 3e 92 bd 55 49 d6 3e 68 b5 9a be 54 3a b4 3e
       -0.07140831 0.41852823 -0.30216527 0.3520075
000050 5a be 0e be eb ee b9 3d f9 97 16 3e a5 7b b7 be
       -0.13939801 0.09078773 0.1470641 -0.3583652
000060 e9 25 b7 3d c5 3c a9 3e f1 66 c1 bd 57 42 5b be
       0.08942778 0.33054176 -0.09443463 -0.21412025
000070 78 77 5d 3e 56 73 12 3e 60 cd 58 be 43 98 58 be
       0.21627605 0.1430181 -0.21172094 -0.21151833
000080 98 2c 3f be 3b 80 8e 3d ed 0b 5b be c8 3e 01 3d
       -0.18669355 0.06958052 -0.21391268 0.031554013
000090 4c 1b a4 be 58 49 60 be bb ba 58 3e c4 a8 9e be
       -0.32052076 -0.21902978 0.21164982 -0.30988133
0000a0 a7 9f f5 3d 65 db b8 3e f4 ed e2 bd 3b 3e 0e be
       0.11993342 0.36104885 -0.11080542 -0.13890927
0000b0 d0 83 33 3e 9d 96 db 3e fa 7b e7 be 05 bb 33 be
       0.17530751 0.42888346 -0.45211774 -0.17551811
0000c0 65 b0 b2 bf a6 0a e3 be 28 3e 1e bf c6 b0 92 bf
       -1.3960081 -0.44344062 -0.6181359 -1.1460197
0000d0 44 2b 1a 3e 26 00 8b bf e0 d0 d4 3f af 78 8a 3f
       0.15055567 -1.085942 1.6626244 1.081808
0000e0 5b 08 0c 3f 36 f0 25 be 85 49 6f 3f dd 12 13 bf
       0.5470025 -0.16204914 0.93471557 -0.5745066
0000f0 17 2d a6 3f 63 89 b7 be f9 b4 2e bf 67 11 9b bf
       1.298251 -0.35847005 -0.6824489 -1.2114686
000100 d8 7a 43 3f 40 2a 02 bf 77 3d ad 3e 09 52 b2 be
       0.7635932 -0.5084572 0.33835956 -0.34828213
000110 a1 88 97 3e 93 cd 28 3f 3e 38 07 bc f5 a4 60 bf
       0.29596427 0.6593868 -0.008253155 -0.87751704
000120 0f 64 b7 be c6 c0 07 3f 45 f7 21 3f 21 c7 08 3e
       -0.35818526 0.53028524 0.6326793 0.13357212
000130 4b 26 17 3f 8c 5d 24 bf e7 45 90 be 4e 49 fc 3d
       0.59042805 -0.6420524 -0.2817833 0.12318669
000140 1c dc 68 3f d5 e0 b4 be 7a 5b 80 3e 3d f2 ae be
       0.9096086 -0.35327783 0.2506979 -0.34169188
000150 75 41 71 3e 9b 1d 8d 3e b5 6f 96 bd 73 4b 30 bf
       0.23560126 0.2756165 -0.07345525 -0.68865126
000160 d3 de 0d bf 0e 0c 3e 3f 2f 64 3a 3f 2a 7d 89 3e
       -0.5541813 0.74237144 0.7280912 0.26853305
000170 30 3f 20 3f e8 27 01 bf 0f a1 a8 be 35 10 e7 3d
       0.62596416 -0.5045152 -0.32935378 0.11282388
000180 dc 00 37 3f 37 80 1f bf c8 31 b5 3e df c3 4f be
       0.71485686 -0.62305015 0.35389543 -0.20289563
000190 cf 1f 55 3e 77 f7 02 3f 81 7d e9 bd 38 f4 30 bf
       0.20812915 0.5115885 -0.11400891 -0.6912265
0001a0 12 eb ab be fe 5e 1e 3f 16 db 2f 3f aa 4f 5a 3e
       -0.33577782 0.61863697 0.68693674 0.21319452
0001b0 76 96 21 3f e5 38 2d bf 23 a1 8a be 43 12 25 3e
       0.6312021 -0.6766494 -0.27076063 0.16120248
0001c0 af e3 98 bf 1b 9b 20 3f b6 c5 a9 bf 29 00 3b 3e
       -1.1944484 0.6273667 -1.3263462 0.1826178
0001d0 f1 ca b6 3e 63 08 35 3f f3 a8 03 bf 0a ff 4d 3f
       0.35701707 0.7071592 -0.5142967 0.80467284
0001e0 31 b6 4f bf a3 bb 44 bf f6 21 16 40 f6 3f b5 3e
       -0.8113738 -0.7684881 2.3458228 0.3540036
0001f0 5b 96 88 bf 25 77 9d 3f 3e bc 3b 3f 7f 6f 50 3f
       -1.0670885 1.2301985 0.7333411 0.8142013
000200 89 52 80 bf e7 0b 79 3f 5f 98 a9 bf 41 94 e3 3d
       -1.0025188 0.97283787 -1.3249625 0.111122616
000210 61 e1 dd 3e 88 1c 28 3f ab 43 00 bf 59 72 54 3f
       0.43336013 0.65668535 -0.50103253 0.8298698
000220 d7 91 67 bf 86 b6 1e bf 43 9b 12 40 d3 a6 b1 3e
       -0.9045691 -0.6199726 2.2907264 0.3469759
000230 ef 0d 8a bf 3f b3 8b 3f 61 51 32 3f 5a d7 38 3f
       -1.0785502 1.0914077 0.69655424 0.722036
000240 60 04 97 bf 7c 80 45 3f ba ad a8 bf 68 1a 28 3e
       -1.179821 0.77149177 -1.3178017 0.16416323
000250 6c cf bb 3e 77 f2 16 3f d5 24 0a bf 2a 99 4d 3f
       0.36681688 0.5896372 -0.5396245 0.80311835
000260 14 5c 64 bf 3b cf 38 bf 43 2b 15 40 e9 84 a5 3e
       -0.89203 -0.7219121 2.3307655 0.32327965
000270 8d 64 8b bf 79 ee 96 3f 99 51 49 3f 5f 10 48 3f
       -1.0890061 1.1791526 0.78640133 0.7814998
000280 ef 24 51 3f a1 0c fb be d2 af c4 3e 25 84 96 be
       0.8169698 -0.49033073 0.3841539 -0.29397693
000290 d6 2c 40 3e 26 c2 27 3f 05 00 19 be fd 29 f9 be
       0.18767104 0.6553062 -0.14941414 -0.48664847
0002a0 16 bc bf be 56 dc 3b 3f 12 42 2a 3f 3b 71 98 3e
       -0.37448186 0.7338308 0.66507065 0.29773888
0002b0 d2 3c 29 3f 7d 62 00 bf c4 73 8d be 02 b3 03 3e
       0.6610843 -0.5015028 -0.27627385 0.12861255
0002c0 a4 f9 31 3f d8 c0 f2 be 4f ab f5 3e 57 d2 a2 be
       0.69521546 -0.47412753 0.4798226 -0.31801102
0002d0 72 22 2f 3e f3 55 07 3f ea 51 bf bd 6f 91 6b bf
       0.17102984 0.52865523 -0.09341796 -0.9201879
0002e0 8f a2 e8 be e3 46 37 3f 2d ad 2c 3f c7 ac bf 3e
       -0.45436522 0.7159254 0.67451745 0.37436506
0002f0 06 26 ea 3e 2b 60 1b bf 60 a5 67 be 5f bd 83 3e
       0.45732135 -0.60693616 -0.2262168 0.25730416
000300 21 b0 11 3f 1e d1 0a bf 61 4d b1 3e 45 f7 6a be
       0.56909376 -0.5422534 0.34629348 -0.22945888
000310 79 2b a4 3e 25 d0 08 3f c2 53 33 be f5 26 54 bf
       0.32064417 0.53442603 -0.1751242 -0.82871944
000320 08 41 03 bf af 0f 3e 3f 42 8e 3d 3f 90 0a 71 3e
       -0.51271105 0.7424268 0.74045193 0.23539186
000330 12 b2 0a 3f 15 46 1f bf 7d 21 6a be cd 1a 2d 3e
       0.54177964 -0.6221631 -0.22864337 0.16904755
000340 42 b5 37 bf 44 d4 b7 3e 0c 3e f0 3f ad 86 7e bf
       -0.7176095 0.35904133 1.8768935 -0.9942425
000350 09 93 4c 3e 92 98 ae 3e fa 52 a5 3e fc 73 c4 be
       0.19977964 0.34100777 0.3228987 -0.3836974
000360 2f 43 c3 bb 2d 10 cb be 06 22 3b c0 d9 71 63 bf
       -0.0059589366 -0.3966078 -2.9239516 -0.8884559
000370 55 8d aa 3e 12 c3 2e 3f f2 60 7a be 92 54 a4 3e
       0.33310953 0.68266404 -0.24451044 0.32095772
000380 51 63 3f bf 3e a9 08 3f 98 db e6 3f 83 7a 70 bf
       -0.7476092 0.53383243 1.8035765 -0.9393694
000390 0f bb 03 3e fc 9c a2 3e 74 ad 9a 3e 06 96 be be
       0.12864326 0.31760395 0.3021046 -0.37223834
0003a0 c6 79 37 bc df c1 ab be 06 1c 3b c0 10 30 5d bf
       -0.011198467 -0.3354635 -2.9235854 -0.8640146
0003b0 0e 2a 9e 3e b7 98 f6 3e 11 e0 9b be e1 39 d3 3e
       0.3089146 0.48163387 -0.30444387 0.41255096
0003c0 c9 88 44 bf 4e ae f3 3e e6 1d ed 3f 47 db 84 bf
       -0.7677122 0.4759392 1.8524749 -1.0379418
0003d0 d8 e2 73 3e 2a cc 7c 3e e7 62 8c 3e 82 24 bc be
       0.23817003 0.24687257 0.27419207 -0.36746603
0003e0 9e 6c b2 bc 03 32 8a be be 1e 3c c0 c6 6c 5b bf
       -0.021780308 -0.2699128 -2.9393764 -0.8571285
0003f0 84 20 9c 3e 82 d8 35 3f eb 77 69 be f4 f4 8e 3e
       0.30493557 0.7103349 -0.22799651 0.2792126
