jordan_elman_2024/exp2/jordan_item_level/run_1/export/model.safetensors (safetensors, 6976 bytes, 7 tensors)

layers.embed.emb.weight f4 [22, 22]
00000000: 0000 803f 0000 0000 0000 0000 0000 0000
00000010: 0000 0000 0000 0000 0000 0000 0000 0000
00000020: 0000 0000 0000 0000 0000 0000 0000 0000
00000030: 0000 0000 0000 0000 0000 0000 0000 0000
00000040: 0000 0000 0000 0000 0000 0000 0000 0000
00000050: 0000 0000 0000 0000 0000 0000 0000 803f
00000060: 0000 0000 0000 0000 0000 0000 0000 0000
00000070: 0000 0000 0000 0000 0000 0000 0000 0000
00000080: 0000 0000 0000 0000 0000 0000 0000 0000
00000090: 0000 0000 0000 0000 0000 0000 0000 0000
000000a0: 0000 0000 0000 0000 0000 0000 0000 0000
000000b0: 0000 0000 0000 0000 0000 803f 0000 0000
000000c0: 0000 0000 0000 0000 0000 0000 0000 0000
000000d0: 0000 0000 0000 0000 0000 0000 0000 0000
000000e0: 0000 0000 0000 0000 0000 0000 0000 0000
000000f0: 0000 0000 0000 0000 0000 0000 0000 0000
00000100: 0000 0000 0000 0000 0000 0000 0000 0000
00000110: 0000 0000 0000 803f 0000 0000 0000 0000
00000120: 0000 0000 0000 0000 0000 0000 0000 0000
00000130: 0000 0000 0000 0000 0000 0000 0000 0000
00000140: 0000 0000 0000 0000 0000 0000 0000 0000
00000150: 0000 0000 0000 0000 0000 0000 0000 0000
00000160: 0000 0000 0000 0000 0000 0000 0000 0000
00000170: 0000 803f 0000 0000 0000 0000 0000 0000
00000180: 0000 0000 0000 0000 0000 0000 0000 0000
00000190: 0000 0000 0000 0000 0000 0000 0000 0000
000001a0: 0000 0000 0000 0000 0000 0000 0000 0000
000001b0: 0000 0000 0000 0000 0000 0000 0000 0000
000001c0: 0000 0000 0000 0000 0000 0000 0000 803f
000001d0: 0000 0000 0000 0000 0000 0000 0000 0000
000001e0: 0000 0000 0000 0000 0000 0000 0000 0000
000001f0: 0000 0000 0000 0000 0000 0000 0000 0000
00000200: 0000 0000 0000 0000 0000 0000 0000 0000
00000210: 0000 0000 0000 0000 0000 0000 0000 0000
00000220: 0000 0000 0000 0000 0000 803f 0000 0000
00000230: 0000 0000 0000 0000 0000 0000 0000 0000
00000240: 0000 0000 0000 0000 0000 0000 0000 0000
00000250: 0000 0000 0000 0000 0000 0000 0000 0000
00000260: 0000 0000 0000 0000 0000 0000 0000 0000
00000270: 0000 0000 0000 0000 0000 0000 0000 0000
00000280: 0000 0000 0000 803f 0000 0000 0000 0000
00000290: 0000 0000 0000 0000 0000 0000 0000 0000
000002a0: 0000 0000 0000 0000 0000 0000 0000 0000
000002b0: 0000 0000 0000 0000 0000 0000 0000 0000
000002c0: 0000 0000 0000 0000 0000 0000 0000 0000
000002d0: 0000 0000 0000 0000 0000 0000 0000 0000
000002e0: 0000 803f 0000 0000 0000 0000 0000 0000
000002f0: 0000 0000 0000 0000 0000 0000 0000 0000
00000300: 0000 0000 0000 0000 0000 0000 0000 0000
00000310: 0000 0000 0000 0000 0000 0000 0000 0000
00000320: 0000 0000 0000 0000 0000 0000 0000 0000
00000330: 0000 0000 0000 0000 0000 0000 0000 803f
00000340: 0000 0000 0000 0000 0000 0000 0000 0000
00000350: 0000 0000 0000 0000 0000 0000 0000 0000
00000360: 0000 0000 0000 0000 0000 0000 0000 0000
00000370: 0000 0000 0000 0000 0000 0000 0000 0000
00000380: 0000 0000 0000 0000 0000 0000 0000 0000
00000390: 0000 0000 0000 0000 0000 803f 0000 0000
000003a0: 0000 0000 0000 0000 0000 0000 0000 0000
000003b0: 0000 0000 0000 0000 0000 0000 0000 0000
000003c0: 0000 0000 0000 0000 0000 0000 0000 0000
000003d0: 0000 0000 0000 0000 0000 0000 0000 0000
000003e0: 0000 0000 0000 0000 0000 0000 0000 0000
000003f0: 0000 0000 0000 803f 0000 0000 0000 0000
1.0 0.0 0.0 0.0 0.0 0.0 0.0 0.0
0.0 0.0 0.0 0.0 0.0 0.0 0.0 0.0
0.0 0.0 0.0 0.0 0.0 0.0 0.0 1.0
0.0 0.0 0.0 0.0 0.0 0.0 0.0 0.0
0.0 0.0 0.0 0.0 0.0 0.0 0.0 0.0
0.0 0.0 0.0 0.0 0.0 0.0 1.0 0.0
0.0 0.0 0.0 0.0 0.0 0.0 0.0 0.0
0.0 0.0 0.0 0.0 0.0 0.0 0.0 0.0
0.0 0.0 0.0 0.0 0.0 1.0 0.0 0.0
0.0 0.0 0.0 0.0 0.0 0.0 0.0 0.0
0.0 0.0 0.0 0.0 0.0 0.0 0.0 0.0
0.0 0.0 0.0 0.0 1.0 0.0 0.0 0.0
0.0 0.0 0.0 0.0 0.0 0.0 0.0 0.0
0.0 0.0 0.0 0.0 0.0 0.0 0.0 0.0
0.0 0.0 0.0 1.0 0.0 0.0 0.0 0.0
0.0 0.0 0.0 0.0 0.0 0.0 0.0 0.0
0.0 0.0 0.0 0.0 0.0 0.0 0.0 0.0
0.0 0.0 1.0 0.0 0.0 0.0 0.0 0.0
0.0 0.0 0.0 0.0 0.0 0.0 0.0 0.0
0.0 0.0 0.0 0.0 0.0 0.0 0.0 0.0
0.0 1.0 0.0 0.0 0.0 0.0 0.0 0.0
0.0 0.0 0.0 0.0 0.0 0.0 0.0 0.0
0.0 0.0 0.0 0.0 0.0 0.0 0.0 0.0
1.0 0.0 0.0 0.0 0.0 0.0 0.0 0.0
0.0 0.0 0.0 0.0 0.0 0.0 0.0 0.0
0.0 0.0 0.0 0.0 0.0 0.0 0.0 1.0
0.0 0.0 0.0 0.0 0.0 0.0 0.0 0.0
0.0 0.0 0.0 0.0 0.0 0.0 0.0 0.0
0.0 0.0 0.0 0.0 0.0 0.0 1.0 0.0
0.0 0.0 0.0 0.0 0.0 0.0 0.0 0.0
0.0 0.0 0.0 0.0 0.0 0.0 0.0 0.0
0.0 0.0 0.0 0.0 0.0 1.0 0.0 0.0

layers.jordan.hx.bias f4 [16]
00000000: 10f4 893e 34e1 593e 60e5 293d 531d debd
00000010: 4f6c 2e3d 243b b7bd dc94 943e b791 31bd
00000020: 1eb3 ad3d 942c 1c3e ab87 55bc 7018 68be
00000030: f1b8 2fbe da46 343e 4281 2dbd bd7d 123e
0.26944017 0.21277314 0.041478515 -0.10845437 0.04258376 -0.08946827 0.2901982 -0.043351855
0.084814295 0.1525138 -0.013032834 -0.22665572 -0.17160393 0.17605153 -0.042359598 0.14305778

layers.jordan.hx.weight f4 [16, 22]
00000000: 03d9 ce3d 3d91 6cbd 475f 203e 53a6 5b3d
00000010: 842b 4f3d 327f 563e e24b 2f3e 4863 903e
00000020: 1148 e83c ee37 313c 5a63 2c3e ae3b 5c3e
00000030: 5c05 133d 9f42 d13d 6cac 2f3e fa8c 11bd
00000040: d754 80be 1b94 21be ab19 8abe 4cb7 713d
00000050: 9c33 2abe 5238 54bb 6e71 ca3d e597 683d
00000060: d9b8 533c 1796 c5b8 7989 933d 5f8c 8b3d
00000070: 6c75 2ebe fe9f 49bd 4296 a23d 50fb e4bd
00000080: 81a4 1c3e 4477 d33d 14ce 1a3e feeb a03d
00000090: 5922 193e 5580 473d ce2f 093c d824 91bc
000000a0: 3020 45be 4723 04bd 570e 54bc 784e 93bd
000000b0: 283f 903e 2fd3 ba3d f4a2 213d 0153 1e3e
000000c0: a64a 703d 5f03 ed3d 5b02 3fbe aa8e 0cbd
000000d0: 482d 85bd 789c 003e afb2 15bd 82d4 233e
000000e0: b068 19be 9045 013c 43c5 21be faee 0cbd
000000f0: 6440 1f3e ac89 7cbd 4cf5 db3d a37c 6ebe
00000100: 5d90 a3bd 6bb2 fc3c f175 98be ff28 073e
00000110: 2182 09bd d765 4fbe 6549 103e 52a7 533e
00000120: a1ab 973e 37ac 183e 2e66 65bd f9d8 493e
00000130: 8e53 463e b302 b3bd 07cc 6f3e b828 0e3d
00000140: a0bd f3bd 93c5 f7bd bf2d d23d 4fe7 01be
00000150: 898f 1a3e 602c 88be dbc6 54be 0259 e53d
00000160: 0aa8 de3e 2bca c1bd 8279 3abe 9613 223f
00000170: e96c 33bc e602 9dbd 7e2f f23c c31a 63be
00000180: 9f47 7dbe 233b 82be bae5 3c3e 2fed 383d
00000190: c622 6e3d 53e2 86bd a61b 33be 8b04 203d
000001a0: 9ef8 aebb d648 f3bd c915 243e 39ce ab3c
000001b0: 0c32 513c b642 e1bd da1e 6abe 8639 623c
000001c0: bc09 fcbc f3df e3be e958 453c 7d55 693e
000001d0: cded c2bd efd7 16bd 569e 883e fe7f b9bd
000001e0: fff7 c33d 25b5 383d d538 473e 6858 603e
000001f0: 8a2e 48bd acfa 6b3e a722 92bd b50b c23c
00000200: b94d e9bd b6a7 093e 3209 0fbe 7667 3fbe
00000210: ca05 183e fc33 a13c c10f b43d 3ed8 74bd
00000220: 6873 2bbe 147a 3f3d bca5 833d a7c1 c83d
00000230: 0817 8a3e 859b 0bbd 87ad 78be 5540 de3d
00000240: 54f2 8bbe f787 453e a9f9 6c3e 3391 ab3d
00000250: 02f5 04be 1d12 18be 23b5 32be e383 443e
00000260: 2281 18be 85f6 ea3c 52b5 15be a11f 29bc
00000270: 54c1 4abe 8008 02bf 0052 843d 9c09 443d
00000280: 973a 963d ca64 9e3e 761b 823c ee2f 9b3e
00000290: 8c5f 0bbe 9234 04be 4cb3 553b 1254 bdbc
000002a0: f794 a43e 8ba7 8d3e f000 e7bd a91b 7cbd
000002b0: 44b3 1abe b64e 963d 3a4d 293e aff8 f2bc
000002c0: 1d1c ae3d d793 473e 2cc0 14be d1a1 1a3f
000002d0: 91f9 c03a c0af 613e 3ae3 21bd b6f0 82be
000002e0: 1c3a 6ebd 9b70 4ebd c736 143d 8390 15be
000002f0: e500 afbd 7fbe 053e 26d3 20bb ec6c 75be
00000300: 01f5 ea3d 499c 72be 956d 6cbe 64ca 43be
00000310: 7d0b 9b3c bb8d a73d a2c9 b93e ad2e c03c
00000320: 83c2 273d 9298 553f 37d8 193e d6fe 623e
00000330: 9f8e 8a3e d753 81be db59 d6be ca49 51be
00000340: 2d28 c2bd a49f 803d a34b c7bd 915a cabe
00000350: 186a 6cbe 5464 61be ab7b 043e c91d df3d
00000360: b8fa 51bd 4ba2 fabd 0dc3 6abd c1f4 03be
00000370: 96c6 c33d ea21 103e 3f24 4d3e 46fd c33d
00000380: 4341 b2bd 3009 f4bd e420 53be 794d 6c3e
00000390: 4a9b 133e 46b0 253e b15d 37be cc52 50bc
000003a0: ce79 793d 376a 393e 15f8 9c3d 24a1 323e
000003b0: 69fc 4bbe 0aa7 c2bc 429a 35be c9ab ebbd
000003c0: b13f b93d f3d0 debd f38a 11be 3177 883d
000003d0: 590c 29be 55cd 8cbe fd0e 58bd b75c 653e
000003e0: fb74 bbbd c02e a8bd 7734 dabd ddac 55bd
000003f0: b468 f33d efa0 2fbd afa6 443e ba36 2fbe
0.100999855 -0.057755698 0.15661345 0.053625416 0.05057861 0.20946959 0.17118791 0.28200746
0.028354676 0.010816557 0.16834775 0.21507141 0.035893783 0.10217785 0.17155617 -0.035534836
-0.25064728 -0.15779154 -0.26972708 0.059012696 -0.1662125 -0.0032382202 0.09884916 0.056785483
0.012922489 -9.4216484e-05 0.07203955 0.06813883 -0.1703698 -0.049224846 0.07938816 -0.111807466
0.15297128 0.103254825 0.15117675 0.07857512 0.14954509 0.04870637 0.008373214 -0.017717764
-0.1925056 -0.032260206 -0.012942872 -0.07192701 0.28173184 0.09122311 0.039462045 0.15461351
0.05866494 0.115729086 -0.18653242 -0.034315743 -0.06502777 0.12559688 -0.03654736 0.15999034
-0.14981341 0.00789012 -0.15797906 -0.034407593 0.15551907 -0.06165473 0.10740146 -0.23289733
-0.079865195 0.030846795 -0.29777482 0.13199233 -0.033571366 -0.20253693 0.14090498 0.20669296
0.2962313 0.14909445 -0.05600565 0.19711675 0.19367811 -0.08740749 0.23417674 0.0347068
-0.119014025 -0.12098231 0.102626316 -0.12685893 0.15093817 -0.26596355 -0.20778982 0.111986175
0.4348758 -0.094623886 -0.18210414 0.63311136 -0.010951259 -0.076665685 0.029563662 -0.22178178
-0.24734353 -0.25435743 0.18447009 0.04514807 0.05813863 -0.06586137 -0.17491016 0.039066833
-0.005339696 -0.11879127 0.16023935 0.020972358 0.01276828 -0.10999052 -0.22863331 0.01380766
-0.03076636 -0.44506797 0.012045124 0.22786517 -0.09518013 -0.036827024 0.266833 -0.09057616
0.09568786 0.045094628 0.19455273 0.21908724 -0.048872508 0.23044842 -0.07135516 0.023687223
-0.113917775 0.13442883 -0.13968351 -0.18691811 0.14845958 0.019678108 0.08792067 -0.059776537
-0.16743243 0.046747282 0.06428096 0.09802561 0.26970696 -0.03408386 -0.24284945 0.10852114
-0.2733332 0.19290148 0.23142113 0.08377304 -0.12984088 -0.1485066 -0.1745191 0.19190936
-0.1489301 0.028682003 -0.1461995 -0.010322482 -0.19800311 -0.5079422 0.06460953 0.047860727
0.07335394 0.3093627 0.015882235 0.30310005 -0.13610667 -0.12910679 0.003260809 -0.023111377
0.321449 0.27666888 -0.11279476 -0.061549816 -0.15107447 0.07339232 0.16533366 -0.029659597
0.08501456 0.1948999 -0.14526433 0.6040316 0.0014722814 0.220397 -0.03952334 -0.25574273
-0.058160886 -0.050400358 0.036185052 -0.14605908 -0.085450925 0.1306095 -0.0024539917 -0.23967332
0.11472512 -0.2369243 -0.23088677 -0.19120175 0.018926376 0.0818133 0.36286646 0.023459757
0.040956985 0.8343593 0.15023886 0.22167525 0.27061936 -0.25259277 -0.4186543 -0.20438305
-0.09480319 0.06280449 -0.097312234 -0.39522222 -0.23087347 -0.22010928 0.129378 0.10894353
-0.051264495 -0.12237986 -0.05731492 -0.12886335 0.09559362 0.14075437 0.20033358 0.095697924
-0.08703854 -0.11915815 -0.20618016 0.23076428 0.14414707 0.16180524 -0.17906834 -0.012715053
0.060907178 0.18106924 0.076645054 0.17444283 -0.19920506 -0.023761291 -0.17734626 -0.11507375
0.09045351 -0.10879698 -0.14213161 0.06663359 -0.16508617 -0.27500406 -0.05274867 0.22398649
-0.09153172 -0.08212042 -0.10654538 -0.05216681 0.11885205 -0.042878088 0.1920421 -0.1711072

layers.jordan.hy.bias f4 [16]
00000000: 86b9 803d 6b19 bf3e 739e bf3e f4b2 00be
00000010: 5d15 0f3c 0b4a 433e 10c0 b33e 00f2 a13c
00000020: 5e87 433e 97e4 043e 9c9f 813e 7465 803c
00000030: 7667 563d 3af0 bdbd 131c 8bbe 3540 b33d
0.06285386 0.3732408 0.37425575 -0.12568265 0.008733121 0.19071214 0.3510747 0.019768715
0.19094607 0.12977825 0.25317085 0.015673377 0.05234476 -0.09274335 -0.27169856 0.08752481

layers.jordan.hy.weight f4 [16, 22]
00000000: f5ed 18be 8748 1cbe 4be5 9d3d 4d15 373e
00000010: f65d 4cbe ab8a 343d 33d2 d23d d0a1 cfbd
00000020: 03b2 abbd 0cba a83c 116d 3abe 8e42 e1bd
00000030: a0e1 803e 8c5c 0dbe 6bfa 04bd 8223 eb3c
00000040: ba5b 59be 691e 6bbd 46d1 66be 5947 89bd
00000050: 1443 65be 1d97 8abe 6408 32be debd 16be
00000060: e485 ca3b 886e 453e f184 e23c 497e 3c3e
00000070: 7db5 5fbd 55ec f1bd b2d8 293e d9b5 fcbd
00000080: 90b9 1dbe 7e04 343e 80a5 683e fc4e 9ebc
00000090: cf2d 623e 8d78 94bc bbbf 9dbd 8ff1 2fbe
000000a0: a3d4 61be 6910 0c3d 5df2 89bc aa6d dabd
000000b0: 0998 45be c659 4e3e 2271 5bbd 52be b83e
000000c0: dad6 76bb 717f 12be ff23 2d3e d632 323e
000000d0: 3540 81bd e741 2c3e 01d9 15be a1b4 ec3d
000000e0: 5077 2e3e 2ae3 27be 6141 8f3e f848 af3d
000000f0: ba81 48bc aff6 b7bd 8ecf 9bbe 41da 3dbe
00000100: eda6 5ebe 108a dbbd 8b12 4d3e 0670 083e
00000110: afaf 5c3d 3a74 0cbe 378e d6bc 6007 6f3e
00000120: e470 993d 45b1 8bbd cc11 68be 31c9 82bd
00000130: d66f 903e 0dc3 e63d 3d50 d0bc 6aa1 0bbe
00000140: fef7 9f3c 5b70 113e 81fb 9e3d 1f2f 20bd
00000150: 99b0 72be bfc4 9abe 5fef 1a3e 9a30 e4bd
00000160: 03cd af3e d1f5 883e a5a2 b33e 22d0 b83e
00000170: 9109 433e e61b fd3d d83c d6bd 1618 d33d
00000180: c5bd c6bd b880 96bd 4175 fdbd f916 13be
00000190: d43f 43bd c557 723d b167 cd3c cb0d 113e
000001a0: ff51 8f3c 1c11 073e 2136 f13d 4f9c cb3d
000001b0: ab35 f03d 489d 3cbe 0e4b 3cbe 3505 f9bd
000001c0: ce7e 7abe 562d 85be 46c6 aabc 29bf d63d
000001d0: 8811 4c3e 4a5b 50bd dd3f c6bd 8b6d 183e
000001e0: b91c 1bbe 2302 7cbd affe 893e 63fe f5bd
000001f0: af4b f3bd b683 8e3e 643d e4bb 3e98 36bc
00000200: 9b05 0abe 8c9f 5ebe 2a84 97be 6ec8 4c3d
00000210: a2d1 5cbe e2e7 87bd 9309 57be fa36 873e
00000220: 045b db3c b7cd 3fbe 2133 96be d773 0ebe
00000230: dbda 743e 2e63 af3e 0d34 1abe 1c94 edbd
00000240: 2f4a d0bd 79d0 16be a675 283d 214c 3fbd
00000250: 7023 a13d 1bd8 b63d 5a23 953d 95d6 513d
00000260: b1b5 563d 1fca 41bd 605b c3bc 6d95 5cbe
00000270: 384d 843e 89ab d6be 52ef 21be ce84 3bbe
00000280: 93fb cdbe 0fa8 2b3e 9cb8 4a3e b97c c13d
00000290: 4bb7 e3bd e8e9 15bd 2b29 08bc 497d f7bd
000002a0: c64a 4bbd 4f65 de3c c1f0 2d3e 0c26 133e
000002b0: b144 ba3d 5e31 053e 3817 2cbe b700 29bd
000002c0: 1eba 353c b76e 3bbd 5d7a 33be 44cd a83e
000002d0: 2299 4fbe 45ad 2dbe 6c25 1cbe a11d 99bd
000002e0: 2476 c63d 6dca 46be 7938 31be 9687 193c
000002f0: 81a9 dabd acbd 273e 241f 5d3e 1e52 333d
00000300: da4b 87be 6c75 26be a0ec 68be 78e7 17be
00000310: 8801 bf3b ed57 763d 63f0 6cbd 00ce f13d
00000320: 757d 73bd 4211 993e 9f0f ad3e cfca 423e
00000330: dd60 c63e a6cd bebd 2465 4abe 58ee abbe
00000340: 433a 2c3e 361f 763d 41fd 6cbd 72cb 0b3e
00000350: 0ae7 663e 0f34 adbd 0e99 49be a4a1 89be
00000360: f111 923d f452 20bb 0574 613e 6b7a 46be
00000370: 2583 953d f424 f1bd 136a 18be f650 973e
00000380: 65a3 c43c 4f6e 3bbe 9ca9 77be 902b 323e
00000390: 926e e63d cd0e 053d bc47 df3c 4a5f 23be
000003a0: 81e2 5ebc 6a33 843e c76e 313e 7137 6abe
000003b0: 4428 9d3c 2eb7 70be 92bd 50be c2dc e53d
000003c0: 2b2a 50bd 54fa 793d 0e8d a83d 3360 d2bb
000003d0: 1b9d fbbd 9c31 5cbd 5379 df3d 39db d53d
000003e0: 60d7 c53d d5d9 53bd 07e0 d9bd 5866 383e
000003f0: 8b10 b1bd 4ef2 6f3e 3ddf 023e 7319 253e
-0.14934523 -0.15262042 0.0770975 0.1787922 -0.19957718 0.044077557 0.102939986 -0.10138285
-0.083835624 0.020596527 -0.18205668 -0.109990224 0.25172138 -0.13804835 -0.03246538 0.028703455
-0.21226397 -0.05740205 -0.22540769 -0.067030616 -0.2238887 -0.27068415 -0.17386013 -0.14720866
0.006180512 0.19280446 0.027651282 0.18407549 -0.05461644 -0.11812655 0.16586569 -0.12339372
-0.15402818 0.17579839 0.22719383 -0.019324772 0.22087787 -0.01812389 -0.07702585 -0.17181991
-0.2205377 0.034195337 -0.0168392 -0.10665448 -0.19296278 0.20151433 -0.05357469 0.36082703
-0.0037664683 -0.14306428 0.16908263 0.17402205 -0.06311075 0.16822015 -0.14633562 0.1155789
0.17037702 -0.1639525 0.27979568 0.085588396 -0.0122379605 -0.08982598 -0.3043179 -0.18540289
-0.21743365 -0.10719693 0.20026605 0.13323984 0.053878482 -0.13716212 -0.02619086 0.23342657
0.07492235 -0.06820921 -0.22663039 -0.063860305 0.28210324 0.11267672 -0.025428886 -0.13635793
0.019527432 0.14203016 0.07762814 -0.03910744 -0.23700179 -0.3022823 0.15130375 -0.111420825
0.343361 0.26750043 0.35085025 0.36096293 0.19046618 0.12358837 -0.10460824 0.103073284
-0.097041644 -0.0734877 -0.1237588 -0.14364232 -0.047668293 0.059165735 0.025073858 0.14165418
0.017495153 0.1319012 0.117779024 0.09941923 0.11728986 -0.18419373 -0.18388006 -0.12159196
-0.24462435 -0.2601115 -0.020846497 0.1048568 0.19928563 -0.05086831 -0.0968015 0.14885537
-0.15147676 -0.061525475 0.2695212 -0.12011411 -0.1187967 0.27834862 -0.006965326 -0.011144696
-0.13478701 -0.2174055 -0.2959302 0.049995832 -0.21564344 -0.06636025 -0.20999746 0.2640913
0.026776798 -0.18730818 -0.29335883 -0.13911377 0.23911612 0.34255356 -0.15058918 -0.11600515
-0.101703994 -0.14727964 0.041127823 -0.04670346 0.07868087 0.089279376 0.072821334 0.051230032
0.05241937 -0.0473119 -0.023847282 -0.21541376 0.25840163 -0.41927746 -0.1581395 -0.1831238
-0.40230998 0.16763328 0.19796985 0.09447617 -0.11118945 -0.036600024 -0.008310596 -0.12084443
-0.049631856 0.027147917 0.16986372 0.14369982 0.09095133 0.13007113 -0.16805732 -0.041260447
0.011091737 -0.045759883 -0.17527147 0.32969105 -0.2027326 -0.16960628 -0.1524865 -0.074763544
0.09690502 -0.19413157 -0.17306699 0.009370705 -0.106768616 0.16380948 0.2159391 0.043779485
-0.26425058 -0.1625573 -0.22746515 -0.14834392 0.00582904 0.060142446 -0.05784644 0.118068695
-0.059445817 0.2989598 0.3380098 0.19022678 0.38745776 -0.09316568 -0.19765145 -0.3358028
0.168191 0.06008836 -0.05785871 0.13651827 0.22549072 -0.08457195 -0.19687292 -0.26881135
0.07132328 -0.0024463506 0.22016914 -0.19382636 0.073004045 -0.117746264 -0.14884214 0.29553956
0.024003694 -0.18303798 -0.24185795 0.1739943 0.11251558 0.03248482 0.027255885 -0.15954319
-0.013603807 0.25820476 0.17327414 -0.22872712 0.01918424 -0.23507378 -0.20384815 0.11223747
-0.050821465 0.061029747 0.08230029 -0.0064201592 -0.12285825 -0.05375825 0.10911813 0.10442204
0.0966022 -0.051721413 -0.10638433 0.18007791 -0.086457334 0.23432276 0.12780471 0.1612299

layers.jordan.lm_head.bias f4 [22]
00000000: 0dc2 65bf 531a 5bbf 534f 73bf 89ce 083f
00000010: 9e41 ef3c bdf5 5f3d b88b b5bd 2660 363e
00000020: 2277 433e 2aeb 823e 498d 3cbe b205 033c
00000030: 14bf dabd 97f9 113e 2279 b33d c9ee 803d
00000040: 1ee0 9f3c 8f0c 693e a93a 273c 1040 9d3d
00000050: a28d 983d 3be2 78bc
-0.89749223 -0.8558704 -0.95042914 0.5344015 0.029206093 0.054677714 -0.0886454 0.17810115
0.19088414 0.2557004 -0.18413271 0.007996963 -0.106809765 0.14255367 0.087633386 0.06295545
0.019516047 0.22758697 0.010206857 0.076782346 0.07448889 -0.015190656

layers.jordan.lm_head.weight f4 [22, 16]
00000000: 5cd2 83bd fb8e b5be 53e7 0cbe 0578 713e
00000010: 7dc0 a63e be79 17be e2ee b2be 8e85 4abe
00000020: f24b 1d3d d030 1ebe 6ec6 8fbc ffdc 5b3e
00000030: 73a0 01be 6e53 c7bd 2a10 a9bc f0ae 1a3e
00000040: e246 5c3e 894d aebe 9c50 08be 98c0 b73c
00000050: 1ed0 613e 96f1 a73e 40fc 15bf af32 113e
00000060: 6a53 9f3e b339 38bd 0996 2f3e fe67 4fbd
00000070: a90d fc3d 93df f63d 288a 793d ae4e 553d
00000080: 9cb6 7fbe 394d 60be 67da 57bd 748a c43d
00000090: 0d2b 623d 1907 42be 1805 e1be 6daf 093e
000000a0: 1fd2 1b3e 3084 043e bb1f 2e3e beef 863e
000000b0: 2ee0 14be 3e3c 813d 9f13 f93c ec31 04bd
000000c0: c6ec df3e 36cc a43d dea5 793e 4abd 00be
000000d0: 19bc 80bf ca7d 353f f880 593f 4027 993f
000000e0: cee9 6c3e 934c d4bf 81cf 603f ff80 9b3e
000000f0: 78e6 8abe 1242 5dbf cfe2 4c3f f50b 983f
00000100: 0674 993e e2c2 923e 39e1 ab3e e73f d9be
00000110: f4dc d63e a0d5 dcbe 2b37 933e 805f 86be
00000120: 6e0b 493f 6482 c93e a644 523e 3724 1cbc
00000130: 3627 25be 1aa3 253e 3982 ddbe f80d 3e3f
00000140: 70e0 fe3d 7cdd d13e 077c fd3e e47c fabe
00000150: 80d5 0b3f 4aec b7be 105b 823d 3cd8 acbe
00000160: 6009 293f d8a6 f43e e675 863e f853 1dbd
00000170: 7f38 92bd 35fd 033f 316e 05be 1682 2b3f
00000180: 7c7b 6f3e 3250 2a3e d8eb 1d3f 186f a1be
00000190: a71b 8d3e d459 93be 065c bb3d f335 c3be
000001a0: 2ee1 fe3e 0c53 ed3e 585d 033f 5fe8 c9be
000001b0: 3d31 50be 00f4 ec3e 03e7 a1be 57dd 163f
000001c0: fb99 d1be 52ed e4be 864c 1dbf 97ba f2be
000001d0: eedd bcbc 7efb cabd c691 873e e157 893e
000001e0: ff06 f6be 1826 9bbe ecc7 01be 7b54 5ebe
000001f0: 29e8 d63e 3b2c 8d3d b3ac dabe 62bc abbe
00000200: 117f e9be bdca 03bf 16a8 1fbf bcf1 9fbe
00000210: f1a4 fbbc dd15 3d3d 4a5d b33e 122f c93e
00000220: 5d9a e2be a333 b5be c5e7 083c 4abc 4abd
00000230: 9a49 393e d181 bc3e c4b2 e5be 5ae7 02bf
00000240: b5b5 0bbf 5791 0cbf b3c1 ebbe 34c8 eebe
00000250: a18c c0bc b840 5cbe 1b8c fe3d caf7 f93e
00000260: f014 37bf 7ebd 60bd 7eb1 e2bd 65bc 43be
00000270: 7ac8 773e 880f df3d 9b82 9abe 0cde a4be
00000280: f0a8 7c3e 4d8e 893e 1327 e33e 3ea5 c8be
00000290: fdcc cc3e 4bcb 47be e33c ce3e 6678 a7be
000002a0: 113f 2c3f 8b57 043f a1c3 dc3e 9473 b5be
000002b0: 07f1 9dbe ae0c b33e 5ac6 4cbe 26c6 c43e
000002c0: a9e3 c9bd 85d5 4f3e 61b6 f73e 2767 c6be
000002d0: 2c8d 603e fef4 c6be 5529 553e cf65 96be
000002e0: e01d 403f e6bf 1a3f 435f e03e 1191 17bd
000002f0: 8b38 c8be 18e2 1f3f 131a 1abe 795f 233f
00000300: 5719 ab3d 767e a33e 4520 f73e 4f32 d1be
00000310: 240e a03e f83d aebe 06e9 ba3e 0c32 e1be
00000320: c2a8 0a3f 6418 b23e 8e90 b93e 7084 81be
00000330: 97ad 92be 8a11 b03e 8ac8 35be 9c90 373f
00000340: 44bf 20bf 074b bdbe 3d99 f3be 0e46 28be
00000350: cee8 abbc 0b0e 10be a5ef 983e 7daa 123f
00000360: ddb6 ddbe a932 25be 010e 033e b41e 1cbe
00000370: 22c9 113f fddb b93e 51b1 9ebe 5fee 09bf
00000380: 9023 f1be 855b 96be 4552 02bf d62c e3be
00000390: 2078 b4bc b3b7 5bbe fc73 bf3c f198 d63e
000003a0: 3d77 e3be 5eb4 d3be c70c 763d 7710 d7be
000003b0: 9607 dc3e ec0e 643e 18a1 9cbe ad58 f2be
000003c0: 72e9 ebbe b843 e8be 2e43 afbe b85a 74be
000003d0: d4a4 87bc 08a0 c4be 0d74 913e 12f0 c63e
000003e0: da12 ddbe 25ac 73be 2597 35be d99f 01bf
000003f0: 386a 2a3f 5668 443d 0287 18be ff85 9fbe
-0.06436607 -0.35460648 -0.13760118 0.2358094 0.32568732 -0.14792535 -0.34947878 -0.1977751
0.038402505 -0.15448308 -0.017550673 0.21471022 -0.12658863 -0.0973271 -0.02063759 0.15105796
0.21511415 -0.3404353 -0.13312 0.022430703 0.22052047 0.32801503 -0.5858803 0.1417949
0.31118327 -0.0449769 0.17147078 -0.050636284 0.12307293 0.12054362 0.06092277 0.052076988
-0.24972004 -0.21904458 -0.05269852 0.0959672 0.055216838 -0.1894802 -0.439492 0.13445826
0.15216874 0.1294105 0.17004292 0.26354784 -0.14538643 0.063103184 0.030404864 -0.03227417
0.4373533 0.08046763 0.2437968 -0.12572208 -1.0057403 0.70895064 0.84962416 1.1965103
0.23136064 -1.6585869 0.87816626 0.30371854 -0.2712896 -0.8642894 0.8003358 1.1878649
0.2997133 0.2866431 0.3357027 -0.42431566 0.4196545 -0.43131733 0.28753027 -0.26244736
0.78533065 0.39357293 0.20534 -0.009530119 -0.16128239 0.161755 -0.43263415 0.74240065
0.12445152 0.40989292 0.49508688 -0.4892341 0.5462265 -0.35922462 0.06365025 -0.33758724
0.6602993 0.47783542 0.26261824 -0.038410157 -0.07139682 0.5155824 -0.13030316 0.6699537
0.2338695 0.16632155 0.61687994 -0.3153007 0.2756016 -0.2877947 0.091484115 -0.38127097
0.49781173 0.46352422 0.51314306 -0.39435098 -0.20331283 0.46279907 -0.3162156 0.5893149
-0.4093779 -0.4471231 -0.6144489 -0.47407982 -0.023055043 -0.099112496 0.26478404 0.2682486
-0.48052213 -0.303025 -0.1267392 -0.21711914 0.41974 0.06893202 -0.42709884 -0.33542162
-0.45604756 -0.5148123 -0.62365854 -0.31239116 -0.030718299 0.04616343 0.3503211 0.39293724
-0.44258395 -0.35390958 0.008356039 -0.049495973 0.18094483 0.36817792 -0.4486295 -0.51134264
-0.5457414 -0.5490927 -0.46046218 -0.46637118 -0.023504557 -0.21509063 0.12429067 0.4882186
-0.71516323 -0.054868214 -0.1106901 -0.19114836 0.2419757 0.10891634 -0.3017777 -0.32200658
0.2467382 0.2686638 0.4436575 -0.3918857 0.40000144 -0.19511144 0.40280828 -0.32709044
0.6728373 0.5169608 0.43118003 -0.35439742 -0.30847952 0.3497061 -0.1999754 0.38432425
-0.09857876 0.20296295 0.48381332 -0.38750574 0.21928853 -0.3885879 0.20816548 -0.2937455
0.75045586 0.60449064 0.4382268 -0.03700358 -0.3910564 0.62454367 -0.15049009 0.63817555
0.083544426 0.3193242 0.48266807 -0.40858695 0.31260788 -0.34031653 0.36505908 -0.43983495
0.54163754 0.34784234 0.362431 -0.25296354 -0.28648064 0.3438838 -0.17752281 0.7170503
-0.6279185 -0.36971304 -0.4757785 -0.16432974 -0.020985033 -0.14067857 0.29870334 0.57291394
-0.43303576 -0.16132607 0.12798311 -0.15246087 0.5694753 0.3630065 -0.30994657 -0.5387935
-0.47097445 -0.293667 -0.50906783 -0.44370145 -0.022029936 -0.21456794 0.023370735 0.4191356
-0.4442691 -0.41348547 0.06007078 -0.4200475 0.42974538 0.22271317 -0.30591655 -0.4733328
-0.46076542 -0.45364165 -0.34230942 -0.23862731 -0.016558088 -0.38403344 0.28408852 0.38855034
-0.43178445 -0.23796137 -0.17733438 -0.50634533 0.66568327 0.047951065 -0.14895251 -0.31156918
