jordan_elman_2024/exp1/elman_item_level/run_12/export/model.safetensors (safetensors, 6576 bytes, 7 tensors)

layers.elman.hh.bias f4 [16]
000000 d5 eb fc bd d7 9e fb 3d 24 d4 d2 bd 61 35 6e 3e
       -0.12349669 0.12286156 -0.10294369 0.2326255
000010 b4 19 7c 3e fa d1 cc bd 61 8e d9 bd 89 78 91 be
       0.2461918 -0.10000987 -0.1062286 -0.28412274
000020 2b 7f f0 3c 31 06 93 3e 72 c2 bc bd 86 37 ff 3d
       0.029357513 0.2871566 -0.09216775 0.12461762
000030 6f 32 88 3d ca e2 59 be a5 a1 b5 bc 45 c7 0e be
       0.066502444 -0.2127792 -0.022171805 -0.13943203

layers.elman.hh.weight f4 [16, 16]
000000 5e 31 28 bf e6 78 b5 3d 85 7b 26 bd 96 b3 84 bd
       -0.6570033 0.0886095 -0.04064514 -0.06479566
000010 f5 2a 80 3e a9 dc 07 3d a3 d5 63 3e 5d de 9d bd
       0.25032774 0.033169422 0.22249465 -0.07708428
000020 24 75 55 3c 8a 7d 4a 3e df 50 77 be b7 3c 8b be
       0.013028417 0.19774452 -0.24151944 -0.2719476
000030 34 2f a8 bc 51 5f e8 3e d9 0e 35 bd b2 a4 c4 3e
       -0.02053032 0.4538522 -0.044203613 0.38406903
000040 66 51 b4 be e7 bb 6c bc 1e 19 ce be 48 74 08 bb
       -0.35218352 -0.014449096 -0.40253538 -0.0020821262
000050 2a eb 74 3e 51 d7 07 3f 21 f1 ed be d6 93 75 be
       0.23917833 0.5306292 -0.4647303 -0.23982176
000060 40 00 fe be 57 48 36 3e fb 8c 94 bd 0a 9e e7 bf
       -0.49609566 0.17801033 -0.072534524 -1.8095105
000070 b6 53 56 be 72 86 b3 3e 2f c7 18 bd 02 09 58 3e
       -0.2093037 0.3506351 -0.03729933 0.21097186
000080 87 9a 8a 3d c3 99 08 3e fd e3 85 3e d6 54 ec bd
       0.06767755 0.13339905 0.26150504 -0.11539619
000090 c6 59 ae be af a7 21 bf 96 b6 07 3f 29 7e 66 3e
       -0.34052867 -0.6314649 0.5301298 0.22509064
0000a0 09 b5 ff 3e da cc 21 3d 52 16 0a 3b c5 ad a8 3f
       0.49942806 0.039502002 0.0021070433 1.317803
0000b0 80 de 8d 3e f5 86 a2 bc 98 24 d3 3b 14 6a 3d be
       0.27708817 -0.019839743 0.0064435713 -0.18497497
0000c0 2e a5 93 be 43 9b 05 3e 0e 22 c2 3d 4a 83 80 be
       -0.2883696 0.13047509 0.09479152 -0.25100166
0000d0 39 23 3d be f2 33 cd be 9b 14 05 3f 3c 01 73 3e
       -0.18470468 -0.40078694 0.51984566 0.2373094
0000e0 de 40 68 be 4b 77 81 bd c8 ab e1 bd c1 8b 82 be
       -0.22680995 -0.063215815 -0.11019093 -0.2549725
0000f0 3d 29 87 be 22 00 82 be 40 8c 0b 3e a3 b9 0e be
       -0.2639865 -0.25390726 0.1362772 -0.13938002
000100 b1 09 18 3d 94 39 e0 bc 2d 1b cb 3d a5 f7 52 3e
       0.037118617 -0.027371205 0.09917293 0.20602281
000110 68 b0 9e be d6 dc b0 3c 88 96 f0 bd 6a 7d 67 be
       -0.30993962 0.021589678 -0.117474616 -0.22606435
000120 ee b3 a8 bd b2 61 e5 bd f9 a9 38 3e 0b 09 50 be
       -0.08237444 -0.112002745 0.1803359 -0.2031595
000130 29 d4 d1 be c4 ca 90 be c4 55 38 3e 80 3a 9a be
       -0.40982178 -0.28279698 0.18001467 -0.30122757
000140 a8 6c ff be 44 27 b6 3e 47 d7 5e 3e 29 b3 8d 3e
       -0.49887586 0.35576832 0.2176181 0.2767575
000150 a2 87 8b bc 73 68 0f be b8 95 8d 3d d1 2c 86 be
       -0.017032448 -0.14004688 0.06913322 -0.26206067
000160 7c 43 69 3d c0 ad cf 3e 5f a8 87 be d4 e7 82 be
       0.056949124 0.40562248 -0.26495644 -0.25567496
000170 c4 ea b7 3d 3f 25 cc 3e 93 18 d2 bd 33 52 29 3d
       0.08980325 0.39872167 -0.102585934 0.041338157
000180 00 a6 65 3e c1 78 12 bd 41 c7 2a bd 43 90 bb bc
       0.22426605 -0.03575969 -0.04169393 -0.022895938
000190 b5 67 0b 3e f7 c0 61 be ee d1 af bd 18 38 87 3e
       0.1361378 -0.22046266 -0.08584963 0.26409984
0001a0 45 95 4b be 5d cc 1d bf 87 55 9b 3e 5f d6 19 be
       -0.1988116 -0.6163996 0.3033869 -0.15023182
0001b0 76 26 a0 3d 84 21 17 be 37 22 d3 bd 6e 0c 14 3e
       0.07819836 -0.14758879 -0.1030926 0.14457867
0001c0 c9 2f 6e 3c a6 97 ea 3d 7d f0 fe bd 2e 7a 94 3d
       0.01453776 0.11454706 -0.12448213 0.072498664
0001d0 7d 50 08 3f 4f 5a b1 3e b2 60 01 bf 9a 3e e1 3c
       0.53247815 0.34639212 -0.5053817 0.027495671
0001e0 a6 b2 0c be be f5 eb 3e af 58 37 be cd 40 d1 be
       -0.13740024 0.46085924 -0.17904924 -0.40869752
0001f0 d3 fd 36 3e 7e 79 ba 3e 3c 86 e4 bd 88 d7 9d 3e
       0.17870264 0.36420816 -0.11158416 0.308285
000200 78 9e 10 3e 2d 58 d9 3d 75 49 93 3e 7d bc 94 3e
       0.14122951 0.10612521 0.2876698 0.29050055
000210 d2 6d 1f 3d 99 c8 4f bc 49 48 e2 3d 54 bd e1 bd
       0.038923092 -0.012682104 0.110489435 -0.110224396
000220 1f a0 39 be e4 1c cb bd ce a1 7d 3d f0 cc 48 be
       -0.18127488 -0.0991762 0.061921887 -0.19609427
000230 03 76 eb bb 5e 9f 14 3e 30 c7 90 3d 0f ed b4 be
       -0.007185699 0.14513919 0.07069242 -0.3533711
000240 18 d7 4a be 9a aa 03 3e 9e 93 e8 3c 8f 47 04 3f
       -0.19808614 0.12858048 0.028390702 0.5167169
000250 df 87 cf be 30 f9 ae bc bf 20 d2 3e 6c eb 87 3d
       -0.4053335 -0.021359056 0.41040608 0.066367
000260 a4 28 a1 3d db 45 f2 3c e4 1e b0 bb 00 74 0a bf
       0.0786908 0.029574325 -0.005374776 -0.5408325
000270 d7 25 94 bd 33 fa 91 3d ff a5 1f 3e ee e4 64 bd
       -0.0723378 0.071278 0.15590666 -0.055882387
000280 72 bf fb 3c fe 95 1a 3e f4 5f 0c 3d 53 ea a5 be
       0.030730937 0.1509628 0.034271196 -0.32405338
000290 d0 58 3b be 7e f3 09 bf 11 ac 7a 3e d1 da 91 3e
       -0.18295598 -0.53887165 0.244797 0.28487256
0002a0 f9 1a 9d 3e 44 a7 69 3e a5 09 98 be 83 bb aa 3f
       0.3068464 0.22817713 -0.29694858 1.3338474
0002b0 e9 a4 58 3e af 8c 70 3d ef 3f 09 3b 67 dd 88 be
       0.21156658 0.058727916 0.0020942648 -0.26731417
0002c0 fa 55 93 3e e8 50 4b bc 13 59 ef bd e6 fe da 3d
       0.28776532 -0.012409426 -0.116869114 0.10693149
0002d0 aa 57 89 bd c3 d1 4c 3e 78 26 73 3e 50 46 2e be
       -0.06706174 0.20001893 0.23745143 -0.1701901
0002e0 f3 a1 74 3d 01 77 ad bb aa 38 11 3d cf 0e cf bd
       0.05972476 -0.0052937274 0.03545443 -0.101102464
0002f0 d6 ea c0 be e4 90 57 be b3 d3 76 3e 46 09 f4 be
       -0.37679166 -0.21051365 0.24104194 -0.47663325
000300 76 78 2a be 37 0d 34 be 91 26 0e 3e 3b 92 88 3e
       -0.16647515 -0.17583166 0.138819 0.26674065
000310 56 34 5b 3e 84 b4 c3 3e 6e f6 b0 be 32 78 50 be
       0.21406683 0.3822366 -0.3456301 -0.20358351
000320 56 33 70 bc b9 4e 09 3e f2 94 c4 3d 65 d1 a3 3d
       -0.014660677 0.13408937 0.095987216 0.07998923
000330 eb b8 0c be d0 e7 9f 3e 47 7d 18 be f1 d7 7f 3d
       -0.13742416 0.31231546 -0.1489154 0.062461797
000340 91 de 3d bb 37 0f bf 3d d0 0d ed bd 56 94 26 3e
       -0.0028971771 0.09329074 -0.115749 0.16267523
000350 e5 20 ab 3d 8e 65 9a bc eb a5 45 bd b4 ba bf bc
       0.083558835 -0.018847253 -0.048253935 -0.023404457
000360 a2 47 5f 3e be ae 9e 3e c1 32 2f bd d7 78 d0 3b
       0.2180467 0.30992693 -0.042773012 0.0063620615
000370 8d a0 01 3e 35 75 7b 3d 5b 69 39 be 21 11 13 3d
       0.12658902 0.061391074 -0.18106596 0.035905007
000380 98 fa 7f be a1 a9 71 3e ce d1 cb be dd dd 77 bd
       -0.24997938 0.23599865 -0.39808506 -0.06051432
000390 82 f3 7b 3e 1f 9c 75 3e 26 13 cc be 91 62 8c be
       0.2460461 0.23985337 -0.3985836 -0.2741895
0003a0 66 51 15 be 01 f6 20 3e fe 6c ba be 94 df 37 bf
       -0.14581832 0.15718843 -0.3641128 -0.7182553
0003b0 ff eb 97 bd 1e fc e5 3e 1e 6f 2b be df 5d b9 3e
       -0.074180596 0.44918913 -0.16741607 0.3620443
0003c0 cd 82 0d 3e fd ee e1 bd ac 6e 38 bc b9 4a 7e 3d
       0.13819428 -0.110319115 -0.011256855 0.06208298
0003d0 83 a0 31 3e 86 c2 03 3f 65 78 bb bd ab 8d 30 bd
       0.17346387 0.51468694 -0.09153823 -0.043103855
0003e0 0b ae b5 3e 87 e3 a8 3d 87 a7 fa bd a0 b0 6b 3d
       0.35484347 0.082465224 -0.122389846 0.05754149
0003f0 f1 1f 03 3e 62 0a a6 3e d2 89 7e be 4d d5 0c be
       0.12805153 0.32429796 -0.24857262 -0.13753243

layers.elman.hx.bias f4 [16]
000000 af 95 6a be c8 b9 a6 3d 56 a9 01 bd 05 f1 5e bd
       -0.22908662 0.08140904 -0.031655632 -0.054429073
000010 3b da a2 3e ef 20 b3 3c 8a ca e7 bd 39 c3 0f bc
       0.31807122 0.02186629 -0.11317928 -0.008774572
000020 bd 8c 14 3e 43 5b 25 3e 11 55 2b be d9 2a 85 ba
       0.14506812 0.16148095 -0.16731669 -0.0010159864
000030 14 d6 0d be 59 c8 17 be 33 1c 84 bd b2 15 f6 bd
       -0.13851196 -0.1482252 -0.06450691 -0.12015857

layers.elman.hx.weight f4 [16, 22]
000000 de b0 ff 3e 02 11 90 bc 26 87 35 bd 92 0b 1a 3f
       0.49939626 -0.017586235 -0.04431834 0.60173905
000010 25 ac 6e 3e 83 d0 01 3e b6 2e 04 3e e3 91 24 be
       0.23307855 0.12677197 0.12908444 -0.16071276
000020 23 04 a4 be 2a 5e 9d be a8 a5 9d be 69 b3 15 bd
       -0.32034406 -0.30735904 -0.30790448 -0.036548052
000030 5d e6 22 be 5a 09 ad be 21 e7 fd bd 51 b1 45 be
       -0.15908189 -0.33796197 -0.123976 -0.19305922
000040 7b e7 03 3e 1d 04 d7 3c f0 06 7a bd 09 73 2f 3e
       0.12881272 0.026247079 -0.061041772 0.17133726
000050 10 7a 62 3e 56 a4 78 3e ea d1 3a be 00 bc 57 be
       0.22116876 0.24281439 -0.18244138 -0.2106781
000060 62 44 89 bc a8 90 3f be 9f 8b cd bc 4f b0 14 3e
       -0.01675624 -0.18707526 -0.02509099 0.14520381
000070 39 f5 f9 3c ed 79 cd 3d 27 12 bc bd 23 b0 09 be
       0.03051244 0.10033021 -0.0918315 -0.13446097
000080 39 5b 5b 3e 86 e1 b4 bd 56 4a a1 3d d4 a4 9d bd
       0.21421517 -0.08832078 0.078755066 -0.07697454
000090 fa 11 29 3e 78 73 53 bb 43 8a 79 be 03 dc 86 be
       0.16510764 -0.003226487 -0.24369149 -0.2633973
0000a0 de cd 88 be 90 b2 7c 3e 6b 50 fa 3d 5f ac d9 3d
       -0.26719564 0.24677491 0.1222237 0.1062858
0000b0 74 dc bc 3e 50 a3 9d bd 6f 2a 35 bd c4 95 25 3f
       0.36886942 -0.07697165 -0.04422992 0.6468165
0000c0 8c d7 ac 3d 08 7e 4a 3e 77 af 59 bd f9 d1 95 bd
       0.0843955 0.1977464 -0.053145852 -0.0731544
0000d0 54 02 b0 be de e8 1a be 1e 4e 63 bd c7 6e a5 bd
       -0.34376776 -0.15127894 -0.05549442 -0.0807777
0000e0 fb 4b 76 be d6 3f 54 bb 3f 81 c1 bd 11 37 b4 bd
       -0.24052422 -0.0032386682 -0.0944848 -0.087995656
0000f0 0d a8 34 3e 40 b2 85 3b d0 ee ab bb ee a3 7f bd
       0.17642231 0.004080087 -0.0052469745 -0.062412195
000100 a6 68 35 be 33 8e 44 bd 80 23 54 3e 21 10 2b 3e
       -0.17715701 -0.047987174 0.20716667 0.16705371
000110 d0 74 b3 bc 88 7c 1f be 19 cf 9a be ed 6f 15 be
       -0.021906286 -0.15574849 -0.30236128 -0.14593478
000120 90 7e 16 bd 18 43 a0 3e f3 52 9b 3e b2 8c 53 3e
       -0.036741793 0.31301188 0.30336723 0.2065914
000130 23 1a 2c be 12 c9 81 3b 31 ee d5 bd 8b 42 30 3e
       -0.16806845 0.003960737 -0.10445822 0.17212884
000140 e6 90 ea 3c 8e 39 c3 3d 76 16 4e 3e 68 6b e7 bd
       0.028633546 0.09532462 0.20125756 -0.11299783
000150 3b 3e 12 3e 69 08 3f 3c e4 1b 27 bd 3d f5 ca 3d
       0.14281552 0.01165972 -0.040798083 0.09910057
000160 23 cc bb 3d b0 47 38 3e e7 63 21 be 1b c7 71 3e
       0.09169795 0.17996097 -0.15760766 0.23611109
000170 e7 37 15 be b3 a1 7f be e7 a0 80 bc 63 a1 30 3e
       -0.14572106 -0.24964027 -0.015701724 0.17249064
000180 23 be 7b 3e 8a 10 20 bd 0c 4f 95 bd a7 13 85 bd
       0.2458425 -0.039078273 -0.072904676 -0.06497889
000190 fb 03 f6 3c 17 6f 56 3d 6a 4a 92 3e a3 d2 88 3e
       0.030031195 0.052352037 0.28572398 0.26723203
0001a0 25 be ab bd 7b 86 96 be 3e f4 53 be 2a a3 5b be
       -0.083858766 -0.29399475 -0.2069864 -0.21448961
0001b0 0f b2 8a be e1 97 68 be cb d2 4f 3f 71 94 1e 3e
       -0.27088973 -0.22714187 0.8118102 0.15486313
0001c0 71 fb 3d 3e 2f 8c 89 3f 29 09 4f be 41 63 58 be
       0.18552949 1.0745906 -0.20218338 -0.21131612
0001d0 f3 78 8e be 2c 1e b3 be f2 88 81 bd 8b c3 5f be
       -0.27826652 -0.34983957 -0.06324948 -0.21851937
0001e0 18 e4 f5 3d b8 e4 0a 3e 2e 39 c9 3e b0 26 84 be
       0.12006396 0.13563812 0.39301437 -0.25810766
0001f0 38 5b 24 be cb 8f a4 be ef f0 90 39 f7 4e 7b bd
       -0.16050422 -0.32140955 0.0002764533 -0.061354604
000200 5c 6d 70 be a4 84 9f 3d aa 2c e9 3d bf b1 d0 3d
       -0.23479217 0.07788971 0.11385472 0.101901524
000210 6e ae 0b bf c8 69 16 be 06 7d 07 3e ca 9a 16 bf
       -0.54563034 -0.1468879 0.13231286 -0.5882994
000220 6f 21 61 3e d3 90 4a 3e de 0d 82 3e d8 f0 51 3e
       0.2198541 0.19781809 0.25401205 0.20502031
000230 c5 5f 44 3e 75 ea 41 bd 26 c6 8d be 56 41 43 be
       0.19177158 -0.047342736 -0.27690238 -0.19067892
000240 f4 16 45 3c d1 08 50 3e bb 6b 80 bd 4f ba 25 3e
       0.012029398 0.20315863 -0.06270548 0.16184352
000250 af 1e 82 3e e2 a0 10 3e e5 1e 43 3e 2d 77 0a 3e
       0.25414035 0.14123872 0.19054754 0.13522024
000260 26 90 56 3e cd 54 e6 3d 65 f1 2e be b4 70 42 3e
       0.20953426 0.11246643 -0.17084272 0.18988305
000270 9b 68 2b 3e 29 a8 80 3d 85 af 6e 3e dd 98 b8 3d
       0.16739123 0.06282074 0.23309143 0.09013531
000280 60 42 b0 3e 76 fc 22 be 87 6e 92 bb f4 db 9f 3c
       0.3442564 -0.15916619 -0.0044687423 0.019514062
000290 ad 91 a9 3d a3 84 af 3e ac 20 8b bd 00 10 38 be
       0.082797386 0.3428088 -0.06793341 -0.17974854
0002a0 f6 c1 a2 be ee 22 4e be c1 9a 39 3c b1 d1 18 be
       -0.31788605 -0.20130512 0.0113284 -0.14923741
0002b0 11 f3 03 be 57 dd 56 3e 1d a7 88 3d 6c 6f 14 3e
       -0.12885691 0.20982872 0.06672499 0.14495629
0002c0 f4 5f 8d be 5b 1f b3 bd 19 d3 c4 bd cc c1 3b be
       -0.2761227 -0.08746215 -0.09610576 -0.18335646
0002d0 3c 7e 7d 3e 6e c4 96 3e 5e c6 ac 3e b7 e5 83 bc
       0.24755186 0.2944674 0.33745092 -0.016100748
0002e0 fd c7 8f bd 18 fe a8 3d 9c 7e f9 bb b7 fa 57 be
       -0.070205666 0.082515895 -0.00761397 -0.21091734
0002f0 f9 46 22 be a8 8e a7 3d 03 a4 9d 3e bd 94 a7 3e
       -0.15847386 0.081815064 0.30789194 0.32730666
000300 d3 6d dd bd 82 9a 5c be 63 ed 18 be 1a bb e4 3b
       -0.10811963 -0.21543315 -0.14934306 0.006980312
000310 8b 3a 03 3d 9c 88 7a be c1 2f ce bd 7f 1c b8 3b
       0.032038253 -0.24466175 -0.10067702 0.0056186314
000320 02 7d 6a 3d 81 3a bb 3d 7e ce 3f be b9 22 65 be
       0.057248123 0.09142018 -0.18731114 -0.22376527
000330 96 4f c2 bc 52 e4 c8 3e f5 f9 b4 3e bb a9 b5 3e
       -0.02371959 0.39236695 0.35346952 0.35481057
000340 67 0d ef 3d 4d 1c a4 3d ce b4 5f be 21 96 a2 3e
       0.11672478 0.080132104 -0.21846315 0.31755164
000350 88 9a 3c 3e 02 28 ad 3e e7 27 33 be e8 12 83 be
       0.18418324 0.33819586 -0.1749569 -0.25600362
000360 57 21 c3 be c3 69 71 be 86 b8 15 be 64 bb 83 be
       -0.38111374 -0.23575501 -0.14621171 -0.25728905
000370 62 59 12 3f d9 d4 81 3d 1e 38 83 bd 32 2c 90 3e
       0.5716764 0.063394256 -0.06407188 0.28158718
000380 73 c8 8c 3d 55 b1 2e 3c 4d 8e 2e 3e ed 5b 5b be
       0.0687417 0.010662396 0.17046471 -0.21421786
000390 36 e6 8b bb 22 87 d1 bd bd 24 08 3e ac 23 52 be
       -0.0042693866 -0.10230853 0.13295265 -0.2052142
0003a0 5a 5f 49 be 52 ad 8d bd 3a 17 b0 be 53 a0 a2 be
       -0.1966528 -0.06917824 -0.3439272 -0.31762943
0003b0 cf fc 28 3d 49 10 0c 3e 9d 9b 04 3e b5 74 6e 3d
       0.041256722 0.13678087 0.12949987 0.05821677
0003c0 6a 85 9b bc 2d e7 1f be 05 96 bd 3e 5b 70 1c 3e
       -0.018984515 -0.1561553 0.37028518 0.15277235
0003d0 e8 13 41 be 57 a8 46 3e cc 9d 86 3f 03 92 81 3f
       -0.1885525 0.19400154 1.0516906 1.0122684
0003e0 8e e2 82 3f 1d 1d b5 3d 7e e4 51 3e 6d 38 87 3e
       1.0225389 0.088434435 0.20497319 0.26410237
0003f0 a3 29 99 bf dd fe 93 bf 34 d6 8c bf 99 b3 21 3e
       -1.1965832 -1.1562153 -1.100287 0.15791167

layers.embed.emb.weight f4 [22, 22]
000000 00 00 80 3f 00 00 00 00 00 00 00 00 00 00 00 00
       1.0 0.0 0.0 0.0
000010 00 00 00 00 00 00 00 00 00 00 00 00 00 00 00 00
       0.0 0.0 0.0 0.0
000020 00 00 00 00 00 00 00 00 00 00 00 00 00 00 00 00
       0.0 0.0 0.0 0.0
000030 00 00 00 00 00 00 00 00 00 00 00 00 00 00 00 00
       0.0 0.0 0.0 0.0
000040 00 00 00 00 00 00 00 00 00 00 00 00 00 00 00 00
       0.0 0.0 0.0 0.0
000050 00 00 00 00 00 00 00 00 00 00 00 00 00 00 80 3f
       0.0 0.0 0.0 1.0
000060 00 00 00 00 00 00 00 00 00 00 00 00 00 00 00 00
       0.0 0.0 0.0 0.0
000070 00 00 00 00 00 00 00 00 00 00 00 00 00 00 00 00
       0.0 0.0 0.0 0.0
000080 00 00 00 00 00 00 00 00 00 00 00 00 00 00 00 00
       0.0 0.0 0.0 0.0
000090 00 00 00 00 00 00 00 00 00 00 00 00 00 00 00 00
       0.0 0.0 0.0 0.0
0000a0 00 00 00 00 00 00 00 00 00 00 00 00 00 00 00 00
       0.0 0.0 0.0 0.0
0000b0 00 00 00 00 00 00 00 00 00 00 80 3f 00 00 00 00
       0.0 0.0 1.0 0.0
0000c0 00 00 00 00 00 00 00 00 00 00 00 00 00 00 00 00
       0.0 0.0 0.0 0.0
0000d0 00 00 00 00 00 00 00 00 00 00 00 00 00 00 00 00
       0.0 0.0 0.0 0.0
0000e0 00 00 00 00 00 00 00 00 00 00 00 00 00 00 00 00
       0.0 0.0 0.0 0.0
0000f0 00 00 00 00 00 00 00 00 00 00 00 00 00 00 00 00
       0.0 0.0 0.0 0.0
000100 00 00 00 00 00 00 00 00 00 00 00 00 00 00 00 00
       0.0 0.0 0.0 0.0
000110 00 00 00 00 00 00 80 3f 00 00 00 00 00 00 00 00
       0.0 1.0 0.0 0.0
000120 00 00 00 00 00 00 00 00 00 00 00 00 00 00 00 00
       0.0 0.0 0.0 0.0
000130 00 00 00 00 00 00 00 00 00 00 00 00 00 00 00 00
       0.0 0.0 0.0 0.0
000140 00 00 00 00 00 00 00 00 00 00 00 00 00 00 00 00
       0.0 0.0 0.0 0.0
000150 00 00 00 00 00 00 00 00 00 00 00 00 00 00 00 00
       0.0 0.0 0.0 0.0
000160 00 00 00 00 00 00 00 00 00 00 00 00 00 00 00 00
       0.0 0.0 0.0 0.0
000170 00 00 80 3f 00 00 00 00 00 00 00 00 00 00 00 00
       1.0 0.0 0.0 0.0
000180 00 00 00 00 00 00 00 00 00 00 00 00 00 00 00 00
       0.0 0.0 0.0 0.0
000190 00 00 00 00 00 00 00 00 00 00 00 00 00 00 00 00
       0.0 0.0 0.0 0.0
0001a0 00 00 00 00 00 00 00 00 00 00 00 00 00 00 00 00
       0.0 0.0 0.0 0.0
0001b0 00 00 00 00 00 00 00 00 00 00 00 00 00 00 00 00
       0.0 0.0 0.0 0.0
0001c0 00 00 00 00 00 00 00 00 00 00 00 00 00 00 80 3f
       0.0 0.0 0.0 1.0
0001d0 00 00 00 00 00 00 00 00 00 00 00 00 00 00 00 00
       0.0 0.0 0.0 0.0
0001e0 00 00 00 00 00 00 00 00 00 00 00 00 00 00 00 00
       0.0 0.0 0.0 0.0
0001f0 00 00 00 00 00 00 00 00 00 00 00 00 00 00 00 00
       0.0 0.0 0.0 0.0
000200 00 00 00 00 00 00 00 00 00 00 00 00 00 00 00 00
       0.0 0.0 0.0 0.0
000210 00 00 00 00 00 00 00 00 00 00 00 00 00 00 00 00
       0.0 0.0 0.0 0.0
000220 00 00 00 00 00 00 00 00 00 00 80 3f 00 00 00 00
       0.0 0.0 1.0 0.0
000230 00 00 00 00 00 00 00 00 00 00 00 00 00 00 00 00
       0.0 0.0 0.0 0.0
000240 00 00 00 00 00 00 00 00 00 00 00 00 00 00 00 00
       0.0 0.0 0.0 0.0
000250 00 00 00 00 00 00 00 00 00 00 00 00 00 00 00 00
       0.0 0.0 0.0 0.0
000260 00 00 00 00 00 00 00 00 00 00 00 00 00 00 00 00
       0.0 0.0 0.0 0.0
000270 00 00 00 00 00 00 00 00 00 00 00 00 00 00 00 00
       0.0 0.0 0.0 0.0
000280 00 00 00 00 00 00 80 3f 00 00 00 00 00 00 00 00
       0.0 1.0 0.0 0.0
000290 00 00 00 00 00 00 00 00 00 00 00 00 00 00 00 00
       0.0 0.0 0.0 0.0
0002a0 00 00 00 00 00 00 00 00 00 00 00 00 00 00 00 00
       0.0 0.0 0.0 0.0
0002b0 00 00 00 00 00 00 00 00 00 00 00 00 00 00 00 00
       0.0 0.0 0.0 0.0
0002c0 00 00 00 00 00 00 00 00 00 00 00 00 00 00 00 00
       0.0 0.0 0.0 0.0
0002d0 00 00 00 00 00 00 00 00 00 00 00 00 00 00 00 00
       0.0 0.0 0.0 0.0
0002e0 00 00 80 3f 00 00 00 00 00 00 00 00 00 00 00 00
       1.0 0.0 0.0 0.0
0002f0 00 00 00 00 00 00 00 00 00 00 00 00 00 00 00 00
       0.0 0.0 0.0 0.0
000300 00 00 00 00 00 00 00 00 00 00 00 00 00 00 00 00
       0.0 0.0 0.0 0.0
000310 00 00 00 00 00 00 00 00 00 00 00 00 00 00 00 00
       0.0 0.0 0.0 0.0
000320 00 00 00 00 00 00 00 00 00 00 00 00 00 00 00 00
       0.0 0.0 0.0 0.0
000330 00 00 00 00 00 00 00 00 00 00 00 00 00 00 80 3f
       0.0 0.0 0.0 1.0
000340 00 00 00 00 00 00 00 00 00 00 00 00 00 00 00 00
       0.0 0.0 0.0 0.0
000350 00 00 00 00 00 00 00 00 00 00 00 00 00 00 00 00
       0.0 0.0 0.0 0.0
000360 00 00 00 00 00 00 00 00 00 00 00 00 00 00 00 00
       0.0 0.0 0.0 0.0
000370 00 00 00 00 00 00 00 00 00 00 00 00 00 00 00 00
       0.0 0.0 0.0 0.0
000380 00 00 00 00 00 00 00 00 00 00 00 00 00 00 00 00
       0.0 0.0 0.0 0.0
000390 00 00 00 00 00 00 00 00 00 00 80 3f 00 00 00 00
       0.0 0.0 1.0 0.0
0003a0 00 00 00 00 00 00 00 00 00 00 00 00 00 00 00 00
       0.0 0.0 0.0 0.0
0003b0 00 00 00 00 00 00 00 00 00 00 00 00 00 00 00 00
       0.0 0.0 0.0 0.0
0003c0 00 00 00 00 00 00 00 00 00 00 00 00 00 00 00 00
       0.0 0.0 0.0 0.0
0003d0 00 00 00 00 00 00 00 00 00 00 00 00 00 00 00 00
       0.0 0.0 0.0 0.0
0003e0 00 00 00 00 00 00 00 00 00 00 00 00 00 00 00 00
       0.0 0.0 0.0 0.0
0003f0 00 00 00 00 00 00 80 3f 00 00 00 00 00 00 00 00
       0.0 1.0 0.0 0.0

layers.lm_head.proj.bias f4 [22]
000000 e3 8b 69 bf 59 da 78 bf 90 23 65 bf b6 f7 e0 3d
       -0.91229075 -0.9720817 -0.8950739 0.10984747
000010 13 bb 06 3e 75 da 21 3e 63 98 94 3e d3 7e bf be
       0.131573 0.15805991 0.29022512 -0.37401447
000020 14 a2 87 be a4 bf 3b be 89 6a ea 3d 9f 65 4e 3e
       -0.26490843 -0.18334824 0.11446101 0.20155953
000030 30 a6 62 3e 9c 61 5a 3e 7f 6f 73 3e b0 98 e4 3d
       0.22133708 0.21326298 0.23773001 0.11161935
000040 a7 9d 94 3e a8 bd c6 3e 05 3b 8c 3e e5 9a ca 3e
       0.2902653 0.3881657 0.27388778 0.395713
000050 d1 0c ab 3e f0 e1 1d 3f
       0.33408216 0.6167288

layers.lm_head.proj.weight f4 [22, 16]
000000 8e f2 f0 bb c4 a5 a4 3e e7 b2 b9 3c f7 1c 1a 3e
       -0.0073531335 0.3215772 0.022668315 0.15050112
000010 0e 60 12 bf fe 4a ee 3c a7 73 07 3f 33 ea 0a 3e
       -0.5717782 0.029088493 0.52910846 0.13565902
000020 24 16 f0 3d 6e 19 98 3d a4 3d fd bc ea cf a7 3c
       0.11722973 0.07426725 -0.030913182 0.020484883
000030 93 b3 4c bd f0 9b fd 3e 6e d2 2a bd 47 87 7a 3e
       -0.049975943 0.49533033 -0.041704588 0.24465667
000040 35 f8 21 be 75 5e b8 3e 20 03 36 3b 06 37 96 bb
       -0.1581734 0.36009565 0.0027772859 -0.004584196
000050 0b 30 09 bf b9 1a 11 3e bf 29 f4 3e 83 33 89 bc
       -0.5358893 0.1417035 0.476881 -0.016748196
000060 62 f8 aa 3d 8a df fe 3d cb c6 5b 3d 8b 5c df 3d
       0.083481565 0.124449804 0.05365638 0.10906323
000070 b0 2a 09 be a4 54 4a 3e b9 74 44 3c d1 0d a4 3e
       -0.1339519 0.1975885 0.0119907195 0.3204179
000080 50 d5 20 be 13 f4 e4 3e ad 2d d4 3c 50 9f ad 3d
       -0.15706372 0.44717464 0.025900686 0.08477652
000090 2f ae ef be 33 76 99 3d 22 85 f4 3d b7 19 2c 3e
       -0.4681258 0.07493248 0.119394556 0.16806684
0000a0 a6 1f 5b 3e 52 29 d4 3e a0 ba a4 3d e3 19 1f be
       0.21398792 0.41437775 0.080434084 -0.15537219
0000b0 df 40 8e be 6d 25 cf 3d a7 a9 82 3e bd 20 b6 3e
       -0.27783868 0.1011456 0.2552006 0.35571852
0000c0 c8 94 a9 bf 3a 96 30 3f bc 06 51 bf d9 1f 8c 3f
       -1.324853 0.6897923 -0.816509 1.0947219
0000d0 e5 d5 3d 3f 1a cd 83 bf 8e 3a 4a 3f dc 7c 9b bf
       0.741545 -1.0296967 0.789956 -1.2147479
0000e0 a6 23 27 3f 0e 90 ef 3f 18 7f a5 bf a4 20 48 3f
       0.6528877 1.8715837 -1.2929411 0.78174806
0000f0 1b cc 33 bf 7e e5 2b bf 52 13 dc bd 19 f2 4e bf
       -0.70233315 -0.6714705 -0.107458726 -0.8083816
000100 93 98 03 3f f8 6b 04 bf f6 b4 2b 3f f0 c7 7c 3e
       0.51404685 -0.5172725 0.67073 0.24685645
000110 0d 84 0a 3f 38 86 6d 3f 04 bc f8 be bf 44 01 bf
       0.54107744 0.92782927 -0.48580945 -0.50495523
000120 64 7a 41 be c5 80 28 3f 7d 44 b6 3e 5c ec 01 3f
       -0.18894345 0.65821487 0.35599127 0.5075128
000130 13 1b 91 bd c0 3f 3d 3f cd 09 d3 bd 5f a9 64 be
       -0.07085242 0.739254 -0.10304604 -0.22330235
000140 4b 55 23 3f b4 bc 35 be 07 79 2a 3f 1f b5 75 3e
       0.6380202 -0.17747766 0.66590923 0.23994873
000150 f4 18 f2 3e d6 ae 64 3f 02 e3 65 bf 74 e9 d6 be
       0.47284663 0.8932928 -0.8979951 -0.41974986
000160 b8 80 33 be fc 62 31 3f fb 86 1e 3f 28 95 0c 3f
       -0.17529571 0.69291663 0.61924714 0.54915094
000170 cb bd 22 bd 46 47 20 3f ea 71 d4 bd 45 96 71 be
       -0.039731782 0.62608755 -0.1037329 -0.2359248
000180 53 1b 1e 3f 6d 70 53 be c2 da e6 3e 7e d3 8d 3e
       0.61760443 -0.20648356 0.45088774 0.27700418
000190 94 a6 14 3f 22 60 92 3f 00 3b 24 bf c9 31 f3 be
       0.5806668 1.1435587 -0.64152527 -0.4749892
0001a0 73 9e 3f be 39 20 23 3f 8c d8 e9 3e 08 d7 01 3f
       -0.18712787 0.6372104 0.45673025 0.50718737
0001b0 90 a9 86 bd ef 9a 30 3f e4 54 20 be 66 c2 a5 be
       -0.0657531 0.6898641 -0.15657383 -0.32374877
0001c0 86 15 a1 3c 1d 2b 95 bf 8f e7 37 3f 80 6d bb 3e
       0.019663583 -1.1653782 0.71837705 0.3660698
0001d0 c9 02 34 bf 0b 5d 4a bf 57 e8 50 3f 82 a8 13 bf
       -0.7031675 -0.7904822 0.8160452 -0.57679
0001e0 2e e1 01 bf ad dd 51 bf 40 98 7b 3f 52 34 80 bf
       -0.5073422 -0.81978875 0.9827919 -1.0015967
0001f0 7f 8a 54 bf ca 9b 08 bf f3 57 a1 be dc 41 f0 be
       -0.8302383 -0.53362715 -0.31512412 -0.46925247
000200 90 bb c4 3c 55 01 8a bf 15 b7 7c 3f 8a f7 94 3e
       0.024015218 -1.0781657 0.9871686 0.29095107
000210 7d 2c 68 bf 7a 03 4e bf 16 a8 63 3f e3 1a 0a bf
       -0.90692884 -0.80474055 0.88928354 -0.53947276
000220 df 1b 0d bf ee 1a 53 bf 3e cd 5c 3f 59 a8 21 bf
       -0.5512065 -0.82462966 0.86250675 -0.63147503
000230 d0 8b 41 bf e1 6a 1c bf fa cc c1 be 27 c4 e9 be
       -0.7560396 -0.61100584 -0.37851697 -0.45657465
000240 1b 43 a9 3c f1 ca 9b bf 98 ce 4e 3f 32 b0 8f 3e
       0.020661881 -1.2171308 0.8078399 0.28064114
000250 89 29 62 bf a8 1d 49 bf 8b c8 60 3f 61 05 fd be
       -0.8834463 -0.78560877 0.87806004 -0.49418166
000260 09 d2 16 bf e0 8a 22 bf 0a b4 72 3f 7e 2f 43 bf
       -0.5891424 -0.63493156 0.9480597 -0.7624434
000270 de ba 41 bf 3c a8 21 bf 33 92 b2 be e3 8d d2 be
       -0.7567576 -0.6314733 -0.34877166 -0.41123876
000280 b2 7d e2 3e a5 95 d2 be 58 ee 1b 3f 66 91 8d 3e
       0.44236523 -0.41129795 0.6091056 0.27649993
000290 eb 9a ba 3e dc 51 92 3f e3 b2 64 bf 66 14 08 bf
       0.36446318 1.1431231 -0.8933546 -0.53156126
0002a0 28 bf 3a be 5c 92 2b 3f a8 67 ec 3e 98 3e d1 3e
       -0.18236983 0.670202 0.46172833 0.40868068
0002b0 87 c7 97 bd f0 51 f1 3e c9 11 29 be 98 7b 9a be
       -0.07411104 0.47132826 -0.16510691 -0.3017242
0002c0 35 77 3a 3f b2 46 a5 be 52 23 a2 3e 38 ac 58 3e
       0.72838145 -0.322805 0.31667572 0.21159446
0002d0 3f 8b 0e 3f 63 d1 5e 3f 0a 96 21 bf c6 84 e9 be
       0.5568122 0.8703825 -0.63119566 -0.4560911
0002e0 83 74 4b be 54 b8 18 3f 9e b6 1a 3f 03 53 2d 3f
       -0.19868664 0.5965626 0.604349 0.6770479
0002f0 93 d6 5c bd 10 1a 3d 3f 99 5c 81 bd c1 37 72 be
       -0.05391557 0.73867893 -0.0631649 -0.23654081
000300 22 2b 25 3f 19 81 37 be 40 0c 03 3f 5d 4d 81 3e
       0.6451894 -0.1792034 0.51190567 0.25254336
000310 2e e5 ed 3e 2f ff 64 3f eb aa 45 bf 85 d8 ff be
       0.46463913 0.8945188 -0.77213925 -0.4996988
000320 56 8d 5b be c2 cb 23 3f 13 db 3d 3f e7 18 18 3f
       -0.21440634 0.63982785 0.74162406 0.59413
000330 80 21 a5 bd 2b 32 47 3f 71 6e 03 be d9 a6 72 be
       -0.0806303 0.77810925 -0.12835099 -0.2369646
000340 3d 0a 39 3f 65 07 c5 3f 73 27 63 bf 23 7a dd 3e
       0.7228125 1.5392882 -0.8873207 0.43257245
000350 bd f0 2b bf 68 8e 77 be 4f b0 3d 3f a3 ae c2 3e
       -0.6716421 -0.24175417 0.7409715 0.38023862
000360 79 da 13 bf bb 65 70 be 31 6a 28 bf f9 b3 5b bf
       -0.5775524 -0.23476307 -0.65787035 -0.8582149
000370 ad 55 fe be 41 d2 aa be 86 71 8e 3f 1d 18 c2 be
       -0.4967474 -0.33363536 1.1128395 -0.37909022
000380 52 02 3b 3f 29 14 c2 3f 01 0e 65 bf 8f ac bf 3e
       0.73050416 1.5162402 -0.89474493 0.3743634
000390 ab 94 4a bf 8d f3 79 be c9 b2 1d 3f 8a 74 e8 3e
       -0.791331 -0.24409313 0.6160093 0.45401412
0003a0 c0 d0 d4 be b9 bd 8f be 66 3b 31 bf f7 ca 67 bf
       -0.41565514 -0.28074434 -0.6923126 -0.90544075
0003b0 89 27 04 bf 04 f9 95 be 55 99 89 3f a3 27 9b be
       -0.51622826 -0.29291546 1.0749918 -0.30303678
0003c0 4c 19 37 3f eb 4e c1 3f 28 d4 84 bf 94 fa b2 3e
       0.71522975 1.5102209 -1.0377245 0.349568
0003d0 a1 76 20 bf 17 cc 75 be 43 12 3d 3f 9e 4a f1 3e
       -0.62681013 -0.24003635 0.7385599 0.4712724
0003e0 01 b0 1a bf e4 c1 76 be 64 48 31 bf 80 0e 65 bf
       -0.6042481 -0.24097401 -0.69251084 -0.8947525
0003f0 dd 7a ec be 7b 90 b2 be ab 96 94 3f 3e 0a a9 be
       -0.46187487 -0.34875855 1.160848 -0.33015627
