jordan_elman_2024/exp2/elman_sequence_level/run_0/export/model.safetensors (safetensors, 6576 bytes, 7 tensors)

layers.elman.hh.bias f4 [16]
000000 2e 6f 18 be 8a 9f a9 bd fc 43 3d 3d 03 ae 05 3d
       -0.14886162 -0.08282383 0.046207413 0.032636654
000010 72 c9 88 ba fa fb 42 be c0 05 26 3e 95 a0 45 be
       -0.0010436012 -0.19041434 0.16213131 -0.19299538
000020 7f e3 8d be 30 d1 5b bb c0 be a2 3d 28 90 09 be
       -0.27712628 -0.0033541434 0.07946539 -0.13433897
000030 e3 b5 88 bd 80 69 01 bd ab c5 eb 3e 1e 10 44 bc
       -0.06675317 -0.031594753 0.46049246 -0.011966733

layers.elman.hh.weight f4 [16, 16]
000000 44 e8 a0 be 43 5b 49 3d 1a 2f a9 3e 7f eb 3d be
       -0.31427205 0.0491593 0.33043748 -0.18546866
000010 70 20 de be 8b a2 ef bd 47 89 3d bd ca 2c 02 be
       -0.43384123 -0.117009245 -0.046273496 -0.12712398
000020 3a e8 9f be 7c 7c c9 bd ee 25 81 be 24 a2 6f be
       -0.31231862 -0.09838197 -0.2522425 -0.23401695
000030 b4 32 aa 3e 09 a2 b2 be e6 fc e0 3d 7a 7c eb bd
       0.33241808 -0.34889248 0.109857365 -0.114983514
000040 05 d3 31 3f 70 5f a2 be dd 91 9b be 16 23 28 3d
       0.69462615 -0.31713438 -0.30384722 0.041049086
000050 9c a9 60 bd 0f 14 6a be 8a 5a 38 3e 72 3b a6 3e
       -0.054849252 -0.22859214 0.18003288 0.32467228
000060 d6 fc 09 3f 81 ac 22 3e 38 68 3a be 47 9b 3d 3e
       0.5390142 0.15886118 -0.18203819 0.18516265
000070 4a ab 87 be 1c fd a9 3e c6 87 86 be 6f cc 05 3f
       -0.2649787 0.3320092 -0.26275462 0.52265066
000080 db 16 93 be 91 c5 64 be 5e 51 56 3e 0e fc 0a be
       -0.28728375 -0.2234099 0.20929477 -0.13572714
000090 c8 34 9b be 30 ec 33 be ca a8 fc 3d 44 25 6d be
       -0.30313706 -0.17570567 0.123368815 -0.23158747
0000a0 bc 94 3f be c5 7d 1b 3d d0 6d a1 be 27 36 ba bd
       -0.18709081 0.03796174 -0.31529093 -0.0909236
0000b0 68 52 ad 3e 81 9d 16 3e d4 3c 0c 3f 4f 97 b2 3d
       0.33851933 0.1470852 0.54780316 0.08720266
0000c0 0d 29 10 3f cc 22 f8 be 65 85 4c be 38 87 5e bb
       0.5631264 -0.48464048 -0.19972761 -0.0033955108
0000d0 4b 46 04 be 0f 5a 38 be d6 2f ca bd 7f ae 34 3e
       -0.1291744 -0.18003105 -0.09872405 0.1764469
0000e0 af 44 bf 3e cc 2f a0 be 96 44 d2 be 1f 8c d5 3d
       0.3735709 -0.31286466 -0.41067952 0.104271166
0000f0 80 93 0c 3d f0 a6 fb 3d 09 4a 18 be 9a b1 fd 3e
       0.034320354 0.122877 -0.14871992 0.49549562
000100 81 2c 45 3d 59 bc 57 3e 99 c9 74 3e 22 4d 86 be
       0.048138145 0.21067943 0.23905028 -0.26230723
000110 e9 a0 ff bd 70 89 36 be d8 d6 8f be 06 b1 5b bd
       -0.12481863 -0.17825866 -0.280936 -0.05363562
000120 55 5b ec be 6b 74 90 3e cb c7 d1 3e 13 10 fc bd
       -0.4616343 0.2821382 0.40972742 -0.123077534
000130 a0 a3 75 be 7c e2 3f 3e 62 d1 4c be b3 65 f6 bd
       -0.23988199 0.1873874 -0.20001748 -0.12031116
000140 2b 67 51 3f 5a 0f 3f be 23 4e 5f be 32 8e b6 3e
       0.81798047 -0.186582 -0.2180715 0.3565536
000150 f9 5a d3 bd c9 8f 9d be 51 65 1a be a9 3d bb bd
       -0.10320086 -0.30773762 -0.15077712 -0.0914262
000160 d4 a5 24 3f 0f f2 6a bd 88 7d 90 be e8 6e 57 3e
       0.64315534 -0.05735975 -0.28220773 0.21038401
000170 42 8f c9 bd 78 75 f8 3e 3d 28 0c be 1a 8b 47 3e
       -0.098417774 0.48527122 -0.13687225 0.19486657
000180 de 2a dd be 22 85 a2 3e ea f6 78 3e cb 22 55 3d
       -0.43196768 0.31742197 0.2431294 0.052035134
000190 20 83 b4 bd f3 3c 33 be 7a 03 99 bd 0b dc 89 be
       -0.088140726 -0.17503719 -0.07471366 -0.26925692
0001a0 16 9a a6 be 27 d1 61 3d 3f 81 cc bd 98 1d 96 be
       -0.32539433 0.055131104 -0.09985589 -0.29319453
0001b0 b0 ad 1d be b5 2e 00 be bd 7e ce bd b4 5d 04 be
       -0.15398288 -0.12517817 -0.10082767 -0.1292637
0001c0 03 59 fe 3e e2 1f 70 be df 5a b4 3d 83 14 80 3e
       0.49677286 -0.23449662 0.08806395 0.2501565
0001d0 40 ee 2b be d4 84 56 3d 25 1a bb 3e 9e c7 cf 3d
       -0.16790104 0.05237277 0.36543384 0.10145496
0001e0 15 4f 13 3f e5 00 45 be e7 a0 8c bd d3 24 b2 3e
       0.57542545 -0.19238622 -0.06866627 0.3479372
0001f0 88 8b 9a 3c 73 da c8 3e 1a a1 8d 3e 68 8e 9d 3d
       0.018865362 0.39229164 0.27661973 0.076931775
000200 7b 88 34 3f da a1 e1 be f1 cd be be 6a 41 d3 3e
       0.7052075 -0.44068795 -0.37266496 0.41260844
000210 0e ab e9 3e 7b be 53 3e 52 de b8 3e 8e d6 08 bd
       0.45638317 0.20678131 0.36107117 -0.03340774
000220 8f 79 7d 3f 74 cc 3b be 87 ae 63 bd 16 d4 2a 3d
       0.9901361 -0.18339711 -0.055586364 0.041706167
000230 ee c2 18 3e 05 52 89 3e d3 19 ae be 63 32 02 3e
       0.1491811 0.26820388 -0.34004077 0.12714534
000240 7b 09 36 3c 4a 61 a0 3e ec 7e 7b 3e b0 04 ec 3d
       0.011110659 0.31324226 0.24560136 0.115243316
000250 b7 57 d8 3d 22 2f d4 3e 56 05 3e be 9c 07 8a 3e
       0.10563605 0.4144221 -0.18556723 0.2695893
000260 9f 28 f0 3b 31 58 9d be 61 6a 94 bc 08 8b 96 be
       0.007329061 -0.30731347 -0.018117132 -0.29402947
000270 10 94 a3 be 70 80 85 be b7 19 10 be ec 05 86 3c
       -0.319489 -0.26074553 -0.1407231 0.016360246
000280 b1 05 a1 3e f6 3d 89 3e a8 e2 0f 3e 2c 04 c6 bd
       0.31449655 0.26805085 0.14051306 -0.096687645
000290 f6 be fb be 14 9e 3e bd 1c 64 0c 3d ce 1e ba 3e
       -0.4916913 -0.046537474 0.03427516 0.36351627
0002a0 e8 7c 7e 3d 3b 54 ed 3d cb 11 9f 3d 54 41 55 be
       0.06213084 0.11588331 0.077670656 -0.20825702
0002b0 28 65 bc bd b6 61 09 be f8 62 06 be 34 f8 ab bc
       -0.091989815 -0.1341618 -0.13123691 -0.020992376
0002c0 0b 46 6b 3e d4 8c fb bd dd b5 19 3e a1 a0 a5 3d
       0.22975938 -0.1228272 0.15010782 0.08087278
0002d0 79 32 97 3d f9 34 b9 3d 16 09 02 be cf c1 81 3e
       0.07382674 0.09043307 -0.12698779 0.25343177
0002e0 08 cf 14 3e a3 fb ed bd ad 99 58 bd 8e f9 8f 3e
       0.14532101 -0.116202615 -0.05288093 0.28120083
0002f0 c9 8f a9 bc 89 ef bc 3e 34 5d e8 3d 4c ca ea bd
       -0.020698445 0.369015 0.11345902 -0.11464366
000300 8e 9b 8e 3e d3 58 ac bc 7c fe bd be 92 1d 8e 3b
       0.27853054 -0.021038448 -0.3710822 0.004337021
000310 e1 db 34 3f c6 5f 30 bd 23 79 cb bc ad f1 e5 be
       0.7064801 -0.043060087 -0.024838036 -0.44910946
000320 8c b4 a4 3c 37 11 7a 3d 90 1d 94 3e b4 ee 33 3c
       0.020105623 0.061051574 0.28928804 0.010982204
000330 fd cb 95 3d 75 75 35 3e c6 c5 70 bd 61 fd 5b be
       0.07314298 0.17720588 -0.05878236 -0.21483375
000340 da ac 1b 3e 55 03 16 3e f8 7c 53 3e c3 0c 10 3e
       0.15202656 0.14649709 0.2065314 0.14067368
000350 d8 a8 70 bd bb 9c bd 3d 72 c8 12 be 8f 9b a9 3e
       -0.058754772 0.092584096 -0.14334276 0.33126494
000360 94 87 d3 bd 76 b7 a9 bd 55 4c 69 3e 3b f2 0c 3d
       -0.10328594 -0.082869455 0.22783025 0.034410696
000370 78 f0 a7 be b6 01 9c bd f8 f9 89 be be b6 03 be
       -0.3280065 -0.07617514 -0.26948524 -0.1286268
000380 28 48 90 bd 4e 35 17 3e 1e 91 e5 bd 78 6e 45 be
       -0.07045013 0.14766428 -0.112093195 -0.19280422
000390 95 8c 90 3c b0 82 08 3e d5 4a 0c be 82 2c a5 be
       0.01764516 0.13331103 -0.13700421 -0.3226052
0003a0 88 d3 60 be 01 a9 d8 3c af d4 14 be d3 76 ad 3d
       -0.21955693 0.026447775 -0.14534257 0.084699295
0003b0 67 46 1e bc 4a b9 34 bd 3f 1d 75 be f0 4a bc be
       -0.00966034 -0.044122018 -0.23936938 -0.36775923
0003c0 78 21 53 bf 53 86 e2 3e 5f 0f 7d 3e c5 79 e4 be
       -0.82472944 0.44243106 0.24712895 -0.44624153
0003d0 af c3 d0 bd 5e 84 f1 bd 53 a3 82 bd 87 99 92 be
       -0.10193574 -0.11792825 -0.06378808 -0.28632757
0003e0 63 06 2e bf 1b 70 34 be b0 48 91 bd ae 31 c1 be
       -0.67978495 -0.1762089 -0.07093942 -0.37733215
0003f0 9a de e9 3d cb 06 ed be 50 10 8d 3e 30 f2 0e bf
       0.11419411 -0.46294245 0.27551508 -0.558383

layers.elman.hx.bias f4 [16]
000000 4a fd 1c 3e 36 2c 24 be 85 c7 f9 3d 45 11 ee 3d
       0.15330997 -0.1603249 0.121962585 0.11624388
000010 35 5f fc bd 1a 77 c1 3c 00 0e 42 3e e9 19 9b 3d
       -0.12322847 0.023616362 0.18950653 0.07573301
000020 40 22 e8 bd 3c c8 83 3e 23 16 e0 3b 17 bb 06 be
       -0.11334658 0.25738704 0.0068385764 -0.13157307
000030 43 b2 8b 3e 93 22 2e 3d 81 f6 79 3e 9b d6 eb 3d
       0.2728444 0.04251344 0.2441044 0.11515542

layers.elman.hx.weight f4 [16, 22]
000000 7a b4 83 3e 8b 46 50 be 58 53 ee bd 2f ee 60 3f
       0.2572363 -0.2033941 -0.1163699 0.8786344
000010 08 d6 ae 3e a1 45 9e 3e ba b9 a0 3e 83 fc e8 3e
       0.34147668 0.30912498 0.31391698 0.4550515
000020 32 03 f6 3e 90 8c d9 3e c2 44 6f bf b0 b7 68 bf
       0.48049313 0.42490053 -0.9346429 -0.90905285
000030 74 9c 7a bf c4 52 6e 3e 4a b0 da 3e 49 97 a7 3e
       -0.9789498 0.2327376 0.42712623 0.3273261
000040 16 86 f9 bd 2d 6d 33 3d 83 67 1c bd b7 14 ba 3c
       -0.12183778 0.04380529 -0.038184654 0.022714956
000050 68 eb 31 be 44 d3 b1 bc 7b 58 16 3f fb 0b e7 3d
       -0.17374957 -0.021707185 0.5872876 0.11281582
000060 a0 ba a7 bc 28 57 c1 3f 47 42 42 bf bb ee 1c bf
       -0.020474732 1.5104723 -0.7588238 -0.61301774
000070 54 4f 23 bf eb 9f f4 be f0 9a 1d bf 99 53 1f bf
       -0.6379292 -0.47778258 -0.6156454 -0.62236935
000080 90 31 3b bd e8 0a 5e bd 94 95 16 be 11 fb 10 bf
       -0.045701563 -0.05420962 -0.14705497 -0.56633097
000090 3b 6a 1e bf 94 27 18 bf ee 7e 00 3f cd f9 d6 3e
       -0.61880845 -0.5943539 0.5019368 0.41987458
0000a0 cf b2 ff 3e 09 8d e1 3e 68 36 06 3f f9 fd 0d 3f
       0.49941108 0.44052914 0.5242677 0.55465657
0000b0 10 1c a2 bd e8 13 ce 3d 97 2e 2c be 2b 08 f6 3b
       -0.07915509 0.100623906 -0.16814648 0.007508298
0000c0 ee ee 90 bf fc 52 94 bf 7a a6 92 bf 41 88 d9 3e
       -1.1322916 -1.1587825 -1.1457055 0.42486766
0000d0 85 b1 cf 3e f9 06 ba 3e 57 21 58 bf 04 fc 4d bf
       0.40565124 0.36333445 -0.8442587 -0.8046267
0000e0 ca 97 4e bf 0c f3 d2 3e 5c b2 84 3e 03 27 99 3e
       -0.8070036 0.41201055 0.25917327 0.29912576
0000f0 25 dc 23 3f 80 c7 11 3f 6a 12 21 3f 71 90 35 3f
       0.6400779 0.5694504 0.6291872 0.70923525
000100 bc a3 1f 3f 5a ce fb 3e 39 fb 3e bb 0e 13 8c bd
       0.62359214 0.4918087 -0.002914144 -0.06839572
000110 88 f5 46 3e 7c c6 eb 3e 9f df 9c be 44 d9 54 be
       0.194296 0.4604987 -0.3063936 -0.20786005
000120 8a e9 8c be fb 1e 0e 3e 0a 85 8c bd 2e a5 03 bd
       -0.27521926 0.13879006 -0.06861313 -0.03213995
000130 49 a2 42 bf 85 b0 5e bf 28 98 63 bf 90 c6 02 3e
       -0.7602888 -0.869881 -0.88904047 0.12771058
000140 c8 1a e7 3c 27 c8 89 bd d6 98 64 3e 7b 49 dd 3e
       0.028211012 -0.06727629 0.22323927 0.43220124
000150 c2 2b e4 3e d1 b5 83 3e 11 77 d5 3e 9a 27 7f 3e
       0.44564635 0.25724652 0.41692403 0.2491745
000160 4d f4 18 3f 71 62 4b bd e6 79 8e bd b2 86 e5 3f
       0.59747773 -0.049654428 -0.06956844 1.7931731
000170 8c cc 73 3f d9 f1 5a 3f fc b9 60 3f 8f 8a f5 be
       0.9523399 0.8552528 0.8778379 -0.47957274
000180 43 91 1c bf 62 1d 10 bf d3 dc 39 3f a6 63 37 3f
       -0.6115915 -0.56294835 0.72602576 0.71636426
000190 4b 89 42 3f d6 4b 29 bf b5 1d 13 bf 6b bc fc be
       0.7599074 -0.6613134 -0.57467204 -0.49362502
0001a0 63 82 27 bf ce 91 41 bf 7a 63 25 bf 14 f0 3c bf
       -0.6543333 -0.75613105 -0.64604914 -0.7380383
0001b0 6c 37 35 bf f8 fd 3b bf c0 81 ee 3e 6d c4 66 bd
       -0.7078769 -0.734344 0.46583366 -0.05633967
0001c0 1b 75 80 3d 7c 90 a5 3f 7d 57 5c be 18 46 1c be
       0.06272336 1.2934718 -0.21517749 -0.15261114
0001d0 9a 42 87 be 9e 50 02 bf 2c b5 2d bf 5d 3c 18 bf
       -0.26418 -0.5090426 -0.6785457 -0.5946711
0001e0 78 e4 8a be 1e 98 8c be 5f d4 9c be aa 07 25 bf
       -0.27127433 -0.27459806 -0.30630776 -0.6446482
0001f0 44 f2 09 bf 1e 98 04 bf df 9e 08 3f af c2 00 3f
       -0.53885293 -0.5179461 0.5336742 0.50297064
000200 d2 7d c5 3e a3 10 0f 3f 27 a9 e9 3e 22 a0 1e 3f
       0.38572556 0.5588476 0.45636865 0.61963093
000210 5b 4c de be 6f 3e 35 be 14 82 38 3e 5a d9 77 bf
       -0.4341763 -0.17699598 0.18018371 -0.9681603
000220 ec 27 ae 3e ef 51 c0 3e cd 5d 9f 3e 34 a4 f0 bd
       0.34014833 0.3756251 0.31126252 -0.11750069
000230 7e 2a 42 be 32 03 6a be 44 08 dc bd 6c b9 a2 3d
       -0.18961522 -0.22852781 -0.10743764 0.07945523
000240 51 2c ab bd 2a 09 70 3d a3 be 14 be d7 28 8d be
       -0.08358062 0.05860249 -0.14525847 -0.2757022
000250 56 75 ab 3e e4 b1 d8 3e f6 6d cc 3e 2f d3 9e 3e
       0.33487958 0.4232322 0.39927644 0.31020495
000260 b5 df 86 3e bf 61 86 3e 48 a9 70 3e 16 24 28 3e
       0.2634255 0.2624645 0.23502076 0.16420016
000270 e4 2a 1a bd 0f 6e 0f be 62 15 0d bf f9 25 1b bf
       -0.03763856 -0.14006828 -0.5511075 -0.60604817
000280 db 5a 0f bf 5a 20 1b 3f 64 bb b9 3e e7 28 f7 3e
       -0.5599801 0.6059624 0.3627578 0.48273394
000290 fd 02 45 bf 7c 46 4e bf e3 44 4b bf 59 77 12 3f
       -0.76957685 -0.805763 -0.7940199 0.5721336
0002a0 2f ee 14 3f 3d 02 0a 3f 2a 17 ab 3d 15 da 33 bd
       0.5817594 0.53909665 0.083540276 -0.04390915
0002b0 77 d3 4a 3d 32 c4 51 bd 7e f0 9f bc 12 b0 aa 3d
       0.049518075 -0.051212497 -0.019523855 0.08334364
0002c0 05 71 11 3e 5f cb 48 3e b1 fa 02 be e3 7d 56 be
       0.1420327 0.1960883 -0.12790944 -0.2094646
0002d0 df 15 5e 3f 3d d7 5e 3f 96 a3 63 3f e3 0c bb be
       0.8675212 0.8704718 0.8892149 -0.3653327
0002e0 a5 0b fd bd 59 10 c5 be 96 1b d0 be 52 94 d6 be
       -0.12355737 -0.38489035 -0.40646046 -0.41910034
0002f0 94 8e a7 be b8 25 72 be 30 bc 94 bd bf 9c 83 be
       -0.32725966 -0.23647201 -0.072624564 -0.25705525
000300 17 c2 03 3e d8 1f 22 3e 52 ea 83 3e cd d2 e5 3d
       0.12867008 0.1583246 0.2576471 0.11221848
000310 ef e5 08 3d 86 98 11 3e 1d 79 91 be 12 87 98 bd
       0.033422407 0.1421834 -0.28412715 -0.074476376
000320 85 ef 20 be 16 60 fb be 03 09 b1 3e 08 2e 08 3f
       -0.1571637 -0.49096745 0.34577188 0.5319524
000330 81 3a 02 3f ad 21 aa 3e a2 74 d6 3e 84 70 e8 3e
       0.5087052 0.33228818 0.4188586 0.45398343
000340 35 6e 13 3f 03 09 17 3f 56 1b 03 3f 1c f9 e3 3e
       0.5759004 0.58998126 0.51213586 0.44525993
000350 f6 34 d5 3e e9 0e fa 3e 66 ca 69 bf e3 9c 38 bf
       0.41641968 0.488395 -0.9132446 -0.7211439
000360 c6 3c 5e bf 3b 40 42 bf 29 de 5a bf 63 18 62 bf
       -0.8681148 -0.7587926 -0.8549524 -0.8831846
000370 04 eb 02 3f 9f 93 fe bb 12 ca 05 be b1 09 a7 3f
       0.51139855 -0.0077690626 -0.13065365 1.3049833
000380 d0 f3 ce 3d 63 3b fc 3d 3b 32 17 bb 96 08 45 3e
       0.10105097 0.123160146 -0.0023070711 0.19241557
000390 3f c1 ba 3e bb ec 8d 3e 73 b7 bd 3e c2 99 96 3e
       0.3647556 0.27719674 0.37054023 0.29414183
0003a0 77 ab b5 3e dc db ca 3e 9b 81 de 3e 34 88 da 3e
       0.3548238 0.39620864 0.43458256 0.4268204
0003b0 0f f9 65 bf 05 3d 54 bf e9 ee 50 bf 6f b1 4d bf
       -0.8983316 -0.8290561 -0.8161455 -0.8034887
0003c0 3b b5 5f bf 84 c3 5d bf 5d c4 0d bc bf 58 b3 bd
       -0.8738591 -0.8662646 -0.008652774 -0.08757161
0003d0 96 4a 6d 3d a2 f7 9f be 89 1b 1e 3f 1b cc 52 3f
       0.05793246 -0.31243616 0.61760765 0.8234269
0003e0 57 b2 3d 3f 14 aa 56 bb fb c6 e5 3b cb a4 bb 3d
       0.7410025 -0.0032755183 0.0070122457 0.09162291
0003f0 0c b8 c3 3e 1a 25 8b 3e 6d a0 b8 3e 0d dd 8c 3c
       0.38226354 0.27176744 0.36059895 0.017195249

layers.embed.emb.weight f4 [22, 22]
000000 00 00 80 3f 00 00 00 00 00 00 00 00 00 00 00 00
       1.0 0.0 0.0 0.0
000010 00 00 00 00 00 00 00 00 00 00 00 00 00 00 00 00
       0.0 0.0 0.0 0.0
000020 00 00 00 00 00 00 00 00 00 00 00 00 00 00 00 00
       0.0 0.0 0.0 0.0
000030 00 00 00 00 00 00 00 00 00 00 00 00 00 00 00 00
       0.0 0.0 0.0 0.0
000040 00 00 00 00 00 00 00 00 00 00 00 00 00 00 00 00
       0.0 0.0 0.0 0.0
000050 00 00 00 00 00 00 00 00 00 00 00 00 00 00 80 3f
       0.0 0.0 0.0 1.0
000060 00 00 00 00 00 00 00 00 00 00 00 00 00 00 00 00
       0.0 0.0 0.0 0.0
000070 00 00 00 00 00 00 00 00 00 00 00 00 00 00 00 00
       0.0 0.0 0.0 0.0
000080 00 00 00 00 00 00 00 00 00 00 00 00 00 00 00 00
       0.0 0.0 0.0 0.0
000090 00 00 00 00 00 00 00 00 00 00 00 00 00 00 00 00
       0.0 0.0 0.0 0.0
0000a0 00 00 00 00 00 00 00 00 00 00 00 00 00 00 00 00
       0.0 0.0 0.0 0.0
0000b0 00 00 00 00 00 00 00 00 00 00 80 3f 00 00 00 00
       0.0 0.0 1.0 0.0
0000c0 00 00 00 00 00 00 00 00 00 00 00 00 00 00 00 00
       0.0 0.0 0.0 0.0
0000d0 00 00 00 00 00 00 00 00 00 00 00 00 00 00 00 00
       0.0 0.0 0.0 0.0
0000e0 00 00 00 00 00 00 00 00 00 00 00 00 00 00 00 00
       0.0 0.0 0.0 0.0
0000f0 00 00 00 00 00 00 00 00 00 00 00 00 00 00 00 00
       0.0 0.0 0.0 0.0
000100 00 00 00 00 00 00 00 00 00 00 00 00 00 00 00 00
       0.0 0.0 0.0 0.0
000110 00 00 00 00 00 00 80 3f 00 00 00 00 00 00 00 00
       0.0 1.0 0.0 0.0
000120 00 00 00 00 00 00 00 00 00 00 00 00 00 00 00 00
       0.0 0.0 0.0 0.0
000130 00 00 00 00 00 00 00 00 00 00 00 00 00 00 00 00
       0.0 0.0 0.0 0.0
000140 00 00 00 00 00 00 00 00 00 00 00 00 00 00 00 00
       0.0 0.0 0.0 0.0
000150 00 00 00 00 00 00 00 00 00 00 00 00 00 00 00 00
       0.0 0.0 0.0 0.0
000160 00 00 00 00 00 00 00 00 00 00 00 00 00 00 00 00
       0.0 0.0 0.0 0.0
000170 00 00 80 3f 00 00 00 00 00 00 00 00 00 00 00 00
       1.0 0.0 0.0 0.0
000180 00 00 00 00 00 00 00 00 00 00 00 00 00 00 00 00
       0.0 0.0 0.0 0.0
000190 00 00 00 00 00 00 00 00 00 00 00 00 00 00 00 00
       0.0 0.0 0.0 0.0
0001a0 00 00 00 00 00 00 00 00 00 00 00 00 00 00 00 00
       0.0 0.0 0.0 0.0
0001b0 00 00 00 00 00 00 00 00 00 00 00 00 00 00 00 00
       0.0 0.0 0.0 0.0
0001c0 00 00 00 00 00 00 00 00 00 00 00 00 00 00 80 3f
       0.0 0.0 0.0 1.0
0001d0 00 00 00 00 00 00 00 00 00 00 00 00 00 00 00 00
       0.0 0.0 0.0 0.0
0001e0 00 00 00 00 00 00 00 00 00 00 00 00 00 00 00 00
       0.0 0.0 0.0 0.0
0001f0 00 00 00 00 00 00 00 00 00 00 00 00 00 00 00 00
       0.0 0.0 0.0 0.0
000200 00 00 00 00 00 00 00 00 00 00 00 00 00 00 00 00
       0.0 0.0 0.0 0.0
000210 00 00 00 00 00 00 00 00 00 00 00 00 00 00 00 00
       0.0 0.0 0.0 0.0
000220 00 00 00 00 00 00 00 00 00 00 80 3f 00 00 00 00
       0.0 0.0 1.0 0.0
000230 00 00 00 00 00 00 00 00 00 00 00 00 00 00 00 00
       0.0 0.0 0.0 0.0
000240 00 00 00 00 00 00 00 00 00 00 00 00 00 00 00 00
       0.0 0.0 0.0 0.0
000250 00 00 00 00 00 00 00 00 00 00 00 00 00 00 00 00
       0.0 0.0 0.0 0.0
000260 00 00 00 00 00 00 00 00 00 00 00 00 00 00 00 00
       0.0 0.0 0.0 0.0
000270 00 00 00 00 00 00 00 00 00 00 00 00 00 00 00 00
       0.0 0.0 0.0 0.0
000280 00 00 00 00 00 00 80 3f 00 00 00 00 00 00 00 00
       0.0 1.0 0.0 0.0
000290 00 00 00 00 00 00 00 00 00 00 00 00 00 00 00 00
       0.0 0.0 0.0 0.0
0002a0 00 00 00 00 00 00 00 00 00 00 00 00 00 00 00 00
       0.0 0.0 0.0 0.0
0002b0 00 00 00 00 00 00 00 00 00 00 00 00 00 00 00 00
       0.0 0.0 0.0 0.0
0002c0 00 00 00 00 00 00 00 00 00 00 00 00 00 00 00 00
       0.0 0.0 0.0 0.0
0002d0 00 00 00 00 00 00 00 00 00 00 00 00 00 00 00 00
       0.0 0.0 0.0 0.0
0002e0 00 00 80 3f 00 00 00 00 00 00 00 00 00 00 00 00
       1.0 0.0 0.0 0.0
0002f0 00 00 00 00 00 00 00 00 00 00 00 00 00 00 00 00
       0.0 0.0 0.0 0.0
000300 00 00 00 00 00 00 00 00 00 00 00 00 00 00 00 00
       0.0 0.0 0.0 0.0
000310 00 00 00 00 00 00 00 00 00 00 00 00 00 00 00 00
       0.0 0.0 0.0 0.0
000320 00 00 00 00 00 00 00 00 00 00 00 00 00 00 00 00
       0.0 0.0 0.0 0.0
000330 00 00 00 00 00 00 00 00 00 00 00 00 00 00 80 3f
       0.0 0.0 0.0 1.0
000340 00 00 00 00 00 00 00 00 00 00 00 00 00 00 00 00
       0.0 0.0 0.0 0.0
000350 00 00 00 00 00 00 00 00 00 00 00 00 00 00 00 00
       0.0 0.0 0.0 0.0
000360 00 00 00 00 00 00 00 00 00 00 00 00 00 00 00 00
       0.0 0.0 0.0 0.0
000370 00 00 00 00 00 00 00 00 00 00 00 00 00 00 00 00
       0.0 0.0 0.0 0.0
000380 00 00 00 00 00 00 00 00 00 00 00 00 00 00 00 00
       0.0 0.0 0.0 0.0
000390 00 00 00 00 00 00 00 00 00 00 80 3f 00 00 00 00
       0.0 0.0 1.0 0.0
0003a0 00 00 00 00 00 00 00 00 00 00 00 00 00 00 00 00
       0.0 0.0 0.0 0.0
0003b0 00 00 00 00 00 00 00 00 00 00 00 00 00 00 00 00
       0.0 0.0 0.0 0.0
0003c0 00 00 00 00 00 00 00 00 00 00 00 00 00 00 00 00
       0.0 0.0 0.0 0.0
0003d0 00 00 00 00 00 00 00 00 00 00 00 00 00 00 00 00
       0.0 0.0 0.0 0.0
0003e0 00 00 00 00 00 00 00 00 00 00 00 00 00 00 00 00
       0.0 0.0 0.0 0.0
0003f0 00 00 00 00 00 00 80 3f 00 00 00 00 00 00 00 00
       0.0 1.0 0.0 0.0

layers.lm_head.proj.bias f4 [22]
000000 ec 5c 89 bf 26 fe 7d bf 66 7b 87 bf 1e 94 db 3e
       -1.0731483 -0.99215925 -1.0584533 0.42886442
000010 af 38 2f 3d e1 b3 6d bd ca 18 06 3d 7d a4 2c 3e
       0.042778667 -0.058032874 0.032738484 0.16859622
000020 5b 6e 9a 3e 55 2b 9d 3e 2d 14 1b bd b8 40 b7 3b
       0.3016232 0.30697122 -0.037861038 0.005592432
000030 f7 4e 66 3c 4f f6 3d 3e ba cb 1d 3d cd 6f aa 3c
       0.014056913 0.1855099 0.038524367 0.020805264
000040 0f f4 c2 3e e0 a0 6d 3e 7c fb 42 3e fa 22 d1 3d
       0.38076827 0.232059 0.19041246 0.102117494
000050 f5 59 1c 3e 0f 2b df 3e
       0.15268691 0.4358754

layers.lm_head.proj.weight f4 [22, 16]
000000 6e f2 7e be 2a 99 3b 3e 14 bb f5 3d bf 3b fd be
       -0.24897167 0.18320146 0.11998573 -0.49459645
000010 ee 4b 83 3d a0 5a d6 3d 88 0b f5 be 1d ce 00 3f
       0.06410967 0.10466504 -0.4786036 0.50314504
000020 0f 2e 48 3e 8e 4b 63 be 8e b8 7d 3d 31 b7 12 3f
       0.1954882 -0.2219679 0.061943583 0.5731078
000030 b1 c9 11 be 8b 29 29 3e 81 04 c9 bc bb b1 43 3e
       -0.14237095 0.16519754 -0.02453828 0.19110768
000040 0e 9e d2 3d a3 1c 96 3e e8 5f 4a be 78 af fe be
       0.10284053 0.29318723 -0.19763148 -0.49743247
000050 23 b6 8d bc 27 c3 1f be e8 ad be be 26 e5 25 3f
       -0.017298764 -0.15601788 -0.37242055 0.6480278
000060 49 5d c4 3d 71 b9 b2 be a7 8d 57 3d 41 a7 2b 3f
       0.09588105 -0.34907106 0.052625325 0.67052084
000070 36 45 24 3e 50 cb 56 3e 34 c2 a3 bd aa 6f c0 bd
       0.16042027 0.20975995 -0.07996026 -0.09396298
000080 c7 16 e9 3b 1b 27 c5 bc 2b e8 89 be 5f 45 fa bd
       0.007113311 -0.024066499 -0.26934943 -0.12220263
000090 13 3d 03 be 31 6f 51 be b3 77 b2 be e4 9a 21 3f
       -0.12816267 -0.20452572 -0.34856948 0.6312697
0000a0 09 b9 ff 3e 17 d4 ad be 84 aa 74 3e 53 69 86 3e
       0.49945858 -0.33950874 0.23893172 0.2625223
0000b0 5a 43 ae bd 6b cc 66 3e bc 7d f4 bd eb 23 31 be
       -0.0850894 0.22538917 -0.119380444 -0.17298858
0000c0 81 1a 81 3f fa 2f fc bf d5 4f 8f 3f f0 63 60 3e
       1.0086213 -1.9702141 1.1196238 0.21913123
0000d0 bd a7 ea bf 08 29 f9 bf 8e e1 b3 be c1 4c b8 3f
       -1.833244 -1.9465647 -0.35133022 1.4398423
0000e0 b2 d5 70 bf df 21 bc 3f e4 1f 56 3f e4 11 53 be
       -0.94076073 1.4697837 0.8364241 -0.20612293
0000f0 0e b7 2d c0 93 5b 61 3e 9f e2 d1 3e 62 e7 ad 3f
       -2.7142978 0.22007589 0.4099321 1.3586237
000100 d0 f3 71 3e 5d 4e 47 3f 47 ee be 3e d5 d3 5c 3e
       0.23628163 0.7785395 0.37291166 0.21565183
000110 6d e7 6f 3f b9 65 34 3f 5c 1f bf be 77 60 f8 3c
       0.937125 0.70467716 -0.37328613 0.030319436
000120 7e b4 3f bd 1c 4a ed bd 5c 2e 2c 3f 7f 5d 68 be
       -0.04680299 -0.11586401 0.6725824 -0.22691916
000130 e9 94 26 bf a0 28 91 3e 3e b2 91 bf 48 81 05 bf
       -0.6507097 0.28351307 -1.138252 -0.5215039
000140 b8 b9 fc 3e 3d ae 2c 3f 11 46 18 3e 78 23 93 3e
       0.49360442 0.67453367 0.14870478 0.28737998
000150 cc 7d 70 3f 18 51 32 3f b8 51 c5 be 47 03 1e b9
       0.9394195 0.6965499 -0.3853891 -0.00015069275
000160 a4 85 7a be 47 05 ad be f0 3e 52 3f 86 84 97 be
       -0.24465042 -0.3379309 0.82127285 -0.29593295
000170 4d 35 01 bf c7 98 a2 3e 23 6d 7e bf bf 88 e3 be
       -0.50471956 0.31757185 -0.9938528 -0.44440266
000180 3c 4e 0b 3f a8 c9 48 3f dd 0c ce 3d 59 76 7a 3e
       0.5441625 0.78432703 0.10061047 0.24459209
000190 f5 bf 83 3f ea 29 9c 3e fe bc ed be 1b a7 0f 3e
       1.0292956 0.30500728 -0.46433252 0.1402859
0001a0 82 f7 88 be 2c 0d 7e be dc 3f 1d 3f af c0 ad be
       -0.26751333 -0.24809712 0.61425567 -0.33936068
0001b0 96 ca 3c bf 55 84 33 3d ef 1b 8c bf db 64 0c bf
       -0.7374662 0.043827374 -1.0946025 -0.54841393
0001c0 c2 06 d1 be 83 f3 66 3f 91 46 47 3f be 73 61 3f
       -0.40825468 0.9021532 0.7784205 0.88067234
0001d0 58 c1 9f bf e3 f2 54 3f 80 bb 21 3e 0b 5f b3 3e
       -1.2480879 0.83183116 0.15794182 0.3503345
0001e0 ec 7a 0e 3f 1e d2 bf be 3f 4d 9a bf e2 16 58 be
       0.55656314 -0.37464994 -1.2054824 -0.21102479
0001f0 77 bb 2f 3f 39 b3 4f bf b7 4e ca 3e 8d 55 12 bf
       0.68645424 -0.8113285 0.3951318 -0.5716179
000200 a8 b4 74 be 35 d8 06 3f 0d f2 1f 3f 91 e6 58 3f
       -0.2389704 0.52673656 0.62478715 0.84726816
000210 3e af 99 bf d5 d1 5f 3f 97 37 72 3e e2 ba 17 3f
       -1.2006605 0.87429553 0.23654018 0.59269536
000220 75 32 34 3f 47 15 3f bf 28 66 90 bf d8 83 88 be
       0.7038949 -0.7464184 -1.1281176 -0.2666309
000230 b8 e4 10 3f 6f 23 26 bf 68 ac 08 3f f0 c9 2d bf
       0.56599 -0.6489782 0.5338807 -0.6788626
000240 c8 70 ec be c8 12 66 3f d7 9a fb 3e 8a 08 44 3f
       -0.46179795 0.8987241 0.4914157 0.7657553
000250 ea a1 b5 bf bc 9b 26 3f b8 71 a2 3e 22 bd a5 3e
       -1.4190037 0.6508138 0.31727386 0.3237086
000260 d3 3b 5b 3f ed d0 3d bf 30 6d 6b bf 41 21 a4 be
       0.8563816 -0.7414692 -0.9196348 -0.3205662
000270 cc 20 a2 3e bb d9 4c bf ea 94 1e 3f ec c8 32 bf
       0.31665647 -0.8001973 0.61945975 -0.6983783
000280 23 17 0b 3f 74 27 86 3f fa 24 61 3d 8b e2 cd 3e
       0.5433218 1.048079 0.054966904 0.402119
000290 7a 61 83 3f 94 e9 e0 3e 26 c0 c7 be f4 48 d8 3d
       1.0264122 0.43928206 -0.39013785 0.1056079
0002a0 ad 19 b5 be 6d d6 41 be ae f1 33 3f 60 40 64 bd
       -0.35371152 -0.18929453 0.7029065 -0.055725455
0002b0 22 27 22 bf a9 39 d8 3c ac c0 72 bf 5f b1 e6 be
       -0.6334096 0.026394682 -0.94825244 -0.45057198
0002c0 b2 d7 28 3f d7 20 44 3f 0b 8f ef 3d bc a0 9c 3e
       0.65954125 0.7661261 0.11697205 0.3059138
0002d0 78 15 88 3f 45 7e 05 3f 6d 3b de be cf e0 fb 3d
       1.0631552 0.52145797 -0.43404713 0.12298738
0002e0 39 56 0b be 87 fc 9b be d3 52 0a 3f cb bc 2b be
       -0.1360711 -0.304661 0.5403263 -0.16771238
0002f0 c0 85 21 bf 81 9d 42 3e 52 a5 79 bf 01 d1 22 bf
       -0.6309471 0.19005395 -0.97517884 -0.63600165
000300 22 a8 ae 3e 6f e6 1f 3f 52 99 8f 3d 76 14 c5 3e
       0.3411265 0.6246099 0.070116654 0.38492173
000310 89 0a 87 3f 0c da 2e 3f f6 fe 13 bf e3 3f fc 3d
       1.055009 0.68301463 -0.57810915 0.12316873
000320 8b 4f 9a be 73 df 5c be d2 6a 06 3f 68 5f 96 be
       -0.3013881 -0.21569614 0.52506745 -0.29369664
000330 e3 5c 43 bf 52 3d 67 3e 1a 9b 85 bf 70 bb a4 be
       -0.7631361 0.22581986 -1.0437958 -0.32174253
000340 05 0f 4c 3e d9 ec cb be 77 b3 5f 3f 1d 89 5b 3e
       0.19927604 -0.39829138 0.87383217 0.21439023
000350 2a 39 69 bf 37 86 55 be c3 5b 2c 3f 02 49 9f be
       -0.9110285 -0.2085198 0.6732752 -0.31110388
000360 02 b1 5c bf 58 b3 7e bf e0 e4 8e bf 8e 78 0d bf
       -0.8620759 -0.99492407 -1.1163597 -0.55262077
000370 5f 5c e6 3e 33 6b 8b bf 86 13 00 3f e6 47 2d 3f
       0.4499235 -1.089209 0.5002979 0.67687833
000380 13 7c 85 3e 56 38 4a be d2 cb 89 3f d7 84 c7 3d
       0.26071224 -0.19748053 1.0765326 0.09742134
000390 de 9a 57 bf 53 1f 8f be 2d b6 38 3f 86 59 ea be
       -0.84220684 -0.27953586 0.7215298 -0.45771426
0003a0 96 e1 0b bf 06 c6 38 bf 8a d5 aa bf f7 38 3c bf
       -0.5464109 -0.7217716 -1.3346417 -0.7352442
0003b0 dd a1 09 3e 45 34 86 bf 49 83 44 3f 33 e5 44 3f
       0.13440652 -1.0484701 0.76762825 0.7691223
0003c0 e2 e1 93 3e af a8 c1 bd d5 40 98 3f 4e a3 5f 3d
       0.28883272 -0.09456002 1.1894785 0.0545991
0003d0 64 2a 84 bf 7b ed 91 be fc 99 59 3f b7 84 ba be
       -1.0325437 -0.28501496 0.85000587 -0.36429378
0003e0 71 40 49 bf bf 3c 49 bf 00 41 8e bf a3 ec 16 bf
       -0.78613955 -0.78608316 -1.1113586 -0.5895483
0003f0 21 c1 be 3e 87 be 5e bf 25 25 12 3f 6f 52 48 3f
       0.3725672 -0.8700947 0.5708793 0.78250784
