jordan_elman_2024/exp4/jordan_item_level/run_4/export/model.safetensors (safetensors, 6976 bytes, 7 tensors)

layers.embed.emb.weight f4 [22, 22]
000000 00 00 80 3f 00 00 00 00 00 00 00 00 00 00 00 00
       1.0 0.0 0.0 0.0
000010 00 00 00 00 00 00 00 00 00 00 00 00 00 00 00 00
       0.0 0.0 0.0 0.0
000020 00 00 00 00 00 00 00 00 00 00 00 00 00 00 00 00
       0.0 0.0 0.0 0.0
000030 00 00 00 00 00 00 00 00 00 00 00 00 00 00 00 00
       0.0 0.0 0.0 0.0
000040 00 00 00 00 00 00 00 00 00 00 00 00 00 00 00 00
       0.0 0.0 0.0 0.0
000050 00 00 00 00 00 00 00 00 00 00 00 00 00 00 80 3f
       0.0 0.0 0.0 1.0
000060 00 00 00 00 00 00 00 00 00 00 00 00 00 00 00 00
       0.0 0.0 0.0 0.0
000070 00 00 00 00 00 00 00 00 00 00 00 00 00 00 00 00
       0.0 0.0 0.0 0.0
000080 00 00 00 00 00 00 00 00 00 00 00 00 00 00 00 00
       0.0 0.0 0.0 0.0
000090 00 00 00 00 00 00 00 00 00 00 00 00 00 00 00 00
       0.0 0.0 0.0 0.0
0000a0 00 00 00 00 00 00 00 00 00 00 00 00 00 00 00 00
       0.0 0.0 0.0 0.0
0000b0 00 00 00 00 00 00 00 00 00 00 80 3f 00 00 00 00
       0.0 0.0 1.0 0.0
0000c0 00 00 00 00 00 00 00 00 00 00 00 00 00 00 00 00
       0.0 0.0 0.0 0.0
0000d0 00 00 00 00 00 00 00 00 00 00 00 00 00 00 00 00
       0.0 0.0 0.0 0.0
0000e0 00 00 00 00 00 00 00 00 00 00 00 00 00 00 00 00
       0.0 0.0 0.0 0.0
0000f0 00 00 00 00 00 00 00 00 00 00 00 00 00 00 00 00
       0.0 0.0 0.0 0.0
000100 00 00 00 00 00 00 00 00 00 00 00 00 00 00 00 00
       0.0 0.0 0.0 0.0
000110 00 00 00 00 00 00 80 3f 00 00 00 00 00 00 00 00
       0.0 1.0 0.0 0.0
000120 00 00 00 00 00 00 00 00 00 00 00 00 00 00 00 00
       0.0 0.0 0.0 0.0
000130 00 00 00 00 00 00 00 00 00 00 00 00 00 00 00 00
       0.0 0.0 0.0 0.0
000140 00 00 00 00 00 00 00 00 00 00 00 00 00 00 00 00
       0.0 0.0 0.0 0.0
000150 00 00 00 00 00 00 00 00 00 00 00 00 00 00 00 00
       0.0 0.0 0.0 0.0
000160 00 00 00 00 00 00 00 00 00 00 00 00 00 00 00 00
       0.0 0.0 0.0 0.0
000170 00 00 80 3f 00 00 00 00 00 00 00 00 00 00 00 00
       1.0 0.0 0.0 0.0
000180 00 00 00 00 00 00 00 00 00 00 00 00 00 00 00 00
       0.0 0.0 0.0 0.0
000190 00 00 00 00 00 00 00 00 00 00 00 00 00 00 00 00
       0.0 0.0 0.0 0.0
0001a0 00 00 00 00 00 00 00 00 00 00 00 00 00 00 00 00
       0.0 0.0 0.0 0.0
0001b0 00 00 00 00 00 00 00 00 00 00 00 00 00 00 00 00
       0.0 0.0 0.0 0.0
0001c0 00 00 00 00 00 00 00 00 00 00 00 00 00 00 80 3f
       0.0 0.0 0.0 1.0
0001d0 00 00 00 00 00 00 00 00 00 00 00 00 00 00 00 00
       0.0 0.0 0.0 0.0
0001e0 00 00 00 00 00 00 00 00 00 00 00 00 00 00 00 00
       0.0 0.0 0.0 0.0
0001f0 00 00 00 00 00 00 00 00 00 00 00 00 00 00 00 00
       0.0 0.0 0.0 0.0
000200 00 00 00 00 00 00 00 00 00 00 00 00 00 00 00 00
       0.0 0.0 0.0 0.0
000210 00 00 00 00 00 00 00 00 00 00 00 00 00 00 00 00
       0.0 0.0 0.0 0.0
000220 00 00 00 00 00 00 00 00 00 00 80 3f 00 00 00 00
       0.0 0.0 1.0 0.0
000230 00 00 00 00 00 00 00 00 00 00 00 00 00 00 00 00
       0.0 0.0 0.0 0.0
000240 00 00 00 00 00 00 00 00 00 00 00 00 00 00 00 00
       0.0 0.0 0.0 0.0
000250 00 00 00 00 00 00 00 00 00 00 00 00 00 00 00 00
       0.0 0.0 0.0 0.0
000260 00 00 00 00 00 00 00 00 00 00 00 00 00 00 00 00
       0.0 0.0 0.0 0.0
000270 00 00 00 00 00 00 00 00 00 00 00 00 00 00 00 00
       0.0 0.0 0.0 0.0
000280 00 00 00 00 00 00 80 3f 00 00 00 00 00 00 00 00
       0.0 1.0 0.0 0.0
000290 00 00 00 00 00 00 00 00 00 00 00 00 00 00 00 00
       0.0 0.0 0.0 0.0
0002a0 00 00 00 00 00 00 00 00 00 00 00 00 00 00 00 00
       0.0 0.0 0.0 0.0
0002b0 00 00 00 00 00 00 00 00 00 00 00 00 00 00 00 00
       0.0 0.0 0.0 0.0
0002c0 00 00 00 00 00 00 00 00 00 00 00 00 00 00 00 00
       0.0 0.0 0.0 0.0
0002d0 00 00 00 00 00 00 00 00 00 00 00 00 00 00 00 00
       0.0 0.0 0.0 0.0
0002e0 00 00 80 3f 00 00 00 00 00 00 00 00 00 00 00 00
       1.0 0.0 0.0 0.0
0002f0 00 00 00 00 00 00 00 00 00 00 00 00 00 00 00 00
       0.0 0.0 0.0 0.0
000300 00 00 00 00 00 00 00 00 00 00 00 00 00 00 00 00
       0.0 0.0 0.0 0.0
000310 00 00 00 00 00 00 00 00 00 00 00 00 00 00 00 00
       0.0 0.0 0.0 0.0
000320 00 00 00 00 00 00 00 00 00 00 00 00 00 00 00 00
       0.0 0.0 0.0 0.0
000330 00 00 00 00 00 00 00 00 00 00 00 00 00 00 80 3f
       0.0 0.0 0.0 1.0
000340 00 00 00 00 00 00 00 00 00 00 00 00 00 00 00 00
       0.0 0.0 0.0 0.0
000350 00 00 00 00 00 00 00 00 00 00 00 00 00 00 00 00
       0.0 0.0 0.0 0.0
000360 00 00 00 00 00 00 00 00 00 00 00 00 00 00 00 00
       0.0 0.0 0.0 0.0
000370 00 00 00 00 00 00 00 00 00 00 00 00 00 00 00 00
       0.0 0.0 0.0 0.0
000380 00 00 00 00 00 00 00 00 00 00 00 00 00 00 00 00
       0.0 0.0 0.0 0.0
000390 00 00 00 00 00 00 00 00 00 00 80 3f 00 00 00 00
       0.0 0.0 1.0 0.0
0003a0 00 00 00 00 00 00 00 00 00 00 00 00 00 00 00 00
       0.0 0.0 0.0 0.0
0003b0 00 00 00 00 00 00 00 00 00 00 00 00 00 00 00 00
       0.0 0.0 0.0 0.0
0003c0 00 00 00 00 00 00 00 00 00 00 00 00 00 00 00 00
       0.0 0.0 0.0 0.0
0003d0 00 00 00 00 00 00 00 00 00 00 00 00 00 00 00 00
       0.0 0.0 0.0 0.0
0003e0 00 00 00 00 00 00 00 00 00 00 00 00 00 00 00 00
       0.0 0.0 0.0 0.0
0003f0 00 00 00 00 00 00 80 3f 00 00 00 00 00 00 00 00
       0.0 1.0 0.0 0.0

layers.jordan.hx.bias f4 [16]
000000 4d 46 61 3e 57 70 88 3e b6 ab a8 bd 8f 57 b3 3d
       0.21999474 0.26648208 -0.08235876 0.08756935
000010 11 c5 33 3e 31 20 4e bd 07 27 53 3e 46 57 b9 be
       0.17555644 -0.05032367 0.20620357 -0.36199397
000020 e3 40 ff 3c f6 b4 73 3e 67 c0 8f bd 1b fa 6c bd
       0.03115887 0.237995 -0.0701912 -0.057855707
000030 ac 46 36 3e 46 6b 88 bb 92 94 a4 bb db fe b1 3d
       0.17800397 -0.0041631786 -0.005022594 0.08691188

layers.jordan.hx.weight f4 [16, 22]
000000 1f 01 4e bf 80 3f 4f 3f 5c 71 fe be 8c 3d 5c 3f
       -0.8047046 0.8095627 -0.4969586 0.86031413
000010 ba a9 6d 3e f0 ac 85 3e 98 17 5a 3f 52 52 67 3f
       0.23209277 0.26108503 0.8519225 0.90359986
000020 ea 3b 4d 3f 35 79 96 be bf 1f a6 bd 97 6c 17 be
       0.80169547 -0.2938935 -0.08111524 -0.14787517
000030 67 03 c1 3e 82 d1 1b 3f fc 97 7f 3f 6f a6 14 bd
       0.37697908 0.6086656 0.99841285 -0.036291536
000040 e1 12 29 3f 80 ea 79 3f e0 b7 64 bf 7d f4 66 bd
       0.6604443 0.97623444 -0.8934307 -0.056385506
000050 c0 8d e1 3d 04 16 48 bf ae ed 0b 3f aa 43 5d bf
       0.11013365 -0.78158593 0.54659545 -0.8643137
000060 f0 a2 c9 be cf dc 19 3f 73 74 c9 3d cd 82 28 bf
       -0.39382124 0.6010255 0.09836664 -0.65824586
000070 53 c4 0e bf e7 48 e1 3e 42 e2 4f bd 53 03 3d 3f
       -0.55768317 0.44000933 -0.050752886 0.738332
000080 b8 12 46 bf d5 32 3a bf 91 8c 01 3f f4 12 3a 3f
       -0.7737231 -0.72733814 0.5060511 0.7268517
000090 cd ef bd 3e 3c b4 38 3f 5b c6 5c bf 94 71 0b be
       0.37097016 0.72150016 -0.86240166 -0.13617545
0000a0 c5 5f 79 3f e6 a3 ff 3e e6 6c 93 be 5b b8 50 3f
       0.9741176 0.49929732 -0.2879402 0.81531304
0000b0 64 f4 3e 3d a8 6a 1e be ec 3a 7f 3f fb 25 90 be
       0.046619788 -0.15470374 0.9969928 -0.28153977
0000c0 eb db 48 bf cd 91 02 3e 02 d1 ce bd ee 98 3b 3e
       -0.7846057 0.12750931 -0.10098459 0.18320057
0000d0 5f 3a b2 3c be 09 4b bf a1 5c ea be 99 06 a5 3e
       0.02175635 -0.7931174 -0.45773795 0.32231596
0000e0 28 26 50 3e 21 ba 4b 3f a7 26 50 bf 6f 4c 15 3f
       0.20327055 0.79580885 -0.8130898 0.58319753
0000f0 79 b4 d0 3e b4 e4 c9 be 52 48 36 3f 81 1d 6c bf
       0.4076269 -0.394323 0.712041 -0.9223252
000100 0b 87 7f bf 5e 6a 2c bf 9d 9d 33 3f 40 fd fe bc
       -0.99815434 -0.67349803 0.70162374 -0.031126618
000110 18 c2 4b 3e 10 63 42 be 77 16 eb 3e 95 3d 02 be
       0.1989826 -0.18983102 0.45915577 -0.12718804
000120 1b 68 18 bf af f4 0c be 96 97 cd be 2d 5c 3c 3f
       -0.5953385 -0.13765214 -0.40154713 0.7357815
000130 da e5 20 3f 79 95 fb 3e 46 50 4a be bd ba 0a 3f
       0.62850726 0.49137476 -0.19757184 0.5419119
000140 a3 69 07 bf 53 97 0f 3f 56 a5 04 bf 53 f0 9d 3b
       -0.52895564 0.5609028 -0.5181478 0.0048199086
000150 5f 5b 9e be 5e 86 60 bf f7 26 60 be f4 b3 28 3d
       -0.30929086 -0.8770503 -0.21889864 0.04118724
000160 ac 11 bc be 48 12 13 be 90 bd 2e 3f 77 31 72 3e
       -0.36732233 -0.14362442 0.68258 0.23651682
000170 aa ce f6 bd 9a de 26 3f 6d 32 60 3f 4c 69 01 3f
       -0.12051137 0.65183413 0.87576944 0.50551295
000180 8c bf 06 3f f3 ec 2d 3f ef 3f 1c be 61 52 6b 3f
       0.5263603 0.6793968 -0.15258764 0.91922575
000190 98 03 02 be eb d4 f7 bd a1 79 14 3f 8a 58 f9 3e
       -0.12696683 -0.12101158 0.5799809 0.48700362
0001a0 3b 07 a3 be 62 5a 07 3d cc 27 64 bf 2c 63 84 be
       -0.31841454 0.03304518 -0.89123225 -0.25856912
0001b0 c5 45 96 be e2 78 3d 3f e5 12 3c 3f 58 8d 24 3f
       -0.29350105 0.7401258 0.7346633 0.64278173
0001c0 4c 7c a1 3e 5a f2 1f 3f 90 cd 4f be f1 7e 35 bd
       0.31540143 0.62479174 -0.2029326 -0.044310514
0001d0 32 c8 cb 3d 42 23 0c 3f 9c 20 15 3f 8d 3e 36 3f
       0.099502936 0.547413 0.5825288 0.71189195
0001e0 a4 25 6a 3f 5f 88 41 bf df 38 a7 3e df ff 80 3f
       0.91463685 -0.7559871 0.32660577 1.0078086
0001f0 8f 0e 72 be d3 da 3c 3f 93 c6 03 bf 70 b1 d9 3e
       -0.23638366 0.737714 -0.51474875 0.42518187
000200 0f 17 0d 3d 2f 88 3c bf 03 c2 9d 3e 4d 2d af bc
       0.03444582 -0.736453 0.30812082 -0.021383906
000210 f1 2d a7 3e d8 45 cc be 1e 95 08 3f 90 d5 65 bf
       0.32652238 -0.39897037 0.53352535 -0.89778996
000220 4f 28 f7 be 84 c0 4c 3f 16 1f c3 bd c8 2c de be
       -0.4827294 0.79981256 -0.095274135 -0.4339354
000230 88 53 d1 3e 8f f0 35 3d 3d d7 95 3e a9 b8 2c 3f
       0.40884042 0.044418868 0.29265776 0.6746927
000240 60 7a b5 be 48 52 c6 3e aa 02 74 3f e5 c5 72 3f
       -0.35444927 0.3873465 0.95316565 0.94833213
000250 3d 40 67 bf d1 70 a3 3e b9 59 05 bf 98 7e 5b bf
       -0.90332395 0.3192201 -0.5209003 -0.8574004
000260 68 45 01 3f e5 d5 c1 3e 72 47 dc be 9a 30 3f bf
       0.5049653 0.378585 -0.43023258 -0.74683535
000270 b4 4d 53 3f e8 71 17 bf ae 76 05 3f af d0 64 bf
       0.8254044 -0.5915818 0.52134216 -0.89380926
000280 8f ec f1 bd 81 25 77 bf a8 cd be be 71 78 ff 3e
       -0.11812698 -0.965416 -0.37266278 0.49896577
000290 ee c9 e6 bd 43 07 b9 be 76 c8 6f bf 29 2d 45 be
       -0.11268984 -0.36138353 -0.93665254 -0.19255508
0002a0 6e f2 6b bf 5f 8d 43 3e 90 e9 07 be 3d 07 0f 3f
       -0.92166793 0.19096898 -0.13272691 0.5587042
0002b0 0c 51 2d bf 47 20 47 3e e2 8a 13 bd b8 9d 9d be
       -0.6770179 0.19445907 -0.03602112 -0.30784392
0002c0 79 d1 bf 3d c0 5e 9a 3e 20 22 4e 3d 7a 39 2f 3f
       0.093661256 0.30150414 0.050325513 0.6844708
0002d0 49 db 52 bf b8 24 14 3d 95 5e 31 3c 8c fe 4d 3f
       -0.8236585 0.03616783 0.010825773 0.8046653
0002e0 4c 71 5f bf 8e de 62 bf f2 d0 9d 3c 67 a4 07 3f
       -0.8728225 -0.8862084 0.019264672 0.52985233
0002f0 8c 11 4b 3f 24 26 69 3f a7 87 46 bf 82 ce 39 3e
       0.7932365 0.9107382 -0.7755074 0.18145183
000300 31 ba 82 bf 8e d2 f4 be 40 5a 18 bf 82 55 61 be
       -1.0213071 -0.4781689 -0.5951271 -0.22005275
000310 68 94 81 bf f7 96 d2 3e a0 f5 f1 3e 26 ce 2d bf
       -1.0123415 0.41130802 0.4725771 -0.6789268
000320 3c 0e fe be 7d f8 87 3f 85 a9 c7 bd 07 1c 82 3e
       -0.49620235 1.0622708 -0.0974913 0.25412008
000330 b3 39 1d 3f 6c 27 21 3f e9 ee d4 3e 79 4b fc 3e
       0.6141617 0.6295078 0.41588524 0.4927633
000340 3e c9 36 3f 95 22 32 3b 1e 4b be 3e c7 50 37 bf
       0.7140082 0.0027181257 0.37166685 -0.7160763
000350 4c 93 2d bf 70 09 8b 3e e7 51 23 bf e2 8b 25 3f
       -0.6780288 0.27155638 -0.6379685 0.6466657
000360 50 af 00 bf 79 f3 c3 3e 89 b3 43 bf 1b e5 86 be
       -0.50267506 0.38271692 -0.76445824 -0.2634667
000370 d3 10 06 3e 1e 19 1f 3f 4c ca 8b 3e 92 2a 83 be
       0.13092355 0.621477 0.27302778 -0.25618416
000380 21 b0 e6 be 3c cd 5c be bb 0d 3d 3e 36 1a 9e 3e
       -0.4505625 -0.21562666 0.18462269 0.30879372
000390 4f 32 19 3f 8d 34 ea 3e 85 33 2c 3e d0 e7 23 bf
       0.5984239 0.45743218 0.16816528 -0.6402559
0003a0 3c 0f 85 3e 53 96 2c be f5 47 66 3f c1 29 53 bf
       0.25988185 -0.16854219 0.8995355 -0.82485586
0003b0 f9 b3 0c bf 02 1b 31 3f b3 d5 27 3f 6c 37 fa bc
       -0.54962116 0.69181836 0.65560454 -0.030544005
0003c0 04 3e 02 3e e8 f7 89 be 29 26 9f bf 12 69 69 3f
       0.1271897 -0.2694695 -1.243352 0.9117595
0003d0 c8 8a 7f be 15 6a c6 be 95 2c 27 be 7c 5a 5e 3f
       -0.24955285 -0.3875281 -0.163256 0.8685682
0003e0 96 fd 71 3f 57 65 87 be 61 21 80 3f bf a5 17 3d
       0.94527566 -0.26444504 1.0010186 0.037023302
0003f0 44 96 c5 3e 2d a6 f3 3e 0b fa 92 3e 27 af 2e 3f
       0.38591206 0.4758772 0.28706393 0.6823601

layers.jordan.hy.bias f4 [16]
000000 34 95 70 3d ec 59 8c 3e 33 3d 07 3e 98 9e 72 3e
       0.05873604 0.27412355 0.1320694 0.23693311
000010 d9 2c 25 3e a8 28 98 3e 65 c2 b1 bc 44 2d 11 be
       0.1613039 0.29718518 -0.02169914 -0.14177424
000020 d6 1b bb 3e 2a de 87 3d 36 1b 1b 3d 75 ad 86 3e
       0.36544675 0.06634171 0.037867747 0.26304212
000030 88 08 34 3e 9f c9 b2 3d 7b 65 a9 bc 04 d0 b0 3e
       0.1758138 0.087298624 -0.020678272 0.34533703

layers.jordan.hy.weight f4 [16, 22]
000000 69 ee ff 3d 32 7f 20 3e 18 0d 65 3d 24 c4 16 3e
       0.12496645 0.15673521 0.05592069 0.14723259
000010 5d e8 b0 bd 6d ee b7 bc 8d f2 81 be 96 f9 b4 3d
       -0.0863807 -0.022452557 -0.25380364 0.08836667
000020 86 ef cc 3d 74 a6 cb 3e 90 a4 68 be a7 43 67 be
       0.10006623 0.3977543 -0.22719026 -0.22584401
000030 e5 75 3b be 9c 1d 7b 3e aa 1e 78 3d af 8c 79 3e
       -0.18306692 0.24523014 0.06057612 0.24370073
000040 a4 1f c0 bb 2f eb 95 3d 7c fc c2 bd 0f 97 3f be
       -0.005863147 0.07320248 -0.09520814 -0.18709968
000050 50 35 ca 3d fd f9 84 bd 47 84 57 bd 1a d6 89 bd
       0.0987345 -0.06492994 -0.052616384 -0.0673029
000060 02 bc 98 3d e6 c5 3e bd a4 9d 92 bd b7 42 19 be
       0.07457735 -0.04657545 -0.07158974 -0.14966856
000070 c0 1e 0c be c8 d7 ba 3c 1f 74 d3 bd 1c 98 99 3e
       -0.13683605 0.02280797 -0.10324883 0.29998863
000080 ad 0b 91 bd c5 e5 aa 3b ac 88 11 be f2 c1 06 bc
       -0.07082305 0.005215379 -0.14212292 -0.008224951
000090 13 7a 48 3e 33 f8 c9 3c 87 95 d4 3d 65 d8 09 3e
       0.19577818 0.024654483 0.103800826 0.13461454
0000a0 0f f6 be bd 2b 97 04 3c 05 a2 06 be 7a c9 b4 3e
       -0.09324276 0.008092682 -0.13147743 0.35309964
0000b0 05 d7 32 3e 76 c9 cb 3e 6b 68 7f 3c 08 a9 3b be
       0.17464836 0.3980214 0.01558886 -0.18326199
0000c0 e7 71 d2 be 3c 99 da be c5 a5 30 bd 5e a9 c5 3e
       -0.41102526 -0.42695034 -0.04312684 0.3860578
0000d0 07 4e 6b 3e 81 cf fb 3e 7d 4b ee be f9 e5 02 3c
       0.22978984 0.4918175 -0.46541968 0.0079894
0000e0 eb 3b 90 be f4 cf ab 3e e7 2a de 3e 2a d9 bf 3e
       -0.28170714 0.33557093 0.43392107 0.3747037
0000f0 83 4c c6 bd 22 e9 37 bd 7e f1 14 3e 39 04 dd bc
       -0.09682562 -0.044900067 0.14545247 -0.026979553
000100 a5 e1 e3 bd ce ac df 3d 2c ea fd 3d 95 34 60 3c
       -0.11127023 0.10921632 0.1239818 0.0136844115
000110 29 d0 eb bd 51 89 c0 be f0 5d c0 3e 4a f8 1f 3d
       -0.11514313 -0.37604764 0.3757167 0.039055146
000120 8e 2a 77 3e 39 54 93 3e 74 03 cc bc 72 2e 43 3e
       0.24137327 0.28775194 -0.02490399 0.19060686
000130 d8 2f 4d bc c4 8b 11 3e 5f b2 6a 3e 38 95 65 3e
       -0.012523614 0.14213473 0.22919606 0.22420204
000140 81 c2 11 bd d8 e6 40 3e 29 84 0f 3b 81 cd 83 bb
       -0.035585884 0.1883806 0.0021898842 -0.0040223007
000150 7c 47 1e be 2e ae 10 bd 82 c3 70 be 4f 6d da bd
       -0.15456957 -0.03532236 -0.2351208 -0.1066538
000160 71 08 f9 3d 63 bf c0 bd be 2d 02 3c 94 16 8d 3d
       0.12159813 -0.09411504 0.007945476 0.06889072
000170 2f 10 07 3d a9 2f 88 3d b6 26 31 be 09 5e 48 3e
       0.03297442 0.066497155 -0.17299923 0.19567122
000180 19 9f 01 3e 4c 6c f6 3d e3 c4 93 bc b6 ba 1b 3e
       0.12658347 0.12032375 -0.018038219 0.15207943
000190 f5 ac 6d 3c 21 c5 16 3e 05 91 73 bc 44 27 99 3d
       0.014506568 0.14723636 -0.014866118 0.074781924
0001a0 dd c7 03 be 59 c8 df 3d c8 4b 02 be 0f 43 89 bd
       -0.1286921 0.10926885 -0.12724221 -0.067022435
0001b0 66 02 b1 bd c1 71 04 be 32 d7 b4 3d 7c b2 e6 3d
       -0.086430356 -0.12934019 0.08830108 0.11264512
0001c0 47 d9 d9 3c c6 89 fa 3d df 85 fe 3d 0e 2f 15 be
       0.026592864 0.122333094 0.12427878 -0.14568731
0001d0 5a c2 8c be 47 d1 2a 3e 8b 2f 1d 3e 2e 83 8f 3e
       -0.27492028 0.16681395 0.15350167 0.2802977
0001e0 3d da 82 be cc a1 34 be 4b f5 c2 bd 4c b8 8d 3d
       -0.25557128 -0.17639846 -0.09519442 0.069199175
0001f0 28 71 1c be 48 c0 85 3e 9c 51 72 bc f5 81 d0 bd
       -0.1527754 0.2612326 -0.014789965 -0.10181037
000200 01 b5 e8 bd 7d 3c 6e be 4e ce 98 bd f8 9c 1f 3d
       -0.11362649 -0.23265262 -0.074612245 0.038968056
000210 87 b3 85 be 48 c0 04 3d d6 89 5f be 82 21 80 be
       -0.2611353 0.032409936 -0.21829924 -0.25025564
000220 ce 2d c7 bc e9 bc 0d bd 3e ea 8b 3e a7 e9 c2 bd
       -0.024313834 -0.034603987 0.2732715 -0.09517222
000230 2d a4 59 3d 16 74 92 3d 88 cf d7 bd cb d5 fb 3c
       0.053135086 0.07151048 -0.1053763 0.030741593
000240 2b f8 b2 3e 5e 10 5a 3e c2 6c 01 3e 3a f6 de 3d
       0.34954962 0.21295306 0.12639144 0.10886808
000250 63 9e 3d be 87 fd 32 bd 19 80 c4 3d d4 33 4b 3e
       -0.18517451 -0.043698814 0.09594745 0.1984399
000260 be 05 d4 3d 16 6c 0e be 03 ec 09 3e 5d 1d e3 3c
       0.10352658 -0.13908419 0.13468938 0.027723962
000270 5b fa 1f be 62 ed 3d be 27 b4 03 be 2a 4c 0c be
       -0.15622847 -0.18547586 -0.12861691 -0.1370093
000280 5b 94 7e be 56 74 80 bd e3 d6 d6 3d 23 7e 34 bc
       -0.2486128 -0.06272189 0.10490205 -0.011016401
000290 a9 b0 ea 3d 79 8b 39 be 48 17 f0 bd 07 40 13 3e
       0.114594765 -0.18119611 -0.117231905 0.14379893
0002a0 a7 79 12 3e 82 27 a1 bb e2 2b 19 bd 09 f5 9a bd
       0.14304219 -0.00491804 -0.037395366 -0.07566268
0002b0 e5 06 24 bd 61 70 8d 3d db c1 17 3e 43 8f 8b 3e
       -0.040045638 0.069062 0.14820044 0.27257738
0002c0 58 d8 95 3d 40 5a b4 3d b7 80 83 3c 54 d4 8f 3e
       0.07316655 0.08806276 0.016052587 0.2809168
0002d0 e1 4d 8e 3e 93 3f 79 bd d4 8f 44 3e 30 04 d9 bd
       0.27793792 -0.060851645 0.19195491 -0.10596502
0002e0 f6 27 0e bd 54 66 42 be 6a d3 58 3e 6d 6e fe bc
       -0.03470608 -0.18984348 0.21174398 -0.031058514
0002f0 24 13 18 3e 33 82 4f 3b 03 4a 87 3d 69 9c 1b 3d
       0.14851052 0.0031663298 0.066059135 0.03799096
000300 4d e6 60 bc 51 aa 08 3e 1f 37 88 be 82 74 25 be
       -0.013726783 0.1334622 -0.26604554 -0.16157725
000310 48 56 12 be db 4b 2e be b8 8c 90 3e 05 3b b7 3c
       -0.14290726 -0.17021124 0.2823236 0.02236701
000320 69 e4 3a 3d fc 22 a9 3e a6 42 ff bc e5 d0 0f bd
       0.045627985 0.33034503 -0.03115971 -0.035111327
000330 13 24 94 3d 70 5d 52 be 10 0a 03 be 67 7f 6b be
       0.07233443 -0.20543456 -0.12796807 -0.22997819
000340 5c 7c 84 3d d8 df de bd c3 cc ea 3d 6a 18 2f 3e
       0.06469032 -0.108825386 0.114648364 0.17099157
000350 46 52 71 be ab 84 28 3d 21 27 8e be bf 24 9a 3c
       -0.23566541 0.041142147 -0.27764228 0.01881635
000360 3b cb 0c be 5e a4 66 be 21 ef 8b 3c bd 94 72 bd
       -0.13749401 -0.22523639 0.017081799 -0.05922388
000370 7a a1 ed bd 1e 4b 89 bd 6a ed 03 3e c1 d5 52 bd
       -0.11603065 -0.067037806 0.12883535 -0.051473383
000380 85 3a cc be cf df 68 be 49 de 62 be 01 ff f6 3c
       -0.39888397 -0.22741626 -0.22155108 0.030150892
000390 bc 85 3b bc 5d 57 01 3e 76 f9 44 be 57 a5 88 3d
       -0.011445459 0.12630983 -0.19235787 0.06672161
0003a0 48 fb 08 be c3 13 a1 3d b1 b0 32 be 0b 0a 39 3e
       -0.13377106 0.078650974 -0.17450215 0.18070237
0003b0 e6 b2 cb 3e 37 4d 48 bd af 38 e5 3d dc 68 84 3d
       0.39784926 -0.048901763 0.11192452 0.06465313
0003c0 c0 40 e9 3d aa ec e9 3d 24 3b 65 bd 79 4d e0 3a
       0.11389303 0.11422093 -0.055964604 0.0017112932
0003d0 ef 75 84 be 39 f7 c6 be 29 61 60 3e 8d c7 98 bd
       -0.25871226 -0.3886049 0.21912064 -0.07459936
0003e0 4f df d1 3d 77 08 23 3e 06 44 70 3e e5 2f 87 3d
       0.10247671 0.15921198 0.23463449 0.06600932
0003f0 22 c6 aa 3d 5e ce e2 3d 8f 6c 6d 3e 52 7a 77 bd
       0.08338572 0.11074518 0.23185943 -0.060419388

layers.jordan.lm_head.bias f4 [22]
000000 df 49 54 bf ae df 2e bf da e2 18 bf c2 86 79 3e
       -0.8292522 -0.6831006 -0.5972115 0.24367812
000010 b8 b9 a2 3c 7a 7b 0c 3e aa 7f 55 3e 58 46 2f 3e
       0.019863948 0.13718978 0.20849481 0.17116678
000020 bb fd 60 3e 93 28 8f 3e 1a fb d9 3d b2 2f 6f 3e
       0.2197179 0.27960643 0.10643597 0.23358038
000030 af 33 9f 3e d3 bb 3f 3e 06 f1 70 3e 32 7a 72 3d
       0.3109412 0.18723993 0.23529443 0.059198566
000040 8a 02 bd 3d e0 5c 8f bd 0e dd 9c bd 07 49 d5 3d
       0.09229 -0.070001364 -0.0765935 0.104143195
000050 d3 84 4d be 38 10 be bd
       -0.200702 -0.09280437

layers.jordan.lm_head.weight f4 [22, 16]
000000 1d 2e da bd d0 f4 da be a7 9e 6b 3e 9c 17 e7 bd
       -0.10653327 -0.42764902 0.2300974 -0.112838
000010 2e a1 66 be 9e 44 55 3e 43 49 08 3e ff c6 6b 3e
       -0.22522423 0.20826957 0.13309197 0.2302513
000020 ee fe eb bd d7 21 b7 bc 2a 3f bb bc 58 80 d7 be
       -0.11523233 -0.022355003 -0.022857267 -0.42090106
000030 ed 38 20 be 2f 3e 6a be f4 a2 27 3e f3 81 9f 3e
       -0.15646715 -0.22875284 0.16370755 0.3115383
000040 1f 99 10 3c 0c fb c1 be 40 61 0d 3f ea be 65 bc
       0.008825569 -0.37886846 0.55226517 -0.014022568
000050 b7 77 97 be 07 a1 15 3e 0b b4 60 be 6c b8 88 3e
       -0.29583523 0.14612208 -0.21943681 0.26703203
000060 56 b0 f5 bd ef 33 92 3c b7 bd 71 3e c5 0f a3 be
       -0.11996524 0.01784703 0.23607527 -0.3184797
000070 5a e9 b1 be e6 98 bc 3d f0 7f cd 3d 6a 89 54 3c
       -0.34748346 0.092088506 0.10034168 0.012972215
000080 8c 07 84 3e c4 e0 6c be 70 ce f9 3e 13 f7 05 bc
       0.25787008 -0.23132616 0.48790312 -0.008176583
000090 20 d7 44 be cc e6 53 be 8e 6e c5 3c 70 bd e2 3e
       -0.19222689 -0.20693511 0.024100568 0.44285154
0000a0 49 d4 a4 3d cd cc 26 be ab e4 b3 bd 4f 9b 1d be
       0.08048303 -0.16289063 -0.08783849 -0.15391277
0000b0 89 bf fc be 3c 2f a2 be dd b9 45 be ba ea a5 3e
       -0.4936488 -0.31676662 -0.19309182 0.32405645
0000c0 be 15 91 3f be 92 1f 3f 28 75 8c 3f 5a 16 7e 3f
       1.133476 0.62333286 1.0973253 0.99252856
0000d0 52 76 2c 3f cd 32 7d 3f 5f c5 61 3f 17 81 b4 3e
       0.6736804 0.9890564 0.8819179 0.35254738
0000e0 69 a1 08 bf c6 f3 4b bf 5d 95 45 3f 97 d4 29 3f
       -0.5337129 -0.79668844 0.77181035 0.6634001
0000f0 b5 83 12 bf 45 34 14 be fe 8d 5d 3f 8f d3 3c 3f
       -0.5723222 -0.14473064 0.8654479 0.7376031
000100 b6 29 7a 3e 93 5c e9 3e 5e b3 6b 3e 9c c2 de be
       0.24429974 0.4557844 0.23017642 -0.4350785
000110 25 94 6d 3e 2e eb 2a 3f 35 f4 0d bf 48 f3 fa be
       0.23201044 0.66765106 -0.55450755 -0.49013734
000120 0a 98 bd 3e f7 d9 07 3f 28 ec da bd 92 9f 0f bf
       0.3703006 0.5306696 -0.106895745 -0.5610286
000130 58 e3 1c 3f dd e4 70 3e a7 22 f4 be dc 2f 33 3f
       0.612844 0.23524804 -0.47682688 0.699949
000140 19 c3 97 3e ce 40 b4 3e a0 fd 5c 3e fd 9f 42 be
       0.29641035 0.35205692 0.21581125 -0.19006343
000150 82 8e c2 3e 2e 13 55 3f 37 af 0e bf 0f 06 e3 be
       0.3799935 0.8323239 -0.55736107 -0.4434056
000160 46 a0 8e 3e 3b 6d 0b 3f 40 ca c9 bd 14 bd 04 bf
       0.27856654 0.5446355 -0.09853029 -0.5185101
000170 26 28 46 3f cd 37 61 3e e3 d8 2d bf 5d 61 ae 3e
       0.7740501 0.21993943 -0.6790907 0.34058657
000180 03 d2 bf 3e b3 8f 0a 3f 08 9c 21 3e 1e 18 23 be
       0.37464914 0.5412552 0.15782177 -0.15927169
000190 cb e3 44 3d 07 f4 2d 3f 5b c8 23 bf 02 1c df be
       0.048068803 0.6795048 -0.63977593 -0.43576056
0001a0 93 5a 28 3f 52 3d bb 3e 59 1e df bd b1 32 e4 be
       0.65763205 0.3657022 -0.1089446 -0.44569924
0001b0 55 66 dd 3e 4a 6c 5f 3e 89 e0 2e bf 61 90 15 3f
       0.43242136 0.21818653 -0.68311363 0.5842343
0001c0 1e a3 11 be 63 a5 81 3e b2 22 a1 3c c1 96 17 bf
       -0.1422238 0.25321493 0.019669864 -0.5921441
0001d0 a1 76 28 bf ed e2 0f bf 13 96 15 3d 51 9d 03 3f
       -0.65806013 -0.56205636 0.036520075 0.5141192
0001e0 b5 5c 1a bf 53 47 f7 be 83 2a 44 3f 56 2d de 3e
       -0.6029771 -0.48296604 0.7662737 0.43393964
0001f0 5b bb 8a 3e c4 22 ef be d3 80 5a 3e 46 f5 96 be
       0.27096066 -0.46706212 0.21338205 -0.29484004
000200 67 f7 85 be b4 93 62 3e da fc a8 3d 17 e0 17 bf
       -0.26165316 0.22126657 0.082513526 -0.5932631
000210 22 81 1e bf f8 48 d4 be 9c 13 50 3d f0 50 fc 3e
       -0.6191579 -0.4146192 0.05079995 0.492805
000220 ec da 52 bf a6 8d 27 bf fb 11 0b 3f a4 0b e6 3e
       -0.823653 -0.65450513 0.5432431 0.44930756
000230 98 85 64 3e 0e a9 fa be e1 80 5a 3e 67 d5 3d be
       0.22316587 -0.48957103 0.21338226 -0.18538438
000240 a7 bd c5 bd 99 48 b8 3d 4f 06 54 3d c7 99 08 bf
       -0.09655314 0.08998222 0.05176383 -0.53359646
000250 7b 17 3c bf 0d f1 c8 be b7 67 3c 3d d6 73 7b 3e
       -0.7347333 -0.39246407 0.045997348 0.24555907
000260 f4 17 46 bf 1a d7 31 bf a0 b3 03 3f 3b 33 db 3e
       -0.773803 -0.69468844 0.5144596 0.42812523
000270 8d 35 09 3f 28 aa 1e bf c0 0b 5f 3e 3d c4 f5 be
       0.53597337 -0.6197839 0.21781826 -0.4800128
000280 ed e8 a5 3e 47 69 d7 3e dc 1e 06 3e 54 27 99 be
       0.3240427 0.42072508 0.1309771 -0.29912817
000290 7b ae b8 3e f9 24 06 3f cc 07 0a bf a3 b5 94 be
       0.36070618 0.52400166 -0.5391815 -0.29044828
0002a0 20 4a 13 3f 2e 9d ff 3e 5f 0c cf bd 17 30 3c bf
       0.5753498 0.49924606 -0.101097815 -0.7351088
0002b0 d3 5d f2 3e ee df 48 3e e3 82 d3 be 67 1b 2e 3f
       0.47337207 0.19616672 -0.41310796 0.6801056
0002c0 80 16 fe 3e 6f 2a b6 3e 06 5b fc 3d 6b 9f e5 be
       0.4962654 0.3557925 0.12322049 -0.4484819
0002d0 49 ff c0 3e 96 0c 30 3f c6 b2 fc be 15 03 be be
       0.37694767 0.68769205 -0.49355143 -0.37111726
0002e0 c4 3a a2 3e 1b 36 a6 3e e2 69 d9 bd 58 69 ce be
       0.3168546 0.32463154 -0.10615899 -0.40314746
0002f0 1b c5 44 3f 23 64 4d 3e 2f 23 10 bf 39 46 09 3f
       0.7686326 0.2005773 -0.56303686 0.53622776
000300 12 1f 20 3f 92 10 d4 3e ae 3c 6c 3e 3b 19 dd be
       0.6254741 0.41418892 0.23070022 -0.43183312
000310 64 b6 de 3d 63 5a 00 3f 49 76 e6 be e2 58 e1 be
       0.10874632 0.5013792 -0.4501212 -0.44013125
000320 ff 3e e7 3e 3d 1b 20 3f a4 dc cd bd 88 dd 12 bf
       0.4516525 0.6254156 -0.100518495 -0.5736928
000330 7e 89 ea 3e 52 08 54 3e 3d b1 1a bf 56 1d ce 3e
       0.45808023 0.20706299 -0.60426694 0.40256757
000340 d3 7e 11 bf 7d 54 4e 3d 76 92 0c bf fd 08 b7 be
       -0.56834143 0.050373543 -0.5491098 -0.35749045
000350 0b 5d e7 be 96 fd 40 be e0 4d 21 3d d8 67 44 3e
       -0.45188174 -0.18846735 0.039380908 0.19180238
000360 5c d9 5a bf f0 ee 26 bf c7 f0 23 3f 4a cf 84 3e
       -0.85487914 -0.6520834 0.6403927 0.259394
000370 f5 ef e1 3e fd e4 38 bf 8c 3b 48 3e df 25 23 be
       0.44128385 -0.7222441 0.19553965 -0.15932415
000380 af af b0 be d9 23 49 3e a8 fd f0 be af 14 ab be
       -0.34509036 0.19642581 -0.47068524 -0.33414218
000390 cd e9 24 bf 3b a8 22 bf c2 88 99 3c db 06 d2 3e
       -0.6441925 -0.6353795 0.018741969 0.41020855
0003a0 ef 71 37 bf 80 49 f9 be f0 9e 33 3f 94 56 95 3e
       -0.71658224 -0.4868889 0.70164394 0.29167616
0003b0 8d 74 ba 3e c5 a2 e3 be 15 b5 49 3e 06 4b 90 bd
       0.36417046 -0.4446012 0.19697984 -0.070455596
0003c0 3d 39 b3 be 7c 4f 79 3e 0f 87 03 bf 98 78 d9 be
       -0.35004607 0.24346727 -0.5137796 -0.42474818
0003d0 95 bc a5 be bc aa d4 be de af 31 3d 58 8e e6 3e
       -0.3237044 -0.4153651 0.04338061 0.45030475
0003e0 c7 60 34 bf 02 46 09 bf a3 ac 2a 3f 0b ed 8a 3e
       -0.7046017 -0.5362245 0.6666967 0.27133974
0003f0 1d 50 f5 3e ff 36 c7 be 02 c4 53 3e 32 1b c4 be
       0.47912684 -0.38909146 0.2068024 -0.38301998
