ayb_2022/elman-16/run_21/export/model.safetensors (safetensors, 5744 bytes, 7 tensors)

layers_by_name.elman.hh.bias f4 [16]
000000 29 a8 19 bf 9f 9f b9 3b e6 6a 08 bf 04 6e 0a 3f
       -0.6002222 0.0056647803 -0.53288114 0.5407412
000010 aa 96 a5 bd 8c b0 f0 bd 1a 3b 91 bb 60 8e 9c bc
       -0.080853775 -0.11752424 -0.0044320943 -0.019110858
000020 e1 85 74 be 53 06 f1 3d 09 e3 a8 be 72 7b ca be
       -0.23879196 0.117687844 -0.32985714 -0.39547306
000030 92 15 af be 07 89 c7 3e 6e 2f b8 be b1 47 ce 3e
       -0.34196144 0.3897173 -0.35973686 0.4028907

layers_by_name.elman.hh.weight f4 [16, 16]
000000 ff 85 00 3f f7 f7 5a be 5a 36 b2 be a6 5d 8e bf
       0.5020446 -0.21383654 -0.34807092 -1.1122329
000010 73 55 27 c0 f7 5e 1c bf 7c 80 45 3d cc 34 93 bf
       -2.6145904 -0.61082405 0.048218235 -1.1500487
000020 8b 2a e2 bf a7 49 a6 3e a8 b3 83 bd 54 55 02 bf
       -1.7669233 0.32478067 -0.06430751 -0.5091145
000030 c4 49 b1 be 66 23 c8 3e b7 06 63 3f b5 e3 13 3f
       -0.3462659 0.39089507 0.8868212 0.5776933
000040 e2 cb 64 3f d4 51 ee be bf f6 2e 3f 8b 60 ef 3f
       0.893736 -0.46546805 0.68345255 1.8701338
000050 17 f1 63 3f aa e3 88 bd 26 9b ea 3c c4 8b 56 bd
       0.8903975 -0.066840485 0.028638434 -0.052379385
000060 e1 ee 69 be 29 91 0a bf 06 81 8a 3e 14 04 bb be
       -0.22845031 -0.54127747 0.27051562 -0.3652655
000070 0a 29 5e 3e 48 b6 25 3f 29 37 2e 3f 17 51 4f 3f
       0.21695343 0.64731264 0.6805292 0.8098311
000080 e9 89 31 bd 29 70 9b bc 98 32 a2 bf 21 2c 4c bc
       -0.043344412 -0.01897438 -1.267169 -0.012461693
000090 44 48 a4 bd e5 ea b4 bd e5 8f 9a 3e d2 c4 8e 3d
       -0.08021596 -0.08833865 0.30187908 0.06971134
0000a0 96 e4 96 bc 3c 54 cb be a6 10 21 bf 9b 45 56 3d
       -0.018419545 -0.39712703 -0.6291603 0.052312475
0000b0 e1 b2 cc 3e bb 72 f6 3d 86 2b d2 be 72 f6 fc 3c
       0.39980224 0.12033602 -0.4104883 0.030879233
0000c0 58 52 45 3f 1c 35 d4 bc e6 48 b5 3f b7 f4 dc be
       0.7707877 -0.02590423 1.4162872 -0.43155453
0000d0 96 2d a2 40 7b 71 6e be 48 51 d7 bf b8 c5 f7 be
       5.0680647 -0.23285477 -1.682168 -0.48393035
0000e0 fc fd 29 3f 4d 19 c7 3e cc 7f f0 3e cf 7a 17 bf
       0.66403174 0.3888649 0.469725 -0.59171766
0000f0 75 61 18 be e4 61 78 3e 5a 39 19 3f 17 0e 96 3e
       -0.14880927 0.24256092 0.59853137 0.29307625
000100 a2 7f 88 bd b7 04 02 bf 88 db 8b 3d 81 3b ab 3f
       -0.06664969 -0.50788444 0.06828982 1.3377534
000110 0b 13 4d c0 88 60 31 3f fe 4b 93 3f 69 21 c4 3e
       -3.2042873 0.6928792 1.1507566 0.3830674
000120 dc 30 2b 3e f6 83 aa be ef e1 b2 3f ae 75 50 3e
       0.16717857 -0.33303803 1.39752 0.20357391
000130 a6 71 16 3f b0 e3 61 3d 8a b7 b9 be dd 18 59 bf
       0.58767164 0.05514878 -0.36272842 -0.84803563
000140 8a d6 93 bf b1 c2 73 3f 98 21 aa bf 62 78 b7 c0
       -1.1549847 0.9521895 -1.3291502 -5.733445
000150 0c e1 83 bf 51 69 b9 bf 07 05 89 3f 10 09 05 3f
       -1.0303054 -1.4485265 1.0704659 0.51966953
000160 1c 4b 0c be b3 a7 fc bc 70 9c 91 bc 26 2b ba bf
       -0.13700527 -0.030841684 -0.01777479 -1.4544418
000170 c6 f3 c9 bd 70 d5 a0 3f 6d 7e a1 3f 4c af 9e 3f
       -0.09860949 1.2565136 1.2616707 1.2397246
000180 52 33 3a 3e bb 2d 8a be 7c 90 a2 3e 32 d3 69 be
       0.1818364 -0.26988015 0.31750858 -0.22834471
000190 b8 80 e4 bd 11 49 e0 bd 9e 94 92 bf 93 63 d9 3d
       -0.11157364 -0.10951436 -1.1451604 0.106146954
0001a0 72 84 66 3e bd 27 fe 3d d7 4a 32 3d af 6c 79 3e
       0.22511461 0.12409923 0.043528404 0.24357866
0001b0 43 4f 83 3e 69 7d 6f be fc 92 34 3e d2 29 ee bd
       0.2564641 -0.23387684 0.17634195 -0.1162907
0001c0 f8 bd 08 3f a9 e5 6a 3d d7 7d 8e 3e 2d 18 bd be
       0.5341487 0.057347927 0.27830383 -0.36932507
0001d0 3f 0b cd bc b1 d2 a3 be 20 fc 96 bd c8 b8 e8 be
       -0.025029777 -0.31996682 -0.07372308 -0.45453477
0001e0 81 69 cb 3e 4d af ab be 81 fe 86 3e 5d 39 b9 3e
       0.3972893 -0.3353218 0.26366046 0.36176577
0001f0 fc 13 1f be 28 6b 86 3d ce 59 9d b8 a1 ab 46 be
       -0.15534967 0.06563407 -7.503071e-05 -0.19401409
000200 2a 50 80 3f d7 86 dc be 91 70 5f 3e 68 b5 0f bf
       1.0024464 -0.43071625 0.21820284 -0.5613618
000210 0a 9f f0 3d 9e c1 d6 bd fb df cf 3e 43 be 09 bf
       0.11749084 -0.10486148 0.4060057 -0.5380594
000220 5f e0 3a bf fe 60 36 be 4f 51 fe 3e cb 4a fd be
       -0.72998613 -0.17810437 0.4967141 -0.49471125
000230 21 3c f3 be 26 2b 44 3e 8c bb 1e 3a b8 c8 36 bd
       -0.47506812 0.19157085 0.00060551683 -0.044625014
000240 b1 4c 1c 3e 39 10 cb be 35 d3 0e 3f a3 e7 4e bf
       0.1526363 -0.39660814 0.55791026 -0.808222
000250 ac e0 ae bf 44 fe 26 bf 84 b1 d7 be 79 33 0c bf
       -1.3662314 -0.6523173 -0.4212762 -0.5476604
000260 e4 ea 0d be d4 c7 0f 3e fe dc b4 3e 51 20 3a 3f
       -0.13859135 0.14041072 0.35324854 0.7270556
000270 a3 2e da be c4 0c 9a be 2b 2f 21 3e 5e c8 92 3e
       -0.42613706 -0.30087864 0.1574065 0.28668493
000280 60 61 b5 be 8f d5 b0 3e 18 4a 42 bd af b8 ed 3e
       -0.35425854 0.34537932 -0.047433943 0.46429965
000290 04 f4 3d 3e 59 7f 44 3f 8b bb 70 bd ce ac 43 be
       0.18550116 0.7675682 -0.058772605 -0.19108889
0002a0 16 81 30 bf fd 20 e6 3e 4d 9f 33 bf d5 46 0f bc
       -0.6894697 0.44947043 -0.7016495 -0.008744915
0002b0 32 ba 81 3e 71 3b 8a be f7 1a 11 3f fa f7 19 3f
       0.25337368 -0.26998475 0.5668177 0.6014401
0002c0 fe 5e 61 3e d0 90 57 bd 8f 72 0e 3e a4 56 6e be
       0.22008893 -0.05262834 0.13910888 -0.23275238
0002d0 33 cb 69 bd df 9e 90 bd 00 2e 9a be bc b7 01 bd
       -0.05707855 -0.07061552 -0.3011322 -0.031669363
0002e0 02 fd 0f 3e 81 11 7b bd 15 b4 d4 bd a4 b9 d8 be
       0.14061359 -0.06129599 -0.103859104 -0.42329133
0002f0 d6 89 42 3e 53 75 66 be 8d 8e 56 3e e0 9e 10 3b
       0.18997893 -0.22505693 0.20952816 0.0022067353
000300 ae f7 ef bf 0f e1 54 3f 6a e3 cf be d6 6a be 3f
       -1.8747461 0.8315591 -0.4060319 1.4876354
000310 c7 25 09 40 a9 fe 96 3f 06 af 6b 3e 26 22 08 3d
       2.1429307 1.1796466 0.23015985 0.03323569
000320 e4 ee 0b 3e 0a e7 5d 3f e8 5d c0 bf ed b6 9c be
       0.13665348 0.8668066 -1.5028658 -0.3060831
000330 af 07 e7 bf da 50 e7 3c 87 b4 b9 3e a9 41 84 bf
       -1.804922 0.028236795 0.36270544 -1.0332538
000340 c4 cb 9a 3f 09 b7 80 3e 95 d7 84 3f 0b 3a 9b bf
       1.2093434 0.25139645 1.037829 -1.2127088
000350 5d 3c cf 3f 43 35 6a be 1a 5c 22 bf 33 a9 79 bf
       1.6190296 -0.2287188 -0.63421786 -0.975238
000360 71 05 dd be 86 f3 07 bd 9e 03 98 bf e0 80 18 be
       -0.43168214 -0.033191226 -1.1876104 -0.14892912
000370 60 0c 47 c0 f6 79 29 bf 02 ed bd 3f a6 bc c7 bf
       -3.1101303 -0.6620172 1.4837954 -1.5604446
000380 24 12 0a 40 47 43 0c 3e d0 dd 8d bf 8d 1e 82 3f
       2.1573572 0.1369754 -1.1083317 1.0165573
000390 73 e8 e1 bf 62 ce 69 bf fb 25 89 3d ed c2 ce be
       -1.7649063 -0.9133054 0.06696697 -0.40383092
0003a0 3c 44 0d be be fa e2 be 3c d0 4b c0 18 74 28 be
       -0.1379556 -0.44331926 -3.1845846 -0.16450536
0003b0 44 48 05 c0 be 0f a4 3b 0e b5 88 bf ba 7c c0 be
       -2.0825357 0.0050067594 -1.0680254 -0.3759516
0003c0 f3 ed 5b 40 81 ac 13 bf e3 4a 72 3f 7a b2 c8 be
       3.4363983 -0.57685095 0.9464552 -0.39198667
0003d0 64 5e 9f bf 0a 9b d2 bf d1 5d 04 3f 13 c1 34 3f
       -1.2450681 -1.6453564 0.5170565 0.7060711
0003e0 b2 b6 a2 3f 8b 5b 9a bf f8 db 9d bf f2 04 de 3e
       1.2712004 -1.2059187 -1.2332754 0.43363148
0003f0 0b 9e 1a bf bb d4 e7 be a3 e1 df be 9f ab 1f bf
       -0.60397404 -0.45279488 -0.43726835 -0.6237125

layers_by_name.elman.hx.bias f4 [16]
000000 93 2a 9c be 05 80 28 3e b3 22 7b be 57 09 e4 3e
       -0.30501232 0.16455086 -0.24524955 0.44538376
000010 13 fd 2d 3d 1f 68 0f be 8a ce 32 3d 18 48 f1 3d
       0.04247768 -0.14004563 0.043654002 0.11781329
000020 9d b4 94 be 98 6c fb 3e df 49 9c be ae 93 c7 be
       -0.29044047 0.49106288 -0.3052511 -0.38979858
000030 3c 0c a4 be fc 0f 00 3f 96 23 b0 be 7d bd b6 3e
       -0.32040584 0.5002439 -0.3440215 0.35691443

layers_by_name.elman.hx.weight f4 [16, 19]
000000 a0 cf 39 be a8 0b 32 bd 04 83 8f 3f 85 62 b3 3f
       -0.18145609 -0.043468148 1.1211858 1.4014441
000010 cd 82 6d 3f 2b ef a8 3f 1f 8b 05 bf 54 51 3d bf
       0.9277771 1.3197988 -0.52165407 -0.7395222
000020 da 94 17 bf 27 a3 b4 3f 1d e9 8e 3f d7 3a 04 3f
       -0.59211504 1.411229 1.116489 0.5165228
000030 b5 9f a0 bf 4c 8c ec be 7c 18 54 bf 03 9b 6a bf
       -1.2548739 -0.46200788 -0.8284986 -0.9164278
000040 98 ed 90 bf 98 a5 60 bf 45 07 7f 3f a5 b3 5e 3e
       -1.1322508 -0.87752676 0.9962047 0.21748216
000050 e5 e8 00 be 42 73 49 3d 67 71 25 3f 2b a8 31 3f
       -0.12588842 0.049182184 0.64626163 0.6939723
000060 70 77 f8 3e 2d c2 e0 bd ee 3c 61 3e ab 85 90 be
       0.48528624 -0.10974536 0.21995899 -0.2822698
000070 79 15 21 3f 85 f8 16 3f 65 c3 3b 3f cb 60 48 3f
       0.6292339 0.5897296 0.73345023 0.78272694
000080 2e 01 53 3f f2 cc 97 3d da 3f 6f bf ab f8 61 bf
       0.82423675 0.07412137 -0.93456805 -0.8827006
000090 21 9a 64 bf d0 3f 63 bf 4f b0 54 3e 14 ce 85 3d
       -0.8929768 -0.88769245 0.20770381 0.06533447
0000a0 26 c7 ce 3e c3 b4 2a be 81 59 7b be fb 26 ae bd
       0.40386313 -0.16670518 -0.24545862 -0.08503529
0000b0 96 7f c5 bc 69 33 9f 3f d8 fa 10 bf 96 e9 29 be
       -0.02410869 1.2437564 -0.5663276 -0.16593012
0000c0 2f 0a 8e be 12 ce 49 be 81 a4 bc bd b0 d5 b6 be
       -0.27742144 -0.19707516 -0.09211064 -0.35709906
0000d0 a9 ac 17 3e da 6d 3f 3f 45 d7 44 3f bc 7e 3c 3f
       0.14811958 0.74776995 0.76890975 0.7363088
0000e0 64 50 6f 3f 47 d2 85 3d c1 92 b1 bd 2c 66 91 bf
       0.9348204 0.06534248 -0.08670569 -1.1359305
0000f0 43 b0 23 3f 32 f3 1e bf c0 a8 85 bf 29 5f eb 3e
       0.6394083 -0.62089837 -1.0442123 0.4597104
000100 0b 44 43 3e ea d2 2d 3e a4 b4 98 3f e6 67 a6 3f
       0.19068925 0.16974989 1.1930127 1.3000457
000110 c4 f9 83 bf 7e 25 5f 3e 8f 30 26 bf f2 19 ad 3e
       -1.0310597 0.21791646 -0.64917845 0.33808857
000120 0a b5 cd 3e af 50 f5 3e 32 53 e6 3e 3f 47 0f bf
       0.40177184 0.4791312 0.44985348 -0.5596809
000130 e7 4c 29 be e8 d0 90 bd 4a 90 21 bf ee a6 87 bf
       -0.16533242 -0.07071096 -0.6311079 -1.0597818
000140 f9 7e 96 bf 73 8d e4 bd a9 74 8d bf 84 ea 80 bf
       -1.1757499 -0.11159792 -1.1051227 -1.0071568
000150 97 c0 99 bf d0 5c 5e 3f 53 b4 05 3f 11 67 be 3f
       -1.2011899 0.8686037 0.5222828 1.4875203
000160 30 67 02 3c 94 4d 14 bf 8b b2 54 be 4b 8c 4c 3f
       0.007959172 -0.57930875 -0.20771234 0.7990157
000170 1f 23 52 3f ae 69 41 3f 60 e8 10 bf 02 a0 54 be
       0.8208484 0.7555188 -0.56604576 -0.20764163
000180 5d 87 f5 bd a3 36 00 3e 28 c7 d0 3e cf 16 70 3e
       -0.11988709 0.12520842 0.40776944 0.23446201
000190 8e 85 20 be 19 c0 39 3f f4 22 63 3e 89 e9 b9 3c
       -0.15675947 0.7255874 0.22181302 0.022694366
0001a0 cc 0a be 3e 75 7a 64 3f 84 b2 8b 3f 57 7a 05 3f
       0.37117612 0.89249355 1.0913854 0.521398
0001b0 2a 83 be be 62 f0 a8 3e 0f d3 36 bf 2a 84 46 bf
       -0.37209445 0.32995898 -0.714158 -0.77545416
0001c0 c2 11 35 bf 96 10 00 c0 bf 3e 1c be 10 c5 bb bd
       -0.7073022 -2.0010123 -0.1525831 -0.09168446
0001d0 26 c5 68 3e ec 45 cc 3d f9 39 25 bc bf ab 29 be
       0.22731456 0.09974274 -0.010084623 -0.16569422
0001e0 7b 43 9a 3c 39 85 cd be ed 1f b5 be 9b 77 33 be
       0.018831005 -0.40140703 -0.3537592 -0.17526095
0001f0 b5 2e 1c bd 77 ee 88 bd d9 15 0e be 23 73 b7 be
       -0.03813048 -0.066861086 -0.13875522 -0.3583003
000200 64 63 a7 3e 8b cf d4 be bb 5f 10 bd 74 6c b3 be
       0.32693017 -0.41564593 -0.035247546 -0.3504368
000210 3b 22 39 3f d0 4b e6 3d 42 60 67 be e9 64 89 3f
       0.72317857 0.11244929 -0.22595313 1.073392
000220 97 33 af be 8e f3 3c be cf 6d bf be c2 b6 bc be
       -0.34219047 -0.18452284 -0.37388465 -0.36858183
000230 ad 4d 11 bd f5 b9 b0 be 9b 43 4b be e4 13 db bd
       -0.035474468 -0.34516874 -0.19850008 -0.10697153
000240 c0 1e 4f be 74 75 d4 bd ad 3b 35 be e7 6c 10 3f
       -0.20226574 -0.10373965 -0.17698546 0.5641617
000250 fd 99 1f be b9 aa 5d bd ad 48 2e be 4f f8 cf 3e
       -0.15586086 -0.054117892 -0.17019911 0.40619132
000260 37 7c d7 bd 93 c8 16 3b 05 7e d0 3f fb 81 15 c0
       -0.10521739 0.0023007735 1.6288458 -2.3360584
000270 5a a9 0e c0 4c da f4 bf 64 a4 1d be c9 b6 8d bd
       -2.2290864 -1.9129119 -0.15394741 -0.06919629
000280 d3 21 8b be a0 5c 44 be 37 a2 b6 bf 23 38 21 bf
       -0.27174243 -0.19175959 -1.4268254 -0.6297628
000290 6b 6e 57 3f d1 0e d6 3e 2c e1 0b 3f cb 81 fc 3e
       0.8415286 0.4180818 0.5464046 0.49317774
0002a0 33 f9 fc 3e d0 77 07 3f 75 57 1a bd 6c 85 24 3e
       0.49408874 0.52917194 -0.03768106 0.16066521
0002b0 da 1f a9 bd 38 36 69 bf 46 8c 2a bf aa d8 24 bf
       -0.08258028 -0.91098356 -0.6662029 -0.64393103
0002c0 ed 87 f5 be 81 2f c1 3e 2f 5b 79 3f 2f b5 e0 3e
       -0.47955266 0.37731555 0.9740476 0.43888232
0002d0 7b 77 29 bf fb 3c 16 bf 05 71 02 bf bc b9 1e 3e
       -0.6619794 -0.586868 -0.50953704 0.1550054
0002e0 5a 37 d1 3e 64 56 0d 3f 6a e1 c1 3f 65 c0 bc 3f
       0.40862542 0.55209947 1.5146916 1.4746214
0002f0 76 14 c9 3f ee 81 01 c0 00 bd 7c bd 69 9f 42 3e
       1.5709369 -2.0235553 -0.061703682 0.19006123
000300 6d 81 e6 bd 7d a0 5f bc b8 86 8a 3f 3e d5 29 bd
       -0.11255155 -0.013649103 1.0822363 -0.04146313
000310 47 86 09 bf ba 98 03 3f 5c d0 86 be 65 df 17 bf
       -0.53720516 0.5140492 -0.2633084 -0.5932525
000320 04 db 77 3f c0 96 07 3f 07 b1 85 bf bf eb 3b bf
       0.96818566 0.529644 -1.044465 -0.73406595
000330 1a 43 f4 3d 7c b9 b5 3e 08 df d4 3e 95 9a cf 3e
       0.11926861 0.35493076 0.4157641 0.40547624
000340 ac 94 6b bf 25 31 d3 bd 02 fb a0 bd 66 30 e3 3e
       -0.9202373 -0.10312108 -0.07860376 0.44372863
000350 46 5a 1e bf 72 1a 51 bf 75 0b 6d bf 91 ff 37 3e
       -0.61856496 -0.8168098 -0.9259561 0.17968585
000360 ea bd 27 3f a9 68 2b 3f 54 0b 20 bf 3b 96 39 bf
       0.6552416 0.66956574 -0.62517285 -0.7249486
000370 78 6b 5e bf a8 5a 2c 3f c4 cd 9e 3e 85 df a7 3e
       -0.86882734 0.6732583 0.31016362 0.3278772
000380 51 fd bf 3e 32 05 d2 3e 01 af c6 3e 8a ee b3 bc
       0.37497953 0.4101959 0.38805392 -0.02196433
000390 94 77 a6 bc 3c b7 1b 3e f7 40 52 3f 86 34 24 bf
       -0.020320691 0.15206617 0.8213038 -0.64142644
0003a0 d9 93 72 3f 21 f5 8d 3e 54 d6 67 3f 15 0e 83 3f
       0.9475685 0.2772608 0.90561414 1.0238672
0003b0 a0 b4 ad 3e d1 44 45 3e da 8e bb 3f 73 69 5d 3f
       0.33926868 0.19264533 1.465297 0.8648903
0003c0 68 b6 35 3e 96 b7 f3 3e 8c b1 2e 3f 02 77 99 bf
       0.17745364 0.47601002 0.68239665 -1.1989443
0003d0 15 70 ad bf ff ba a4 bf 14 04 09 40 0f 67 f9 3d
       -1.354983 -1.2869567 2.140874 0.1217786
0003e0 44 78 a6 bb 00 9f 39 bf 6c a7 5a 3d 1f 5f a3 3e
       -0.0050802547 -0.7250824 0.053382322 0.3190851
0003f0 ae c3 bd 3d 9a f1 0e bf bb ee 7a bf a9 e7 26 bf
       0.092658386 -0.55837405 -0.98020524 -0.65197235

layers_by_name.embed.emb.weight f4 [19, 19]
000000 00 00 80 3f 00 00 00 00 00 00 00 00 00 00 00 00
       1.0 0.0 0.0 0.0
000010 00 00 00 00 00 00 00 00 00 00 00 00 00 00 00 00
       0.0 0.0 0.0 0.0
000020 00 00 00 00 00 00 00 00 00 00 00 00 00 00 00 00
       0.0 0.0 0.0 0.0
000030 00 00 00 00 00 00 00 00 00 00 00 00 00 00 00 00
       0.0 0.0 0.0 0.0
000040 00 00 00 00 00 00 00 00 00 00 00 00 00 00 00 00
       0.0 0.0 0.0 0.0
000050 00 00 80 3f 00 00 00 00 00 00 00 00 00 00 00 00
       1.0 0.0 0.0 0.0
000060 00 00 00 00 00 00 00 00 00 00 00 00 00 00 00 00
       0.0 0.0 0.0 0.0
000070 00 00 00 00 00 00 00 00 00 00 00 00 00 00 00 00
       0.0 0.0 0.0 0.0
000080 00 00 00 00 00 00 00 00 00 00 00 00 00 00 00 00
       0.0 0.0 0.0 0.0
000090 00 00 00 00 00 00 00 00 00 00 00 00 00 00 00 00
       0.0 0.0 0.0 0.0
0000a0 00 00 80 3f 00 00 00 00 00 00 00 00 00 00 00 00
       1.0 0.0 0.0 0.0
0000b0 00 00 00 00 00 00 00 00 00 00 00 00 00 00 00 00
       0.0 0.0 0.0 0.0
0000c0 00 00 00 00 00 00 00 00 00 00 00 00 00 00 00 00
       0.0 0.0 0.0 0.0
0000d0 00 00 00 00 00 00 00 00 00 00 00 00 00 00 00 00
       0.0 0.0 0.0 0.0
0000e0 00 00 00 00 00 00 00 00 00 00 00 00 00 00 00 00
       0.0 0.0 0.0 0.0
0000f0 00 00 80 3f 00 00 00 00 00 00 00 00 00 00 00 00
       1.0 0.0 0.0 0.0
000100 00 00 00 00 00 00 00 00 00 00 00 00 00 00 00 00
       0.0 0.0 0.0 0.0
000110 00 00 00 00 00 00 00 00 00 00 00 00 00 00 00 00
       0.0 0.0 0.0 0.0
000120 00 00 00 00 00 00 00 00 00 00 00 00 00 00 00 00
       0.0 0.0 0.0 0.0
000130 00 00 00 00 00 00 00 00 00 00 00 00 00 00 00 00
       0.0 0.0 0.0 0.0
000140 00 00 80 3f 00 00 00 00 00 00 00 00 00 00 00 00
       1.0 0.0 0.0 0.0
000150 00 00 00 00 00 00 00 00 00 00 00 00 00 00 00 00
       0.0 0.0 0.0 0.0
000160 00 00 00 00 00 00 00 00 00 00 00 00 00 00 00 00
       0.0 0.0 0.0 0.0
000170 00 00 00 00 00 00 00 00 00 00 00 00 00 00 00 00
       0.0 0.0 0.0 0.0
000180 00 00 00 00 00 00 00 00 00 00 00 00 00 00 00 00
       0.0 0.0 0.0 0.0
000190 00 00 80 3f 00 00 00 00 00 00 00 00 00 00 00 00
       1.0 0.0 0.0 0.0
0001a0 00 00 00 00 00 00 00 00 00 00 00 00 00 00 00 00
       0.0 0.0 0.0 0.0
0001b0 00 00 00 00 00 00 00 00 00 00 00 00 00 00 00 00
       0.0 0.0 0.0 0.0
0001c0 00 00 00 00 00 00 00 00 00 00 00 00 00 00 00 00
       0.0 0.0 0.0 0.0
0001d0 00 00 00 00 00 00 00 00 00 00 00 00 00 00 00 00
       0.0 0.0 0.0 0.0
0001e0 00 00 80 3f 00 00 00 00 00 00 00 00 00 00 00 00
       1.0 0.0 0.0 0.0
0001f0 00 00 00 00 00 00 00 00 00 00 00 00 00 00 00 00
       0.0 0.0 0.0 0.0
000200 00 00 00 00 00 00 00 00 00 00 00 00 00 00 00 00
       0.0 0.0 0.0 0.0
000210 00 00 00 00 00 00 00 00 00 00 00 00 00 00 00 00
       0.0 0.0 0.0 0.0
000220 00 00 00 00 00 00 00 00 00 00 00 00 00 00 00 00
       0.0 0.0 0.0 0.0
000230 00 00 80 3f 00 00 00 00 00 00 00 00 00 00 00 00
       1.0 0.0 0.0 0.0
000240 00 00 00 00 00 00 00 00 00 00 00 00 00 00 00 00
       0.0 0.0 0.0 0.0
000250 00 00 00 00 00 00 00 00 00 00 00 00 00 00 00 00
       0.0 0.0 0.0 0.0
000260 00 00 00 00 00 00 00 00 00 00 00 00 00 00 00 00
       0.0 0.0 0.0 0.0
000270 00 00 00 00 00 00 00 00 00 00 00 00 00 00 00 00
       0.0 0.0 0.0 0.0
000280 00 00 80 3f 00 00 00 00 00 00 00 00 00 00 00 00
       1.0 0.0 0.0 0.0
000290 00 00 00 00 00 00 00 00 00 00 00 00 00 00 00 00
       0.0 0.0 0.0 0.0
0002a0 00 00 00 00 00 00 00 00 00 00 00 00 00 00 00 00
       0.0 0.0 0.0 0.0
0002b0 00 00 00 00 00 00 00 00 00 00 00 00 00 00 00 00
       0.0 0.0 0.0 0.0
0002c0 00 00 00 00 00 00 00 00 00 00 00 00 00 00 00 00
       0.0 0.0 0.0 0.0
0002d0 00 00 80 3f 00 00 00 00 00 00 00 00 00 00 00 00
       1.0 0.0 0.0 0.0
0002e0 00 00 00 00 00 00 00 00 00 00 00 00 00 00 00 00
       0.0 0.0 0.0 0.0
0002f0 00 00 00 00 00 00 00 00 00 00 00 00 00 00 00 00
       0.0 0.0 0.0 0.0
000300 00 00 00 00 00 00 00 00 00 00 00 00 00 00 00 00
       0.0 0.0 0.0 0.0
000310 00 00 00 00 00 00 00 00 00 00 00 00 00 00 00 00
       0.0 0.0 0.0 0.0
000320 00 00 80 3f 00 00 00 00 00 00 00 00 00 00 00 00
       1.0 0.0 0.0 0.0
000330 00 00 00 00 00 00 00 00 00 00 00 00 00 00 00 00
       0.0 0.0 0.0 0.0
000340 00 00 00 00 00 00 00 00 00 00 00 00 00 00 00 00
       0.0 0.0 0.0 0.0
000350 00 00 00 00 00 00 00 00 00 00 00 00 00 00 00 00
       0.0 0.0 0.0 0.0
000360 00 00 00 00 00 00 00 00 00 00 00 00 00 00 00 00
       0.0 0.0 0.0 0.0
000370 00 00 80 3f 00 00 00 00 00 00 00 00 00 00 00 00
       1.0 0.0 0.0 0.0
000380 00 00 00 00 00 00 00 00 00 00 00 00 00 00 00 00
       0.0 0.0 0.0 0.0
000390 00 00 00 00 00 00 00 00 00 00 00 00 00 00 00 00
       0.0 0.0 0.0 0.0
0003a0 00 00 00 00 00 00 00 00 00 00 00 00 00 00 00 00
       0.0 0.0 0.0 0.0
0003b0 00 00 00 00 00 00 00 00 00 00 00 00 00 00 00 00
       0.0 0.0 0.0 0.0
0003c0 00 00 80 3f 00 00 00 00 00 00 00 00 00 00 00 00
       1.0 0.0 0.0 0.0
0003d0 00 00 00 00 00 00 00 00 00 00 00 00 00 00 00 00
       0.0 0.0 0.0 0.0
0003e0 00 00 00 00 00 00 00 00 00 00 00 00 00 00 00 00
       0.0 0.0 0.0 0.0
0003f0 00 00 00 00 00 00 00 00 00 00 00 00 00 00 00 00
       0.0 0.0 0.0 0.0

layers_by_name.lm_head.proj.bias f4 [19]
000000 41 98 03 c1 67 bc ff c0 8f 5b d5 c0 9b 26 37 3e
       -8.224671 -7.9917483 -6.6674266 0.1788582
000010 de 7b a2 3d e9 4b f1 3d 78 58 c6 3d 24 37 6b be
       0.07933782 0.11782057 0.09684843 -0.22970253
000020 74 11 cf be 29 fe d4 3d eb 7f f1 3d bf 28 16 3e
       -0.40443003 0.1040004 0.117919765 0.14663981
000030 d3 a6 b9 be 20 0d 85 be 87 f3 0d be 94 2f 05 3e
       -0.3626009 -0.25986576 -0.1386243 0.13006431
000040 5a 9f f5 3d d5 bc 12 3e ac 15 06 c1
       0.119932845 0.14329846 -8.380291

layers_by_name.lm_head.proj.weight f4 [19, 16]
000000 f5 ae 16 bf df 82 ad 3e 71 d2 97 bd 08 13 dc 3f
       -0.58860713 0.3388891 -0.074131854 1.7193308
000010 9b e4 52 3e ab 0b 73 3f a0 3c 7f be 13 16 f2 be
       0.20595019 0.9493968 -0.2492547 -0.47282466
000020 05 52 69 3f e9 f8 91 3f 78 a0 6b be ad a5 bc 3f
       0.91140777 1.1404086 -0.23010433 1.473806
000030 2d 50 06 3f 87 8d c7 bf 1e 59 19 3f aa c5 a0 bd
       0.5246609 -1.5590066 0.5990161 -0.078502014
000040 94 ff 11 bf b9 cb a0 3e 5b 93 80 bd 30 7e e1 3f
       -0.57030606 0.31405428 -0.06278106 1.7616634
000050 70 a2 77 3e 86 16 74 3f 3c 76 68 be c0 e3 05 bf
       0.24183059 0.9534687 -0.22701353 -0.52300644
000060 fd 96 81 3f 44 ae 93 3f 20 89 86 be e1 e0 b6 3f
       1.0124203 1.1537557 -0.26276493 1.4287378
000070 85 ad 13 3f 71 cb c9 bf ca c5 20 3f 8c cd a2 bd
       0.57686645 -1.576521 0.628018 -0.07949361
000080 ee 4c 93 c0 96 63 4b 40 bb 1f 20 c0 e4 09 93 40
       -4.603141 3.1779532 -2.5019367 4.5949574
000090 bc 8c 77 c0 a5 36 29 40 ee 6a 18 bf a8 3e 28 bf
       -3.8679647 2.6439602 -0.5953816 -0.65720606
0000a0 4b 0f 23 3f 3b 09 03 41 17 4e 59 c0 98 ba 11 40
       0.6369521 8.189754 -3.3953912 2.2770138
0000b0 f7 2b 3d 40 f4 2e a1 c0 0f 55 c5 3e 87 a3 50 bf
       2.9558084 -5.0369816 0.38541457 -0.8149952
0000c0 15 3c 07 3f b2 6b f2 be 7f 38 ad bc 9f 02 6a bf
       0.5282605 -0.4734779 -0.021145103 -0.9141025
0000d0 1a 86 18 bf 88 ce 77 bf 38 27 80 3f 87 c1 7a 3f
       -0.5957962 -0.96799517 1.0011969 0.9795155
0000e0 a5 77 3f 3f ab 0e 87 bf c4 2c 05 bf d7 00 07 3e
       0.7479194 -1.0551351 -0.5202143 0.13183914
0000f0 fb 33 7f 3f 03 5d 67 bf e1 f0 ea be d7 a8 95 bf
       0.9968869 -0.903763 -0.458869 -1.1692151
000100 83 13 5f 3f 0e f3 ea be 77 46 09 3e c8 c9 63 bf
       0.8713915 -0.4588856 0.13405786 -0.8897977
000110 15 83 77 be f2 f9 93 bf d9 d5 51 3f a9 2a 6f 3f
       -0.24171098 -1.1560652 0.8196693 0.9342447
000120 68 07 55 3f 90 d4 9a bf d6 bb 0f bf cf 32 5e 3e
       0.83214426 -1.2096119 -0.5614599 0.2169907
000130 15 2e 61 3f d5 51 47 bf 31 4d 06 bf 86 aa 83 bf
       0.8796094 -0.7785924 -0.52461535 -1.0286415
000140 41 29 f4 3e 25 1c fc be 5c db 18 3d ff 1a 53 bf
       0.47687724 -0.49240223 0.037318572 -0.8246307
000150 4a a4 1a bf 1a a8 78 bf 63 ab 43 3f 5e 5b 70 3f
       -0.60406935 -0.971315 0.7643339 0.93889415
000160 cc e4 2d 3f 0e 02 9f bf 8a c5 e0 be 96 bc fd 3c
       0.6792724 -1.2422502 -0.4390071 0.030973714
000170 41 f5 72 3f 70 be 60 bf 11 03 05 bf e8 f7 8c bf
       0.9490548 -0.87790585 -0.51957804 -1.1013155
000180 2f 42 a6 bc ee d0 e6 be e5 04 ab 3f a2 ca b4 3e
       -0.02029523 -0.45081276 1.3360869 0.35310847
000190 09 b5 a6 3e 1e 40 9d 3f ec b2 91 be 57 d9 f7 be
       0.32559994 1.2285192 -0.2845682 -0.48408005
0001a0 a8 1c 9e 3f 15 e7 df 3f a1 9e ac 3f bc d4 6c 3f
       1.2352495 1.7492396 1.348591 0.92512107
0001b0 62 29 cb bf 40 66 b7 3e f5 f1 74 bf 07 e3 14 3f
       -1.5872004 0.35820198 -0.956817 0.58158916
0001c0 67 ee 2f 3e c7 f3 eb be 72 f9 b2 3f 3f 79 ba 3e
       0.17180787 -0.46084425 1.3982375 0.36420628
0001d0 23 74 0d 3f 3f 8e 86 be 83 08 0c bf 11 28 18 bf
       0.55255336 -0.262804 -0.5470049 -0.59436136
0001e0 31 31 a2 3f 66 45 d9 3f 11 b9 b0 3f 05 70 61 3f
       1.2671262 1.6974304 1.3806478 0.88061553
0001f0 d7 26 b0 bf 4f 7a 9d 3f ad 87 83 3e bc 4c 40 3f
       -1.3761853 1.2302951 0.2568945 0.7511709
000200 a0 d9 5b 3e ff 39 ed be a3 f2 a6 3f f3 9a 30 bf
       0.21469736 -0.4633331 1.3042797 -0.68986434
000210 b7 15 c5 3f 04 62 d2 be bf 2d f8 bd cf f6 d6 be
       1.5397252 -0.41090405 -0.121181004 -0.41985175
000220 e3 40 97 3f 86 97 c8 3f 9c c8 af 3f 3b 92 92 3f
       1.1816677 1.5671241 1.3733096 1.1450876
000230 bc 7a ad bf 31 d4 cb 3e b1 96 73 bf 37 d9 08 3f
       -1.355308 0.39810327 -0.9515181 0.53456444
000240 a8 0d 26 3f 05 83 e0 be b8 f4 13 bd 10 d5 7d bf
       0.6486459 -0.4384996 -0.036122054 -0.9915323
000250 06 c9 0a bf d3 9c 78 bf 27 1a 76 3f 75 72 77 3f
       -0.5421299 -0.97114295 0.96133655 0.9665902
000260 cb e2 49 3f dd 18 8c bf d1 a3 f6 be 98 a2 17 3e
       0.78861684 -1.0945088 -0.48171857 0.14808118
000270 53 f8 69 3f 00 01 59 bf e9 9d e8 be 94 42 96 bf
       0.9139454 -0.8476715 -0.45432976 -1.1739068
000280 35 c9 1e 3f 12 69 0c bf 6a 4e 28 3d a6 61 79 bf
       0.6202577 -0.54847825 0.041090406 -0.97414625
000290 3d 73 12 bf d8 c8 55 bf 2c d6 61 3f 2c 58 75 3f
       -0.5720709 -0.8350959 0.88217425 0.95837665
0002a0 2f 6e 37 3f 87 20 8d bf e8 58 1f bf b8 8e a0 3e
       0.716525 -1.1025552 -0.62245035 0.31358886
0002b0 08 fb 65 3f 9a aa 45 bf 81 85 cb be 21 de 7c bf
       0.8983617 -0.7721344 -0.39750293 -0.9877644
0002c0 5b 49 34 3f 5d 28 a5 be 4a 66 07 be f6 b8 83 bf
       0.7042443 -0.32257357 -0.13222614 -1.0290821
0002d0 f1 4c 85 be 08 86 7e bf 96 43 76 3f e8 20 6c 3f
       -0.26035264 -0.99423265 0.9619688 0.9223771
0002e0 d7 e3 47 3f 8e 5f 88 bf 21 31 c6 be 28 47 a7 3e
       0.7808203 -1.0654161 -0.38709357 0.32671475
0002f0 48 56 61 3f 4c d5 58 bf a2 18 38 bf 1e eb 7c bf
       0.8802228 -0.84700465 -0.71912587 -0.9879626
000300 a3 6a df bf 51 5b 11 bf bb 24 a9 3f 34 31 bd 3f
       -1.7454418 -0.5677996 1.3214334 1.4780641
000310 66 f6 1e 3f 74 79 35 3e 2e 28 91 be e0 69 fc be
       0.62094724 0.17722112 -0.28350967 -0.49299526
000320 46 ff 97 3f d5 0a d6 3e c3 52 ad 3f c1 e4 8a 3f
       1.1874778 0.4180514 1.3540882 1.085106
000330 af ba 5a be 60 f1 ef 3d b3 4b d1 bf ac 96 35 bf
       -0.21360277 0.117159605 -1.6351227 -0.7093303
000340 a1 83 e0 bf ae cf 07 bf 50 9b a8 3f c6 80 94 3f
       -1.754017 -0.5305127 1.3172398 1.1601799
000350 e2 3b a5 3e 20 f4 40 3d 01 88 8f be 55 a3 f2 be
       0.3227225 0.047107816 -0.2803345 -0.47390237
000360 0a f5 98 3f a6 f8 e6 3e 07 47 ad 3f c2 06 74 3f
       1.194978 0.4511158 1.3537301 0.9532281
000370 28 1f 39 3f a6 68 ad 3f a5 1d 16 bf a5 e3 e2 3e
       0.72313166 1.3547561 -0.58638984 0.44314304
000380 d5 2a e9 bf 2f 3b 9c 3d d1 27 b0 3f 52 5e d0 3f
       -1.8216196 0.07628476 1.3762151 1.6278784
000390 dc 96 2d 3f be a1 99 bf 64 99 97 be 79 d2 0f bf
       0.6780832 -1.2002485 -0.29609215 -0.5618053
0003a0 cd 38 95 3f 9b 78 c6 3e 19 71 b1 3f 41 4b 78 3f
       1.1657959 0.3876389 1.386264 0.9698983
0003b0 4d 45 80 be bc 93 94 be 72 80 c5 bd 69 12 cb 3e
       -0.25052872 -0.29018962 -0.096436396 0.39662483
0003c0 ae 5f f2 3e fc c9 51 3f a3 f0 56 bf 9f 28 b3 3d
       0.47338623 0.8194883 -0.8396093 0.08747982
0003d0 7b 31 ba 3e 9f 46 a4 3f 24 8d f0 be 22 4e e5 be
       0.36365876 1.2834052 -0.46982682 -0.44786173
0003e0 7e 42 9a bf b1 ac e5 be 10 0a df be f9 26 92 bf
       -1.2051542 -0.44858316 -0.43562365 -1.1418144
0003f0 7c 12 22 bf f3 a3 51 3e e3 14 80 3f 2a 5c 67 3f
       -0.63309455 0.20472698 1.0006374 0.90375006
