jordan_elman_2024/exp1/elman_sequence_level/run_10/export/model.safetensors (safetensors, 6576 bytes, 7 tensors)

layers.elman.hh.bias f4 [16]
0.13235804 -0.085832946 0.07621002 0.29434255 -0.03638942 0.100285515 0.45915127 0.17039847
-0.105825685 -0.058710877 0.32813606 0.022106092 0.29387432 0.15905468 0.09330263 -0.106286794
00000000: de88 073e 2fc9 afbd 0014 9c3d 11b4 963e
00000010: 130d 15bd 7e62 cd3d e015 eb3e f07c 2e3e
00000020: 23bb d8bd d17a 70bd 7301 a83e d617 b53c
00000030: b276 963e 3bdf 223e 7315 bf3d e4ac d9bd

layers.elman.hh.weight f4 [16, 16]
0.42802632 0.16415425 0.1691897 0.34903976 0.13667321 -0.20215772 -0.11248874 -0.1328199
0.26392093 0.21629895 0.23196301 0.2172506 0.12686862 0.0046610194 0.27348027 -0.0050848234
0.80452806 0.61573994 -0.16105115 0.16877879 -0.21540098 0.19686809 0.012119477 0.40375757
0.44193578 -0.005960976 0.070251524 -0.26029384 -0.20703122 -0.85391796 0.72131693 -0.24282397
0.2026095 0.2047729 -0.12072516 0.44217876 0.13060415 -0.07967723 -0.25299966 0.03755788
0.064758986 -0.11069483 -0.15576784 0.16017449 0.25963396 -0.414661 0.23259635 -0.23784508
0.62371933 0.36817324 -0.29985636 -0.21012197 -0.18739794 0.09466812 0.2197135 0.35170162
0.08622634 0.20797555 -0.18602346 0.085108735 0.016361102 -0.47257972 0.061834693 0.23143218
0.37303132 0.034288764 0.25753033 -0.6268266 -0.24159355 -0.06446996 0.15726842 -0.029269947
-0.0065279575 0.0013780212 -0.31399164 -0.36684176 0.09823841 -0.2919678 -0.36392266 0.2543485
0.43176338 -0.22215548 -0.26751795 -0.017967556 -0.06612881 -0.2549178 0.0046120225 0.34337
0.31158456 0.50366074 -0.2694206 0.007445972 -0.3189785 -0.8724033 -0.0135686835 -0.097962074
-0.023007471 0.25439662 0.27121618 -0.15630129 -0.34160125 0.25873142 -0.09658291 0.09172452
-0.060706627 -0.15755068 -0.16366723 0.10016351 0.1017709 -0.0055611106 -0.023158982 0.00062470237
0.14906316 -0.10894877 0.07295494 -0.10101429 -0.26318303 -0.043508697 -0.02585397 -0.19734858
-0.23112953 0.14872696 0.06670512 0.23800658 -0.09140074 0.22642106 -0.12238666 0.08579001
-0.6645899 -0.3709652 0.08303939 -0.20919816 0.23714747 -0.031197375 -0.018911187 -0.368134
-0.44067726 -0.09625945 0.10829798 0.04579832 -0.2958735 0.35890687 -0.34990215 0.14382988
0.29651523 -0.015737237 -0.23314576 0.024640404 0.09464315 -0.14876191 0.11599848 0.09019131
-0.12607001 -0.10349229 -0.13386975 -0.27071404 0.026623111 -0.1594006 0.3037728 -0.025469895
-0.7059358 -0.28033933 -0.09446309 -0.53075266 -0.2703586 -0.17424066 0.25973725 -0.053802695
-0.24463566 -0.14046103 -0.20437287 -0.19518262 -0.06901479 0.44371974 -0.45649138 0.46919128
0.13818102 -0.22213797 -0.111936145 -0.23725735 0.23881045 0.34390524 0.105385594 0.14525257
-0.014851448 0.080723904 -0.074998654 0.15550292 -0.1349917 -0.42640135 -0.1529237 -0.044280447
0.02073829 -0.21105398 -0.011285131 -0.16496103 0.18370114 0.28741834 0.13254334 -0.24495286
0.17005488 0.23279367 0.060069133 0.34342203 -0.15012608 -0.19794619 0.12029783 -0.0823701
-0.33994475 -0.07547566 0.2600435 -0.5677343 -0.36656103 0.20647743 0.037684217 -0.38328388
0.030093249 -0.14906652 0.22367102 0.29700366 0.14237416 0.11726806 -0.36119154 0.18042397
-0.2837705 -0.11341675 -0.07859109 0.002525019 -0.06838633 0.38773084 0.0029788145 -0.10109171
-0.108323224 0.14361595 0.110451765 0.09364652 0.19507682 -0.11773798 0.21101892 0.29400775
0.36119062 0.047684915 0.019654287 0.1940948 0.38102356 -0.4330131 -0.19762668 0.34096217
0.09270491 0.046711717 0.05551577 -0.04765935 -0.15877956 -0.27904367 0.2891334 -0.32913968
00000000: 4426 db3e 0d18 283e 1140 2d3e 57b5 b23e
00000010: 10f4 0b3e 6f02 4fbe 7f60 e6bd f101 08be
00000020: a520 873e 797d 5d3e b687 6d3e f176 5e3e
00000030: d9e9 013e 77bb 983b 9b05 8c3e 979e a6bb
00000040: 8df5 4d3f 22a1 1d3f 98ea 24be 59d4 2c3e
00000050: 1392 5cbe ca97 493e c590 463c 50b9 ce3e
00000060: 6845 e23e 4a54 c3bb 08e0 8f3d 3c45 85be
00000070: feff 53be 5e9a 5abf 3aa8 383f d9a6 78be
00000080: dd78 4f3e fdaf 513e c13e f7bd 4165 e23e
00000090: 18bd 053e d12d a3bd 2c89 81be 4bd6 193d
000000a0: 5ca0 843d f9b3 e2bd 9b81 1fbe c804 243e
000000b0: beee 843e 724e d4be bd2d 6e3e a98d 73be
000000c0: 12ac 1f3f 3481 bc3e c686 99be 372a 57be
000000d0: 3fe5 3fbe 5ce1 c13d 93fc 603e 3c12 b43e
000000e0: 6f97 b03d 8bf7 543e ef7c 3ebe 7d4d ae3d
000000f0: b807 863c f8f5 f1be 6046 7d3d 8ffc 6c3e
00000100: f6fd be3e 6072 0c3d 04db 833e b577 20bf
00000110: 4d64 77be d408 84bd f90a 213e 87c7 efbc
00000120: 7ae8 d5bb b89e b43a 83c3 a0be afd2 bbbe
00000130: 3831 c93d ce7c 95be 1254 babe f739 823e
00000140: 1710 dd3e ba7c 63be 1df8 88be b230 93bc
00000150: 8b6e 87bd 9684 82be 7320 973b 31ce af3e
00000160: 0388 9f3e e9ef 003f 7ff1 89be 57fd f33b
00000170: 2651 a3be d355 5fbf 2f4f 5ebc 57a0 c8bd
00000180: 2a7a bcbc 4640 823e d9dc 8a3e 720d 20be
00000190: 5ce6 aebe 7278 843e 43cd c5bd 11da bb3d
000001a0: 83a7 78bd f754 21be 6298 27be 8722 cd3d
000001b0: 436d d03d fa39 b6bb e8b7 bdbc 11c3 233a
000001c0: 03a4 183e 8820 dfbd 6669 953d 94e0 cebd
000001d0: edbf 86be 2d36 32bd b4cb d3bc bf15 4abe
000001e0: 38ad 6cbe e14b 183e b29c 883d ffb7 733e
000001f0: 5030 bbbd ecda 673e dba5 fabd acb2 af3d
00000200: 9022 2abf 27ef bdbe 8e10 aa3d 0b38 56be
00000210: c9d6 723e a391 ffbc a2eb 9abc 0f7c bcbe
00000220: 73a0 e1be ad23 c5bd 55cb dd3d 0597 3b3d
00000230: bb7c 97be a4c2 b73e 6026 b3be 2448 133e
00000240: d8d0 973e 61eb 80bc c3bd 6ebe acda c93c
00000250: 45d4 c13d 0b55 18be 9c90 ed3d 39b6 b83d
00000260: 7f18 01be c4f3 d3bd 2715 09be 089b 8abe
00000270: b618 da3c e939 23be 1c88 9b3e 3ea6 d0bc
00000280: 35b8 34bf a388 8fbe dd75 c1bd 68df 07bf
00000290: 716c 8abe 256c 32be 48fc 843e 3760 5cbd
000002a0: c581 7abe 04d5 0fbe 1f47 51be f4dd 47be
000002b0: a057 8dbd 3c2f e33e 3db9 e9be d739 f03e
000002c0: 537f 0d3e 2378 63be c73e e5bd 97f3 72be
000002d0: ba8a 743e 5914 b03e 67d4 d73d 17bd 143e
000002e0: 7d53 73bc 9352 a53d e598 99bd 283c 1f3e
000002f0: 443b 0abe 4751 dabe 0898 1cbe 6a5f 35bd
00000300: 59e3 a93c 891e 58be 45e5 38bc 8beb 28be
00000310: 271c 3c3e 7f28 933e 71b9 073e ecd4 7abe
00000320: de22 2e3e 7761 6e3e 0d0b 763d 03d5 af3e
00000330: a7ba 19be 68b2 4abe b55e f63d a8b1 a8bd
00000340: 3d0d aebe fc92 9abd 6c24 853e 0957 11bf
00000350: e3ad bbbe d26e 533e c45a 1a3d c93d c4be
00000360: 1e86 f63c e5a4 18be 040a 653e dd10 983e
00000370: 88ca 113e 3d2a f03d 19ee b8be 10c1 383e
00000380: 5e4a 91be 0b47 e8bd 5ef4 a0bd ca7a 253b
00000390: 220e 8cbd a884 c63e 3738 433b 2c09 cfbd
000003a0: 91d8 ddbd 0f10 133e 8934 e23d bfc9 bf3d
000003b0: 38c2 473e 9c20 f1bd 5815 583e 2f88 963e
000003c0: faed b83e 4251 433d 0702 a13c cac0 463e
000003d0: 8515 c33e e5b3 ddbe a65e 4abe 9892 ae3e
000003e0: 12dc bd3d c954 3f3d 8164 633d 7336 43bd
000003f0: 1c97 22be d0de 8ebe 4b09 943e ff84 a8be

layers.elman.hx.bias f4 [16]
0.18176289 0.20831206 -0.15405604 -0.12316827 0.16400775 0.07436454 0.5121835 -0.12323545
-0.18440877 -0.0044159414 0.30122575 0.2287976 0.059244916 0.17834388 0.13099481 0.10215514
00000000: 0d20 3a3e c24f 553e dec0 1dbe a53f fcbd
00000010: a6f1 273e 704c 983d 751e 033f de62 fcbd
00000020: a7d5 3cbe 9ab3 90bb 433a 9a3e eb49 6a3e
00000030: ccaa 723d c79f 363e 8123 063e b736 d13d

layers.elman.hx.weight f4 [16, 22]
0.12138545 0.045284104 0.06853502 0.51497805 -0.09401929 -0.22544417 -0.03918934 0.39309126
0.20653334 0.20876554 -1.2447575 -1.2817218 -1.2288647 0.35366598 0.2042595 0.2388602
0.3942575 0.38532254 0.50037366 0.159473 0.18532433 0.33226612 -0.22508399 0.027811985
-0.20710278 -0.61539805 -0.10192034 -0.021291392 -0.07530144 0.21156865 0.15041149 0.22176917
-0.6271949 -0.69615155 -0.6747745 0.11131172 0.21452993 0.3013557 0.39610827 0.45492005
0.39695433 -0.09095007 -0.14582834 -0.13870786 -0.045215383 0.1383272 0.009369884 -0.49576527
-0.7036669 -0.70257044 -0.8047525 0.24636081 0.019563729 -0.06313899 -0.44117838 -0.47055972
-0.62948376 0.096934214 0.27477977 0.27429658 0.71837527 0.70762134 0.8598541 0.5188668
0.6385963 0.39144424 -0.29171634 0.14343436 -0.017102983 -1.546142 0.7830856 0.7446632
0.78162193 0.4829074 0.4944013 0.49901277 0.38454875 0.43441114 0.32453728 0.48074773
0.4987894 0.5362936 -0.5959268 -0.68177366 -0.45882156 -0.9439494 -0.67335695 -0.8634336
-0.21927391 -0.026382718 0.19561832 -0.7017575 0.96682537 0.90784866 1.0020931 0.26695856
0.5108552 0.41765562 0.9838474 0.8461245 0.9062796 0.3997421 0.48872316 0.52283704
-1.125185 -1.0862345 -1.1888212 -1.1487952 -1.1933999 -1.135542 -0.3862212 -0.16747507
-0.020368367 -1.207267 0.72484374 0.63429123 0.7172841 -1.0054615 -0.9131416 -0.97109276
0.7764397 0.7827663 0.704168 -0.97462714 -0.97623736 -0.96125996 0.5507973 0.5980565
0.5665 0.43892223 0.47480464 0.5089951 -0.05021286 -0.07518997 0.19778971 0.074666776
-0.18646161 0.04371921 0.093624406 0.047160916 0.0043926993 0.28312016 0.03672874 0.07196912
-0.040342826 0.2589344 0.015789848 0.19135426 -0.07548713 0.10855451 0.009436255 -0.16110936
0.10504054 -0.10608812 0.15635325 -0.010640736 0.09898818 0.00053835846 0.42679095 0.48980814
0.40959913 0.17981699 0.07666437 0.19483854 -0.179892 -0.19368893 -0.16589907 0.16746317
0.11212015 0.0086251795 -0.28232142 -0.19398236 -0.4131559 -0.3755027 -0.42957175 -0.47745657
-0.049923487 0.14092067 0.16104172 -0.31222403 0.3694048 0.19580658 0.44504508 -0.31571633
-0.21880583 -0.35388073 -0.25576696 -0.29597297 -0.345449 -0.29574755 -0.29496437 -0.456749
0.15426013 0.116214015 0.20816058 0.45576012 0.67073506 0.5183556 0.41818815 -0.032991793
0.18259643 0.92309046 0.52410275 0.357448 0.43828055 -0.06299753 -0.3539541 -0.25401396
0.16124149 0.24945126 0.18959528 -0.3380182 -0.07584431 -0.40609002 -0.3027212 -0.097034946
-0.18744393 -0.25487107 -0.302647 -0.39903 -0.38907087 -0.04319284 0.16017233 -0.8156653
0.19872677 0.21590652 0.25162765 7.692783e-05 -0.025703285 0.21721686 0.20639302 0.29650065
0.1892912 0.20174158 0.14503025 0.2930274 -0.4009059 -0.27887633 -0.13569787 0.1102803
0.075076155 -0.073628105 -0.3615456 -0.14420417 0.11238902 -1.4316036 0.34987774 0.4163389
0.31081435 -0.53239626 -0.59851336 -0.45499653 0.48774996 0.44924188 0.56532425 -0.39534503
00000000: ef98 f83d d37b 393d 175c 8c3d 9ad5 033f
00000010: 2f8d c0bd d6da 66be 0085 20bd 4243 c93e
00000020: 7a7d 533e a2c6 553e 3754 9fbf 760f a4bf
00000030: 704b 9dbf b513 b53e 6729 513e c597 743e
00000040: 1edc c93e ff48 c53e 7d18 003f e44c 233e
00000050: a9c5 3d3e c91e aa3e 6b7c 66be f6d5 e33c
00000060: c012 54be ba8a 1dbf 9cbb d0bd 496b aebc
00000070: a437 9abd 74a5 583e 7805 1a3e 7517 633e
00000080: d88f 20bf fd36 32bf 06be 2cbf 66f7 e33d
00000090: bcad 5b3e 4b4b 9a3e b4ce ca3e 48eb e83e
000000a0: 993d cb3e 0844 babd 0654 15be 6f09 0ebe
000000b0: c433 39bd a5a5 0d3e 2484 193c f2d4 fdbe
000000c0: 8423 34bf a8db 33bf 4304 4ebf 0246 7c3e
000000d0: 1d44 a03c 044f 81bd 22e2 e1be 34ed f0be
000000e0: d925 21bf 7285 c63d efaf 8c3e 9a70 8c3e
000000f0: 71e7 373f ac26 353f 661f 5c3f 74d4 043f
00000100: 0c7b 233f 616b c83e d85b 95be 75e0 123e
00000110: 8e1b 8cbc fbe7 c5bf 4c78 483f 3fa2 3e3f
00000120: 6018 483f a43f f73e 2b22 fd3e 9a7e ff3e
00000130: 93e3 c43e 236b de3e c029 a63e 9124 f63e
00000140: 5361 ff3e 8a4a 093f a98e 18bf b888 2ebf
00000150: a9ea eabe aba6 71bf 1f61 2cbf fc09 5dbf
00000160: 5789 60be 9220 d8bc 2b50 483e 61a6 33bf
00000170: de81 773f c568 683f 9644 803f cbae 883e
00000180: 68c7 023f f5d6 d53e 6cdd 7b3f 9d9b 583f
00000190: f101 683f ffaa cc3e ec39 fa3e a6d8 053f
000001a0: 1006 90bf bb09 8bbf 4b2b 98bf b90b 93bf
000001b0: 54c1 98bf 7159 91bf c9be c5be 967e 2bbe
000001c0: 90db a6bc ba87 9abf 5c8f 393f e960 223f
000001d0: ee9f 373f f6b2 80bf a6c3 69bf 8999 78bf
000001e0: c1c4 463f 5f63 483f 5b44 343f 2a81 79bf
000001f0: b1ea 79bf 2215 76bf 0d01 0d3f 3b1a 193f
00000200: 2506 113f 6aba e03e 9819 f33e 814d 023f
00000210: 00ac 4dbd 33fd 99bd 6389 4a3e e5ea 983d
00000220: cbef 3ebe ea12 333d 27be bf3d ce2b 413d
00000230: a2f0 8f3b 20f5 903e e070 163d 8c64 933d
00000240: 853e 25bd 0d93 843e b659 813c 5ff2 433e
00000250: ff98 9abd d451 de3d 869a 1a3c daf9 24be
00000260: 7f1f d73d ba44 d9bd 111b 203e 7b56 2ebc
00000270: 51ba ca3d a020 0d3a 5884 da3e 22c8 fa3e
00000280: fab6 d13e f221 383e 3602 9d3d c183 473e
00000290: 9c35 38be 6456 46be 72e1 29be 777b 2b3e
000002a0: 409f e53d a050 0d3c 6f8c 90be 50a3 46be
000002b0: 2c89 d3be e441 c0be d4f0 dbbe 3075 f4be
000002c0: 927c 4cbd 824d 103e 1fe8 243e d4db 9fbe
000002d0: a022 bd3e 8581 483e f3dc e33e 92a5 a1be
000002e0: a30e 60be db2f b5be e3f3 82be c589 97be
000002f0: b1de b0be 396c 97be 9205 97be 01db e9be
00000300: 5ef6 1d3e 9d01 ee3d 0c28 553e 6459 e93e
00000310: 4bb5 2b3f f4b2 043f c21c d63e 6722 07bd
00000320: 8ffa 3a3e a84f 6c3f 992b 063f 6d03 b73e
00000330: 4f66 e03e d904 81bd 7939 b5be 1e0e 82be
00000340: 7d1c 253e 2770 7f3e 4425 423e b910 adbe
00000350: 4354 9bbd 08eb cfbe 46fe 9abe 42ba c6bd
00000360: 4df1 3fbe 767e 82be 8cf4 9abe a94d ccbe
00000370: 4c34 c7be faea 30bd 3704 243e 71cf 50bf
00000380: 087f 4b3e 9916 5d3e 57d5 803e 5054 a138
00000390: b28f d2bc 196e 5e3e b158 533e efce 973e
000003a0: 8dd5 413e 5895 4e3e cf82 143e b007 963e
000003b0: 8a43 cdbe e1c8 8ebe 62f4 0abe a3da e13d
000003c0: 87c1 993d 55ca 96bd 811c b9be 42aa 13be
000003d0: 372c e63d c93e b7bf 2d23 b33e 5f2a d53e
000003e0: 0f23 9f3e 1f4b 08bf 2c38 19bf 4ef5 e8be
000003f0: 5dba f93e 0803 e63e 17b9 103f aa6a cabe

layers.embed.emb.weight f4 [22, 22]
1.0 0.0 0.0 0.0 0.0 0.0 0.0 0.0
0.0 0.0 0.0 0.0 0.0 0.0 0.0 0.0
0.0 0.0 0.0 0.0 0.0 0.0 0.0 1.0
0.0 0.0 0.0 0.0 0.0 0.0 0.0 0.0
0.0 0.0 0.0 0.0 0.0 0.0 0.0 0.0
0.0 0.0 0.0 0.0 0.0 0.0 1.0 0.0
0.0 0.0 0.0 0.0 0.0 0.0 0.0 0.0
0.0 0.0 0.0 0.0 0.0 0.0 0.0 0.0
0.0 0.0 0.0 0.0 0.0 1.0 0.0 0.0
0.0 0.0 0.0 0.0 0.0 0.0 0.0 0.0
0.0 0.0 0.0 0.0 0.0 0.0 0.0 0.0
0.0 0.0 0.0 0.0 1.0 0.0 0.0 0.0
0.0 0.0 0.0 0.0 0.0 0.0 0.0 0.0
0.0 0.0 0.0 0.0 0.0 0.0 0.0 0.0
0.0 0.0 0.0 1.0 0.0 0.0 0.0 0.0
0.0 0.0 0.0 0.0 0.0 0.0 0.0 0.0
0.0 0.0 0.0 0.0 0.0 0.0 0.0 0.0
0.0 0.0 1.0 0.0 0.0 0.0 0.0 0.0
0.0 0.0 0.0 0.0 0.0 0.0 0.0 0.0
0.0 0.0 0.0 0.0 0.0 0.0 0.0 0.0
0.0 1.0 0.0 0.0 0.0 0.0 0.0 0.0
0.0 0.0 0.0 0.0 0.0 0.0 0.0 0.0
0.0 0.0 0.0 0.0 0.0 0.0 0.0 0.0
1.0 0.0 0.0 0.0 0.0 0.0 0.0 0.0
0.0 0.0 0.0 0.0 0.0 0.0 0.0 0.0
0.0 0.0 0.0 0.0 0.0 0.0 0.0 1.0
0.0 0.0 0.0 0.0 0.0 0.0 0.0 0.0
0.0 0.0 0.0 0.0 0.0 0.0 0.0 0.0
0.0 0.0 0.0 0.0 0.0 0.0 1.0 0.0
0.0 0.0 0.0 0.0 0.0 0.0 0.0 0.0
0.0 0.0 0.0 0.0 0.0 0.0 0.0 0.0
0.0 0.0 0.0 0.0 0.0 1.0 0.0 0.0
00000000: 0000 803f 0000 0000 0000 0000 0000 0000
00000010: 0000 0000 0000 0000 0000 0000 0000 0000
00000020: 0000 0000 0000 0000 0000 0000 0000 0000
00000030: 0000 0000 0000 0000 0000 0000 0000 0000
00000040: 0000 0000 0000 0000 0000 0000 0000 0000
00000050: 0000 0000 0000 0000 0000 0000 0000 803f
00000060: 0000 0000 0000 0000 0000 0000 0000 0000
00000070: 0000 0000 0000 0000 0000 0000 0000 0000
00000080: 0000 0000 0000 0000 0000 0000 0000 0000
00000090: 0000 0000 0000 0000 0000 0000 0000 0000
000000a0: 0000 0000 0000 0000 0000 0000 0000 0000
000000b0: 0000 0000 0000 0000 0000 803f 0000 0000
000000c0: 0000 0000 0000 0000 0000 0000 0000 0000
000000d0: 0000 0000 0000 0000 0000 0000 0000 0000
000000e0: 0000 0000 0000 0000 0000 0000 0000 0000
000000f0: 0000 0000 0000 0000 0000 0000 0000 0000
00000100: 0000 0000 0000 0000 0000 0000 0000 0000
00000110: 0000 0000 0000 803f 0000 0000 0000 0000
00000120: 0000 0000 0000 0000 0000 0000 0000 0000
00000130: 0000 0000 0000 0000 0000 0000 0000 0000
00000140: 0000 0000 0000 0000 0000 0000 0000 0000
00000150: 0000 0000 0000 0000 0000 0000 0000 0000
00000160: 0000 0000 0000 0000 0000 0000 0000 0000
00000170: 0000 803f 0000 0000 0000 0000 0000 0000
00000180: 0000 0000 0000 0000 0000 0000 0000 0000
00000190: 0000 0000 0000 0000 0000 0000 0000 0000
000001a0: 0000 0000 0000 0000 0000 0000 0000 0000
000001b0: 0000 0000 0000 0000 0000 0000 0000 0000
000001c0: 0000 0000 0000 0000 0000 0000 0000 803f
000001d0: 0000 0000 0000 0000 0000 0000 0000 0000
000001e0: 0000 0000 0000 0000 0000 0000 0000 0000
000001f0: 0000 0000 0000 0000 0000 0000 0000 0000
00000200: 0000 0000 0000 0000 0000 0000 0000 0000
00000210: 0000 0000 0000 0000 0000 0000 0000 0000
00000220: 0000 0000 0000 0000 0000 803f 0000 0000
00000230: 0000 0000 0000 0000 0000 0000 0000 0000
00000240: 0000 0000 0000 0000 0000 0000 0000 0000
00000250: 0000 0000 0000 0000 0000 0000 0000 0000
00000260: 0000 0000 0000 0000 0000 0000 0000 0000
00000270: 0000 0000 0000 0000 0000 0000 0000 0000
00000280: 0000 0000 0000 803f 0000 0000 0000 0000
00000290: 0000 0000 0000 0000 0000 0000 0000 0000
000002a0: 0000 0000 0000 0000 0000 0000 0000 0000
000002b0: 0000 0000 0000 0000 0000 0000 0000 0000
000002c0: 0000 0000 0000 0000 0000 0000 0000 0000
000002d0: 0000 0000 0000 0000 0000 0000 0000 0000
000002e0: 0000 803f 0000 0000 0000 0000 0000 0000
000002f0: 0000 0000 0000 0000 0000 0000 0000 0000
00000300: 0000 0000 0000 0000 0000 0000 0000 0000
00000310: 0000 0000 0000 0000 0000 0000 0000 0000
00000320: 0000 0000 0000 0000 0000 0000 0000 0000
00000330: 0000 0000 0000 0000 0000 0000 0000 803f
00000340: 0000 0000 0000 0000 0000 0000 0000 0000
00000350: 0000 0000 0000 0000 0000 0000 0000 0000
00000360: 0000 0000 0000 0000 0000 0000 0000 0000
00000370: 0000 0000 0000 0000 0000 0000 0000 0000
00000380: 0000 0000 0000 0000 0000 0000 0000 0000
00000390: 0000 0000 0000 0000 0000 803f 0000 0000
000003a0: 0000 0000 0000 0000 0000 0000 0000 0000
000003b0: 0000 0000 0000 0000 0000 0000 0000 0000
000003c0: 0000 0000 0000 0000 0000 0000 0000 0000
000003d0: 0000 0000 0000 0000 0000 0000 0000 0000
000003e0: 0000 0000 0000 0000 0000 0000 0000 0000
000003f0: 0000 0000 0000 803f 0000 0000 0000 0000

layers.lm_head.proj.bias f4 [22]
-0.8753634 -0.82379013 -1.0550243 0.46891323 -0.044334024 -0.13591482 -0.14048436 0.36624995
-0.012022281 0.14566152 0.04047341 -0.1504551 -0.045342922 0.3359731 0.20904706 0.24570757
0.2789652 0.19700499 0.41009742 0.20705003 0.052171778 0.3596183
00000000: d117 60bf e9e3 52bf 090b 87bf 6515 f03e
00000010: 9897 35bd 412d 0bbe 22db 0fbe 1d85 bb3e
00000020: 1af9 44bc 4b28 153e 72c7 253d e710 1abe
00000030: 80b9 39bd ab04 ac3e 6f10 563e c49a 7b3e
00000040: 87d4 8e3e adbb 493e 4af8 d13e ec04 543e
00000050: 13b2 553d e41f b83e

layers.lm_head.proj.weight f4 [22, 16]
-0.3575141 0.11467649 -0.117549814 -0.14063866 0.23312934 0.01800199 -0.82547766 -0.20950776
0.2759116 -0.109044895 -0.64815855 0.07865426 -0.28663826 0.0048512816 -0.14054483 -0.30718628
-0.41027752 0.1492202 0.10441464 -0.16653714 0.059791196 -0.0381988 -0.8232394 -0.07809564
0.3976641 -0.31789392 -0.46029505 0.17097859 -0.52036 0.03877761 -0.036125414 -0.20704849
-0.327983 -0.016870955 0.0895666 0.114147075 -0.06635561 -0.0006991902 -0.8421932 -0.041425087
0.18307137 -0.13843952 -0.31641412 -0.10735396 -0.2722478 -0.22682837 0.18389966 -0.27387145
0.8381297 0.8468861 0.32281137 1.689718 1.2264644 -2.9773269 0.29337168 0.47349325
-1.0962045 -0.8127651 0.42430103 -1.2327594 0.41900957 2.2251253 -0.11948447 -2.037228
0.1807646 -0.36861736 -0.04245599 -0.7709025 -0.33865923 -0.6544007 0.044500243 0.017094495
-0.040493906 0.49685735 -0.30457285 -0.88957936 -0.7929881 -0.7655469 -0.74302727 0.3388768
0.31715003 -0.14678186 -0.315132 -0.5446318 -0.3818466 -0.8622541 0.10281127 -0.025656313
-0.19047293 0.3226577 -0.34452775 -0.67161196 -0.7759353 -0.6070269 -0.7044529 0.738629
0.49972966 -0.13940632 -0.11879937 -0.5860686 -0.26929566 -0.76258975 -0.1108531 0.004670698
-0.30291027 0.4734497 -0.14669728 -0.6076679 -0.609208 -0.69738036 -0.91222876 0.7660456
0.56545585 1.2165424 1.1518948 -0.04952762 -1.271499 0.9467659 0.0011886945 -0.34701154
-0.29470897 -0.24299674 -0.602668 0.35922202 0.74052894 0.3971554 0.5812404 0.18309036
0.80766463 1.242096 1.1541673 -0.10902542 -1.2547128 0.93637437 0.06806923 -0.3698456
-0.32779434 -0.25776178 -0.44411597 0.61069965 0.74145883 0.33066693 0.47458944 0.20010869
0.7318223 1.2110467 1.05659 -0.060168378 -1.2316582 0.91596085 0.043478396 -0.48295906
-0.29906127 -0.23012334 -0.4813431 0.6307102 0.505924 0.40816164 0.5751037 0.30612928
0.27258453 -0.121504694 -0.18677236 -0.64789134 -0.43852425 -0.83781165 -0.16093628 -0.00060382753
-0.38566336 0.328837 -0.1851194 -0.77211785 -0.49996963 -0.92246443 -0.712248 0.5258081
0.14440894 -0.2279304 -0.10626387 -0.78525156 -0.34279317 -0.52193135 0.036044873 0.11095928
-0.32861617 0.44171718 -0.379165 -0.9605693 -0.5112934 -0.786441 -0.69728 0.65873003
0.5024454 -0.21131212 -0.13151656 -0.5714507 -0.30222082 -0.6866471 -0.08606889 0.071936406
-0.20523933 0.2783412 -0.20645545 -0.9428351 -0.79313797 -0.7087944 -0.70088005 0.5303696
0.19355877 -0.5677766 0.4736959 -0.88351965 -1.3196373 0.046430416 0.016877873 -0.18744278
0.92593235 -0.77652234 0.63180953 0.44606102 0.7604508 0.8524755 0.70255077 -0.30064216
0.3946526 -0.6511175 0.4293363 -0.76110905 -1.4891967 0.15870257 -0.007703764 -0.2146837
0.905151 -0.42384586 0.6946828 0.29763174 0.77104735 1.1445867 0.66380775 -0.5101516
0.27227595 -0.7458368 0.5689656 -0.8206101 -1.4423895 0.13590729 0.018794632 -0.23010176
0.6492245 -0.64020264 0.6481528 0.29905394 0.51080394 1.0811133 0.8160594 -0.56318164
00000000: 170c b7be 82db ea3d f5bd f0bd 9503 10be
00000010: 75b9 6e3e e978 933c 8152 53bf 3489 56be
00000020: 4944 8d3e ee52 dfbd b8ed 25bf 7c15 a13d
00000030: 40c2 92be 80f7 9e3b fcea 0fbe 8547 9dbe
00000040: e50f d2be 2ecd 183e 58d7 d53d b688 2abe
00000050: 9de7 743d 5876 1cbd d1bf 52bf 9bf0 9fbd
00000060: a19a cb3e fec2 a2be cbab ebbe 0315 2f3e
00000070: 5036 05bf 45d5 1e3d 3ef8 13bd 8504 54be
00000080: 63ed a7be f534 8abc b26e b73d f1c5 e93d
00000090: 73e5 87bd dc49 37ba f999 57bf 5aad 29bd
000000a0: 1077 3b3e 17c3 0dbe 0801 a2be 65dc dbbd
000000b0: 1064 8bbe b245 68be 3150 3c3e e138 8cbe
000000c0: ab8f 563f 87cd 583f 8847 a53e ae48 d83f
000000d0: c9fc 9c3f 868c 3ec0 d034 963e b56d f23e
000000e0: 6e50 8cbf 6011 50bf fc3d d93e 0fcb 9dbf
000000f0: 6c88 d63e 7468 0e40 46b4 f4bd f261 02c0
00000100: 5b1a 393e 6abb bcbe 55e6 2dbd de59 45bf
00000110: be64 adbe ce86 27bf e345 363d c109 8c3c
00000120: f0dc 25bd 1664 fe3e f9f0 9bbe 79bb 63bf
00000130: 4501 4bbf e2fa 43bf 0937 3ebf 4381 ad3e
00000140: 7d61 a23e fc4d 16be fb58 a1be fd6c 0bbf
00000150: 6681 c3be afbc 5cbf b78e d23d 302d d2bc
00000160: 560b 43be 6433 a53e f165 b0be c3ee 2bbf
00000170: b2a3 46bf 1d66 1bbf 0657 34bf ca16 3d3f
00000180: 91dc ff3e 88c0 0ebe 164d f3bd 9708 16bf
00000190: 1fe1 89be 1539 43bf f306 e3bd a80c 993b
000001a0: 0e17 9bbe 0068 f23e d037 16be 2090 1bbf
000001b0: 0ef5 1bbf 8587 32bf d387 69bf 901b 443f
000001c0: b7c1 103f a9b7 9b3f 4a71 933f 79dd 4abd
000001d0: 7bc0 a2bf 405f 723f f8cd 9b3a 7fab b1be
000001e0: 18e4 96be 23d4 78be 7348 1abf f3eb b73e
000001f0: 4e93 3d3f f457 cb3e 2ccc 143f 0a7c 3b3e
00000200: 1cc3 4e3f 00fd 9e3f c1bb 933f b848 dfbd
00000210: 6e9a a0bf 3bb6 6f3f e167 8b3d 675c bdbe
00000220: a9d4 a7be 5af9 83be 2b63 e3be d056 1c3f
00000230: 3fd0 3d3f 2d4d a93e 63fd f23e 4be9 4c3e
00000240: b558 3b3f 9403 9b3f 573e 873f 1e73 76bd
00000250: faa6 9dbf 697c 6a3f 6716 323d 6946 f7be
00000260: 8f1e 99be 74a5 6bbe 9a72 f6be 3976 213f
00000270: 3c84 013f 90fa d03e ff39 133f fabc 9c3e
00000280: 3390 8b3e 74d7 f8bd 4141 3fbe 35dc 25bf
00000290: 4086 e0be d37a 56bf 7bcc 24be 2e4a 1eba
000002a0: ab75 c5be 535d a83e f18f 3dbe 84a9 45bf
000002b0: 05fc ffbe a126 6cbf e355 36bf 5c9b 063f
000002c0: f0df 133e 9666 69be dfa0 d9bd 3f06 49bf
000002d0: 9682 afbe 4b9d 05bf caa3 133d 9e3e e33d
000002e0: 6140 a8be c128 e23e ea21 c2be dfe7 75bf
000002f0: 20e4 02bf 3354 49bf f180 32bf 88a2 283f
00000300: 43a0 003f 3462 58be 47ac 06be 984a 12bf
00000310: b0bc 9abe 1bc8 2fbf e344 b0bd 6553 933d
00000320: 422a 52be bd82 8e3e 0f69 53be a45d 71bf
00000330: 170b 4bbf 8d73 35bf e06c 33bf 4dc6 073f
00000340: 4534 463e cf59 11bf 4588 f23e 582e 62bf
00000350: e0e9 a8bf d22d 3e3d 7743 8a3c 00f1 3fbe
00000360: e709 6d3f 2bca 46bf 45be 213f 1c62 e43e
00000370: e7ac 423f d63b 5a3f 5eda 333f c5ed 99be
00000380: e80f ca3e a3af 26bf f8d1 db3e 0bd8 42bf
00000390: ff9d bebf ed82 223e db6f fcbb 0bd6 5bbe
000003a0: fab7 673f 5302 d9be bbd6 313f 3063 983e
000003b0: 5c63 453f d181 923f 4eef 293f 4c99 02bf
000003c0: c167 8b3e 29ef 3ebf bba7 113f 8113 52bf
000003d0: 38a0 b8bf 482b 0b3e 33f7 993c cc9f 6bbe
000003e0: 9433 263f 52e4 23bf 58ed 253f 991d 993e
000003f0: 0cc4 023f ec61 8a3f 45e9 503f ac2c 10bf
