jordan_elman_2024/exp2/jordan_item_level/run_28/export/model.safetensors (safetensors, 6976 bytes, 7 tensors)

layers.embed.emb.weight f4 [22, 22]
000000 00 00 80 3f 00 00 00 00 00 00 00 00 00 00 00 00
       1.0 0.0 0.0 0.0
000010 00 00 00 00 00 00 00 00 00 00 00 00 00 00 00 00
       0.0 0.0 0.0 0.0
000020 00 00 00 00 00 00 00 00 00 00 00 00 00 00 00 00
       0.0 0.0 0.0 0.0
000030 00 00 00 00 00 00 00 00 00 00 00 00 00 00 00 00
       0.0 0.0 0.0 0.0
000040 00 00 00 00 00 00 00 00 00 00 00 00 00 00 00 00
       0.0 0.0 0.0 0.0
000050 00 00 00 00 00 00 00 00 00 00 00 00 00 00 80 3f
       0.0 0.0 0.0 1.0
000060 00 00 00 00 00 00 00 00 00 00 00 00 00 00 00 00
       0.0 0.0 0.0 0.0
000070 00 00 00 00 00 00 00 00 00 00 00 00 00 00 00 00
       0.0 0.0 0.0 0.0
000080 00 00 00 00 00 00 00 00 00 00 00 00 00 00 00 00
       0.0 0.0 0.0 0.0
000090 00 00 00 00 00 00 00 00 00 00 00 00 00 00 00 00
       0.0 0.0 0.0 0.0
0000a0 00 00 00 00 00 00 00 00 00 00 00 00 00 00 00 00
       0.0 0.0 0.0 0.0
0000b0 00 00 00 00 00 00 00 00 00 00 80 3f 00 00 00 00
       0.0 0.0 1.0 0.0
0000c0 00 00 00 00 00 00 00 00 00 00 00 00 00 00 00 00
       0.0 0.0 0.0 0.0
0000d0 00 00 00 00 00 00 00 00 00 00 00 00 00 00 00 00
       0.0 0.0 0.0 0.0
0000e0 00 00 00 00 00 00 00 00 00 00 00 00 00 00 00 00
       0.0 0.0 0.0 0.0
0000f0 00 00 00 00 00 00 00 00 00 00 00 00 00 00 00 00
       0.0 0.0 0.0 0.0
000100 00 00 00 00 00 00 00 00 00 00 00 00 00 00 00 00
       0.0 0.0 0.0 0.0
000110 00 00 00 00 00 00 80 3f 00 00 00 00 00 00 00 00
       0.0 1.0 0.0 0.0
000120 00 00 00 00 00 00 00 00 00 00 00 00 00 00 00 00
       0.0 0.0 0.0 0.0
000130 00 00 00 00 00 00 00 00 00 00 00 00 00 00 00 00
       0.0 0.0 0.0 0.0
000140 00 00 00 00 00 00 00 00 00 00 00 00 00 00 00 00
       0.0 0.0 0.0 0.0
000150 00 00 00 00 00 00 00 00 00 00 00 00 00 00 00 00
       0.0 0.0 0.0 0.0
000160 00 00 00 00 00 00 00 00 00 00 00 00 00 00 00 00
       0.0 0.0 0.0 0.0
000170 00 00 80 3f 00 00 00 00 00 00 00 00 00 00 00 00
       1.0 0.0 0.0 0.0
000180 00 00 00 00 00 00 00 00 00 00 00 00 00 00 00 00
       0.0 0.0 0.0 0.0
000190 00 00 00 00 00 00 00 00 00 00 00 00 00 00 00 00
       0.0 0.0 0.0 0.0
0001a0 00 00 00 00 00 00 00 00 00 00 00 00 00 00 00 00
       0.0 0.0 0.0 0.0
0001b0 00 00 00 00 00 00 00 00 00 00 00 00 00 00 00 00
       0.0 0.0 0.0 0.0
0001c0 00 00 00 00 00 00 00 00 00 00 00 00 00 00 80 3f
       0.0 0.0 0.0 1.0
0001d0 00 00 00 00 00 00 00 00 00 00 00 00 00 00 00 00
       0.0 0.0 0.0 0.0
0001e0 00 00 00 00 00 00 00 00 00 00 00 00 00 00 00 00
       0.0 0.0 0.0 0.0
0001f0 00 00 00 00 00 00 00 00 00 00 00 00 00 00 00 00
       0.0 0.0 0.0 0.0
000200 00 00 00 00 00 00 00 00 00 00 00 00 00 00 00 00
       0.0 0.0 0.0 0.0
000210 00 00 00 00 00 00 00 00 00 00 00 00 00 00 00 00
       0.0 0.0 0.0 0.0
000220 00 00 00 00 00 00 00 00 00 00 80 3f 00 00 00 00
       0.0 0.0 1.0 0.0
000230 00 00 00 00 00 00 00 00 00 00 00 00 00 00 00 00
       0.0 0.0 0.0 0.0
000240 00 00 00 00 00 00 00 00 00 00 00 00 00 00 00 00
       0.0 0.0 0.0 0.0
000250 00 00 00 00 00 00 00 00 00 00 00 00 00 00 00 00
       0.0 0.0 0.0 0.0
000260 00 00 00 00 00 00 00 00 00 00 00 00 00 00 00 00
       0.0 0.0 0.0 0.0
000270 00 00 00 00 00 00 00 00 00 00 00 00 00 00 00 00
       0.0 0.0 0.0 0.0
000280 00 00 00 00 00 00 80 3f 00 00 00 00 00 00 00 00
       0.0 1.0 0.0 0.0
000290 00 00 00 00 00 00 00 00 00 00 00 00 00 00 00 00
       0.0 0.0 0.0 0.0
0002a0 00 00 00 00 00 00 00 00 00 00 00 00 00 00 00 00
       0.0 0.0 0.0 0.0
0002b0 00 00 00 00 00 00 00 00 00 00 00 00 00 00 00 00
       0.0 0.0 0.0 0.0
0002c0 00 00 00 00 00 00 00 00 00 00 00 00 00 00 00 00
       0.0 0.0 0.0 0.0
0002d0 00 00 00 00 00 00 00 00 00 00 00 00 00 00 00 00
       0.0 0.0 0.0 0.0
0002e0 00 00 80 3f 00 00 00 00 00 00 00 00 00 00 00 00
       1.0 0.0 0.0 0.0
0002f0 00 00 00 00 00 00 00 00 00 00 00 00 00 00 00 00
       0.0 0.0 0.0 0.0
000300 00 00 00 00 00 00 00 00 00 00 00 00 00 00 00 00
       0.0 0.0 0.0 0.0
000310 00 00 00 00 00 00 00 00 00 00 00 00 00 00 00 00
       0.0 0.0 0.0 0.0
000320 00 00 00 00 00 00 00 00 00 00 00 00 00 00 00 00
       0.0 0.0 0.0 0.0
000330 00 00 00 00 00 00 00 00 00 00 00 00 00 00 80 3f
       0.0 0.0 0.0 1.0
000340 00 00 00 00 00 00 00 00 00 00 00 00 00 00 00 00
       0.0 0.0 0.0 0.0
000350 00 00 00 00 00 00 00 00 00 00 00 00 00 00 00 00
       0.0 0.0 0.0 0.0
000360 00 00 00 00 00 00 00 00 00 00 00 00 00 00 00 00
       0.0 0.0 0.0 0.0
000370 00 00 00 00 00 00 00 00 00 00 00 00 00 00 00 00
       0.0 0.0 0.0 0.0
000380 00 00 00 00 00 00 00 00 00 00 00 00 00 00 00 00
       0.0 0.0 0.0 0.0
000390 00 00 00 00 00 00 00 00 00 00 80 3f 00 00 00 00
       0.0 0.0 1.0 0.0
0003a0 00 00 00 00 00 00 00 00 00 00 00 00 00 00 00 00
       0.0 0.0 0.0 0.0
0003b0 00 00 00 00 00 00 00 00 00 00 00 00 00 00 00 00
       0.0 0.0 0.0 0.0
0003c0 00 00 00 00 00 00 00 00 00 00 00 00 00 00 00 00
       0.0 0.0 0.0 0.0
0003d0 00 00 00 00 00 00 00 00 00 00 00 00 00 00 00 00
       0.0 0.0 0.0 0.0
0003e0 00 00 00 00 00 00 00 00 00 00 00 00 00 00 00 00
       0.0 0.0 0.0 0.0
0003f0 00 00 00 00 00 00 80 3f 00 00 00 00 00 00 00 00
       0.0 1.0 0.0 0.0

layers.jordan.hx.bias f4 [16]
000000 0a 54 b7 3e ab b2 60 be a2 1d 56 bd 91 1d ef bd
       0.35806304 -0.21943156 -0.052274354 -0.11675561
000010 f9 74 08 3e 8a 8a 8d be ef 94 fc bd 22 6f a8 bd
       0.13325872 -0.2764476 -0.12333094 -0.08224322
000020 dc e4 4c 3e 64 8b b9 bd 85 8b d4 3e a7 8f 03 3e
       0.20009178 -0.0905979 0.41512695 0.12847768
000030 1b 56 2b bd 8f 7e 58 3e 85 d9 96 be 15 9e 19 be
       -0.041830163 0.21142028 -0.2946283 -0.1500171

layers.jordan.hx.weight f4 [16, 22]
000000 4d 3a 90 3e 1a 26 5a be 9c 79 b3 bc 54 19 84 3f
       0.2816948 -0.21303597 -0.021908574 1.032023
000010 dc 12 60 3c 2d 4c 57 be 00 a8 8b bd 19 6b 17 be
       0.013676371 -0.21025153 -0.06819153 -0.14786948
000020 d3 cc 23 be 31 57 93 be 61 48 09 bd ce e1 e4 3c
       -0.15996103 -0.2877746 -0.03351629 0.027939703
000030 96 c0 55 be 44 a4 e3 bd 71 35 43 3c 3f 3d e7 bd
       -0.20874247 -0.111153156 0.011914597 -0.11290979
000040 f7 cf ae bd 78 8d 8b 38 73 c5 9d 3c 22 3a de 3d
       -0.0853576 6.654387e-05 0.01925919 0.10850932
000050 ef 12 50 be c1 94 dc bd 34 b1 a3 bd 90 b7 dd bd
       -0.20319723 -0.1077056 -0.07992783 -0.108260274
000060 9b be 58 3e 90 ac ab be 97 62 3d be a7 8b da 3d
       0.2116646 -0.33530092 -0.1849464 0.10671168
000070 d1 80 bf bd 32 97 a5 3e e8 cd 9b 3e 2e 3b f7 3c
       -0.09350742 0.32341915 0.30430532 0.030179586
000080 b0 35 3c be 24 b0 88 3c c6 6f 63 bc f6 b2 85 3e
       -0.18379855 0.016685553 -0.013881629 0.261131
000090 f8 4c 4c 3b 0f a7 84 bd 1c c6 a5 bd 66 91 47 3d
       0.0031173807 -0.064771764 -0.08094427 0.048722647
0000a0 16 8b dc bd e2 05 bc 3a 8f e2 5f 3c bf e1 50 be
       -0.10768716 0.0014345015 0.013664856 -0.20398615
0000b0 4c c0 04 3e d0 e3 41 be c0 a2 bc 3d fd bd 03 be
       0.1296398 -0.1893456 0.092107296 -0.12865444
0000c0 f8 27 17 be fe d2 a5 3d 5a fc e0 bd 2a c6 79 bd
       -0.1476134 0.08096884 -0.10985632 -0.06098
0000d0 a5 a8 05 3e ee 80 21 be 43 c2 4b be 56 2b 1b 3e
       0.13052614 -0.15771839 -0.19898324 0.1515325
0000e0 ff 0f 31 be 71 87 46 3d e0 7e d5 bc da 75 70 bd
       -0.17291258 0.04846901 -0.026061475 -0.058706142
0000f0 26 0a 35 be 9b 37 28 bd f4 e0 49 3e 5b 8b be 3c
       -0.17679653 -0.041068655 0.19714719 0.02325981
000100 76 9f 01 be 32 17 a7 bd 67 d0 cb 3d 5d 55 d5 bd
       -0.12658486 -0.08158721 0.09951859 -0.104166724
000110 df a5 8f 3c 94 b5 80 bc 83 a8 30 3e 6e 84 de b7
       0.017535148 -0.015711583 0.17251782 -2.652613e-05
000120 83 e6 00 be 53 a5 7a 3d 67 b7 07 be 29 b4 88 be
       -0.12587933 0.06119282 -0.13253556 -0.2669995
000130 e7 e0 1d bd 0c b6 9a bd 80 4b 8f 3c 12 93 81 bd
       -0.03854456 -0.07554254 0.017492056 -0.063268796
000140 40 2b f7 bd 34 cb f0 bd 58 d8 ae bd 99 1d 45 3e
       -0.12068796 -0.11757508 -0.08537358 0.19249572
000150 60 69 b4 bc 5f 90 f3 bd 76 24 29 3e f2 6c c6 3d
       -0.022022903 -0.11892771 0.16517815 0.096887484
000160 a8 56 a8 be 7a 4f ec 3d 2a eb 23 3e 13 03 9d be
       -0.32878613 0.115385965 0.16007677 -0.30666408
000170 90 07 35 3e 1b e0 ca bd 60 67 69 3d e6 aa fc 3d
       0.17678666 -0.09906026 0.05698335 0.12337284
000180 4d 6a 98 3d 32 0a 85 3e fd 4d 5d 3e a3 29 85 3d
       0.0744215 0.2598434 0.21611781 0.06502082
000190 f3 47 15 3e 10 a4 77 3e a7 13 3c 3e d3 a5 96 bc
       0.14578228 0.24183679 0.18366872 -0.018389618
0001a0 8d 1f 1a be e6 f7 4a be 64 b7 ad bc 7b fa 28 be
       -0.15051098 -0.19821128 -0.021205612 -0.165018
0001b0 6b ad 13 3e df ba 2a 3d a8 04 93 bd db ee 32 be
       0.14421622 0.04168212 -0.071786225 -0.17473929
0001c0 3b a7 d1 bd 96 f3 3d be be 74 78 3e 92 6b 35 3e
       -0.10236975 -0.18549952 0.24263284 0.17716816
0001d0 2b 8b fd 3c e4 63 e2 bd c1 16 74 be 5a d4 83 bd
       0.03095015 -0.11054209 -0.23836805 -0.06436987
0001e0 ac 39 28 3c ac ce b2 bd ab 1f 07 3e 83 49 6f bd
       0.010267656 -0.08730826 0.13195674 -0.058419716
0001f0 fe c8 16 be e2 40 c8 bb 10 9a 09 3e 5d 4f 1d 3e
       -0.1472511 -0.0061112503 0.13437676 0.15362306
000200 d9 65 49 3e 7d fa ae bd 47 ba d7 3d 72 76 3f 3c
       0.19667758 -0.085438706 0.105335765 0.011685954
000210 a5 b9 17 be 41 ae f6 3d e5 c2 46 be c0 0e 82 be
       -0.14816912 0.12044955 -0.19410284 -0.25401878
000220 90 62 95 3d 69 2d 1d 3e 72 47 35 3e fe 84 4b 3d
       0.0729419 0.15349354 0.17703035 0.049687378
000230 5c 8c fa bd 32 81 2c be 29 bc 43 bd 97 45 b1 bd
       -0.12233803 -0.16846159 -0.047786865 -0.08655851
000240 a2 e2 3d 3e 5c d5 71 bd 0f 4d 12 3d b7 92 0f 3e
       0.18543485 -0.059041366 0.03571802 0.14020811
000250 fc 8d 03 3d 2a d5 c4 3d a0 2a 58 bb 46 4b 23 3e
       0.03211783 0.0961097 -0.003298439 0.15946683
000260 2b 92 7e 3d aa a5 8f 3c d2 09 d4 3e 73 3e 95 bd
       0.062151115 0.01753505 0.41413742 -0.07287302
000270 4e 79 04 be 78 6c bf 3e 1a 76 1f be b5 38 0b bd
       -0.12936899 0.37387443 -0.15572396 -0.033989627
000280 4e 5f 73 3d 2d 38 42 3e 7d 55 6a 3e 80 ba 20 3e
       0.05941706 0.18966742 0.22884174 0.15696144
000290 7c cd 2e be f6 68 c0 bd 18 f1 81 3d a4 57 b4 3d
       -0.17070574 -0.0939502 0.06344813 0.088057786
0002a0 c1 83 80 3e 4b 53 0a bd 2b d7 cb bd 4a b6 84 bb
       0.2510052 -0.03377084 -0.099531494 -0.004050051
0002b0 e7 b8 09 bc 1d 38 9c 3d 40 fa 03 be e0 f4 4b be
       -0.008405901 0.0762789 -0.12888432 -0.19917631
0002c0 00 4e 2e bd 13 dc 4f 3e d2 84 f1 bd a6 d4 79 3e
       -0.042554855 0.20298795 -0.117929116 0.24397525
0002d0 2c 10 7a be 77 a3 e9 3d 60 ae 35 3e c8 af 9a bd
       -0.24420232 0.114081316 0.177423 -0.07553059
0002e0 e8 9c 94 3e c1 fd 28 3e 7a 72 6b bc 27 07 8f ba
       0.2902596 0.1650305 -0.014370555 -0.0010912166
0002f0 b9 09 62 be 98 9a 2e 3e eb c6 be 3d c1 4d b4 bd
       -0.22074021 0.1705116 0.09315284 -0.08803893
000300 02 4d cb 3c 7a 68 02 bd 44 9c 26 be f9 c3 2c be
       0.024816994 -0.031837918 -0.16270548 -0.16871633
000310 6a e7 32 be bd 54 91 3d a8 28 4e be 9e 91 d5 3d
       -0.1747109 0.07096241 -0.20132697 0.10428165
000320 2a dd 28 be 68 2a ff be cc 6f 13 bd 2d 47 73 be
       -0.16490617 -0.4983704 -0.03599529 -0.2375762
000330 19 ed 4b be 02 56 a1 3e b8 bc 39 3e 5f 50 ba 3e
       -0.19914664 0.3151093 0.18138397 0.36389443
000340 32 d6 9b be d3 7f 3e be 39 12 3d be 3b 38 80 3e
       -0.30436856 -0.18603449 -0.18463983 0.250429
000350 fd 47 ff 3d aa 68 41 3e 49 b1 b3 3d 5c b1 dc 3c
       0.124649025 0.18887582 0.08774049 0.02694004
000360 d3 94 61 3e 47 f2 64 3d 30 c3 16 be bf d1 53 3e
       0.22029428 0.055895116 -0.14722896 0.2068548
000370 cc f3 66 3c ba f4 f3 3c a9 1e 1e bd b1 b8 57 3e
       0.014096212 0.02977978 -0.03860346 0.21066548
000380 0e 26 82 be 18 c7 c3 39 d2 69 3e bd 21 ad 90 3e
       -0.25419658 0.00037341635 -0.046487637 0.28257087
000390 ab af 8a 3e 49 c6 37 3e 8f 69 f0 bd 80 58 ba bd
       0.2708715 0.17946734 -0.11738884 -0.09098911
0003a0 cb 69 8b bd 81 99 64 3e a0 91 0c 3c 30 f7 70 3e
       -0.06807288 0.22324182 0.008579642 0.23531795
0003b0 39 e5 c6 bd 9a 64 24 be a9 2f 29 be ab 69 32 3e
       -0.097116895 -0.16054001 -0.16522087 0.17423122
0003c0 31 a8 45 3e e3 70 9b bd ed ff 73 3d 52 97 43 be
       0.19302441 -0.07589891 0.05957024 -0.19100693
0003d0 76 81 10 3e a0 fc 53 3f a1 8d 8a bd 64 d0 dd bd
       0.14111885 0.8280735 -0.06765295 -0.10830763
0003e0 b2 b7 60 3d ec 41 bb be 32 39 14 bd b0 55 bf be
       0.054862686 -0.36573732 -0.03618736 -0.37370062
0003f0 9c 01 2f be b0 af 9c bd 9c b5 5e bd 25 a8 a3 be
       -0.17090458 -0.07650697 -0.054372415 -0.31964222

layers.jordan.hy.bias f4 [16]
000000 4e a8 d7 3d 64 d5 70 be eb b8 c4 3a 31 4d 8c be
       0.105301484 -0.23518902 0.0015008723 -0.27402642
000010 4a 8d 0a be 90 5b 34 be a3 3a fb bd 8a 6b ed bb
       -0.1353046 -0.17613053 -0.122670434 -0.0072454857
000020 23 4f e1 3e db 78 74 bd 28 89 14 3e e2 f6 82 3e
       0.4400569 -0.05968557 0.14505446 0.25578982
000030 bf 7c 3f 3e fa 39 b5 3d 09 1a 19 be be 06 8c be
       0.1869993 0.08848949 -0.14951338 -0.27348894

layers.jordan.hy.weight f4 [16, 22]
000000 2c ad 02 3e 43 75 fc 3e 5c 63 c3 3e 2c ce 95 3e
       0.12761372 0.49308214 0.38161743 0.2925886
000010 e6 23 19 be 11 06 3f 3e 9d c7 4e be 6a d1 4b 3e
       -0.149551 0.18654658 -0.20193334 0.19904104
000020 5f 16 fd bd 7d 18 b2 be 5e a1 39 be 74 4b 65 3e
       -0.123577826 -0.34784308 -0.18127963 0.22392064
000030 f1 c1 d5 bd 17 f0 4f 3e bd e5 03 be b8 23 82 3d
       -0.10437382 0.20306431 -0.12880607 0.06354469
000040 37 d7 de 3d 5d 2d b2 3d d3 1a 73 be 75 2c 0e bc
       0.10880893 0.087000586 -0.23740701 -0.008677592
000050 b5 60 0a be 48 01 15 be e5 83 ef bd 3c 6b 49 3e
       -0.13513453 -0.1455127 -0.11695079 0.19669813
000060 5e ae b8 bd db b0 3b be 90 6e 48 be a9 36 74 be
       -0.09017633 -0.18329184 -0.19573426 -0.23848976
000070 f0 da 75 be 13 21 36 be 66 1d 1c 3d 35 fa 9b 3c
       -0.240093 -0.17786054 0.038113974 0.019040206
000080 f3 7c 6b 3d 88 89 6a be 2b 62 77 be 00 ef de bd
       0.057492208 -0.22904027 -0.24158542 -0.108854294
000090 d2 80 51 bd fe 18 52 3e 72 a4 97 be 14 27 45 be
       -0.051148243 0.20517346 -0.2961765 -0.19253188
0000a0 2b 9e dc 3c d1 01 5f 3d cf 98 2d be 8d b4 26 be
       0.02693089 0.05444509 -0.16952823 -0.16279812
0000b0 fd 9d 14 3e 28 f1 d6 3d e8 0a 34 3c a6 b2 9f 3e
       0.14513393 0.10495216 0.010988928 0.31190985
0000c0 7d 0e ff 3c 19 bb 08 be 7f 30 0d 3a a0 ad 1c 3e
       0.031134838 -0.13352622 0.00053859496 0.15300608
0000d0 ee a4 2a 3d f4 a1 45 3e 5c 08 2d bd d9 46 84 be
       0.041661195 0.19300061 -0.0422443 -0.25835302
0000e0 ac 6e 02 be a4 2e f0 bd 2e 4d 41 3e a3 17 08 bc
       -0.1273753 -0.11727646 0.18877098 -0.008306417
0000f0 a4 01 95 3b 26 4a 2b be 33 7b 37 be 6a d0 9e bd
       0.0045473147 -0.16727504 -0.1791809 -0.077545956
000100 ec de 99 3d 6a 62 0b be e2 cf a3 bd 2e 36 f1 bb
       0.07513222 -0.1361176 -0.07998635 -0.007361195
000110 02 34 82 3e 6a 8d bf be cb 58 44 3e 02 bf 96 3e
       0.25430304 -0.37412578 0.19174497 0.29442602
000120 7e 1e 9e 3d b3 19 11 bb ae 9f 2c bc 70 56 8e be
       0.0772066 -0.0022140562 -0.0105361175 -0.27800322
000130 50 28 c3 3d 5e 77 b3 bd 9f 5c 8c 3e fd b8 c5 bd
       0.095291734 -0.08763002 0.27414414 -0.09654424
000140 19 d5 8a bd d3 a4 f9 3d e2 7a 52 3d 15 fc 52 be
       -0.067789264 0.12189641 0.05138672 -0.20603974
000150 bf f5 88 be 00 67 a7 bc c6 46 64 3c 78 0c 02 3e
       -0.2674999 -0.020434856 0.013932889 0.12700069
000160 5b 55 ca 3d 18 57 f8 bb 84 64 39 be 94 08 66 be
       0.098795615 -0.0075787418 -0.1810475 -0.2246421
000170 f8 43 3f 3e 4c 21 db 3d 71 7e 72 3e f1 61 33 3e
       0.18678272 0.1069971 0.23681046 0.1751783
000180 d4 7d 27 3e b8 2f a4 3d e7 45 9a 3e 0e e6 72 bd
       0.16356593 0.08016914 0.30131456 -0.05930143
000190 96 f8 f6 3d e1 96 0f be 41 8d 2c 3d 55 3a a2 3e
       0.12059133 -0.140224 0.042126898 0.3168513
0001a0 dd 2d ba 3a 9d b0 70 3d 58 2a af bd 3a 04 1b 3d
       0.0014204342 0.05876218 -0.08552998 0.037845828
0001b0 71 48 ff bd 5e 45 89 3d 28 88 7f be d1 81 f1 bc
       -0.12464989 0.06702684 -0.24954283 -0.029480847
0001c0 bd 1a 4a be 94 6a 93 be 56 ea c5 bc dc 5b 12 3d
       -0.19736762 -0.2879225 -0.024159592 0.035732135
0001d0 29 f4 82 3d 2f 58 06 be 02 ad 83 bd 8f 97 4e bd
       0.06394226 -0.13119577 -0.06429483 -0.050437506
0001e0 7e e5 85 3e 05 b1 3e 3d 10 09 b8 3d 66 c8 3b be
       0.2615165 0.046555538 0.089861035 -0.18338165
0001f0 6e 37 0a be f9 54 8f bd 76 d3 04 3e 2c 0d f4 3c
       -0.13497707 -0.06998629 0.12971291 0.029791437
000200 01 4b da bd 36 f0 ae bd 27 1d 33 3e ed 0b 8d 3e
       -0.10658837 -0.0854191 0.1749159 0.2754816
000210 d6 51 24 3d 3c ab 77 be 22 ef 31 3e f5 f9 34 be
       0.040117107 -0.24186414 0.17376378 -0.17673476
000220 ac 72 53 3e 09 da ee 3d e7 b2 54 3e 29 ed 46 bd
       0.20649213 0.11662681 0.20771371 -0.048566017
000230 5c 47 d3 3b f6 61 05 be e1 a4 3a bd 5c 43 1f 3e
       0.0064477157 -0.1302565 -0.045567397 0.1555304
000240 7f 5d 8c 3d d3 df 29 bd 51 1e 10 be 04 d4 09 3e
       0.068537705 -0.04147322 -0.14074065 0.13459784
000250 4e 33 44 bd 0a f2 66 bd 98 e4 60 be ee 4f cf bd
       -0.04790049 -0.05638317 -0.21962202 -0.10122667
000260 67 10 b9 3d 14 40 f5 bc b8 63 8d 3c 80 0d 84 3e
       0.090363316 -0.029937781 0.017259464 0.2579155
000270 45 4f bd bd 53 d6 c3 3e d2 18 a2 be 1f 41 53 be
       -0.09243635 0.38249454 -0.3165956 -0.2063031
000280 17 75 b3 be 9c 4f 05 3e 4b 21 c4 3d b2 7c 7c 3d
       -0.3505027 0.1301865 0.09576663 0.061642356
000290 b6 2d 69 be 88 77 e6 3d 26 77 05 3d fa 79 28 3e
       -0.22771344 0.112532675 0.032584332 0.1645278
0002a0 ed e5 84 3e 7b c8 0f 3e 42 c4 da bc 80 55 96 bd
       0.2595667 0.14041321 -0.026704911 -0.073405266
0002b0 ab ad 11 3c 65 8e 85 bd 6f 8c c6 bc 1d 3e a1 be
       0.008891503 -0.065213 -0.024236886 -0.314927
0002c0 d5 49 07 be 98 b3 ef bd d6 e8 af bd c4 b0 91 3e
       -0.13211758 -0.11704177 -0.08589332 0.28455174
0002d0 3c c3 bd bd 70 1d c4 bd 7e 90 00 3e c9 b2 e4 3c
       -0.092657536 -0.09575927 0.1255512 0.027917283
0002e0 cc e2 18 3d ce 2a 13 3e 01 e1 1a 3e 1b 40 2d bd
       0.037325665 0.14371797 0.15124895 -0.042297464
0002f0 68 dd 12 3e 60 63 b1 3d 47 ad 0c 3e d3 9f 65 bd
       0.14342272 0.086615324 0.13737975 -0.056060623
000300 cc 5b 53 be ed f5 30 bc 4d 19 1f be a8 3f 27 be
       -0.20640486 -0.010800821 -0.15536995 -0.16332877
000310 6c f0 51 bd 3a f4 2b be df ad ed bd 99 4d f8 3c
       -0.051254675 -0.16792384 -0.11605429 0.030310439
000320 ba b0 b8 be e2 a4 93 be 09 29 0a be 5f f9 b4 be
       -0.36072332 -0.28836733 -0.13492216 -0.35346505
000330 2d ce a9 bd 5a d5 b6 bd a6 5a 19 be 32 b6 81 3e
       -0.08291278 -0.08927412 -0.14975986 0.25334316
000340 66 41 e3 bd de 86 98 be 2a cb 68 be c5 87 5c be
       -0.11096458 -0.29790395 -0.22733751 -0.21536167
000350 a4 e5 20 3e a6 b6 0f 3e 26 64 49 3a 2c 8c 92 3e
       0.15712601 0.14034519 0.0007682465 0.28622568
000360 7a 13 09 3e c7 6a 5a 3d 4f cd b9 3c 0c b0 cf bc
       0.13386336 0.053324487 0.022680907 -0.0253525
000370 b5 de 0f be 45 d5 53 be c9 44 88 be 4b 7f 9f 3e
       -0.140498 -0.20686825 -0.2661498 0.31151804
000380 56 88 e6 bd 52 d9 a0 be 68 ca 53 be d0 93 9a bd
       -0.11256473 -0.31415802 -0.2068268 -0.07547724
000390 16 26 82 bc aa 01 81 3e fa cd 63 be 0d 82 43 be
       -0.015887301 0.25196582 -0.22246543 -0.19092579
0003a0 40 57 11 be 17 8b fe 3d 10 d8 48 bc 8e e7 a7 3d
       -0.1419344 0.12428873 -0.012258545 0.081984624
0003b0 db 68 23 3e 2a 75 87 bd c8 c7 ac 3d 15 69 50 3e
       0.15957968 -0.06614144 0.08436543 0.20352586
0003c0 5c bc 74 3e a0 01 3b be cc 57 f2 bd 3b 20 da 3d
       0.23899978 -0.18262339 -0.11833152 0.10650679
0003d0 65 e3 4a 3e 76 94 25 3e 99 46 f1 bd 59 05 87 3c
       0.19813307 0.16169915 -0.117810436 0.016482042
0003e0 72 82 69 be e3 bf 79 3e 03 7f 22 be a0 7b 32 bd
       -0.22803667 0.24389605 -0.15868764 -0.04357493
0003f0 65 b3 53 be 6a 1a cc bd 3b c5 09 bc 4b 37 09 be
       -0.20673902 -0.099659756 -0.00840884 -0.13399999

layers.jordan.lm_head.bias f4 [22]
000000 c7 ba e3 be c7 2e 3c bf 09 b1 ff be 81 88 15 3f
       -0.44478437 -0.73508877 -0.49939755 0.58411413
000010 7f 3f 5e 3e be 6b 51 3c 9b da 10 3e 2e a6 80 3c
       0.2170391 0.012782035 0.14145891 0.01570424
000020 23 3a 6b 3c c0 d9 69 3e 84 4c 3f 3e 30 2f 0e be
       0.014357123 0.22836971 0.18681532 -0.13885188
000030 90 78 27 3e 80 08 52 bd 02 4d df bd ca b5 d8 bd
       0.16354585 -0.051277637 -0.1090336 -0.105815485
000040 3a 2a aa 3e 73 77 31 bd 49 ce 93 3e b0 fe 48 bd
       0.3323534 -0.043326806 0.2886832 -0.049071014
000050 23 cd 09 3e 47 15 c3 bd
       0.1345716 -0.09525543

layers.jordan.lm_head.weight f4 [22, 16]
000000 54 e4 4f 3e 60 59 8e 3e fe 45 e3 3c 04 49 3f 3e
       0.20301944 0.27802563 0.027743336 0.18680197
000010 b8 5c 94 bd 4d a5 fc bb 47 12 fc 3c 3e 0e 69 3e
       -0.07244247 -0.007710135 0.030770434 0.22759339
000020 b7 81 6e be 43 84 15 3d 2e 4e 95 be 3f dc 0f 3e
       -0.2329167 0.036503088 -0.2916121 0.14048861
000030 42 ad ad 3c 61 06 b6 be 39 80 23 3e 05 a9 26 3f
       0.02120078 -0.35551742 0.15966882 0.65101653
000040 c4 0e 9b bd 2c f0 f1 3e 13 1a 73 3e 22 96 9d 3e
       -0.07571176 0.4725355 0.23740415 0.30778605
000050 24 95 a5 3b 30 a8 5d bd 02 b3 38 3d 1d 7a 8e 3e
       0.0050531793 -0.054115474 0.04509259 0.2782754
000060 97 5e 8f be b4 a5 0a be e7 59 93 bd eb 5a 65 bd
       -0.28001854 -0.13539773 -0.07194882 -0.05599491
000070 0e 8e 98 bc ab 8d 11 be 2b 55 47 3e 5b 87 9f 3e
       -0.018622424 -0.14214198 0.19466083 0.31157956
000080 9d 63 13 3c 57 b6 05 3f 4d 5f a2 3e 72 d0 8c 3e
       0.008995918 0.52231354 0.31713334 0.2750278
000090 46 3b e0 bd fb 3b 9a 3e c6 85 8d 3d 25 cb 92 3e
       -0.109488055 0.30123886 0.06910281 0.28670612
0000a0 bf b2 5f bd 1b a8 75 bd 3a fd f5 bd e4 53 c7 3d
       -0.054613825 -0.05997477 -0.1201119 0.09732798
0000b0 a8 4b 14 bb b6 6d 28 be 66 36 25 bd e6 ce 0d 3f
       -0.0022628102 -0.16448101 -0.04033508 0.55393827
0000c0 01 74 36 bf bc a7 88 3f 86 9c f9 3e 1b 8f 14 bf
       -0.7127076 1.0676188 0.4875223 -0.5803086
0000d0 08 de 4b 3f 30 4f 02 bf 95 77 12 be 08 20 30 3f
       0.7963567 -0.5090208 -0.1430343 0.68798876
0000e0 85 a5 ea 3e 67 72 af 3f 19 dd 3b 3f 1c 90 98 bf
       0.45829406 1.3706788 0.73384243 -1.1918979
0000f0 f1 9f 39 3f 99 0f b1 3e fb e4 9a be 92 2c e1 3e
       0.72509676 0.34582213 -0.30252823 0.43979317
000100 85 6d 3e 3f 08 fa 88 be f6 ee 92 3e 1c 98 8e be
       0.74385864 -0.2675326 0.28697938 -0.27850425
000110 f5 0f 9e be a7 b3 f3 be b6 3f f1 bd e4 c2 43 3f
       -0.3087155 -0.47598 -0.1177973 0.76469254
000120 0f e6 eb 3e 4c bf 76 be e9 5d 7b 3d 17 b5 12 3f
       0.46073958 -0.24096411 0.061368857 0.5730757
000130 1a e4 52 be a9 4e dc 3d 21 55 05 bf c0 9f 6c 3d
       -0.20594826 0.10757191 -0.5208302 0.057769537
000140 64 0b 6c 3f 83 66 21 be 97 9f ca 3e 1b 4d c4 bd
       0.9220488 -0.15761761 0.39574882 -0.09585019
000150 70 1b 16 be 57 fc 1f bf a7 5c c2 be 53 91 9b 3e
       -0.14658904 -0.62494415 -0.37961313 0.3038431
000160 12 27 0f 3f d8 d5 d3 be eb b3 f5 3e e5 f3 cd 3e
       0.5591899 -0.41374087 0.4798883 0.4022514
000170 73 22 15 be 98 f1 42 3e 5c ae d3 be 01 f8 28 bd
       -0.14563923 0.19037473 -0.41343963 -0.04125214
000180 b8 c5 70 3f 51 59 17 be 6b 00 15 3e 09 23 d9 bd
       0.94051695 -0.14780165 0.1455094 -0.106023856
000190 31 a7 cb be db 60 06 bf fb 42 94 be b3 70 41 3f
       -0.39775994 -0.5249154 -0.28957352 0.7556259
0001a0 c7 f7 14 3f c7 6c bc be 1c 62 3a 3e 79 7f b3 3e
       0.5819058 -0.3680174 0.18201488 0.3505819
0001b0 64 1d 3f be 0a f3 10 3e eb 0f 5e be ff e5 30 be
       -0.18663555 0.14155212 -0.2168576 -0.17275237
0001c0 b6 21 1c bf 45 b1 84 3c 49 d0 9d be 6d 2f f0 be
       -0.6098894 0.01619781 -0.3082297 -0.46911183
0001d0 12 ad 83 be c5 15 0b 3e 07 a9 b6 be 98 f2 77 be
       -0.2571798 0.13582523 -0.35675833 -0.24213636
0001e0 92 db 35 bf 13 0b 25 3f d0 99 d9 3e b5 e1 81 3e
       -0.7103816 0.6447002 0.42500162 0.25367513
0001f0 05 f2 e2 bd 2f f3 01 3d ea d6 15 3f 3d 8a d8 bd
       -0.11081318 0.03172606 0.5853106 -0.10573242
000200 2d 6a d6 be a8 97 45 be cf 48 1a be 1f 7a a2 be
       -0.4187788 -0.19296134 -0.15066837 -0.31733796
000210 fe df 04 be dc b9 b1 3e c2 41 01 bd fc a2 be be
       -0.12976071 0.34712112 -0.031556852 -0.37233722
000220 9a b0 32 bf e8 a1 13 3f 64 28 08 3f ad 09 bf 3e
       -0.6980072 0.57668924 0.5318663 0.3731207
000230 5d 47 ae bd e4 53 bb 3e 2f e7 1b 3f b1 6b 4d bd
       -0.08509705 0.3658744 0.60899633 -0.05015153
000240 d8 5c eb be 49 ac 43 3c fc b2 81 be 71 56 56 be
       -0.45969272 0.011942931 -0.25331867 -0.20931412
000250 97 03 b2 be c0 af d6 3e da 3f 8e bb 61 98 85 be
       -0.34768364 0.41930962 -0.004341108 -0.26092818
000260 fb 9d 38 bf 91 20 dc 3e 35 a5 d3 3e a4 34 df 3e
       -0.7211606 0.42993596 0.4133698 0.4359485
000270 c8 5e ed bd 51 e0 5c 3e 8f 0c 2b 3f e5 74 a9 bd
       -0.11590344 0.21569945 0.6681604 -0.08274249
000280 49 b7 69 3f 71 1a 2a be a8 ec ba 3e 4d be 29 be
       0.91295296 -0.16611649 0.3650868 -0.165765
000290 a9 d0 19 be 42 28 ae be 57 9b 6a be 8b 11 0f 3f
       -0.15021004 -0.3401509 -0.2291082 0.55886143
0002a0 87 b1 8f 3e 13 b3 0a bf 11 57 c3 3e 56 2d f9 3e
       0.2806513 -0.54179496 0.38152364 0.486674
0002b0 48 d9 67 be a9 88 55 3e 4c 00 18 bf 3f cd f3 3d
       -0.2264148 0.20852913 -0.59375453 0.11904382
0002c0 13 ae 4a 3f be 12 a5 be 9d b2 d0 3e 25 55 be be
       0.79171866 -0.32240862 0.4076127 -0.37174335
0002d0 bf 47 64 be b7 7b 01 bf c7 75 85 be e7 b7 3f 3f
       -0.22292994 -0.505794 -0.2606642 0.7488999
0002e0 d5 93 8b 3e 1b 80 11 bf 9c 57 c4 3e a3 ca 56 3e
       0.27261224 -0.568361 0.3834809 0.20975737
0002f0 e8 43 0a bd 38 75 08 3e 1f e3 7e be c2 aa 9d be
       -0.033756167 0.13325965 -0.24891327 -0.3079434
000300 07 ac 55 3f 78 80 82 3d ba 22 34 3e 80 4e 79 be
       0.8346562 0.0637216 0.17591372 -0.24346352
000310 2d 3a 7a be 6e 82 99 be b6 a5 94 be 3c 8b 30 3f
       -0.24436255 -0.29982322 -0.29032677 0.68962455
000320 ad a0 04 3f 15 18 27 bf de 74 e1 3e f6 ae 0b 3f
       0.5180767 -0.6527112 0.44034475 0.54563844
000330 e8 35 a6 bd 1a c8 e1 3d 3f c2 b2 be fc 3b 0b bc
       -0.081157506 0.110244945 -0.34913823 -0.008498188
000340 b4 78 30 bf c4 74 eb bc 4b ce 77 be 1d 6e cd be
       -0.6893418 -0.028742202 -0.24199788 -0.40123072
000350 09 5b 88 be 6d a9 7e 3e d6 d7 35 be 99 cb a8 be
       -0.26631954 0.24869318 -0.17758116 -0.32967833
000360 83 20 12 bf b7 00 06 3f d2 dd c9 3e 4e d7 cb 3e
       -0.5708086 0.5234484 0.39427048 0.39812702
000370 c5 15 ac be 55 1d d4 3d 8f 4e 18 3f 8d e9 49 bd
       -0.3361036 0.10357157 0.5949487 -0.049294997
000380 57 ea e9 be 83 ab c7 bd 5e 2f 08 be d8 74 b2 bd
       -0.456866 -0.0974951 -0.13299319 -0.087136924
000390 d7 cf 50 be f9 61 b6 3e ce 20 bf be 38 80 0a bf
       -0.20391785 0.35621622 -0.37329715 -0.54101896
0003a0 22 32 d3 be b0 16 e6 3e c2 2f fb 3e 61 32 15 3d
       -0.41249186 0.44939184 0.49059874 0.036425
0003b0 8a 46 dd be 85 5b b8 3e 2c 63 51 3f 2e 11 cb bd
       -0.4321788 0.36007324 0.8179195 -0.09915386
0003c0 12 b5 8c be 52 18 10 bc 6d e2 dd be 79 07 3a be
       -0.27481896 -0.008794861 -0.43336812 -0.18166913
0003d0 47 66 bd be aa 0a 36 3e 22 d3 1b be 44 a0 01 bf
       -0.36992094 0.17777506 -0.1521726 -0.5063517
0003e0 4e a5 08 bf 12 15 1b 3f d7 5e d8 3e 26 b9 9d 3e
       -0.53377235 0.60579026 0.42259857 0.3080532
0003f0 f4 63 10 be 91 41 c5 3e 40 44 38 3f e1 f5 17 be
       -0.14100629 0.38526586 0.7197914 -0.14839889
