jordan_elman_2024/exp3/elman_sequence_level/run_19/export/model.safetensors (safetensors, 6576 bytes, 7 tensors)

layers.elman.hh.bias f4 [16]
00000000: b73b adbd 39ec 35bd 82b1 0dbe 4579 49bd
00000010: c2dd e9be d0cd f2bc 9c7f a23d a507 9dbe
00000020: 72a4 a33e 05dc 25bd 5190 2bbe 717d 89be
00000030: 5999 ec3d 471b d5bc 48c9 6d3d e125 f639
-0.08458655 -0.044414733 -0.13837245 -0.049187917 -0.45677 -0.029639155 0.07934496 -0.30669895
0.319614 -0.04049303 -0.16754271 -0.26853517 0.11552686 -0.026013983 0.058053285 0.00046948998

layers.elman.hh.weight f4 [16, 16]
00000000: f157 a23e c4e3 e13e 2b27 303e 4fa0 38bf
00000010: 54da b93e 0af7 0cbf 23b3 a3be 2f7f b63d
00000020: b0e1 f9be 361e c83d 0ee6 bbbd 4672 cdbe
00000030: 4813 5c3e 3aee dc3d 3a05 aebd aed7 9ebe
00000040: 8780 eabe fcd1 9c3e c591 3b3e 4abe e0bd
00000050: b568 d1be a9c0 57be 8732 55be 2c81 51bd
00000060: dc55 27be a872 c83e c97e 7c3e 84ba 253e
00000070: 5fe7 21be 0146 a93d 5aad 653c aee8 0dbc
00000080: a789 e73d 015b 7bbd 9e20 8ebe 3115 32be
00000090: 001f ba3d 580a c5bd 9d24 193e f59b f13d
000000a0: 2886 553e 2c93 babe d563 91be 42bf 63bd
000000b0: 8283 a6b9 29b3 213e 82d4 bfbe 7345 4bbd
000000c0: e578 acbc 8c52 babe 8ca0 13bc 5696 8c3e
000000d0: d381 00bd 81f4 6b3e 38ee 2b3e 84f0 0cbe
000000e0: 1175 81bd 9de5 d6be b6eb d6bd a043 d6bd
000000f0: 61c6 ecbd 568a 4abe 9868 b9bd 9817 5e3e
00000100: 7a54 76bd 4298 903e 7273 efbd 427d bbbe
00000110: 8896 74be f615 ce3d 2364 f0bc 37e1 c83d
00000120: 4e60 0bbe bca7 ae3d 6ecb 0f3e 61e7 8b3d
00000130: 112f 8fbe e5df 38be b310 a1bc 3aaf 71be
00000140: e09a 623d 8014 d9be 46e6 05be c7d2 b33e
00000150: 4b7a 5cbc 69b0 a43e f887 533e 7b90 6f3e
00000160: d9d8 b03e df88 02bf b177 1d3e d3ea db3d
00000170: 9db0 0b3b bd43 93be 2673 91be c47f 033f
00000180: e8d8 9d3e 0685 ac3d 48c5 7f3c 6feb f5bc
00000190: b7b6 9a3e f8eb 303e 9191 5e3d 0835 993e
000001a0: 9b52 abbe cb3c bc3d 0424 d8bb 0b5f bf3d
000001b0: 8e98 313e a86d 39be 0b4e 743e 60d0 13be
000001c0: 7b2e a4bd 3e84 c03e dbfb 01bd 58f3 57bf
000001d0: 0486 3cbe ac9c c6be 78c3 0abe e634 3abe
000001e0: 4757 75be 9301 c53e 95d7 d2be 4ea3 c8bd
000001f0: 9f5b b3bd 3c35 013e 7d44 343e 7f66 9fbe
00000200: e8f9 723e 6ddb 4ebe 0410 803e a22f 0b3f
00000210: 4fdc 823d a60a e43e aea8 42bd fe5d 7b3e
00000220: 7df3 18bd 6a80 f93d f3ee 233e c67c 8f3d
00000230: 64f6 643e 6c73 73ba 6b59 3fbe ac02 6c3e
00000240: 118b 293e e9bc 62be 4139 a73d c92d 823d
00000250: 667a 473e b331 a13e bbae b3bd 81ae a4bd
00000260: efe9 2e3e 2e60 02bf c73b 633e 730c 77bd
00000270: a244 5fbd efd0 ccbd 7e29 f7bd 6803 b63d
00000280: 2447 523c b581 11be d3ef c3bb dd61 093d
00000290: f01e 623a 99e3 3ebe 8741 423e f1fb 96be
000002a0: bb12 05be 65d0 bf3b 3439 3abe 6e9e a33d
000002b0: 85a8 8fbe bda1 38bd eb6c 68bd dbd2 843e
000002c0: 6634 363c aade 6b3e 3fcf c4bd 1233 b4be
000002d0: 42d2 8f3e e306 01be b0ed 863d 54ee ecbd
000002e0: 0fe6 04bf dcdb d43e d6cf b9be 7e1d 5a3d
000002f0: ccd0 b53d dc6e dc3e 1078 963e 96e7 58be
00000300: 6376 40be 17b0 dc3e abe0 1b3e 2b37 e53d
00000310: 31d9 cd3e 7472 533e 8b45 0e3d 94d6 81bd
00000320: 30c2 46bd da1c 8e3c e5b5 403e 288b 7fbe
00000330: 879d 3ebd 29c7 8bbe 1e9f 0e3e c7fc 2c3e
00000340: 445c d33d 14b6 5b3d 478f 3c3d cff7 683e
00000350: 971d b03e 021c 113e e36e 9fbd 7584 a4bd
00000360: a86d e6bd 2ea4 b9be 4737 82bd b88f 41be
00000370: 7220 3d3e 5207 963d 4982 f63d 37ea 0dbe
00000380: 61f6 1e3e 6402 d33d 9943 bdbd 63cb 45be
00000390: f705 d0be 2e2a c33d 924d 493e 77f6 9fbe
000003a0: 0571 903e 02d3 a7be 1d36 a0be 276f 433d
000003b0: 3ecc 14be 8573 f03d b335 92be 66b1 853c
000003c0: 53a8 603e 8e34 4b3e 69f2 973e 7d7c f4bc
000003d0: a844 343d 3a1e 89be cb3e 5abd 2545 8c3d
000003e0: f249 b7be 0bde 933e ba64 18be 9643 31be
000003f0: 5d82 d13c df73 843e b007 bc3c 7a78 91be
0.3170772 0.44119084 0.17202441 -0.7211961 0.36299384 -0.5506445 -0.31972608 0.08910977
-0.48804998 0.09771387 -0.09174739 -0.40126246 0.2149173 0.107876256 -0.08497091 -0.31023926
-0.45801184 0.30628955 0.18317325 -0.10973795 -0.40900198 -0.21069588 -0.20820056 -0.05114858
-0.16341347 0.39149976 0.2465774 0.16184431 -0.15810917 0.08265305 0.014018381 -0.008661432
0.11305552 -0.061366085 -0.2775926 -0.17390896 0.09087944 -0.096211135 0.14955373 0.117973246
0.20851958 -0.36440408 -0.28396478 -0.05560232 -0.00031759968 0.15791 -0.37466818 -0.04962678
-0.02105374 -0.36391103 -0.009010445 0.27458447 -0.03137381 0.2304249 0.16790092 -0.13763624
-0.06321157 -0.41972056 -0.10494177 -0.10462117 -0.11561275 -0.19779333 -0.09053153 0.21688688
-0.060139157 0.28241163 -0.11691941 -0.36619002 -0.23885548 0.100627825 -0.029344624 0.09808581
-0.13610956 0.085280865 0.14042446 0.068312414 -0.27965596 -0.18054159 -0.019661283 -0.23602
0.05532348 -0.42398453 -0.13076124 0.35121748 -0.013456891 0.3216584 0.20657337 0.23394959
0.34540442 -0.509901 0.1537769 0.107381485 0.0021314987 -0.28762618 -0.28408164 0.5136683
0.3082955 0.0842381 0.015611 -0.03001949 0.30217525 0.17277515 0.05433804 0.29923272
-0.3346146 0.09191283 -0.0065960903 0.093443 0.17343351 -0.18108237 0.23857896 -0.14434958
-0.08016678 0.37600893 -0.03173433 -0.8435569 -0.18410498 -0.38791406 -0.13551128 -0.18184242
-0.23959075 0.38477764 -0.411801 -0.09796773 -0.0875771 0.12617964 0.17604251 -0.31132886
0.23728144 -0.20200892 0.2501222 0.54369557 0.06389677 0.44539374 -0.047524147 0.24547574
-0.037341584 0.12182696 0.1600912 0.070062205 0.22359616 -0.00092869136 -0.18686454 0.23047894
0.16556956 -0.22142376 0.08165217 0.06356389 0.19480285 0.3148323 -0.087735616 -0.080410965
0.17081426 -0.5092801 0.22190772 -0.060314607 -0.054508813 -0.100007884 -0.12068461 0.088873684
0.012834344 -0.14209636 -0.005979517 0.033540595 0.0008625826 -0.18641509 0.18970309 -0.2948909
-0.12995426 0.0058537 -0.18185884 0.079892024 -0.28058258 -0.04507612 -0.056744497 0.2594212
0.011120891 0.23034158 -0.096098416 -0.35195214 0.280901 -0.12600283 0.06588304 -0.11568895
-0.5191354 0.4157399 -0.3629138 0.053250782 0.088777155 0.4305333 0.29388475 -0.21182093
-0.18795161 0.43103096 0.15222423 0.11192163 0.40204766 0.20649129 0.03473429 -0.06339756
-0.048525035 0.017347742 0.18819387 -0.24955428 -0.04653695 -0.27300385 0.13927886 0.16893302
0.10320333 0.05364044 0.046035077 0.22750781 0.34397575 0.1417084 -0.07784822 -0.08033077
-0.11251384 -0.36258072 -0.063581996 -0.1890248 0.18469408 0.07325615 0.12036569 -0.13858877
0.15523674 0.1030319 -0.09241409 -0.19315867 -0.4062955 0.095295295 0.19658497 -0.31242725
0.28211227 -0.32778174 -0.31291285 0.047713425 -0.14531037 0.117407836 -0.28556594 0.016319942
0.2193921 0.19844267 0.29677132 -0.029844517 0.04401079 -0.26780874 -0.05328254 0.06849126
-0.35798603 0.28880343 -0.14882174 -0.17310938 0.025574857 0.25869653 0.022952884 -0.2841223

layers.elman.hx.bias f4 [16]
00000000: 591c 3fbd 0c9d bc3c 77ca 393d ba16 5abe
00000010: b617 05be a91f b8bd cc58 f5bd 316e a5be
00000020: 2524 dc3d c2af 93bd ed9c f13d 0628 06be
00000030: 4bdf 2c3d 1347 853e 4e30 3fbc 7506 0b3e
-0.046657894 0.023024105 0.0453591 -0.21297732 -0.12997326 -0.08990414 -0.11979827 -0.32310632
0.107490815 -0.072112575 0.11797509 -0.13101205 0.042205136 0.26030788 -0.011669232 0.13576682

layers.elman.hx.weight f4 [16, 22]
00000000: d1e9 ca3e 4da1 20bd 2ba7 b5bd 5052 1f3f
00000010: d3e4 6c3f 2dae 773f 3f31 733f 569a 82bf
00000020: 8b22 80bf b5e6 81bf a6e4 843f f5ef 803f
00000030: 1d95 743f 1b29 55bf 36e4 41bf a6f1 57bf
00000040: 65b5 67bf 20d8 77bf 072d 78bf 1d13 9ebc
00000050: 20a5 59bd 1b71 423c df65 de3e ecf2 373d
00000060: 5f61 0c3e e870 a63f 06dd 1dbf 911f 25bf
00000070: 3901 17bf a561 373f a493 453f 8353 413f
00000080: 0905 5ebd bb60 d0bd d88f 35be 52c2 303f
00000090: 2962 123f 1bfa 233f 611c 5cbf 45fe 3dbf
000000a0: fda2 47bf 47f4 3bbf 090b 41bf 7e73 4abf
000000b0: 3b28 063f 1a17 bdbd c743 153e cefa 893f
000000c0: 6609 12bf 5374 c2be b8ee 03bf 4df4 f2be
000000d0: 5c15 24bf 9a12 f7be 4185 b0be a661 fcbe
000000e0: 15ca d7be 1508 0ebf 42cc 0bbf 6183 f8be
000000f0: cdcb 083f 300e 2f3f 9df8 253f 942d 563f
00000100: 2e57 313f 3ae9 2c3f 48fc 7ebd 48bb 1a3d
00000110: 1671 bc3c dae4 e3bd 2468 033e a96c cbbd
00000120: 58db 62bd 6365 c0be a861 c3be 3c2c e0be
00000130: 5eaf 58bf b3a5 3ebf 2e1c 66bf b2c5 41be
00000140: eaa5 cebe 6420 5dbe ed27 5d3f a0b7 643f
00000150: 004c 533f 8461 4b3f 3ee5 4f3f 98e4 603f
00000160: 068a 4a3f 9b42 fc3d 95d7 a93d d4c0 0f40
00000170: 8720 9e3d 0325 dcbd bb86 943d e594 fabe
00000180: 89a2 c4be 508f d0be f56c c83d 3c02 cdbd
00000190: d75d 083d a348 c7be 3703 0dbe 2bf1 91be
000001a0: 585c cabe d585 9abe a990 d3be db13 7ebe
000001b0: 06a4 85be 0a8f a7be 6125 c23e f204 2a3e
000001c0: e4aa 113e 335e 493f c0d2 3b3e 9704 903e
000001d0: 4333 c33e ed9d 45be e435 27be f4f5 5ebe
000001e0: 54e3 c9be 505f e1be 9d49 d3be 6fac 9cbe
000001f0: 2737 62bd bbea 18be 99f1 503f babe 2b3f
00000200: b24e 323f ad89 01bf de01 0cbf b057 18bf
00000210: cda6 e1be 930c 973d 6ca6 00be 7100 34bf
00000220: e7b9 673f d58f 483f fa2e 653f 99f1 cfbe
00000230: 97fc c9be a371 83be c792 3a3f ad89 3e3f
00000240: f5a0 2d3f e769 e7be a484 14be 59bb 06be
00000250: c0a5 a13b 18a0 b83c e9ee 953d cf0f 18bf
00000260: e163 0fbf 379c 1bbf 475f 233f 83c2 ecbd
00000270: 52ad 42be c313 c83f 2f8c a6bd dae3 2a3e
00000280: bb21 163e 65dc 8fbe 1bbc 3cbe a788 bdbe
00000290: a9d0 5fbe c98f 34be 0337 56bd 89c5 90be
000002a0: 195b 55bd 0a3c 50be dacb 54bf ac00 6ebf
000002b0: 1f87 42bf 7728 dd3e 8849 da3e 9929 993e
000002c0: 57ba 37bf 7994 33bd af47 dbbd 5c3c c5bf
000002d0: de8f e73e ada1 d83e 56a7 753e 6066 ca3e
000002e0: 9c70 3e3e 635e bc3e cb11 6bbe ee72 5bbe
000002f0: d7f2 5dbe eeeb 343e 84eb e23d 51f5 6a3a
00000300: 72a2 083f f9cf 213f 21bb f63e 0323 a9bd
00000310: 04b6 0abe c4ae a5be c456 3b3e 40c0 1fbe
00000320: b3dc 3abd 56e3 ba3e 5ae6 36bf 6500 53bf
00000330: 1640 44bf 7991 f1be 57c7 cbbe 23ba cdbe
00000340: 2de2 84bd 4b74 e8bd 23ac 31be c808 a1be
00000350: 6360 e4be 736b f8be ec2c 603f 23e7 6f3f
00000360: e7c0 783f 213d 553f 875b 693f d0a0 673f
00000370: 8112 863e 7e60 a4bc d217 56be 0f0c 6d3f
00000380: e36a cebe 16f7 74be 8baa 75be 2ab2 20be
00000390: 67fe 79bc d3ac e33d 38ac 2ebf f389 29bf
000003a0: a872 28bf 79f7 31be 2d2c ad3b 49f6 b8bd
000003b0: dd48 ce3e 3705 ce3e e22c a13e 119f e83e
000003c0: ae89 ea3e 16d8 dd3e 1e73 7dbe c20c 483e
000003d0: d55b 07bc 2d1d c1be 222d a83e 3d62 533e
000003e0: 226f 643e 3f6c b9be 8bae f8bd 53b0 12be
000003f0: cc53 c63d 98cd 163e 9509 d13c 3519 5bbe
0.39631513 -0.03921633 -0.088697754 0.62234974 0.9253666 0.96750146 0.9499702 -1.020335
-1.0010542 -1.0148531 1.0382278 1.0073229 0.9554003 -0.83265847 -0.7573885 -0.843531
-0.9051116 -0.96814156 -0.96943706 -0.019296223 -0.05313599 0.011867787 0.43437096 0.044909403
0.13709019 1.3003206 -0.6166538 -0.6450129 -0.5898624 0.7163337 0.77178407 0.75518054
-0.05420402 -0.101747 -0.17730653 0.6904651 0.5718103 0.64053506 -0.859808 -0.7421611
-0.77983075 -0.7341961 -0.75407463 -0.7908248 0.52405137 -0.09232922 0.14576636 1.0779665
-0.5704559 -0.37979373 -0.5153613 -0.47452012 -0.6409509 -0.4825638 -0.34476665 -0.4929325
-0.42146364 -0.5548108 -0.5460855 -0.48537734 0.53435975 0.68381023 0.6483248 0.83663297
0.6927365 0.67543375 -0.062252313 0.03777626 0.023003142 -0.11127634 0.12832695 -0.09932835
-0.055384964 -0.37577352 -0.38160443 -0.43783748 -0.8464259 -0.74471587 -0.8988675 -0.18923071
-0.40360957 -0.21594387 0.86389047 0.8934269 0.8253784 0.7944567 0.8120917 0.87848806
0.7911686 0.123173915 0.08293072 2.2461443 0.07721048 -0.10749247 0.0725226 -0.48941723
-0.38405254 -0.4073434 0.09786407 -0.10010192 0.033292618 -0.38922605 -0.13770758 -0.2850431
-0.39523578 -0.3018023 -0.41321304 -0.24812262 -0.26101702 -0.32726318 0.37919143 0.16603449
0.14225346 0.7865936 0.18342113 0.28128502 0.38125047 -0.19298525 -0.16329151 -0.21773511
-0.3943125 -0.4401803 -0.412671 -0.30600306 -0.05522838 -0.14933293 0.8161865 0.670879
0.6965133 -0.506007 -0.5469035 -0.595088 -0.4407257 0.07375445 -0.12563485 -0.70313174
0.9051804 0.7834447 0.89524806 -0.40614012 -0.39450523 -0.25672635 0.72880214 0.74428827
0.67823726 -0.45197985 -0.14503723 -0.13157405 0.004933089 0.022537276 0.07320959 -0.5939912
-0.5601178 -0.6078524 0.63817257 -0.11560538 -0.19011429 1.5631031 -0.08132207 0.16688481
0.14661305 -0.28097835 -0.18431132 -0.3701832 -0.21856941 -0.17632975 -0.052298557 -0.28275707
-0.05208883 -0.20335403 -0.8312355 -0.92969775 -0.7598743 0.43194935 0.42634225 0.2991455
-0.7176871 -0.043842766 -0.10707032 -1.5409045 0.4522695 0.4231085 0.23989615 0.3953123
0.18597645 0.3679076 -0.22956006 -0.21430561 -0.21674667 0.17668125 0.11080077 0.00089629466
0.5337287 0.63207966 0.48189643 -0.08258631 -0.13545996 -0.32359898 0.18294817 -0.15600681
-0.04562063 0.3650157 -0.7144524 -0.82422477 -0.7666029 -0.471813 -0.39800522 -0.40181074
-0.06488452 -0.11350306 -0.17350821 -0.31452012 -0.44604787 -0.48519477 0.87568545 0.9371206
0.97169346 0.832964 0.91155285 0.90479755 0.26185992 -0.020065542 -0.20907524 0.92596525
-0.40315923 -0.23922381 -0.23990838 -0.15692964 -0.015258408 0.11116948 -0.68231535 -0.6622612
-0.6579995 -0.1737956 0.005284807 -0.0903135 0.40289965 0.40238354 0.31479555 0.45433858
0.45808166 0.43328923 -0.24750945 0.19536117 -0.008261641 -0.37717572 0.32846934 0.20642944
0.22308019 -0.36215398 -0.121426664 -0.14325075 0.09683952 0.14726865 0.025517264 -0.21396334

layers.embed.emb.weight f4 [22, 22]
00000000: 0000 803f 0000 0000 0000 0000 0000 0000
00000010: 0000 0000 0000 0000 0000 0000 0000 0000
00000020: 0000 0000 0000 0000 0000 0000 0000 0000
00000030: 0000 0000 0000 0000 0000 0000 0000 0000
00000040: 0000 0000 0000 0000 0000 0000 0000 0000
00000050: 0000 0000 0000 0000 0000 0000 0000 803f
00000060: 0000 0000 0000 0000 0000 0000 0000 0000
00000070: 0000 0000 0000 0000 0000 0000 0000 0000
00000080: 0000 0000 0000 0000 0000 0000 0000 0000
00000090: 0000 0000 0000 0000 0000 0000 0000 0000
000000a0: 0000 0000 0000 0000 0000 0000 0000 0000
000000b0: 0000 0000 0000 0000 0000 803f 0000 0000
000000c0: 0000 0000 0000 0000 0000 0000 0000 0000
000000d0: 0000 0000 0000 0000 0000 0000 0000 0000
000000e0: 0000 0000 0000 0000 0000 0000 0000 0000
000000f0: 0000 0000 0000 0000 0000 0000 0000 0000
00000100: 0000 0000 0000 0000 0000 0000 0000 0000
00000110: 0000 0000 0000 803f 0000 0000 0000 0000
00000120: 0000 0000 0000 0000 0000 0000 0000 0000
00000130: 0000 0000 0000 0000 0000 0000 0000 0000
00000140: 0000 0000 0000 0000 0000 0000 0000 0000
00000150: 0000 0000 0000 0000 0000 0000 0000 0000
00000160: 0000 0000 0000 0000 0000 0000 0000 0000
00000170: 0000 803f 0000 0000 0000 0000 0000 0000
00000180: 0000 0000 0000 0000 0000 0000 0000 0000
00000190: 0000 0000 0000 0000 0000 0000 0000 0000
000001a0: 0000 0000 0000 0000 0000 0000 0000 0000
000001b0: 0000 0000 0000 0000 0000 0000 0000 0000
000001c0: 0000 0000 0000 0000 0000 0000 0000 803f
000001d0: 0000 0000 0000 0000 0000 0000 0000 0000
000001e0: 0000 0000 0000 0000 0000 0000 0000 0000
000001f0: 0000 0000 0000 0000 0000 0000 0000 0000
00000200: 0000 0000 0000 0000 0000 0000 0000 0000
00000210: 0000 0000 0000 0000 0000 0000 0000 0000
00000220: 0000 0000 0000 0000 0000 803f 0000 0000
00000230: 0000 0000 0000 0000 0000 0000 0000 0000
00000240: 0000 0000 0000 0000 0000 0000 0000 0000
00000250: 0000 0000 0000 0000 0000 0000 0000 0000
00000260: 0000 0000 0000 0000 0000 0000 0000 0000
00000270: 0000 0000 0000 0000 0000 0000 0000 0000
00000280: 0000 0000 0000 803f 0000 0000 0000 0000
00000290: 0000 0000 0000 0000 0000 0000 0000 0000
000002a0: 0000 0000 0000 0000 0000 0000 0000 0000
000002b0: 0000 0000 0000 0000 0000 0000 0000 0000
000002c0: 0000 0000 0000 0000 0000 0000 0000 0000
000002d0: 0000 0000 0000 0000 0000 0000 0000 0000
000002e0: 0000 803f 0000 0000 0000 0000 0000 0000
000002f0: 0000 0000 0000 0000 0000 0000 0000 0000
00000300: 0000 0000 0000 0000 0000 0000 0000 0000
00000310: 0000 0000 0000 0000 0000 0000 0000 0000
00000320: 0000 0000 0000 0000 0000 0000 0000 0000
00000330: 0000 0000 0000 0000 0000 0000 0000 803f
00000340: 0000 0000 0000 0000 0000 0000 0000 0000
00000350: 0000 0000 0000 0000 0000 0000 0000 0000
00000360: 0000 0000 0000 0000 0000 0000 0000 0000
00000370: 0000 0000 0000 0000 0000 0000 0000 0000
00000380: 0000 0000 0000 0000 0000 0000 0000 0000
00000390: 0000 0000 0000 0000 0000 803f 0000 0000
000003a0: 0000 0000 0000 0000 0000 0000 0000 0000
000003b0: 0000 0000 0000 0000 0000 0000 0000 0000
000003c0: 0000 0000 0000 0000 0000 0000 0000 0000
000003d0: 0000 0000 0000 0000 0000 0000 0000 0000
000003e0: 0000 0000 0000 0000 0000 0000 0000 0000
000003f0: 0000 0000 0000 803f 0000 0000 0000 0000
1.0 0.0 0.0 0.0 0.0 0.0 0.0 0.0
0.0 0.0 0.0 0.0 0.0 0.0 0.0 0.0
0.0 0.0 0.0 0.0 0.0 0.0 0.0 1.0
0.0 0.0 0.0 0.0 0.0 0.0 0.0 0.0
0.0 0.0 0.0 0.0 0.0 0.0 0.0 0.0
0.0 0.0 0.0 0.0 0.0 0.0 1.0 0.0
0.0 0.0 0.0 0.0 0.0 0.0 0.0 0.0
0.0 0.0 0.0 0.0 0.0 0.0 0.0 0.0
0.0 0.0 0.0 0.0 0.0 1.0 0.0 0.0
0.0 0.0 0.0 0.0 0.0 0.0 0.0 0.0
0.0 0.0 0.0 0.0 0.0 0.0 0.0 0.0
0.0 0.0 0.0 0.0 1.0 0.0 0.0 0.0
0.0 0.0 0.0 0.0 0.0 0.0 0.0 0.0
0.0 0.0 0.0 0.0 0.0 0.0 0.0 0.0
0.0 0.0 0.0 1.0 0.0 0.0 0.0 0.0
0.0 0.0 0.0 0.0 0.0 0.0 0.0 0.0
0.0 0.0 0.0 0.0 0.0 0.0 0.0 0.0
0.0 0.0 1.0 0.0 0.0 0.0 0.0 0.0
0.0 0.0 0.0 0.0 0.0 0.0 0.0 0.0
0.0 0.0 0.0 0.0 0.0 0.0 0.0 0.0
0.0 1.0 0.0 0.0 0.0 0.0 0.0 0.0
0.0 0.0 0.0 0.0 0.0 0.0 0.0 0.0
0.0 0.0 0.0 0.0 0.0 0.0 0.0 0.0
1.0 0.0 0.0 0.0 0.0 0.0 0.0 0.0
0.0 0.0 0.0 0.0 0.0 0.0 0.0 0.0
0.0 0.0 0.0 0.0 0.0 0.0 0.0 1.0
0.0 0.0 0.0 0.0 0.0 0.0 0.0 0.0
0.0 0.0 0.0 0.0 0.0 0.0 0.0 0.0
0.0 0.0 0.0 0.0 0.0 0.0 1.0 0.0
0.0 0.0 0.0 0.0 0.0 0.0 0.0 0.0
0.0 0.0 0.0 0.0 0.0 0.0 0.0 0.0
0.0 0.0 0.0 0.0 0.0 1.0 0.0 0.0

layers.lm_head.proj.bias f4 [22]
00000000: 0caa 71bf 8b06 8cbf 98e2 88bf caca 2a3f
00000010: 3dd6 9c3d 1837 8c3d 38e2 043e fdcc c13e
00000020: 03da 993e 28d7 203e 182a 59bd 36f9 ab3d
00000030: f9a5 06bc f07d 623e 0825 523e fa8b 243d
00000040: 120d 8c3e 5327 a83e fff7 703e 095b 433e
00000050: 904e 303e 0b9d a13e
-0.94400096 -1.0939497 -1.0694151 0.6671568 0.0765805 0.06846446 0.1297692 0.37851706
0.30049142 0.15707076 -0.05301866 0.083971426 -0.008218282 0.22118354 0.20521939 0.040172555
0.27353722 0.32842502 0.23532103 0.19077696 0.17217469 0.31565127

layers.lm_head.proj.weight f4 [22, 16]
00000000: 4b2c 8abe 620b 19bd f3d6 adbe 58d1 883d
00000010: d17c fe3e d381 a03e fa5e 803e ccfa b63e
00000020: e856 65be e88d aebe c2e6 b3be 08f1 aa3e
00000030: 2f54 e5be 66b9 99be cc42 d8bd dda0 ffbd
00000040: 77d8 00be 90c2 b13c e157 a8be 7940 8e3e
00000050: 8a9a de3e 19d7 b83e 48f1 0a3e 2dc6 e13e
00000060: 3160 f93c 295e 55be 5660 83be cc24 ed3e
00000070: d19a 30be cb09 3dbe 243f 63be dcdc b0bd
00000080: 7eb2 5fbe 5ea6 6cbd e6d6 8ebe 4a4f 65bc
00000090: a853 df3e 6777 c53e 6d32 503e 955a d93e
000000a0: 5fb1 0e3d 11e5 a1be 4f8c 19be a33d 3f3e
000000b0: beb5 54be d653 c8be 4133 90be 7bc7 05be
000000c0: ae6c 42c0 08c5 1440 71c6 d3bf d5b8 87bf
000000d0: 0d68 73bf 503f abbe 2e19 7bbf a811 2dbf
000000e0: 2639 253f e38f b9bf ebcb 9cbe 5bc7 49bf
000000f0: 5537 d1bf c978 72bf d7b8 b9bd dd98 e63e
00000100: 7113 0a3d 096e 723f a0e3 013f 93fc 77be
00000110: ba9b 9b3f 8bb6 e43e d609 dbbe f0d7 4a3f
00000120: 23ca 5ebf 757d 1f3e c166 3f3e 27c0 95be
00000130: 9082 da3e d253 dfbd 22d1 903e c68a dcbe
00000140: a261 753e c798 293f d17a 003f 1318 22bd
00000150: 303f 863f e38f 013f 65ee a1be 92f9 613f
00000160: 2197 51bf b8a8 0b3d 227c c53e 6dd8 eabe
00000170: bbf4 cc3e bbcd c1bd 5557 8c3e 0c45 3bbf
00000180: 8067 513e 5bd4 4d3f 6ece 9e3e 2410 043d
00000190: e4a6 8c3f 0398 b43e 1742 c0be 9024 0e3f
000001a0: b135 64bf edb4 9d3b e3e2 133f c755 8bbe
000001b0: 1da3 023f be2b 6ebe 3030 5a3e adde 62bf
000001c0: 3877 aebf 9590 84bf 383f 2d3f b437 923f
000001d0: 32f0 4abf 7123 223f 66b7 6dbe 6863 96bf
000001e0: d87f 5a3f 713c 8a3f 314a a23e 1166 12bf
000001f0: ca8a e1be 10ce 173e 6408 403f bcfa dabe
00000200: 32b9 b2bf 3c81 8ebf d200 2c3f 098c 6f3f
00000210: 23cc 52bf 0af2 123f 4f6b b9be c06f 9abf
00000220: 4493 493f 0e5c 973f 3883 bf3e f0be 1fbf
00000230: b130 fabe 09e4 bd3e 6e95 193f 8d97 f2be
00000240: 4aed b5bf 0fa7 63bf 0dcf 423f e90c 723f
00000250: a37d 86bf 5d0d 1e3f 704f 9abe f6c1 a4bf
00000260: 6ecc 333f ffba 953f b898 6e3e d0a5 10bf
00000270: f70a babe 9fa6 ce3e 0594 5d3f d2a6 cfbe
00000280: acd2 ef3d 357e 623f 28ae fe3e 8132 1bbe
00000290: 7d16 b03f f401 903e 145d a8be 0798 143f
000002a0: 04d4 27bf 4354 bc3e 6778 a33e 93f7 dbbe
000002b0: d349 d43e f342 3cbd ba3d e63e a84f 3bbf
000002c0: 8ca7 353e 55bc 523f e24a 003f 61e3 f1bd
000002d0: e66b 9f3f f269 b13e f24e e9be 647a 413f
000002e0: 070a 44bf 7ac3 853e 5286 893e 8d1a 6bbe
000002f0: 3b96 843e eade 3dbe 9548 473e c88a 6abf
00000300: 9e6c c13d 58e4 533f 551d 1b3f fd73 0bbd
00000310: cacc a23f eff1 013f efed 0abf 9581 3c3f
00000320: 554f 48bf df72 ce3a 237a 9c3e 7f79 a8be
00000330: c50e 943e 8f5d 3f3c abb0 8a3e 0b0d 20bf
00000340: 53d8 db3e 6b57 0ebf 277d 7f3e b988 1c3f
00000350: 92d4 bcbe 00e0 94bf fd84 31bf 1360 263f
00000360: 40fe e2bc 355c c43e c5ce 963e a1de 603f
00000370: 2121 86bf 2a86 eebd acf4 513f f7ab 483f
00000380: 2ffa 583e c6a2 f9be 8f5d 0d3f 0ff9 c83e
00000390: 9619 2bbf 5030 59bf 7085 34bf 0f87 2c3f
000003a0: 8b04 bebe 7604 113f 7808 0c3e 0fc3 523f
000003b0: aca2 81bf d838 aabc f525 043f 5e36 8a3f
000003c0: bce0 4e3e 178c edbe 95ab 003f 9dab bd3e
000003d0: 6a44 fdbe 4353 95bf 4584 46bf f92f 2b3f
000003e0: 2f87 a4be 6ace 1d3f 9116 813e 7987 683f
000003f0: 16a4 68bf 9b53 183e 1979 213f 4824 733f
-0.26986918 -0.03736437 -0.33953056 0.06680554 0.49704602 0.31349048 0.2507246 0.35738218
-0.22396433 -0.3409264 -0.35136992 0.33387017 -0.4479079 -0.3002426 -0.105596155 -0.12481854
-0.12582575 0.02169922 -0.32879546 0.27783564 0.4347728 0.36101606 0.13568604 0.4409651
0.030441375 -0.208367 -0.25659436 0.46317136 -0.17246558 -0.18460767 -0.22192055 -0.086358756
-0.21845433 -0.057775848 -0.2789833 -0.013995955 0.43618512 0.3856766 0.20331736 0.4245192
0.034837123 -0.31620076 -0.1499493 0.18675856 -0.20772454 -0.39126462 -0.28164104 -0.13064377
-3.0378833 2.3245258 -1.6544935 -1.0603281 -0.95080644 -0.3344674 -0.98085296 -0.67605066
0.64540327 -1.4497036 -0.30624327 -0.7881982 -1.6345011 -0.94715554 -0.090684585 0.450385
0.033709947 0.9469915 0.50737953 -0.24217443 1.2156899 0.4467052 -0.42780942 0.79235744
-0.87027186 0.15575202 0.18691541 -0.29248163 0.42677736 -0.10904659 0.28284556 -0.43074626
0.23963025 0.66248745 0.501874 -0.03957374 1.0488033 0.5061018 -0.31627193 0.8827144
-0.8187123 0.03409645 0.38571268 -0.45868245 0.40030465 -0.09463068 0.2741038 -0.7315223
0.20449638 0.80402154 0.31016868 0.032241955 1.0988431 0.35272226 -0.37550423 0.5552454
-0.89144427 0.004812828 0.57768077 -0.2721388 0.5103014 -0.23258874 0.21307445 -0.88621026
-1.3630133 -1.0356623 0.6767459 1.1423249 -0.7927276 0.6333533 -0.23214492 -1.1749086
0.85351324 1.0799695 0.3169723 -0.5718699 -0.440512 0.148247 0.75012803 -0.4276942
-1.3962767 -1.1133189 0.6718875 0.9357305 -0.8234274 0.5740057 -0.36214682 -1.2065353
0.78740335 1.1824968 0.374048 -0.6240072 -0.48865274 0.3708804 0.59993637 -0.4738125
-1.421304 -0.88926786 0.76097184 0.9455095 -1.0507091 0.6173914 -0.3013873 -1.2871692
0.7023381 1.1697692 0.23300445 -0.5650301 -0.3633649 0.40361497 0.86553985 -0.4055696
0.11710104 0.88473827 0.49742246 -0.15155984 1.3756863 0.2812649 -0.32883513 0.58044475
-0.65557885 0.36783037 0.31927797 -0.42962322 0.41462573 -0.045962285 0.4496897 -0.7316842
0.17739695 0.8231862 0.5011426 -0.11810947 1.2454803 0.34651142 -0.45568043 0.7557738
-0.765778 0.261257 0.2686029 -0.22959347 0.25895867 -0.18542066 0.19461282 -0.91618013
0.09444545 0.827703 0.6059163 -0.034046162 1.2718747 0.50759786 -0.5426931 0.73635226
-0.7824605 0.0015750787 0.30561933 -0.32905194 0.28917518 0.011680021 0.27087912 -0.625199
0.4293848 -0.5560214 0.24950086 0.6114612 -0.36880928 -1.1630859 -0.6934355 0.6499035
-0.027709126 0.38351598 0.29454628 0.87839705 -1.047886 -0.116466835 0.82013965 0.783874
0.21189187 -0.48757 0.55220884 0.39252517 -0.66835916 -0.84839344 -0.7051611 0.67393583
-0.3711284 0.5664743 0.13675106 0.82328886 -1.0127769 -0.020779058 0.5162042 1.0797842
0.20202917 -0.46395943 0.50261813 0.37044993 -0.49466258 -1.1666034 -0.7754558 0.66870075
-0.32134387 0.6164309 0.2521253 0.90831715 -0.90875375 0.14875643 0.63075405 0.94977236
