jordan_elman_2024/exp1/mlp/run_8/export/model.safetensors (safetensors, 5336 bytes, 5 tensors)

layers.embed.emb.weight f4 [22, 22]
0	0x3f800000	1.0
1	0x00000000	0.0
2	0x00000000	0.0
3	0x00000000	0.0
4	0x00000000	0.0
5	0x00000000	0.0
6	0x00000000	0.0
7	0x00000000	0.0
8	0x00000000	0.0
9	0x00000000	0.0
10	0x00000000	0.0
11	0x00000000	0.0
12	0x00000000	0.0
13	0x00000000	0.0
14	0x00000000	0.0
15	0x00000000	0.0
16	0x00000000	0.0
17	0x00000000	0.0
18	0x00000000	0.0
19	0x00000000	0.0
20	0x00000000	0.0
21	0x00000000	0.0
22	0x00000000	0.0
23	0x3f800000	1.0
24	0x00000000	0.0
25	0x00000000	0.0
26	0x00000000	0.0
27	0x00000000	0.0
28	0x00000000	0.0
29	0x00000000	0.0
30	0x00000000	0.0
31	0x00000000	0.0
32	0x00000000	0.0
33	0x00000000	0.0
34	0x00000000	0.0
35	0x00000000	0.0
36	0x00000000	0.0
37	0x00000000	0.0
38	0x00000000	0.0
39	0x00000000	0.0
40	0x00000000	0.0
41	0x00000000	0.0
42	0x00000000	0.0
43	0x00000000	0.0
44	0x00000000	0.0
45	0x00000000	0.0
46	0x3f800000	1.0
47	0x00000000	0.0
48	0x00000000	0.0
49	0x00000000	0.0
50	0x00000000	0.0
51	0x00000000	0.0
52	0x00000000	0.0
53	0x00000000	0.0
54	0x00000000	0.0
55	0x00000000	0.0
56	0x00000000	0.0
57	0x00000000	0.0
58	0x00000000	0.0
59	0x00000000	0.0
60	0x00000000	0.0
61	0x00000000	0.0
62	0x00000000	0.0
63	0x00000000	0.0
64	0x00000000	0.0
65	0x00000000	0.0
66	0x00000000	0.0
67	0x00000000	0.0
68	0x00000000	0.0
69	0x3f800000	1.0
70	0x00000000	0.0
71	0x00000000	0.0
72	0x00000000	0.0
73	0x00000000	0.0
74	0x00000000	0.0
75	0x00000000	0.0
76	0x00000000	0.0
77	0x00000000	0.0
78	0x00000000	0.0
79	0x00000000	0.0
80	0x00000000	0.0
81	0x00000000	0.0
82	0x00000000	0.0
83	0x00000000	0.0
84	0x00000000	0.0
85	0x00000000	0.0
86	0x00000000	0.0
87	0x00000000	0.0
88	0x00000000	0.0
89	0x00000000	0.0
90	0x00000000	0.0
91	0x00000000	0.0
92	0x3f800000	1.0
93	0x00000000	0.0
94	0x00000000	0.0
95	0x00000000	0.0
96	0x00000000	0.0
97	0x00000000	0.0
98	0x00000000	0.0
99	0x00000000	0.0
100	0x00000000	0.0
101	0x00000000	0.0
102	0x00000000	0.0
103	0x00000000	0.0
104	0x00000000	0.0
105	0x00000000	0.0
106	0x00000000	0.0
107	0x00000000	0.0
108	0x00000000	0.0
109	0x00000000	0.0
110	0x00000000	0.0
111	0x00000000	0.0
112	0x00000000	0.0
113	0x00000000	0.0
114	0x00000000	0.0
115	0x3f800000	1.0
116	0x00000000	0.0
117	0x00000000	0.0
118	0x00000000	0.0
119	0x00000000	0.0
120	0x00000000	0.0
121	0x00000000	0.0
122	0x00000000	0.0
123	0x00000000	0.0
124	0x00000000	0.0
125	0x00000000	0.0
126	0x00000000	0.0
127	0x00000000	0.0
128	0x00000000	0.0
129	0x00000000	0.0
130	0x00000000	0.0
131	0x00000000	0.0
132	0x00000000	0.0
133	0x00000000	0.0
134	0x00000000	0.0
135	0x00000000	0.0
136	0x00000000	0.0
137	0x00000000	0.0
138	0x3f800000	1.0
139	0x00000000	0.0
140	0x00000000	0.0
141	0x00000000	0.0
142	0x00000000	0.0
143	0x00000000	0.0
144	0x00000000	0.0
145	0x00000000	0.0
146	0x00000000	0.0
147	0x00000000	0.0
148	0x00000000	0.0
149	0x00000000	0.0
150	0x00000000	0.0
151	0x00000000	0.0
152	0x00000000	0.0
153	0x00000000	0.0
154	0x00000000	0.0
155	0x00000000	0.0
156	0x00000000	0.0
157	0x00000000	0.0
158	0x00000000	0.0
159	0x00000000	0.0
160	0x00000000	0.0
161	0x3f800000	1.0
162	0x00000000	0.0
163	0x00000000	0.0
164	0x00000000	0.0
165	0x00000000	0.0
166	0x00000000	0.0
167	0x00000000	0.0
168	0x00000000	0.0
169	0x00000000	0.0
170	0x00000000	0.0
171	0x00000000	0.0
172	0x00000000	0.0
173	0x00000000	0.0
174	0x00000000	0.0
175	0x00000000	0.0
176	0x00000000	0.0
177	0x00000000	0.0
178	0x00000000	0.0
179	0x00000000	0.0
180	0x00000000	0.0
181	0x00000000	0.0
182	0x00000000	0.0
183	0x00000000	0.0
184	0x3f800000	1.0
185	0x00000000	0.0
186	0x00000000	0.0
187	0x00000000	0.0
188	0x00000000	0.0
189	0x00000000	0.0
190	0x00000000	0.0
191	0x00000000	0.0
192	0x00000000	0.0
193	0x00000000	0.0
194	0x00000000	0.0
195	0x00000000	0.0
196	0x00000000	0.0
197	0x00000000	0.0
198	0x00000000	0.0
199	0x00000000	0.0
200	0x00000000	0.0
201	0x00000000	0.0
202	0x00000000	0.0
203	0x00000000	0.0
204	0x00000000	0.0
205	0x00000000	0.0
206	0x00000000	0.0
207	0x3f800000	1.0
208	0x00000000	0.0
209	0x00000000	0.0
210	0x00000000	0.0
211	0x00000000	0.0
212	0x00000000	0.0
213	0x00000000	0.0
214	0x00000000	0.0
215	0x00000000	0.0
216	0x00000000	0.0
217	0x00000000	0.0
218	0x00000000	0.0
219	0x00000000	0.0
220	0x00000000	0.0
221	0x00000000	0.0
222	0x00000000	0.0
223	0x00000000	0.0
224	0x00000000	0.0
225	0x00000000	0.0
226	0x00000000	0.0
227	0x00000000	0.0
228	0x00000000	0.0
229	0x00000000	0.0
230	0x3f800000	1.0
231	0x00000000	0.0
232	0x00000000	0.0
233	0x00000000	0.0
234	0x00000000	0.0
235	0x00000000	0.0
236	0x00000000	0.0
237	0x00000000	0.0
238	0x00000000	0.0
239	0x00000000	0.0
240	0x00000000	0.0
241	0x00000000	0.0
242	0x00000000	0.0
243	0x00000000	0.0
244	0x00000000	0.0
245	0x00000000	0.0
246	0x00000000	0.0
247	0x00000000	0.0
248	0x00000000	0.0
249	0x00000000	0.0
250	0x00000000	0.0
251	0x00000000	0.0
252	0x00000000	0.0
253	0x3f800000	1.0
254	0x00000000	0.0
255	0x00000000	0.0

layers.lm_head.proj.bias f4 [22]
0	0xbf9dbdf5	-1.2323595
1	0xbf9ee418	-1.2413359
2	0xbfa06b5b	-1.2532762
3	0x3df50aa5	0.11964921
4	0x3da0e55c	0.07856247
5	0x3e2982ac	0.16553754
6	0x3e04e2d9	0.1297716
7	0x3e58bb78	0.21165264
8	0x3eb84d4d	0.35996476
9	0x3e76a5d1	0.24086691
10	0x3e35c6ad	0.1775157
11	0x3e6cb4de	0.2311587
12	0x3d9d7d76	0.076899454
13	0x3e6a4f43	0.22881798
14	0x3e436adb	0.19083731
15	0x3e00393d	0.12521835
16	0x3df2c259	0.11853475
17	0x3e6157f0	0.22006202
18	0x3e345b51	0.1761296
19	0x3ebe3704	0.3715135
20	0x3edac025	0.4272472
21	0x3ee60419	0.44925

layers.lm_head.proj.weight f4 [22, 16]
0	0xbeb446ec	-0.3521036
1	0xbef5036b	-0.4785417
2	0x3d271e87	0.040800598
3	0x3d3557dc	0.044273242
4	0x3e33f3b8	0.1757344
5	0x3ec6a321	0.38796332
6	0xbed6091a	-0.4180382
7	0x3e577a85	0.21042831
8	0xbdc6594b	-0.09685
9	0xbeb3f8b0	-0.3515067
10	0x3d935c7a	0.07195373
11	0x3dea1195	0.11429135
12	0x3e287bbf	0.16453455
13	0xbebbc16e	-0.36671013
14	0xbee15da1	-0.44016746
15	0x3db3d26b	0.087803684
16	0xbeb04db5	-0.34434286
17	0xbe9c019e	-0.30469984
18	0xbd95c357	-0.07312649
19	0x3e114af9	0.14188756
20	0x3e3b46ec	0.18288773
21	0x3e969b95	0.29415575
22	0xbee1d3ce	-0.44106907
23	0x3e1c8184	0.15283781
24	0x3bd2e121	0.006435529
25	0xbdddccb2	-0.10830058
26	0x3dad3cab	0.08458837
27	0xbce6d19c	-0.028176121
28	0x3eab37e9	0.33441094
29	0xbeceecd5	-0.40415064
30	0xbea54c1f	-0.32284638
31	0x3d13e2ad	0.036104847
32	0xbe7ea2a7	-0.24866734
33	0xbeef6c88	-0.4676249
34	0xbeb90c97	-0.36142418
35	0x3e229dce	0.1588051
36	0x3e85742e	0.260652
37	0x3ecc787f	0.3993568
38	0xbe671381	-0.22566034
39	0x3da9f236	0.08298151
40	0x3e33ddbb	0.17565052
41	0xbe6fdb87	-0.23423587
42	0x3d6b057e	0.057378285
43	0x3d11d2a5	0.035601277
44	0x3eb2ebb4	0.34945452
45	0xbcaf559e	-0.02140313
46	0xbeedcd5a	-0.46445733
47	0x3e5231e7	0.20526849
48	0x3f0bd111	0.54615885
49	0xbf7a2252	-0.9770862
50	0x3e19c044	0.1501475
51	0xbf6ecfa9	-0.93285614
52	0xbfbe9265	-1.4888426
53	0xc00a6997	-2.1626947
54	0xbf6808a3	-0.9063818
55	0xbf25e8d8	-0.64808416
56	0x3e8bc7f8	0.27301002
57	0x3eb58d46	0.35459346
58	0x3fe0e31d	1.756931
59	0xc0159915	-2.3374684
60	0xbea8518b	-0.32874712
61	0xbfaed299	-1.3658019
62	0xbf04264f	-0.51620954
63	0x4014e437	2.3264291
64	0xbed9c863	-0.42535695
65	0x3ea608b3	0.32428512
66	0xbc8bae40	-0.017050862
67	0xbf040221	-0.5156575
68	0x3e8b2353	0.27175388
69	0x3e624419	0.2209629
70	0x3edd82c6	0.43263835
71	0xbfb571bf	-1.4175338
72	0xbdb5a02b	-0.0886844
73	0xbf7324a3	-0.9497778
74	0xbe81b1ce	-0.25330967
75	0x3e67bc1b	0.2263035
76	0x3f645915	0.8919843
77	0xbebe508b	-0.37170824
78	0x3ee054af	0.43814608
79	0xbed14750	-0.4087472
80	0xbef9cce0	-0.4878912
81	0x3e698ccd	0.22807617
82	0xbbb6553c	-0.00556436
83	0xbee51221	-0.44740394
84	0x3eae3972	0.34028202
85	0x3e3f36f1	0.18673302
86	0x3ecf4d1f	0.40488526
87	0xbfc77685	-1.5583044
88	0xbde8d4f9	-0.11368746
89	0xbf4e6255	-0.8061879
90	0xbe3bcebf	-0.18340586
91	0x3e460aeb	0.19340102
92	0x3f7ba547	0.9829907
93	0xbeb5b0a3	-0.35486326
94	0x3f0c164f	0.5472154
95	0xbe9c3e8f	-0.30516478
96	0xbeda6f3d	-0.42662993
97	0x3e89760a	0.2684787
98	0x3ddca52c	0.107736915
99	0xbeef7f5b	-0.46776852
100	0x3ec5d463	0.386386
101	0x3ea56300	0.32302094
102	0x3ecb8c56	0.39755505
103	0xbfc26d54	-1.5189614
104	0xbcfc609b	-0.030807784
105	0xbf4c9475	-0.7991403
106	0xbe8e525c	-0.2779721
107	0x3e8520d6	0.26001614
108	0x3f6df57b	0.929527
109	0xbee34b6d	-0.44393483
110	0x3efbfe75	0.49217573
111	0xbe967e31	-0.2939315
112	0x3ecbc7be	0.3980083
113	0xbf5b0448	-0.8555341
114	0xbe85e571	-0.26151612
115	0x3f51d4e1	0.8196545
116	0x3ec9e022	0.39428812
117	0xbec4370c	-0.38323247
118	0x3f4ef9da	0.80849993
119	0x3ed25a67	0.41084597
120	0x3e495544	0.19661433
121	0x3e243078	0.16034114
122	0x3f861bc5	1.0477225
123	0x3f812467	1.0089234
124	0xbf98926e	-1.1919687
125	0xbe1aa849	-0.15103258
126	0xbedd7df9	-0.43260172
127	0xbda773fe	-0.08176421
128	0x3edd1b5a	0.4318493
129	0xbf3eaf92	-0.7448665
130	0xbe8a8e87	-0.27061865
131	0x3f686551	0.90779597
132	0x3eec53b9	0.46157625
133	0xbe7eb669	-0.24874271
134	0x3f729e11	0.9477244
135	0x3eceebf3	0.4041439
136	0x3e135734	0.14388734
137	0xbb90c4a0	-0.004417971
138	0x3f8247c8	1.0178156
139	0x3f574a41	0.8409768
140	0xbf935a85	-1.1511999
141	0xbda4ecae	-0.080529556
142	0xbf09ce91	-0.5383082
143	0x3d4ce946	0.050027154
144	0x3ebfdb7d	0.37472144
145	0xbf5332ae	-0.82499206
146	0xbdf26a7f	-0.11836719
147	0x3f73cab8	0.952312
148	0x3eb7fb8b	0.359341
149	0xbea379da	-0.31928903
150	0x3f76ed27	0.96455616
151	0x3ebdcd30	0.37070608
152	0x3e4dfc1b	0.20115702
153	0x3e2a155c	0.1660971
154	0x3f868024	1.0507855
155	0x3f7dca6d	0.99137
156	0xbf956216	-1.1670558
157	0xbdefaade	-0.11702512
158	0xbeb9e3e0	-0.36306667
159	0xbcf2d9c5	-0.029644856
160	0xbe536e68	-0.20647585
161	0x3e809a02	0.251175
162	0xbb7f519f	-0.0038958562
163	0xbedd9a0f	-0.432816
164	0x3e820d3f	0.2540073
165	0x3ebfbdf8	0.37449622
166	0x3eb72965	0.3577377
167	0xbfbb0899	-1.4611999
168	0xbd5e4760	-0.054267287
169	0xbf53ca3a	-0.8273045
170	0xbddd8f68	-0.10818368
171	0x3e7fd47b	0.24983399
172	0x3f727f9c	0.94725966
173	0xbf1009e2	-0.5626508
174	0x3f0c7c21	0.54876906
175	0xbebfb611	-0.37443593
176	0xbeb1610e	-0.3464436
177	0x3ea7e578	0.32792258
178	0xbe3d9b6c	-0.1851632
179	0xbedd5dbc	-0.43235576
180	0x3eb9d081	0.36291888
181	0x3e74fa17	0.23923527
182	0x3ea3866d	0.31938496
183	0xbfaecd49	-1.3656398
184	0xbd608235	-0.054811675
185	0xbf630d82	-0.88692486
186	0xbdac544b	-0.08414515
187	0x3e944263	0.289569
188	0x3f72fd1b	0.9491746
189	0xbf157a53	-0.58389777
190	0x3f0221aa	0.5083262
191	0xbe9c8aa0	-0.30574512
192	0xbeb4e305	-0.35329452
193	0x3e78c760	0.24294806
194	0x3c2b61e7	0.010460353
195	0xbf0072ff	-0.5017547
196	0x3e97f10a	0.29676086
197	0x3eb74163	0.35792074
198	0x3ef17710	0.4716115
199	0xbfca687a	-1.5813134
200	0xbd8ee578	-0.069773614
201	0xbf5c831e	-0.8613757
202	0xbe764c0b	-0.24052446
203	0x3e6924f9	0.2276801
204	0x3f6a3f2c	0.9150264
205	0xbf0a6e73	-0.5407478
206	0x3ee19fd7	0.4406726
207	0xbee053c3	-0.43813905
208	0xbd7cb808	-0.061698943
209	0xbf7486cf	-0.955182
210	0x3e5fe697	0.21865307
211	0x3e8b40f6	0.27198
212	0x3edd7eb0	0.43260717
213	0xbf2a5aa3	-0.6654455
214	0x3f5fa26e	0.87357223
215	0x3eba206c	0.3635286
216	0xbee719d5	-0.45136896
217	0xbbdf402f	-0.006813071
218	0x3f5c0088	0.8593831
219	0x3f6d3bb0	0.926692
220	0xbf9ffa00	-1.2498169
221	0x3f0ecffe	0.5578612
222	0xbefae4b8	-0.49002624
223	0x3da130ac	0.078706115
224	0xbcf4caf9	-0.029881941
225	0xbf7b55da	-0.98177874
226	0x3e9e4a66	0.30916137
227	0x3ea8d1bb	0.32972512
228	0x3ec86cc6	0.39145488
229	0xbf06d1f0	-0.5266409
230	0x3f67a171	0.90480715
231	0x3eb0cb24	0.34529984
232	0xbef1dcef	-0.4723887
233	0xbd53d3d1	-0.051715676
234	0x3f61b573	0.88167495
235	0x3f56f0c1	0.8396111
236	0xbfa26470	-1.2686901
237	0x3f1846c2	0.5948297
238	0xbf08060b	-0.5313422
239	0x3ce9b894	0.028530397
240	0xbc4d7ee7	-0.012542463
241	0xbf62b4b5	-0.8855699
242	0x3e3d0193	0.18457632
243	0x3e7849b6	0.24246868
244	0x3edb2f25	0.42809406
245	0xbf37a248	-0.71731997
246	0x3f5e3486	0.86798894
247	0x3e9f6a9f	0.31136033
248	0xbebae031	-0.3649917
249	0x3d8651ef	0.06558596
250	0x3f7454fa	0.95442164
251	0x3f86cf77	1.0532063
252	0xbfa5cc14	-1.2952905
253	0x3f263906	0.6493076
254	0xbeda38a4	-0.42621338
255	0x3e253659	0.16134013

layers.mlp.linear.bias f4 [16]
0	0x3e6649ce	0.22489092
1	0xbcdf183f	-0.027233241
2	0x3d5c838d	0.053836394
3	0xbc1cee1a	-0.009578252
4	0xbe859279	-0.26088312
5	0xbea5062d	-0.32231274
6	0xbc6ad091	-0.014331953
7	0x3e8d339f	0.27578446
8	0xbc36b46b	-0.011151413
9	0x3ea09f13	0.31371364
10	0x3e32aa80	0.17447853
11	0xbe223389	-0.15839972
12	0xbeb13274	-0.34608805
13	0x3de082e2	0.10962464
14	0xbd6dc0e7	-0.058045294
15	0x3e5012d8	0.20319688

layers.mlp.linear.weight f4 [16, 22]
0	0xbe992dea	-0.29917842
1	0xbe5841ac	-0.21118802
2	0x3e3bdd0c	0.18346041
3	0xbf08fbbc	-0.53509116
4	0xbdd6d5af	-0.10489976
5	0xbe1b5e93	-0.15172796
6	0xbe817557	-0.25284836
7	0x3dc7c27a	0.0975389
8	0x3e58d97b	0.21176712
9	0x3e94a412	0.29031426
10	0xba4ae124	-0.0007739237
11	0x3de7acc1	0.11312247
12	0x3d5d06ea	0.053961672
13	0x3ec67365	0.38759914
14	0x3e7e8335	0.24854739
15	0x3e179dd0	0.14806294
16	0x3da4608f	0.080262296
17	0x3eb7d0b7	0.35901424
18	0x3e879f7a	0.26488858
19	0xbe871cc8	-0.26389146
20	0xbea7b61e	-0.32756132
21	0xbe4e0e25	-0.20122583
22	0x3e9f9034	0.31164706
23	0xbd7767b2	-0.060401626
24	0x3e46e813	0.19424467
25	0x3e8e1b7e	0.2775535
26	0x3f851b07	1.0398873
27	0x3f92d2fc	1.1470637
28	0x3f7f2a5d	0.99674016
29	0xbeed4d9f	-0.46348283
30	0xbe690304	-0.22755057
31	0xbebb9879	-0.36639765
32	0x3f206c89	0.6266561
33	0x3f0ce728	0.55040216
34	0x3f2e880e	0.6817635
35	0xbe59b6ca	-0.21261135
36	0xbe7f444f	-0.24928401
37	0xbf028ade	-0.50993145
38	0xbf19a078	-0.6001048
39	0xbeeb3729	-0.4594052
40	0xbf0566a5	-0.5210975
41	0xbf27b782	-0.65514386
42	0xbf3f2295	-0.74662143
43	0xbf317bce	-0.69329536
44	0x3dcc2ebc	0.099698514
45	0x3d906fd4	0.070525795
46	0x3d048553	0.03235371
47	0xbd87f6f0	-0.066388965
48	0x3db8768d	0.09006987
49	0x3e8772be	0.2645473
50	0x3e8959d4	0.26826346
51	0x3e27e039	0.16394128
52	0x3dacd0ad	0.08438239
53	0xbda1535b	-0.07877227
54	0xbe88793a	-0.2665499
55	0xbda10c32	-0.07863654
56	0xbe3188ca	-0.17337337
57	0x3e8352af	0.2564902
58	0x3d493107	0.04911902
59	0x3e05c426	0.13063106
60	0xbe9cfe81	-0.3066292
61	0xbe4e3d90	-0.20140672
62	0xbeaab8a7	-0.33344004
63	0x3e8da00f	0.27661178
64	0x3dc2524d	0.09488354
65	0x3eaa24f4	0.33231318
66	0xbe230b65	-0.15922315
67	0xbdaaf4d8	-0.083474815
68	0xbdd24fd5	-0.10269133
69	0xbeda5f28	-0.42650723
70	0xbef0dade	-0.47041982
71	0xbe81f581	-0.25382617
72	0xbe9fcc30	-0.3121047
73	0xbea29c23	-0.31759748
74	0xbe3f1897	-0.18661724
75	0xbe7d1ad1	-0.24717261
76	0x3e6af036	0.22943196
77	0x3e675d51	0.22594191
78	0x3e4e50c1	0.20147993
79	0xbe75d786	-0.24007997
80	0xbeec0b28	-0.46102262
81	0xbe73ce41	-0.23809148
82	0x3f660f9a	0.89867556
83	0x3f674dd4	0.9035313
84	0x3f55ad77	0.8346781
85	0x3ea692cf	0.3253388
86	0x3e0ec534	0.13942415
87	0x3e2078c7	0.15671073
88	0x3ef0b2fc	0.47011554
89	0xbe54d149	-0.20782961
90	0x3da965b1	0.08271349
91	0x3f075a54	0.52872205
92	0xbe98b7a7	-0.29827616
93	0xbec6dfdb	-0.38842663
94	0xbee08f13	-0.43859157
95	0xbf034c96	-0.51288736
96	0xbf1d165e	-0.61362255
97	0xbec2b0b0	-0.38025427
98	0xbe15f825	-0.14645441
99	0x3ce2fb96	0.027707856
100	0xbd034621	-0.032049302
101	0xbf21c37e	-0.6318892
102	0xbeef89bb	-0.46784768
103	0xbea2ef7f	-0.31823346
104	0x3f2289f1	0.6349173
105	0x3f0cc4be	0.54987705
106	0x3f08ddd6	0.53463495
107	0x3f255def	0.64596456
108	0x3f23d3b7	0.63994926
109	0x3f2488a9	0.64271027
110	0x3e72ea71	0.23722245
111	0xbde60bc8	-0.11232716
112	0xbe0e83b1	-0.13917424
113	0x3f0cb2a9	0.54960114
114	0x3f06988d	0.52576524
115	0x3f0a0cb4	0.53925633
116	0x3f06e2f9	0.5269008
117	0xbf53de84	-0.82761407
118	0xbf7512b2	-0.9573165
119	0xbf410098	-0.7539153
120	0x3f3e654d	0.7437332
121	0x3f1bc303	0.6084444
122	0x3f4140a0	0.75489235
123	0xbf5474d0	-0.8299074
124	0xbf2b30cb	-0.6687133
125	0xbf6212a2	-0.8830968
126	0x3e27d6b9	0.16390504
127	0x3d1e8375	0.038699586
128	0x3e369422	0.17829946
129	0xbe85c1a9	-0.26124313
130	0xbe711bae	-0.23545715
131	0xbe62546d	-0.22102518
132	0x3e111bfd	0.14170833
133	0xbe5451bd	-0.20734306
134	0x3e158e72	0.1460512
135	0x3ecc0a30	0.39851522
136	0xbe558129	-0.20850052
137	0xbe9a4751	-0.30132535
138	0xbe4b5b5b	-0.19859068
139	0xbe6d2e95	-0.23162301
140	0xbe9a589b	-0.30145726
141	0xbe986c4c	-0.29770124
142	0xbf89e8d7	-1.0774182
143	0xbf830ec4	-1.0238881
144	0xbf87b281	-1.060135
145	0xbe7c0cdc	-0.2461428
146	0xbe92039d	-0.28518382
147	0xbecb730a	-0.39736205
148	0x3f4192dc	0.75614715
149	0x3f490016	0.78515756
150	0x3f5faec5	0.8737605
151	0x3f275158	0.65358496
152	0x3f558c5b	0.8341729
153	0x3f2e2a3e	0.68033206
154	0xbf996a2b	-1.1985525
155	0x3e1f06c7	0.15529929
156	0xbdcc974a	-0.099897936
157	0xbfdd48b1	-1.7287809
158	0x3f4fe5ba	0.8120991
159	0x3f4a4bcb	0.790219
160	0x3f3cdca8	0.73774195
161	0xbda8d772	-0.08244218
162	0xbea3ed76	-0.32017106
163	0xbdcbaf40	-0.09945536
164	0x3f22abb9	0.6354328
165	0x3f1805c4	0.593838
166	0x3ee91178	0.4552114
167	0xbe7909d3	-0.24320154
168	0xbeb39672	-0.35075718
169	0xbd7d2318	-0.061801046
170	0x3e69eb32	0.22843626
171	0x3d19ce8e	0.0375505
172	0x3e0b1ab5	0.13584407
173	0xbd28f6be	-0.041250937
174	0xbd09edba	-0.03367398
175	0x3e2f9dc2	0.17150024
176	0xbe2dc8e9	-0.16971172
177	0xbe255454	-0.1614545
178	0xbdb57721	-0.08860613
179	0xbceeeb75	-0.029165009
180	0x3e172bf7	0.14762865
181	0x3d93c12c	0.07214579
182	0x3e78e91b	0.24307673
183	0x3dc8a808	0.097976744
184	0x3da67830	0.08128393
185	0x3d736f51	0.05943233
186	0xbceb427f	-0.028718231
187	0x3c62bbad	0.013838691
188	0xbe0750c0	-0.13214397
189	0x3dd985be	0.106212124
190	0x3d822d7a	0.0635633
191	0x3e5d8de0	0.21636152
192	0x3eb25b1d	0.3483514
193	0x3e863e1b	0.26219258
194	0x3e57b671	0.2106569
195	0xbf0c0c3f	-0.54706186
196	0xbeb9f39e	-0.36318678
197	0xbeedc7c8	-0.46441483
198	0xbf11cf67	-0.56957096
199	0xbe566518	-0.20937002
200	0x3d8b76d8	0.06809777
201	0xbf9215eb	-1.1412939
202	0x3ef4716a	0.47742778
203	0x3edac69e	0.42729658
204	0x3ec478fa	0.38373548
205	0xbb1c21e3	-0.002382391
206	0x3e8642a4	0.26222718
207	0x3e1fdc23	0.15611319
208	0x3ea568f1	0.32306626
209	0x3f011cf6	0.50434816
210	0x3f1bc6fb	0.60850495
211	0x3dc9a07f	0.09845065
212	0x3e5d6dce	0.21623918
213	0x3ea2adaa	0.3177312
214	0xbe7ec4a5	-0.24879701
215	0xbe27d3bc	-0.16389364
216	0xbd31822b	-0.04333703
217	0xbe2519ce	-0.16123125
218	0xbe6ab0f6	-0.22919068
219	0xbec86a8d	-0.39143792
220	0xbe7a391b	-0.24435847
221	0x3dcf504b	0.101227365
222	0x3e5181ef	0.20459722
223	0xbec27421	-0.37979224
224	0xbf6bc874	-0.9210274
225	0xbf2fd390	-0.68682194
226	0xbf6d87c8	-0.9278531
227	0x3f17dc7c	0.5932081
228	0x3f227217	0.6345534
229	0x3f36b6ca	0.71372664
230	0xbf89257f	-1.0714568
231	0xbf9ae654	-1.210154
232	0xbf8d3db5	-1.1034456
233	0x3ef1606d	0.4714388
234	0x3f1a9a34	0.60391545
235	0x3f414148	0.75490236
236	0x3f3c7297	0.7361235
237	0x3f0feede	0.5622386
238	0x3f1c1b75	0.60979396
239	0x3ec2daf0	0.3805766
240	0x3eadf9cf	0.3397965
241	0x3f030b4c	0.5118911
242	0x3e9ebbd5	0.3100268
243	0xbdb6617e	-0.08905314
244	0xbd1e0d27	-0.03858676
245	0x3e9d0eb3	0.30675277
246	0xbef7f9b1	-0.48432687
247	0xbef9d996	-0.48798817
248	0xbf090682	-0.53525555
249	0xbf5e3309	-0.86796623
250	0xbf362bb4	-0.71160436
251	0xbf4a07be	-0.78918064
252	0xbe10de37	-0.14147268
253	0xbe23f1d4	-0.16010219
254	0xbe14238d	-0.14466687
255	0xbf66506f	-0.8996648
