jordan_elman_2024/exp2/elman_sequence_level/run_1/export/model.safetensors (safetensors, 6576 bytes, 7 tensors)

layers.elman.hh.bias f4 [16]
000000 52 79 ab ba 4b ff ce 3d 94 6b 1b 3e 23 43 86 be
       -0.0013082421 0.10107287 0.15177757 -0.26223096
000010 08 20 81 be c3 63 65 3e 67 ec 69 be 63 37 6f 3e
       -0.2521975 0.22401337 -0.22844087 0.23360972
000020 84 ac fb 3d 49 17 2f be 69 2d 58 3d f3 37 04 be
       0.12288764 -0.17098726 0.05277768 -0.12911968
000030 05 be 20 bd 06 4d 5f 3e 08 95 b7 3d 16 2c f9 bd
       -0.039243717 0.21806726 0.08963972 -0.12166612

layers.elman.hh.weight f4 [16, 16]
000000 0c 19 48 bd 8c b6 36 3d 15 17 a5 3e 83 ab 80 3b
       -0.04885201 0.044607684 0.32244173 0.003926696
000010 0a 81 9f bd d7 3a 8f 3d fd a2 88 3e a0 e6 b3 be
       -0.07788284 0.06993645 0.2668685 -0.3513689
000020 ac 9a 57 bc 82 07 66 3e c7 ba 59 bd 74 f2 31 be
       -0.013159435 0.22463802 -0.05315664 -0.17377645
000030 00 b2 07 3f 14 31 44 be 4f 5e 00 be 0e 19 53 3c
       0.5300598 -0.19159347 -0.12535976 0.0128843915
000040 c9 1c 83 be a8 f8 91 bd e8 2b ef bd aa 40 0d 3e
       -0.256079 -0.071275055 -0.11678296 0.13794199
000050 4c fa 49 3d c4 9a d6 be 7d 45 b7 be 28 46 99 be
       0.049310967 -0.41914952 -0.35795203 -0.29936337
000060 d4 e1 f4 3d 8e 48 0d be 9c 36 e7 bc 05 ad 2c 3e
       0.11957136 -0.13797209 -0.028224282 0.16862877
000070 6a 9e a1 3d e2 f4 10 be c3 5e 44 be 47 61 b4 bc
       0.07891543 -0.14155915 -0.19176774 -0.022019042
000080 3a 91 8d be 8d 2f c6 3e c4 15 15 3e 49 68 6b 3e
       -0.27649862 0.38708153 0.14559084 0.22989
000090 dd 4d cd 3e 9b c5 df bd ef 44 7d 3d 77 94 c7 be
       0.40098467 -0.10926362 0.06183332 -0.38980457
0000a0 bc f6 4f bc 37 48 fe 3e f4 c6 89 3c 26 af b4 bd
       -0.012693103 0.4966447 0.016818501 -0.088224694
0000b0 0e 53 9d 3e e9 12 41 3e 10 18 9d bd 29 2d 41 3e
       0.30727428 0.1885487 -0.07670605 0.18864883
0000c0 5f ef 66 be a1 67 20 be 47 b3 07 bd e9 91 2a 3e
       -0.2255225 -0.15664531 -0.033129957 0.16657223
0000d0 63 19 42 be e2 4e 21 3e 60 44 5e be 5b 30 d1 ba
       -0.18954997 0.15752748 -0.2170577 -0.0015959846
0000e0 0b d9 12 3e 60 96 d2 bd 1f b9 12 3e e1 ab 8a 3d
       0.14340608 -0.10282588 0.1432843 0.067710645
0000f0 fb 03 c4 3e 75 3b 05 bd 90 c8 2c be 8a 0b 31 be
       0.38284287 -0.032527406 -0.16873384 -0.17289558
000100 2b 81 00 bf 4a 86 0c bd 98 a5 5d 3e 85 a8 22 3e
       -0.50197095 -0.034307756 0.216452 0.15884598
000110 9c 77 b0 be a7 92 67 3e 72 10 ae 3e c6 0c 7d 3e
       -0.34466255 0.22614537 0.33996922 0.24711904
000120 d1 6c ec 3d 2e 41 45 3f 62 9f df bd 96 bc 0c bf
       0.115441926 0.7705258 -0.10919072 -0.5497526
000130 d3 70 65 3f 35 c4 b9 3d 33 eb 1f bd f8 62 0f bf
       0.8962528 0.09070627 -0.039042663 -0.5601039
000140 39 71 b0 bd ef 11 a3 bb 7d 67 80 3e 06 09 41 3e
       -0.086153455 -0.004976503 0.25078955 0.18851098
000150 59 04 f5 bd 18 b0 94 be 42 f5 21 3e 48 d9 93 bd
       -0.1196372 -0.290406 0.15816215 -0.072191775
000160 89 a6 4f 3e 84 cc 9d 3e 16 5f 66 3e 7f ac 0f be
       0.20278372 0.30820096 0.2249721 -0.14030646
000170 e4 f3 86 3e 9e 2b 46 3e 06 e8 b1 be 3d e0 1c 3e
       0.2635795 0.19352576 -0.34747332 0.15319915
000180 b2 af 16 be 53 a1 f4 3d ab 76 77 bd 3a da 5e 3d
       -0.1471546 0.11944833 -0.060415905 0.054407336
000190 03 f5 3e 3e ca 50 22 bd 93 a9 06 be 21 fe e2 bd
       0.18648152 -0.039627828 -0.13150625 -0.110836275
0001a0 ad 09 64 3e 97 bd a9 3e 8f 20 58 3e a3 68 a8 3e
       0.22269316 0.33152458 0.2110617 0.3289233
0001b0 16 64 b7 3e c2 8b 33 be 07 f1 08 be b5 c3 51 3e
       0.35818547 -0.17533782 -0.13373195 0.20484813
0001c0 04 58 40 3c 77 93 6e be 15 c8 89 3e 73 38 33 3e
       0.011739735 -0.23298441 0.26910463 0.17502002
0001d0 a0 9a 91 3e e2 b0 43 be b4 66 de 3c 87 0a a8 3d
       0.28438282 -0.19110444 0.027148582 0.08205133
0001e0 1d 9e 36 be c5 3d 4a 3d 62 d3 ba 3e e0 47 94 be
       -0.17833753 0.049375314 0.36489397 -0.28961086
0001f0 b1 dc d1 bd ce bc 6d 3e 65 d5 a6 3d f6 71 2a 3e
       -0.10247172 0.23216555 0.081461705 0.16645035
000200 f9 9b 46 be 06 3f f5 bd f7 86 ea 3c 2d 7e af 3e
       -0.19395436 -0.119749114 0.02862881 0.34275952
000210 99 86 10 be eb 60 c5 3c 6e d7 30 3d c7 6e 85 3e
       -0.14113845 0.024094066 0.0431742 0.2606108
000220 2f bc 97 3e df dc 2b 3f 23 c4 4f 3d dd 7c 27 bf
       0.2963576 0.671339 0.05072416 -0.654249
000230 94 36 34 3f 16 27 b7 3e cd 0a d1 bd be ad d0 bd
       0.7039578 0.35772008 -0.10207138 -0.10189389
000240 c8 92 69 be a3 39 9f be 59 cb d9 bc 72 45 19 3e
       -0.22809899 -0.3109866 -0.026586222 0.14967898
000250 a1 41 76 3e 6d 32 c2 bd ec a6 30 3d 9c 55 5b be
       0.24048473 -0.09482274 0.04312794 -0.21419376
000260 aa fc 67 3e 31 05 27 bd 84 e6 1f be 44 4a 76 be
       0.22654977 -0.040776435 -0.15615278 -0.24051768
000270 77 41 dc 3e e2 a7 4c 3d 81 34 83 be e9 68 75 3d
       0.43018696 0.049964793 -0.25625995 0.059914503
000280 48 ef e4 be bd 00 39 3e 63 57 69 3e 7c 6e 96 3e
       -0.44713807 0.18066688 0.22787242 0.29381168
000290 c9 31 78 3e 3d c1 be 3d 52 7a 9a 3e ad 56 b8 be
       0.24237742 0.09314201 0.30171448 -0.36003628
0002a0 64 60 15 3e b7 a0 57 3f 0f 75 55 3e e5 5c 7e be
       0.14587551 0.84229606 0.20845436 -0.24840124
0002b0 a1 06 5a 3f 25 c1 16 3e 83 c4 67 be ca 75 1a be
       0.85166365 0.14722116 -0.22633557 -0.15083995
0002c0 d7 9a 78 3e 2b 55 65 3e ae af 73 be 79 2b eb be
       0.24277817 0.2239577 -0.23797485 -0.45931605
0002d0 9b 39 f3 bd 46 52 e6 bc fe 84 61 be 88 cf 66 be
       -0.11876222 -0.028115403 -0.22023389 -0.22540104
0002e0 73 3f 87 3c 33 a8 28 bf ff 54 da bd 9d 02 20 3f
       0.016509747 -0.6588165 -0.10660743 0.6250399
0002f0 f9 59 f8 be d7 55 1e 3e 82 68 bf 3e 88 1e 77 3e
       -0.48506144 0.15462433 0.3738442 0.2413274
000300 67 d8 be be 78 95 d8 be 79 d2 e9 be 9a 8c 27 be
       -0.37274477 -0.42301536 -0.4566839 -0.16362229
000310 49 34 1e be aa c7 2a bd fa 74 a1 be 02 00 bf bc
       -0.15449633 -0.04169432 -0.3153456 -0.023315433
000320 04 28 58 be 60 13 8d be a3 d9 99 3d c8 43 24 be
       -0.21109015 -0.27553844 0.07512214 -0.16041481
000330 d0 ba 25 3e 64 07 da bd df cc 92 be 02 b1 8a be
       0.16184545 -0.10645941 -0.2867193 -0.2708817
000340 1c 1f 24 be 84 73 94 be 1a e6 61 bc 7f c9 c7 3e
       -0.16027492 -0.2899438 -0.013787771 0.39020917
000350 07 e0 0b 3d ab ab 6a be c6 f3 65 3d 5f 77 b9 bc
       0.034149196 -0.22917049 0.056140684 -0.022639928
000360 e6 a8 0c 3e d8 f4 3f 3f 0c d3 88 3e 4f ce 3a bf
       0.13736305 0.74982977 0.26723516 -0.7297105
000370 d6 4e 0f 3f 4e 30 d6 3d 0d 73 40 be fd 12 af be
       0.5597967 0.10458432 -0.18793888 -0.34194174
000380 79 52 a7 bd da fb 6b be 0d 73 82 3d 4e 97 87 3e
       -0.08170027 -0.23045292 0.063696004 0.26482624
000390 15 9c b0 3d 11 ca 90 be ba 3e bd 3d 87 b1 04 be
       0.0862352 -0.28279164 0.0924048 -0.12958346
0003a0 98 60 db 39 ef 2f be 3e 8a 33 8c 3e 3e 72 b9 be
       0.00041842903 0.37145945 0.2738307 -0.36219972
0003b0 3c da 91 3e 7f ef f9 bd 27 0e c2 be 1a 7d 8c 3e
       0.28486812 -0.122038834 -0.37901422 0.27439195
0003c0 eb 68 6f 3e ce 61 c8 3e 53 9b ac 3d c2 86 55 3d
       0.23379867 0.3913712 0.08428063 0.05213047
0003d0 94 15 ce bc 01 d9 25 3e 74 f4 d3 3d 4d c3 18 be
       -0.025156774 0.16196062 0.1034936 -0.14918251
0003e0 5f dc 1e 3d e6 59 11 be 72 d5 2a be d3 a2 ae 3e
       0.03878438 -0.1419445 -0.16682985 0.341086
0003f0 df e2 31 be 63 99 60 3d 8f c0 4a 3e 36 d8 07 3e
       -0.173717 0.05483378 0.19800018 0.13266072

layers.elman.hx.bias f4 [16]
000000 47 22 f1 bd 0b 7d 2f 3d b7 48 f9 bc ee 21 6f be
       -0.11774116 0.04284386 -0.030430181 -0.23352787
000010 7e 3e b4 be c7 42 f8 bc ef 05 b0 3c 6c 58 c0 3e
       -0.35203928 -0.03030528 0.021487204 0.3756746
000020 99 25 e5 bd 4b b9 78 3c 31 3b 4c 3c 5b 2b 1c be
       -0.11188812 0.015180896 0.012465284 -0.15250914
000030 63 75 b2 bd c1 9e b1 3e e9 e2 42 bd 80 68 06 3e
       -0.08713796 0.34691432 -0.04757968 0.13125801

layers.elman.hx.weight f4 [16, 22]
000000 cd d0 de bd 3d 91 6c bd 47 5f 20 3e dd f8 93 be
       -0.10879669 -0.057755698 0.15661345 -0.28900805
000010 70 6e a4 3e a7 3d db 3e 0a f5 e1 3e 59 02 c1 be
       0.32115507 0.42820475 0.44132262 -0.37697104
000020 68 09 07 bf 42 8c 10 bf 3d 5d 65 3f 27 dd 68 3f
       -0.5274873 -0.56464016 0.89595395 0.9096245
000030 06 80 66 3f 0c 8b 02 bf b1 22 f1 be 0d 8f 12 bf
       0.900391 -0.5099342 -0.4709678 -0.5724953
000040 99 fb cf bd b2 f5 16 bd 92 f6 a2 bd fe 1a f6 3d
       -0.1015541 -0.036855407 -0.07957186 0.12016867
000050 58 0d 3c bd dc 0c 65 3d 3e ef 67 3e e5 97 68 3d
       -0.045911163 0.055920467 0.22649857 0.056785483
000060 d9 b8 53 3c b1 2c 10 3f 42 9b 4f 3f 5b 96 39 3f
       0.012922489 0.56318194 0.8109628 0.7249505
000070 41 e7 32 3f 72 84 a5 3d d0 98 25 3e 4c 0b 7a bb
       0.69884115 0.080819026 0.16171575 -0.0038153706
000080 6e f8 84 3f ec 53 79 3f 44 da 85 3f db 4e 23 3e
       1.0388315 0.9739368 1.0457234 0.1594805
000090 a0 e9 84 3e 0a 91 11 3e 8d 21 91 bf 08 96 8c bf
       0.25959492 0.14215484 -1.1338364 -1.0983286
0000a0 ab 72 94 bf 80 b1 8e bf 8b 20 87 bf 32 b1 91 bf
       -1.1597494 -1.1147919 -1.0556806 -1.1382201
0000b0 66 cb a2 3e 2f d3 ba 3d f4 a2 21 3d b2 60 78 3f
       0.31795806 0.09122311 0.039462045 0.97022545
0000c0 fa 7d 65 3f e6 4e 53 3f 16 ca 3c 3f 04 a1 75 bf
       0.8964535 0.82542264 0.7374586 -0.95948815
0000d0 36 f4 68 bf 36 c1 5d bf c0 2c 12 3f 69 74 1c 3f
       -0.90997636 -0.8662294 0.57099533 0.6111513
0000e0 a0 e6 0c 3f 25 80 6d bf c5 7c 81 bf 98 ac 6a bf
       0.55039406 -0.9277366 -1.0116202 -0.9166961
0000f0 9b 87 09 3e 8f e4 1b bb d7 a3 1e 3e 89 a6 7c bd
       0.13430636 -0.0023787355 0.15492187 -0.061682258
000100 5b d5 17 bd 66 11 2e 3c 1c b6 11 3f ff 28 07 3e
       -0.037068706 0.010624265 0.569185 0.13199233
000110 21 82 09 bd 26 82 dc 3f ac 21 7c 3e bc c5 75 3e
       -0.033571366 1.7227218 0.2462222 0.24001211
000120 c6 0a 97 3e 54 49 3a be bf 97 aa be 0e ef 1a be
       0.29500407 -0.18192035 -0.33318898 -0.15130255
000130 3e 3f 61 be 7b 0a d5 be da 7e 5c be 7c 24 8e be
       -0.21996781 -0.41609558 -0.21532765 -0.2776221
000140 e3 72 d1 be a5 06 d1 be 27 ca 26 3d 84 aa 92 bd
       -0.40907964 -0.40825382 0.04072013 -0.071614295
000150 be 65 93 3d 51 40 2a be e1 2f 43 be 65 5b 83 3d
       0.0719714 -0.16626097 -0.19061233 0.064139165
000160 8b c3 63 3f 2b ca c1 bd 82 79 3a be b5 9b db 3f
       0.8897025 -0.094623886 -0.18210414 1.7156893
000170 30 cb f9 bd aa 58 56 be 8d 8b 05 be ac e3 f3 be
       -0.12196958 -0.2093226 -0.13041516 -0.47634637
000180 2c 7b ef be 2a c3 02 bf 6b ff 20 bd 86 5e 07 be
       -0.4677366 -0.51079047 -0.039306086 -0.13219652
000190 fa 93 c1 bd df 37 bb be 99 d9 de be 2d c3 74 be
       -0.094520524 -0.36566064 -0.4352539 -0.23902579
0001a0 3e ac a8 3d 8c 78 b7 3d 88 34 32 3e 43 2a 0f 3e
       0.082359776 0.08958539 0.17402852 0.13980965
0001b0 8c 37 4b 3d 93 8f a0 3c 3a 20 12 bf 86 39 62 3c
       0.04961352 0.019599712 -0.57080424 0.01380766
0001c0 bc 09 fc bc 3d c7 99 bf c5 40 e5 3e db 14 13 3f
       -0.03076636 -1.2013928 0.44775978 0.574537
0001d0 c3 90 e5 3e d0 28 14 3e e1 e1 c1 3e c5 b2 e6 3d
       0.44837007 0.14468694 0.37867644 0.11264566
0001e0 4e fa 0d 3f 5d 3b f0 3e c8 0f 12 3f a9 c3 bf 3e
       0.5546006 0.4692029 0.5705533 0.37453964
0001f0 53 81 0e 3e 0e 58 b5 3e 2e 9c da be f1 0f b7 be
       0.13916521 0.35418743 -0.4269728 -0.3575435
000200 c2 19 e6 be 66 fb db be 20 9a 05 bf a3 30 0f bf
       -0.44941527 -0.4296524 -0.521883 -0.5593359
000210 2e ce 8d bd fc 33 a1 3c c1 0f b4 3d 03 f8 0f bf
       -0.06924091 0.019678108 0.08792067 -0.5623781
000220 9a 83 56 3f 13 32 62 3f 32 51 69 3f 4d 57 c0 be
       0.8379456 0.8835766 0.9113952 -0.37566605
000230 3e 80 52 be 44 fb f0 be b2 e5 eb 3e a9 8e 1e 3f
       -0.20556733 -0.470667 0.4607368 0.6193643
000240 83 bc f2 3e 8d c4 98 be 8a dc 8d be c8 53 cb be
       0.47409448 -0.29837456 -0.2770732 -0.39712358
000250 74 8c ac be 9a a2 ae be 31 95 ae be f4 b1 d7 bd
       -0.33700907 -0.3410843 -0.340982 -0.10531989
000260 51 6c a6 be 1b cc 87 be 3e 0d f2 be a1 1f 29 bc
       -0.32504514 -0.26522908 -0.47275728 -0.010322482
000270 54 c1 4a be 8f ff e6 bf a8 65 58 3e df 46 7a 3e
       -0.19800311 -1.804674 0.21132529 0.24441098
000280 6d 6c 7e 3e b7 b6 4b 3e ac 0d 09 be 0a 3f 5a 3e
       0.24846049 0.19893919 -0.13384122 0.2131311
000290 2f b4 87 3d 46 76 9d 3d 5d 0e 26 3e 4e e9 1d be
       0.06626164 0.076885745 0.16216417 -0.1542103
0002a0 26 12 69 3e cb f9 2d 3e 60 a6 51 3e 3c 8e 51 3e
       0.2276083 0.1698982 0.20473623 0.20464414
0002b0 6a 1e 18 3e 39 78 9f 3e a1 12 bd 3e 4d 1c 91 3e
       0.14855352 0.3114641 0.36928275 0.28341904
0002c0 25 bb 15 3e d7 93 47 3e 2c c0 14 be d7 d7 69 3f
       0.14622171 0.1948999 -0.14526433 0.9134497
0002d0 96 6f c8 3e 62 64 00 3f 07 66 ad 3e e0 d6 82 be
       0.39147633 0.5015317 0.33866903 -0.25554562
0002e0 5f 3c 95 bd ec ef 8f bd ed c8 c7 3e 86 75 4d 3e
       -0.072869055 -0.07028183 0.39020482 0.20064363
0002f0 5a 59 8c 3e a4 99 c5 3d aa c9 c7 bc dd 6c 83 be
       0.2741192 0.09648445 -0.024388153 -0.25668994
000300 71 9a c6 be d5 e3 05 bf f7 ae 18 bf c3 63 1f bf
       -0.38789704 -0.5230077 -0.59641975 -0.622616
000310 8a 69 ef be 8c ba d4 be 6f 61 e3 3e ad 2e c0 3c
       -0.46760207 -0.41548574 0.44410273 0.023459757
000320 83 c2 27 3d 24 ee 8c 3f 50 2c 8b 3f c0 a4 87 3f
       0.040956985 1.1010175 1.0872898 1.0597153
000330 15 94 8d 3f f7 2f ea bd 58 92 a0 be 1c f7 43 bd
       1.1060816 -0.1143493 -0.3136165 -0.047843084
000340 c3 0d 19 bd 25 b9 18 bd 9a c2 d9 bd 1e c4 a6 be
       -0.03736664 -0.037285943 -0.106328204 -0.325715
000350 6a 60 f4 bd 7f b2 1c be 75 04 1a bf d8 55 0d bf
       -0.11932452 -0.15302466 -0.6016305 -0.5520911
000360 af d9 2f bf 29 df 24 bf 7c 6c 23 bf 1b c5 30 bf
       -0.68691534 -0.64403015 -0.6383741 -0.6905076
000370 6f 1e 10 bd ea 21 10 3e 3f 24 4d 3e 1d 76 12 bd
       -0.035185274 0.14075437 0.20033358 -0.035757173
000380 01 bc 23 3f 3f 92 0e 3f 14 66 17 3f af 8a 1c bf
       0.63958746 0.55691904 0.59140134 -0.61149114
000390 ab fe 1b bf ad e2 22 bf da 78 97 3e 9a a7 c8 3e
       -0.6093547 -0.6362713 0.2958439 0.3919037
0003a0 f8 11 de 3e 94 c3 1e bf b7 27 32 bf 2c 75 1a bf
       0.43373084 -0.6201718 -0.6959185 -0.6033504
0003b0 60 0e a9 3d e2 ee 94 3e e2 76 99 3d d9 c1 2d 3e
       0.08254695 0.29088503 0.07493378 0.16968478
0003c0 cc 34 89 3e 40 f1 24 3e db b6 a7 3e 31 77 88 3d
       0.26798093 0.16107655 0.32756695 0.06663359
0003d0 59 0c 29 be c6 5f 4f 3f 9e 9d b1 be 8c 4b 79 be
       -0.16508617 0.81005514 -0.34690565 -0.24345225
0003e0 39 ef a5 be ca 13 f4 be b9 dd ed be 24 77 ed be
       -0.32409075 -0.47671348 -0.46458223 -0.4637996
0003f0 3c b9 3c 3f 0f 20 2c 3f ec e3 48 3f a3 b6 06 bf
       0.73720145 0.6723642 0.7847278 -0.5262243

layers.embed.emb.weight f4 [22, 22]
000000 00 00 80 3f 00 00 00 00 00 00 00 00 00 00 00 00
       1.0 0.0 0.0 0.0
000010 00 00 00 00 00 00 00 00 00 00 00 00 00 00 00 00
       0.0 0.0 0.0 0.0
000020 00 00 00 00 00 00 00 00 00 00 00 00 00 00 00 00
       0.0 0.0 0.0 0.0
000030 00 00 00 00 00 00 00 00 00 00 00 00 00 00 00 00
       0.0 0.0 0.0 0.0
000040 00 00 00 00 00 00 00 00 00 00 00 00 00 00 00 00
       0.0 0.0 0.0 0.0
000050 00 00 00 00 00 00 00 00 00 00 00 00 00 00 80 3f
       0.0 0.0 0.0 1.0
000060 00 00 00 00 00 00 00 00 00 00 00 00 00 00 00 00
       0.0 0.0 0.0 0.0
000070 00 00 00 00 00 00 00 00 00 00 00 00 00 00 00 00
       0.0 0.0 0.0 0.0
000080 00 00 00 00 00 00 00 00 00 00 00 00 00 00 00 00
       0.0 0.0 0.0 0.0
000090 00 00 00 00 00 00 00 00 00 00 00 00 00 00 00 00
       0.0 0.0 0.0 0.0
0000a0 00 00 00 00 00 00 00 00 00 00 00 00 00 00 00 00
       0.0 0.0 0.0 0.0
0000b0 00 00 00 00 00 00 00 00 00 00 80 3f 00 00 00 00
       0.0 0.0 1.0 0.0
0000c0 00 00 00 00 00 00 00 00 00 00 00 00 00 00 00 00
       0.0 0.0 0.0 0.0
0000d0 00 00 00 00 00 00 00 00 00 00 00 00 00 00 00 00
       0.0 0.0 0.0 0.0
0000e0 00 00 00 00 00 00 00 00 00 00 00 00 00 00 00 00
       0.0 0.0 0.0 0.0
0000f0 00 00 00 00 00 00 00 00 00 00 00 00 00 00 00 00
       0.0 0.0 0.0 0.0
000100 00 00 00 00 00 00 00 00 00 00 00 00 00 00 00 00
       0.0 0.0 0.0 0.0
000110 00 00 00 00 00 00 80 3f 00 00 00 00 00 00 00 00
       0.0 1.0 0.0 0.0
000120 00 00 00 00 00 00 00 00 00 00 00 00 00 00 00 00
       0.0 0.0 0.0 0.0
000130 00 00 00 00 00 00 00 00 00 00 00 00 00 00 00 00
       0.0 0.0 0.0 0.0
000140 00 00 00 00 00 00 00 00 00 00 00 00 00 00 00 00
       0.0 0.0 0.0 0.0
000150 00 00 00 00 00 00 00 00 00 00 00 00 00 00 00 00
       0.0 0.0 0.0 0.0
000160 00 00 00 00 00 00 00 00 00 00 00 00 00 00 00 00
       0.0 0.0 0.0 0.0
000170 00 00 80 3f 00 00 00 00 00 00 00 00 00 00 00 00
       1.0 0.0 0.0 0.0
000180 00 00 00 00 00 00 00 00 00 00 00 00 00 00 00 00
       0.0 0.0 0.0 0.0
000190 00 00 00 00 00 00 00 00 00 00 00 00 00 00 00 00
       0.0 0.0 0.0 0.0
0001a0 00 00 00 00 00 00 00 00 00 00 00 00 00 00 00 00
       0.0 0.0 0.0 0.0
0001b0 00 00 00 00 00 00 00 00 00 00 00 00 00 00 00 00
       0.0 0.0 0.0 0.0
0001c0 00 00 00 00 00 00 00 00 00 00 00 00 00 00 80 3f
       0.0 0.0 0.0 1.0
0001d0 00 00 00 00 00 00 00 00 00 00 00 00 00 00 00 00
       0.0 0.0 0.0 0.0
0001e0 00 00 00 00 00 00 00 00 00 00 00 00 00 00 00 00
       0.0 0.0 0.0 0.0
0001f0 00 00 00 00 00 00 00 00 00 00 00 00 00 00 00 00
       0.0 0.0 0.0 0.0
000200 00 00 00 00 00 00 00 00 00 00 00 00 00 00 00 00
       0.0 0.0 0.0 0.0
000210 00 00 00 00 00 00 00 00 00 00 00 00 00 00 00 00
       0.0 0.0 0.0 0.0
000220 00 00 00 00 00 00 00 00 00 00 80 3f 00 00 00 00
       0.0 0.0 1.0 0.0
000230 00 00 00 00 00 00 00 00 00 00 00 00 00 00 00 00
       0.0 0.0 0.0 0.0
000240 00 00 00 00 00 00 00 00 00 00 00 00 00 00 00 00
       0.0 0.0 0.0 0.0
000250 00 00 00 00 00 00 00 00 00 00 00 00 00 00 00 00
       0.0 0.0 0.0 0.0
000260 00 00 00 00 00 00 00 00 00 00 00 00 00 00 00 00
       0.0 0.0 0.0 0.0
000270 00 00 00 00 00 00 00 00 00 00 00 00 00 00 00 00
       0.0 0.0 0.0 0.0
000280 00 00 00 00 00 00 80 3f 00 00 00 00 00 00 00 00
       0.0 1.0 0.0 0.0
000290 00 00 00 00 00 00 00 00 00 00 00 00 00 00 00 00
       0.0 0.0 0.0 0.0
0002a0 00 00 00 00 00 00 00 00 00 00 00 00 00 00 00 00
       0.0 0.0 0.0 0.0
0002b0 00 00 00 00 00 00 00 00 00 00 00 00 00 00 00 00
       0.0 0.0 0.0 0.0
0002c0 00 00 00 00 00 00 00 00 00 00 00 00 00 00 00 00
       0.0 0.0 0.0 0.0
0002d0 00 00 00 00 00 00 00 00 00 00 00 00 00 00 00 00
       0.0 0.0 0.0 0.0
0002e0 00 00 80 3f 00 00 00 00 00 00 00 00 00 00 00 00
       1.0 0.0 0.0 0.0
0002f0 00 00 00 00 00 00 00 00 00 00 00 00 00 00 00 00
       0.0 0.0 0.0 0.0
000300 00 00 00 00 00 00 00 00 00 00 00 00 00 00 00 00
       0.0 0.0 0.0 0.0
000310 00 00 00 00 00 00 00 00 00 00 00 00 00 00 00 00
       0.0 0.0 0.0 0.0
000320 00 00 00 00 00 00 00 00 00 00 00 00 00 00 00 00
       0.0 0.0 0.0 0.0
000330 00 00 00 00 00 00 00 00 00 00 00 00 00 00 80 3f
       0.0 0.0 0.0 1.0
000340 00 00 00 00 00 00 00 00 00 00 00 00 00 00 00 00
       0.0 0.0 0.0 0.0
000350 00 00 00 00 00 00 00 00 00 00 00 00 00 00 00 00
       0.0 0.0 0.0 0.0
000360 00 00 00 00 00 00 00 00 00 00 00 00 00 00 00 00
       0.0 0.0 0.0 0.0
000370 00 00 00 00 00 00 00 00 00 00 00 00 00 00 00 00
       0.0 0.0 0.0 0.0
000380 00 00 00 00 00 00 00 00 00 00 00 00 00 00 00 00
       0.0 0.0 0.0 0.0
000390 00 00 00 00 00 00 00 00 00 00 80 3f 00 00 00 00
       0.0 0.0 1.0 0.0
0003a0 00 00 00 00 00 00 00 00 00 00 00 00 00 00 00 00
       0.0 0.0 0.0 0.0
0003b0 00 00 00 00 00 00 00 00 00 00 00 00 00 00 00 00
       0.0 0.0 0.0 0.0
0003c0 00 00 00 00 00 00 00 00 00 00 00 00 00 00 00 00
       0.0 0.0 0.0 0.0
0003d0 00 00 00 00 00 00 00 00 00 00 00 00 00 00 00 00
       0.0 0.0 0.0 0.0
0003e0 00 00 00 00 00 00 00 00 00 00 00 00 00 00 00 00
       0.0 0.0 0.0 0.0
0003f0 00 00 00 00 00 00 80 3f 00 00 00 00 00 00 00 00
       0.0 1.0 0.0 0.0

layers.lm_head.proj.bias f4 [22]
000000 ed b3 91 bf 3f f6 7b bf 5f b2 91 bf 8b be bc 3e
       -1.1383034 -0.98422617 -1.138256 0.36864123
000010 7d d8 8d bd 6f 70 4d 3d 7b 32 c8 3d 63 54 0c 3e
       -0.069260575 0.050156053 0.097752534 0.13704066
000020 34 3b 88 3e 78 73 fa 3e ff ed 58 3d b0 04 14 bd
       0.26607668 0.4891622 0.052961346 -0.036137283
000030 75 22 6e bd 53 7a bd 3e cb 0a a0 3e 4e 19 c4 3e
       -0.05813833 0.37007388 0.31258234 0.38300556
000040 9f 9b 5f 3e 27 77 43 3d 69 18 32 3e b4 ed 06 3e
       0.21836708 0.047721054 0.17392124 0.13176614
000050 7f 8a bf 3c 94 fd 3d 3e
       0.02338147 0.18553764

layers.lm_head.proj.weight f4 [22, 16]
000000 92 04 ce bd ef 18 0b bd ff 06 c6 be ec 5f 0e 3e
       -0.100594655 -0.033959325 -0.38677213 0.13903779
000010 cd f8 56 be 3a a9 d9 bd 47 2e ba 3e 48 eb 2f be
       -0.20993347 -0.106279805 0.36363432 -0.17179596
000020 a7 41 1b 3e cf 4c 4f be 19 86 1a 3e 91 a6 1c 3f
       0.15161763 -0.20244144 0.15090217 0.6119166
000030 94 2f 22 3e b2 ad 97 be 03 20 7c 3d 1f 90 c1 be
       0.15838462 -0.29624707 0.061553966 -0.37805268
000040 50 e5 17 3e e9 56 ac 3c 25 6b ca be 4a 10 0d be
       0.1483357 0.021037536 -0.3953487 -0.13775745
000050 75 5e 1f bc 84 f0 8b be 40 a1 06 3f aa e7 a7 be
       -0.00972711 -0.27331936 0.525898 -0.32793933
000060 af d3 c3 3b dd d1 c0 bd 92 18 ad bc 81 5f aa 3e
       0.0059761624 -0.09415028 -0.02112988 0.3327599
000070 49 91 31 3e 5c 95 11 bf 6f c2 a4 3d 19 65 ca be
       0.17340578 -0.5686853 0.08044898 -0.39530256
000080 3f 48 08 3e 65 f4 29 be 8d 8e 37 be 36 c3 63 3e
       0.1330881 -0.16597135 -0.17925473 0.22242436
000090 a8 1f 30 be 92 c8 89 bd 4b 02 3a 3e bb 50 8e be
       -0.17199576 -0.06727709 0.18164937 -0.27795967
0000a0 dd 0f 77 bd c6 1b 88 bc 67 a1 0a 3e 88 cc ca 3e
       -0.060317863 -0.016614806 0.13538133 0.3960917
0000b0 52 44 eb 3c 87 70 2d bf f6 81 3e 3e 48 3f c9 bd
       0.028719101 -0.6774983 0.18604264 -0.09826523
0000c0 89 6e c4 bf 5a 1d fe 3e 66 69 48 c0 9d c0 73 bf
       -1.5346233 0.49631768 -3.131433 -0.9521578
0000d0 59 a5 a0 bf f3 54 3c 3f d6 c3 84 bf d9 45 2a 3e
       -1.255046 0.7356712 -1.0372264 0.16628207
0000e0 52 71 13 be 0c 6e b5 be a7 53 07 c0 36 e3 97 bf
       -0.14398697 -0.35435522 -2.1144807 -1.1866214
0000f0 1e 8d 79 3f d0 bd 22 3f 88 7a a1 3f 1a 1e f8 bf
       0.9748095 0.6357088 1.2615519 -1.9384186
000100 9e 1d c0 be 09 26 af 3e 57 8f ca 3e 62 12 72 3f
       -0.37522596 0.34208706 0.39562485 0.945593
000110 c7 f3 6c 3f d2 3f 14 bf e3 33 a2 be 80 27 3c bf
       0.92559475 -0.5790988 -0.3168021 -0.7349777
000120 b0 e4 b8 3e 3b be 0b 3f a3 96 06 bd 00 84 a4 3e
       0.36111975 0.54587144 -0.032858502 0.32131958
000130 4e 19 17 3f 83 f1 36 be 80 b6 11 bf 90 2e db 3e
       0.59022987 -0.17865567 -0.569191 0.42808962
000140 35 a9 a8 be cf 05 bf 3e 56 52 d0 3e 19 0e 56 3f
       -0.32941595 0.3730912 0.40687817 0.8361526
000150 4a ef 4f 3f 5d ad eb be 17 7d 3b be 0a 09 11 bf
       0.812245 -0.46030703 -0.18309437 -0.5665442
000160 81 5a ca 3e ad 8a 09 3f b7 0b ad bd d4 b4 da 3e
       0.39522174 0.5372723 -0.084495 0.42716086
000170 08 60 5d 3f 64 a6 51 be 2a 36 41 bf 0f fb c1 3e
       0.8647466 -0.20473629 -0.7547327 0.37886855
000180 c4 b8 91 bd 7d 90 82 3e 9d 9e b9 3e 54 f0 6d 3f
       -0.07115319 0.2550086 0.36253825 0.92944837
000190 6c 6b 70 3f 05 b2 21 bf a5 68 86 be 8d c6 65 bf
       0.9391391 -0.6316226 -0.26251712 -0.8975609
0001a0 22 f3 a8 3e 67 f6 f9 3e 4a 02 06 be c4 0d e1 3e
       0.32997996 0.48820803 -0.1308681 0.43955815
0001b0 64 f0 0b 3f 52 5f e5 bd 10 99 02 bf 24 29 ed 3e
       0.5466368 -0.111998215 -0.51014805 0.4632045
0001c0 41 e6 a6 3d 18 8f d9 bf a8 fb 0b bc 67 52 d2 be
       0.08149386 -1.6996794 -0.008543886 -0.41078493
0001d0 d6 de 02 3f c0 49 4d 3d 4e af 17 bf 83 1f 42 3f
       0.5112127 0.05011916 -0.5925187 0.75829333
0001e0 71 3a 43 bd 5c b0 50 bf 89 78 08 3f 6d 85 8c bf
       -0.047663156 -0.81519103 0.5330892 -1.0978218
0001f0 1e b0 45 bf 20 3d 08 3f 9d de 53 bf 4d 8e 36 3e
       -0.7722186 0.5321827 -0.82761556 0.17827721
000200 ea 15 cc bd cf 87 d0 bf 38 04 76 3c 78 74 bd be
       -0.09965117 -1.6291445 0.015015654 -0.3700292
000210 02 72 19 3f 4c 15 3b be 83 4f cf be b7 2f 3b 3f
       0.5993959 -0.18269843 -0.4049035 0.7311968
000220 f4 c6 ac bc 93 fd 26 bf 67 5c 2f 3f dc 76 71 bf
       -0.021090962 -0.65230674 0.6850037 -0.9432199
000230 cd af 8c bf 93 d8 08 3f 6b 24 4f bf d5 2d 81 3d
       -1.099115 0.53455466 -0.80914944 0.0630757
000240 ee da 54 bd 2a 1e e2 bf 0e ec 28 bc ea 06 c1 be
       -0.0519666 -1.7665455 -0.010310186 -0.37700588
000250 ed ca 0d 3f 2d 17 80 bc 08 eb 86 be 77 0c 07 3f
       0.55387765 -0.015636051 -0.2635119 0.52753395
000260 7c 26 0e 3d d2 86 80 bf 7e 89 2f 3f 37 df 6a bf
       0.03470467 -1.0041144 0.6856917 -0.9174685
000270 55 a6 3d bf 19 de d1 3e e9 5f 38 bf 11 c4 3d 3e
       -0.7408193 0.4098976 -0.7202135 0.18531825
000280 da 88 cb 3d 0a 15 92 3e 19 38 3c 3e 5b 7b 24 3f
       0.09938212 0.28531677 0.18380775 0.64250726
000290 b6 7d 66 3f 67 6c 15 bf d2 03 79 be 2d 44 23 bf
       0.9003557 -0.58368534 -0.24317864 -0.63775903
0002a0 11 80 22 3f ba 2a 0c 3f 79 dc 5d bd 71 55 b8 3e
       0.63476664 0.54752696 -0.054165337 0.36002687
0002b0 26 6d 62 3f a8 c7 2e bd d9 23 44 bf 92 1a f0 3e
       0.884478 -0.042670876 -0.766172 0.46895272
0002c0 9c 5b ec bd 2e e7 b3 3e 57 a1 c0 3e c7 b9 ea 3e
       -0.115409106 0.35137314 0.37623093 0.45844862
0002d0 11 bd 61 3f 8d 49 14 bf e6 26 b3 be c5 31 62 bf
       0.8817912 -0.5792473 -0.34990615 -0.8835719
0002e0 11 e9 13 3f ef 96 11 3f 5b 59 47 bd bf 14 07 3f
       0.57777506 0.5687093 -0.0486692 0.5276603
0002f0 a2 d6 51 3f f3 26 44 3d fe ff e8 be a2 00 f2 3e
       0.8196813 0.047888707 -0.45507807 0.47266108
000300 fa a0 fc bd ee 57 f4 3d cd 48 c8 3e 15 51 22 3f
       -0.12335391 0.11930834 0.39118043 0.6340497
000310 cb 7b 3b 3f 3d 3e 16 bf 9d 6a ca be 09 5f 7d bf
       0.7323577 -0.5868872 -0.39534464 -0.9897314
000320 2d 84 ee 3e 5b 23 0e 3f 3e a8 ca 3c 03 41 99 3e
       0.46585217 0.555227 0.024738427 0.29932413
000330 33 2c 57 3f f5 76 6a 3c a5 e0 33 bf 32 f8 b5 3e
       0.8405182 0.014310588 -0.70264655 0.3554092
000340 94 af c8 be 55 b0 89 bf a8 2c c6 be 11 c4 22 bf
       -0.39196455 -1.0756937 -0.38705945 -0.63580424
000350 42 28 83 bf 42 06 fb be 71 fa c5 be a8 96 cc 3e
       -1.0246661 -0.49028212 -0.38667634 0.39958692
000360 9e bd 90 bf d0 77 60 bf d2 7e 1e bf 40 2c 36 3d
       -1.1307867 -0.8768282 -0.6191226 0.044475794
000370 6f 2f 46 bf 3f 6b 3e bf e3 60 89 bf fc 4b f0 3e
       -0.7741613 -0.74382395 -1.0732692 0.4693297
000380 d3 02 e1 be 75 47 9b bf bf e5 f8 be 9d 46 d1 be
       -0.43947467 -1.2131182 -0.48612782 -0.40874186
000390 9e 2c 89 bf b3 7c c1 be 07 1b e3 be e9 20 ea 3e
       -1.0716741 -0.3779045 -0.44356558 0.45728233
0003a0 cb ea 8b bf e5 56 73 bf e7 3b e1 be 6f 6b ab 3e
       -1.0931028 -0.95054466 -0.43991014 0.33480403
0003b0 2a 6f 5b bf 6e 54 17 bf 97 23 8b bf fc 1d 82 3e
       -0.857165 -0.59113204 -1.0870236 0.254135
0003c0 2b d4 d2 be 67 f7 95 bf 81 85 ad be 08 57 12 bf
       -0.41177496 -1.1716126 -0.33890918 -0.5716405
0003d0 46 c6 77 bf 14 e7 0b bf ef fe f3 be 9d 44 0f 3f
       -0.96786916 -0.5464947 -0.47655436 0.5596407
0003e0 63 48 a6 bf e1 34 1e bf 2e c4 0a bf ae 5c 21 3e
       -1.2990841 -0.61799437 -0.54205596 0.1575801
0003f0 c7 3f 52 bf d1 36 3f bf c3 cc 6c bf 4e c1 c1 3e
       -0.82128567 -0.7469302 -0.9249994 0.37842792
