ayb_2022/lstm-16/run_5/export/model.safetensors (safetensors, 12432 bytes, 5 tensors)

layers_by_name.embed.emb.weight f4 [19, 19]
00000000: 0000 803f 0000 0000 0000 0000 0000 0000
00000010: 0000 0000 0000 0000 0000 0000 0000 0000
00000020: 0000 0000 0000 0000 0000 0000 0000 0000
00000030: 0000 0000 0000 0000 0000 0000 0000 0000
00000040: 0000 0000 0000 0000 0000 0000 0000 0000
00000050: 0000 803f 0000 0000 0000 0000 0000 0000
00000060: 0000 0000 0000 0000 0000 0000 0000 0000
00000070: 0000 0000 0000 0000 0000 0000 0000 0000
00000080: 0000 0000 0000 0000 0000 0000 0000 0000
00000090: 0000 0000 0000 0000 0000 0000 0000 0000
000000a0: 0000 803f 0000 0000 0000 0000 0000 0000
000000b0: 0000 0000 0000 0000 0000 0000 0000 0000
000000c0: 0000 0000 0000 0000 0000 0000 0000 0000
000000d0: 0000 0000 0000 0000 0000 0000 0000 0000
000000e0: 0000 0000 0000 0000 0000 0000 0000 0000
000000f0: 0000 803f 0000 0000 0000 0000 0000 0000
00000100: 0000 0000 0000 0000 0000 0000 0000 0000
00000110: 0000 0000 0000 0000 0000 0000 0000 0000
00000120: 0000 0000 0000 0000 0000 0000 0000 0000
00000130: 0000 0000 0000 0000 0000 0000 0000 0000
00000140: 0000 803f 0000 0000 0000 0000 0000 0000
00000150: 0000 0000 0000 0000 0000 0000 0000 0000
00000160: 0000 0000 0000 0000 0000 0000 0000 0000
00000170: 0000 0000 0000 0000 0000 0000 0000 0000
00000180: 0000 0000 0000 0000 0000 0000 0000 0000
00000190: 0000 803f 0000 0000 0000 0000 0000 0000
000001a0: 0000 0000 0000 0000 0000 0000 0000 0000
000001b0: 0000 0000 0000 0000 0000 0000 0000 0000
000001c0: 0000 0000 0000 0000 0000 0000 0000 0000
000001d0: 0000 0000 0000 0000 0000 0000 0000 0000
000001e0: 0000 803f 0000 0000 0000 0000 0000 0000
000001f0: 0000 0000 0000 0000 0000 0000 0000 0000
00000200: 0000 0000 0000 0000 0000 0000 0000 0000
00000210: 0000 0000 0000 0000 0000 0000 0000 0000
00000220: 0000 0000 0000 0000 0000 0000 0000 0000
00000230: 0000 803f 0000 0000 0000 0000 0000 0000
00000240: 0000 0000 0000 0000 0000 0000 0000 0000
00000250: 0000 0000 0000 0000 0000 0000 0000 0000
00000260: 0000 0000 0000 0000 0000 0000 0000 0000
00000270: 0000 0000 0000 0000 0000 0000 0000 0000
00000280: 0000 803f 0000 0000 0000 0000 0000 0000
00000290: 0000 0000 0000 0000 0000 0000 0000 0000
000002a0: 0000 0000 0000 0000 0000 0000 0000 0000
000002b0: 0000 0000 0000 0000 0000 0000 0000 0000
000002c0: 0000 0000 0000 0000 0000 0000 0000 0000
000002d0: 0000 803f 0000 0000 0000 0000 0000 0000
000002e0: 0000 0000 0000 0000 0000 0000 0000 0000
000002f0: 0000 0000 0000 0000 0000 0000 0000 0000
00000300: 0000 0000 0000 0000 0000 0000 0000 0000
00000310: 0000 0000 0000 0000 0000 0000 0000 0000
00000320: 0000 803f 0000 0000 0000 0000 0000 0000
00000330: 0000 0000 0000 0000 0000 0000 0000 0000
00000340: 0000 0000 0000 0000 0000 0000 0000 0000
00000350: 0000 0000 0000 0000 0000 0000 0000 0000
00000360: 0000 0000 0000 0000 0000 0000 0000 0000
00000370: 0000 803f 0000 0000 0000 0000 0000 0000
00000380: 0000 0000 0000 0000 0000 0000 0000 0000
00000390: 0000 0000 0000 0000 0000 0000 0000 0000
000003a0: 0000 0000 0000 0000 0000 0000 0000 0000
000003b0: 0000 0000 0000 0000 0000 0000 0000 0000
000003c0: 0000 803f 0000 0000 0000 0000 0000 0000
000003d0: 0000 0000 0000 0000 0000 0000 0000 0000
000003e0: 0000 0000 0000 0000 0000 0000 0000 0000
000003f0: 0000 0000 0000 0000 0000 0000 0000 0000
1.0 0.0 0.0 0.0 0.0 0.0 0.0 0.0
0.0 0.0 0.0 0.0 0.0 0.0 0.0 0.0
0.0 0.0 0.0 0.0 1.0 0.0 0.0 0.0
0.0 0.0 0.0 0.0 0.0 0.0 0.0 0.0
0.0 0.0 0.0 0.0 0.0 0.0 0.0 0.0
1.0 0.0 0.0 0.0 0.0 0.0 0.0 0.0
0.0 0.0 0.0 0.0 0.0 0.0 0.0 0.0
0.0 0.0 0.0 0.0 1.0 0.0 0.0 0.0
0.0 0.0 0.0 0.0 0.0 0.0 0.0 0.0
0.0 0.0 0.0 0.0 0.0 0.0 0.0 0.0
1.0 0.0 0.0 0.0 0.0 0.0 0.0 0.0
0.0 0.0 0.0 0.0 0.0 0.0 0.0 0.0
0.0 0.0 0.0 0.0 1.0 0.0 0.0 0.0
0.0 0.0 0.0 0.0 0.0 0.0 0.0 0.0
0.0 0.0 0.0 0.0 0.0 0.0 0.0 0.0
1.0 0.0 0.0 0.0 0.0 0.0 0.0 0.0
0.0 0.0 0.0 0.0 0.0 0.0 0.0 0.0
0.0 0.0 0.0 0.0 1.0 0.0 0.0 0.0
0.0 0.0 0.0 0.0 0.0 0.0 0.0 0.0
0.0 0.0 0.0 0.0 0.0 0.0 0.0 0.0
1.0 0.0 0.0 0.0 0.0 0.0 0.0 0.0
0.0 0.0 0.0 0.0 0.0 0.0 0.0 0.0
0.0 0.0 0.0 0.0 1.0 0.0 0.0 0.0
0.0 0.0 0.0 0.0 0.0 0.0 0.0 0.0
0.0 0.0 0.0 0.0 0.0 0.0 0.0 0.0
1.0 0.0 0.0 0.0 0.0 0.0 0.0 0.0
0.0 0.0 0.0 0.0 0.0 0.0 0.0 0.0
0.0 0.0 0.0 0.0 1.0 0.0 0.0 0.0
0.0 0.0 0.0 0.0 0.0 0.0 0.0 0.0
0.0 0.0 0.0 0.0 0.0 0.0 0.0 0.0
1.0 0.0 0.0 0.0 0.0 0.0 0.0 0.0
0.0 0.0 0.0 0.0 0.0 0.0 0.0 0.0

layers_by_name.lm_head.proj.bias f4 [19]
00000000: f9c4 f1c0 640e f8c0 d75a a4c0 301e ae3d
00000010: 3057 a33c 02d6 d3bd ccd5 c2be ba8a 47be
00000020: 9f35 c4bc 4739 ab3c 0719 09bd 5fde fdbc
00000030: e253 33be c7dd afbe 314e a2be 7085 3c3d
00000040: 2317 563d 9af3 4d3d 4c30 f3c0
-7.5552945 -7.7517567 -5.136089 0.085018516 0.019939035 -0.10343553 -0.3805374 -0.19486514
-0.02395135 0.020901335 -0.033471134 -0.030989824 -0.17512468 -0.3434889 -0.3170028 0.046025693
0.05226816 0.050281145 -7.5996456

layers_by_name.lm_head.proj.weight f4 [19, 16]
00000000: 7ba5 f4be d5cb 1f3f 4038 783e bfb3 1940
00000010: 669b 28c1 adc1 a13f 0093 4740 0ca7 bebf
00000020: dcc1 b2bf a91e e93f 6794 2bc0 e139 17c0
00000030: 631f 1a3e f772 ecbf 5e54 713e ce28 ca3e
00000040: 576d e9be e70a 273f bc89 383e d70a 1c40
00000050: 91a5 27c1 c99e a53f 8978 4740 02eb bbbf
00000060: 7948 b1bf e406 e33f fcf3 2cc0 29d2 16c0
00000070: 27df df3d a193 ebbf 67bc 273e 5c5d b43e
00000080: 882a b240 83be 3140 a2b3 9fc0 c07d b840
00000090: 7460 ebc0 42f5 b040 434c 713f 4c0c 983f
000000a0: 08dc 42c0 7990 0dbf ef04 97c0 ec48 0bbf
000000b0: 112b 6640 0079 35c0 6adf df3f 8a73 7f40
000000c0: dc70 ce3f 0cd0 8cbf 6996 573f e369 df3f
000000d0: 9c46 4cbf 6239 8e3f 0f5e c33d 25aa d33e
000000e0: c143 ea3f 173a d7bf d747 b33f fa1e a03f
000000f0: cf4d 1740 43b5 8d3f b6b5 3a40 0840 bb3f
00000100: 2637 bd3f a19e 9abf 1075 4f3f da17 d43f
00000110: ef96 c3bf 97d3 843f 060e cb3e c316 b03e
00000120: b6b2 e53f 2361 cfbf dc93 a03f 4a83 9f3f
00000130: 6129 1440 c9c4 993f fd68 2340 e496 ad3f
00000140: d9b8 bd3f 25e7 8dbf fcd6 363f 5e84 d13f
00000150: 707b ef3d 742c 883f 68be 4ebe 5864 cc3e
00000160: da71 df3f d348 dfbf ff15 aa3f d6f7 a73f
00000170: c90f 0940 659c 8d3f 8186 3840 f1d4 b53f
00000180: ebe0 b9bf 2925 2440 5519 a7bf 8f83 dd3f
00000190: 64dd c2bf 828d 52be d12a 9bbf 564a bcbf
000001a0: b94c c1bf d4fe 973f fedf cc3f 6f00 d73f
000001b0: 7f9b 383b b1da e1bf 1700 013f eaf7 90bf
000001c0: 1057 c5bf 0e03 2940 5434 0ac0 e68b ed3f
000001d0: 40ed d3bf 7983 03c0 9985 afbf 9dcf 2dbf
000001e0: 0b11 c9bf 3d51 9c3f 77ff ea3f dd3e 81be
000001f0: 1c30 5c3d 1440 36bf 70c0 da3f e4c6 4abf
00000200: adf9 07c0 e481 2540 72e5 a8bf 9701 a73f
00000210: a08a cbbf 960c 0fbf 9536 bfbf a4ca 2cbf
00000220: 50cd c6bf eb55 993f bfdd e03f dfbb 803d
00000230: baab 0c40 23c3 84bf 69d4 5bbf 8f3c 41bf
00000240: 36c1 c33f 38d2 8bbf db8b 4c3f a7dc c43f
00000250: 0621 41bf 3c14 6c3f b548 883d 5cd9 d23e
00000260: 2314 ec3f 1ba7 d9bf 978e a53f 680c 973f
00000270: 210a 0d40 d0cb 8d3f cf1b 3640 1029 ad3f
00000280: c45b c53f ddcf 8abf 3b54 423f 00ed d53f
00000290: 0ea5 b4bf 1cca 873f 30ae c73e 9292 a63e
000002a0: 02fe d73f 5c3a ddbf 2e53 9c3f 36a1 9d3f
000002b0: 0182 0d40 de3b 8c3f ac02 2d40 2671 ad3f
000002c0: f6fa c83f 3af1 8cbf 8af8 383f 4fa7 cc3f
000002d0: 1a2b 07bf 2cac 883f 453f edbd add6 de3e
000002e0: f684 e33f 5b13 d9bf 66f3 a93f 4c2c 9d3f
000002f0: 9834 0f40 e2cb 933f bdfb 3d40 2375 b03f
00000300: 9efb 89bf 4985 1f40 a927 d6bf f14f 0cc0
00000310: e476 c4bf 68f9 79bf f95d 34bf bbde 17bf
00000320: ab7b c3bf 60d4 983f a07e d23f 4cfb 803f
00000330: e727 8dbf f8ea bbbf 2f84 b3bf 8f76 9c3f
00000340: 5422 a2bf f816 2340 5ee1 a7bf fafd 2c3e
00000350: ef11 bfbf 866f bdbf e416 2abf 64f1 1840
00000360: 6395 c1bf 93d6 993f 6e85 cb3f 065b 813f
00000370: e98a 99bf d1bd c0bf 81d7 83bf 8c85 cf3f
00000380: f961 a0bf 2ac3 2540 8f12 36bf 30fc dd3d
00000390: cb9f c2bf e82f 10ba 21eb 19c0 bfc3 c43d
000003a0: 10e7 c3bf f012 973f f072 ca3f f117 813f
000003b0: 309d d5bf dce7 c1bf edeb 83bf 40fa d83f
000003c0: db8b 4e3f 4c02 8e3f 58c5 7a3f 982c 65bf
000003d0: 06cf b73f a8d8 5ebf 140e 933f 2d95 023f
000003e0: 5aeb 81bf 0021 8d3f b4d2 86bf 7d9b b6bf
000003f0: 3b1e 093f 0209 7abf f98b ea3f 7fa0 a7bf
-0.47782502 0.624204 0.24240208 2.4015958 -10.537939 1.263723 3.1183472 -1.4894729
-1.3965411 1.8212482 -2.6809328 -2.3629076 0.15051036 -1.8472584 0.2356734 0.39484257
-0.45591232 0.6525101 0.18021291 2.4381616 -10.4779215 1.2939082 3.116732 -1.4681094
-1.3850242 1.7736478 -2.7023916 -2.3565772 0.10931235 -1.8404428 0.16380464 0.35227478
5.567692 2.777253 -4.990678 5.7653503 -7.355524 5.5299387 0.9425699 1.1878753
-3.0446796 -0.5529857 -4.7193522 -0.54408145 3.5963786 -2.8355103 1.7490056 3.991427
1.6128192 -1.1000991 0.8421388 1.7454189 -0.7979524 1.1111262 0.09539425 0.41340747
1.8301927 -1.6814603 1.4006299 1.2509453 2.364124 1.1070942 2.9173408 1.4628916
1.4782455 -1.207966 0.81038 1.6569779 -1.5280436 1.0377072 0.39659137 0.34392366
1.7945163 -1.6201519 1.2545123 1.2461941 2.3150256 1.2013179 2.553283 1.3561673
1.4822036 -1.1086165 0.7142179 1.636852 0.11693466 1.0638566 -0.20189822 0.39920306
1.745662 -1.7444099 1.3287963 1.3122509 2.1415884 1.1063353 2.8832095 1.420561
-1.4521765 2.564768 -1.3054606 1.7305773 -1.5223813 -0.20561793 -1.2122442 -1.4710186
-1.5101539 1.1874642 1.6005857 1.6797007 0.0028168855 -1.7644864 0.5039076 -1.1325657
-1.5417194 2.6408114 -2.1594439 1.8558319 -1.6556778 -2.0548995 -1.3712646 -0.6789492
-1.5708326 1.2212292 1.8359212 -0.25243273 0.05375682 -0.71191525 1.7089977 -0.79209733
-2.124614 2.586053 -1.3195021 1.304736 -1.590168 -0.5587858 -1.4938532 -0.67496705
-1.5531406 1.1979345 1.7567672 0.062858336 2.1979814 -1.0372051 -0.8587099 -0.7548303
1.5293338 -1.0923529 0.799009 1.5379838 -0.75441015 0.92218375 0.06654493 0.41181457
1.8443645 -1.7004122 1.293414 1.1800661 2.2037432 1.1077824 2.8454473 1.3528156
1.541863 -1.0844685 0.75909775 1.6712952 -1.4112871 1.0608554 0.39000082 0.325337
1.6874392 -1.7283435 1.2212884 1.2314823 2.2110598 1.095577 2.703288 1.3550155
1.5701587 -1.1011117 0.7225424 1.5988559 -0.5280014 1.0677543 -0.11584333 0.4352316
1.7774951 -1.6959032 1.3277404 1.2279143 2.237585 1.1546595 2.96849 1.3785747
-1.0779912 2.49251 -1.6730853 -2.1923792 -1.5348783 -0.9764619 -0.7045589 -0.59324235
-1.5272115 1.1939812 1.6444893 1.007669 -1.1027802 -1.4681082 -1.4024714 1.2223681
-1.2666726 2.548277 -1.3115652 0.1689376 -1.4927348 -1.4799659 -0.6644118 2.3897333
-1.5123714 1.2018608 1.5900095 1.0105903 -1.1995517 -1.5057927 -1.0300142 1.621263
-1.2529899 2.5900369 -0.7112207 0.108391166 -1.5205015 -0.00055003027 -2.4049761 0.09607648
-1.530489 1.1802654 1.5816326 1.0085431 -1.6688595 -1.5148883 -1.0306374 1.695137
0.8068215 1.1094451 0.9795737 -0.8952117 1.4360054 -0.8704934 1.1488671 0.51008874
-1.0149949 1.1025696 -1.0533051 -1.4266201 0.53561753 -0.97669995 1.8323966 -1.3095855

layers_by_name.lstm.cell.gates.bias f4 [64]
00000000: f6d4 c33f c394 b33f fde9 0b40 2141 d03e
00000010: a379 833f 3b12 793f 91e0 fb3f d3b1 a8bf
00000020: 2752 983e 5351 3d3f 3561 c83f e42c de3f
00000030: 550b a63f 5201 b33f fac2 a3bd 25d6 073f
00000040: 305f 353f 2d42 f63f b09f a03f 4e3b cd3e
00000050: 72db ed3f b9f3 883f cdbd 09bd 8783 943f
00000060: accb 243f 9910 103f 230f 663f 76e0 a93e
00000070: 2c85 1440 7e1e 273f f5d1 1a40 80f5 cd3f
00000080: 4bce b7be 964e 443f 453f e5be 1756 f7bd
00000090: 1d52 7d3e 2d31 a0be 7b4d 8ebe a5b9 823e
000000a0: 3baf b43e cea1 f5be 1f0f 15bf ba24 d43e
000000b0: f976 063f 1f67 37bf 0adb 96be 339e 0a3f
000000c0: f49b c13f bc85 583b 3f5e d23f df88 14bf
000000d0: 3246 643e 32db 943f 873b db3f d959 bbbf
000000e0: 56ff 263e c9e6 263f c42e 83bd 9e9c 873f
000000f0: 8532 16c0 b76c 783f 5d09 0fc0 1a69 debe
1.5299366 1.4029773 2.1861565 0.4067469 1.0271496 0.9729344 1.9677907 -1.3179268
0.29750177 0.73952216 1.5654665 1.735745 1.2972208 1.3984778 -0.07996173 0.53061134
0.7084837 1.9238945 1.2548733 0.40084308 1.8582594 1.0699378 -0.033628274 1.1602639
0.6437328 0.56275326 0.89866847 0.33179063 2.3206282 0.652809 2.4190648 1.6090546
-0.35899577 0.7668241 -0.44774833 -0.12076967 0.24738355 -0.31287518 -0.27793488 0.2553226
0.3528994 -0.4797501 -0.582262 0.4143427 0.5252529 -0.71641725 -0.2946399 0.5414764
1.5125718 0.0033038696 1.6435012 -0.5802135 0.22292402 1.1629393 1.7127541 -1.4636794
0.1630834 0.651959 -0.06405404 1.0594671 -2.3468335 0.97040886 -2.2349465 -0.4343956

layers_by_name.lstm.cell.gates.weight f4 [64, 35]
00000000: 6e88 aebc ecde 113e 2902 97c0 20bf 16c0
00000010: 7589 36c0 cca0 8a3f edb7 b03f 44dc 923f
00000020: 07fa 933f 8cd6 2fc0 36bb 31bd 3ffd c8be
00000030: 9777 ba3f 0ddb b43f 7e09 b93f 11f6 403f
00000040: 7bbe 2f3f 5245 343f b208 babf d8cd 36bf
00000050: 1eeb f43f 8d9d 9cbf 8012 03be fc5d a4bf
00000060: 9eb3 8d3f 308d 75be 2e01 753f 8d14 26bf
00000070: 1e6f d1bf 7482 ecbf 8793 a93f 904a a840
00000080: cd65 7f40 b31a 203f 6bb7 7dbe 6287 58bc
00000090: f638 983d 31ff 453e f339 f2be 5ab2 5dbe
000000a0: 35f1 c5be b41e 343f 95ac 113f 74cf 8f3f
000000b0: 9115 debe 6e9e dfbe 1562 8540 fec9 8a3f
000000c0: a084 8f3f a622 3c40 b762 32c0 fee4 2ac0
000000d0: 3236 2ac0 2de5 0dbf f7e9 8ebf bccc df3f
000000e0: 8fff 0cc0 b6a5 753f dfe4 27c0 21a0 6dbf
000000f0: 33ae d7bf 6233 9d3f fdb9 e6bf 5ee5 e33f
00000100: 4f10 acbf f192 113f 5531 343f 73c5 b4bf
00000110: 0b51 5f3f a8ae e83f 87df 0e3d 9c40 28bc
00000120: d039 01bf c4eb 98bf b296 78be 5451 a4bf
00000130: 0a16 5a3f 5b20 133f 4bf4 d03f 6f40 2d40
00000140: d191 663f 6002 b6be cb04 823f 4ac6 af3f
00000150: ffe5 9e3f 1849 243f bb36 c73e 03e5 173f
00000160: f8c1 1abf 2d29 9d3f 2b51 01c0 2d3a c3bf
00000170: 62cc c43e 2284 87bf 7c05 82c0 de84 ac3d
00000180: ebbd 03c0 dfe4 9ebf 840c cebf 93f2 f1bf
00000190: 58ff ce3f d8c1 3140 a422 1040 9113 253f
000001a0: 38ef 99bf 30b4 18be 5fce 3cbb b739 b1bf
000001b0: 6f1f ac3f 547f 783f 9fa0 8a3f 0e3b 1240
000001c0: 59bd 3940 39bd 0040 2cdc 783f 6717 1940
000001d0: c1e6 1d40 8c1e 0540 a68e bc3f 8e4d bb3f
000001e0: 0b3e 6fc0 5120 66c0 6660 6dc0 6236 87bf
000001f0: 21d9 5840 dc57 98be e78a 5a40 8a14 3dc0
00000200: 8c8f 7240 8c74 ea3e 2751 7f40 b81a 653f
00000210: 48fb 82bf de4d 03bf be49 6cbf 3657 05c0
00000220: 1d55 563f 5c8a 763f fe32 013f b8b5 04c0
00000230: 91f9 39bd 9faf d5bc cf99 79c0 cf30 f13f
00000240: 6b62 3340 427e 0940 0abe e63f 951c 8d3f
00000250: ae2f e53f 0039 5840 03d8 c63f dad1 f13f
00000260: b8b5 4e3f 475d 963f 3609 793f 5909 8cbf
00000270: d189 aebf ec10 a7bf 0316 dcbd 739b b13f
00000280: 569c e3be 81a6 d43f 7c09 03c0 156a 9d3f
00000290: d087 d43e 523b 0840 3085 853f dead 443f
000002a0: 4c5a 0cbf 69f8 ddbe 10af 25bf 9f08 e4be
000002b0: 69cc 603f fe5f 4b3f 6d28 bd3c f79b 1bbd
000002c0: c2ec 3b3d 9291 60bf d7d7 1540 0f7d d13f
000002d0: 5c3f d73f 67a2 093f c2a3 603f a350 7d3f
000002e0: 32de 5cc0 c3b5 c53f e15c 2340 7e08 353f
000002f0: fd6b 8d3f 985e 663f 169a a4be aa48 a9be
00000300: e504 95be acbc c33f 84d7 10c0 0021 f8bf
00000310: 5d3b e5bf e248 0a40 a581 45c0 d50c 363f
00000320: 1988 35c0 d676 7bbf 82cc 1140 7b91 f4bf
00000330: c9f0 c33f 0631 3d40 76cd 203e 3970 cb3f
00000340: bec9 353e 265e f73f 1a39 a7bd e71b 2c3e
00000350: 5a95 7dc0 f8bc 7f3f 7545 f13f 0112 de3f
00000360: 8998 1b3f 61dc 623f 3e63 4f3f 7848 eb3f
00000370: 4b3f fb3e 3dff 6b40 1976 f93e cf6d 77be
00000380: 14dc e0bf 0a29 bf3e bad0 0f3f cbaa f13e
00000390: 78ff e4bf 4cbb d5bf 1c4b 7840 ae5f ec3f
000003a0: 42a4 28bf 0df4 99be d74d d840 f009 e3be
000003b0: afb9 5240 df8f 873f ced5 02c0 d5d6 c03e
000003c0: c757 52be 8aa8 0e40 7c88 eaba 7b2c b43f
000003d0: fd3f 1e40 a472 87bd 9dbf e23d 32f1 a8bf
000003e0: 3a91 97bd 8394 05bf d545 04c0 306e 663f
000003f0: 96b1 783f 3219 943f 20ee 6b40 3440 33c0
-0.02130529 0.14245194 -4.7190137 -2.3554153 -2.8521397 1.0830321 1.380613 1.147347
1.1560677 -2.74747 -0.04339143 -0.3925571 1.4567746 1.4129349 1.4456022 0.7537547
0.68650025 0.70418274 -1.4533904 -0.7140784 1.9134252 -1.2235581 -0.12800026 -1.2841182
1.107044 -0.2397964 0.95704925 -0.6487511 -1.6362035 -1.8477311 1.3248147 5.259102
3.9905884 0.6254074 -0.24777 -0.0132158715 0.074327394 0.19335629 -0.47309837 -0.21650067
-0.3866059 0.7035935 0.56903964 1.1235185 -0.4337583 -0.4367556 4.168223 1.0842893
1.1212349 2.9396148 -2.787275 -2.6702266 -2.6595578 -0.5542782 -1.116515 1.7484355
-2.203098 0.9595598 -2.6233442 -0.9282246 -1.6850036 1.2281306 -1.8025509 1.7804372
-1.3442477 0.5686484 0.70387775 -1.4122757 0.87233037 1.8178301 0.03488114 -0.01026931
-0.5047884 -1.194695 -0.24276236 -1.2837319 0.8518988 0.57471246 1.6324552 2.7070577
0.9006625 -0.35548687 1.0157713 1.3732388 1.2413939 0.6417403 0.38908944 0.5933382
-0.6045222 1.2278191 -2.020579 -1.5252129 0.38437182 -1.0587199 -4.0631695 0.0842378
-2.0584667 -1.2413596 -1.609757 -1.8902153 1.6171675 2.7774563 2.2521143 0.6448298
-1.2026129 -0.14912486 -0.002880953 -1.3845738 1.3447093 0.9706929 1.0830268 2.2848544
2.9021819 2.0115492 0.97210956 2.3920534 2.467209 2.0799894 1.4731033 1.4633043
-3.7381618 -3.5957224 -3.7090087 -1.0563471 3.3882525 -0.2975453 3.414728 -2.9543786
3.7900114 0.45792043 3.9893281 0.89493895 -1.0232935 -0.5129069 -0.9230002 -2.083448
0.8372362 0.9630487 0.5046843 -2.0735912 -0.04540402 -0.02608472 -3.9000127 1.884302
2.802882 2.1483312 1.8026745 1.1024348 1.7905176 3.378479 1.5534672 1.8892167
0.8074603 1.1747216 0.9727968 -1.0940353 -1.3635808 -1.3052039 -0.10746386 1.3875564
-0.44455212 1.6613313 -2.0474539 1.2297999 0.41509867 2.1286206 1.0431271 0.768278
-0.5482528 -0.43353584 -0.6472025 -0.44537827 0.87811905 0.7944335 0.023090566 -0.037990537
0.045880087 -0.8772212 2.3412988 1.636629 1.6816211 0.5376343 0.87749875 0.98951167
-3.4510617 1.5446094 2.5525439 0.70716083 1.104858 0.8998809 -0.32148808 -0.3306325
-0.29105297 1.5291953 -2.263154 -1.9385071 -1.7908741 2.1606984 -3.0860379 0.7111333
-2.8364317 -0.98228204 2.2781072 -1.9106897 1.5307857 2.9561172 0.15703377 1.5893623
0.1775274 1.9325607 -0.08165188 0.16807519 -3.9622407 0.9989772 1.8849322 1.7349244
0.60779625 0.8861752 0.81010807 1.8381491 0.49071726 3.6874535 0.48722914 -0.24162982
-1.7567163 0.37335998 0.56177866 0.47200617 -1.7890463 -1.6697783 3.8795843 1.8466699
-0.6587564 -0.30069008 6.759502 -0.4434352 3.2925832 1.0590781 -2.0442996 0.37663904
-0.20541297 2.2290368 -0.0017893459 1.4076074 2.4726555 -0.06613663 0.110717036 -1.3198607
-0.07400747 -0.52179736 -2.0667622 0.9001188 0.97145975 1.1570189 3.686409 -2.8007936
