jordan_elman_2024/exp3/jordan_sequence_level/run_27/export/model.safetensors (safetensors, 6976 bytes, 7 tensors)

layers.embed.emb.weight f4 [22, 22]
1.0 0.0 0.0 0.0 0.0 0.0 0.0 0.0
0.0 0.0 0.0 0.0 0.0 0.0 0.0 0.0
0.0 0.0 0.0 0.0 0.0 0.0 0.0 1.0
0.0 0.0 0.0 0.0 0.0 0.0 0.0 0.0
0.0 0.0 0.0 0.0 0.0 0.0 0.0 0.0
0.0 0.0 0.0 0.0 0.0 0.0 1.0 0.0
0.0 0.0 0.0 0.0 0.0 0.0 0.0 0.0
0.0 0.0 0.0 0.0 0.0 0.0 0.0 0.0
0.0 0.0 0.0 0.0 0.0 1.0 0.0 0.0
0.0 0.0 0.0 0.0 0.0 0.0 0.0 0.0
0.0 0.0 0.0 0.0 0.0 0.0 0.0 0.0
0.0 0.0 0.0 0.0 1.0 0.0 0.0 0.0
0.0 0.0 0.0 0.0 0.0 0.0 0.0 0.0
0.0 0.0 0.0 0.0 0.0 0.0 0.0 0.0
0.0 0.0 0.0 1.0 0.0 0.0 0.0 0.0
0.0 0.0 0.0 0.0 0.0 0.0 0.0 0.0
0.0 0.0 0.0 0.0 0.0 0.0 0.0 0.0
0.0 0.0 1.0 0.0 0.0 0.0 0.0 0.0
0.0 0.0 0.0 0.0 0.0 0.0 0.0 0.0
0.0 0.0 0.0 0.0 0.0 0.0 0.0 0.0
0.0 1.0 0.0 0.0 0.0 0.0 0.0 0.0
0.0 0.0 0.0 0.0 0.0 0.0 0.0 0.0
0.0 0.0 0.0 0.0 0.0 0.0 0.0 0.0
1.0 0.0 0.0 0.0 0.0 0.0 0.0 0.0
0.0 0.0 0.0 0.0 0.0 0.0 0.0 0.0
0.0 0.0 0.0 0.0 0.0 0.0 0.0 1.0
0.0 0.0 0.0 0.0 0.0 0.0 0.0 0.0
0.0 0.0 0.0 0.0 0.0 0.0 0.0 0.0
0.0 0.0 0.0 0.0 0.0 0.0 1.0 0.0
0.0 0.0 0.0 0.0 0.0 0.0 0.0 0.0
0.0 0.0 0.0 0.0 0.0 0.0 0.0 0.0
0.0 0.0 0.0 0.0 0.0 1.0 0.0 0.0
00000000: 0000 803f 0000 0000 0000 0000 0000 0000
00000010: 0000 0000 0000 0000 0000 0000 0000 0000
00000020: 0000 0000 0000 0000 0000 0000 0000 0000
00000030: 0000 0000 0000 0000 0000 0000 0000 0000
00000040: 0000 0000 0000 0000 0000 0000 0000 0000
00000050: 0000 0000 0000 0000 0000 0000 0000 803f
00000060: 0000 0000 0000 0000 0000 0000 0000 0000
00000070: 0000 0000 0000 0000 0000 0000 0000 0000
00000080: 0000 0000 0000 0000 0000 0000 0000 0000
00000090: 0000 0000 0000 0000 0000 0000 0000 0000
000000a0: 0000 0000 0000 0000 0000 0000 0000 0000
000000b0: 0000 0000 0000 0000 0000 803f 0000 0000
000000c0: 0000 0000 0000 0000 0000 0000 0000 0000
000000d0: 0000 0000 0000 0000 0000 0000 0000 0000
000000e0: 0000 0000 0000 0000 0000 0000 0000 0000
000000f0: 0000 0000 0000 0000 0000 0000 0000 0000
00000100: 0000 0000 0000 0000 0000 0000 0000 0000
00000110: 0000 0000 0000 803f 0000 0000 0000 0000
00000120: 0000 0000 0000 0000 0000 0000 0000 0000
00000130: 0000 0000 0000 0000 0000 0000 0000 0000
00000140: 0000 0000 0000 0000 0000 0000 0000 0000
00000150: 0000 0000 0000 0000 0000 0000 0000 0000
00000160: 0000 0000 0000 0000 0000 0000 0000 0000
00000170: 0000 803f 0000 0000 0000 0000 0000 0000
00000180: 0000 0000 0000 0000 0000 0000 0000 0000
00000190: 0000 0000 0000 0000 0000 0000 0000 0000
000001a0: 0000 0000 0000 0000 0000 0000 0000 0000
000001b0: 0000 0000 0000 0000 0000 0000 0000 0000
000001c0: 0000 0000 0000 0000 0000 0000 0000 803f
000001d0: 0000 0000 0000 0000 0000 0000 0000 0000
000001e0: 0000 0000 0000 0000 0000 0000 0000 0000
000001f0: 0000 0000 0000 0000 0000 0000 0000 0000
00000200: 0000 0000 0000 0000 0000 0000 0000 0000
00000210: 0000 0000 0000 0000 0000 0000 0000 0000
00000220: 0000 0000 0000 0000 0000 803f 0000 0000
00000230: 0000 0000 0000 0000 0000 0000 0000 0000
00000240: 0000 0000 0000 0000 0000 0000 0000 0000
00000250: 0000 0000 0000 0000 0000 0000 0000 0000
00000260: 0000 0000 0000 0000 0000 0000 0000 0000
00000270: 0000 0000 0000 0000 0000 0000 0000 0000
00000280: 0000 0000 0000 803f 0000 0000 0000 0000
00000290: 0000 0000 0000 0000 0000 0000 0000 0000
000002a0: 0000 0000 0000 0000 0000 0000 0000 0000
000002b0: 0000 0000 0000 0000 0000 0000 0000 0000
000002c0: 0000 0000 0000 0000 0000 0000 0000 0000
000002d0: 0000 0000 0000 0000 0000 0000 0000 0000
000002e0: 0000 803f 0000 0000 0000 0000 0000 0000
000002f0: 0000 0000 0000 0000 0000 0000 0000 0000
00000300: 0000 0000 0000 0000 0000 0000 0000 0000
00000310: 0000 0000 0000 0000 0000 0000 0000 0000
00000320: 0000 0000 0000 0000 0000 0000 0000 0000
00000330: 0000 0000 0000 0000 0000 0000 0000 803f
00000340: 0000 0000 0000 0000 0000 0000 0000 0000
00000350: 0000 0000 0000 0000 0000 0000 0000 0000
00000360: 0000 0000 0000 0000 0000 0000 0000 0000
00000370: 0000 0000 0000 0000 0000 0000 0000 0000
00000380: 0000 0000 0000 0000 0000 0000 0000 0000
00000390: 0000 0000 0000 0000 0000 803f 0000 0000
000003a0: 0000 0000 0000 0000 0000 0000 0000 0000
000003b0: 0000 0000 0000 0000 0000 0000 0000 0000
000003c0: 0000 0000 0000 0000 0000 0000 0000 0000
000003d0: 0000 0000 0000 0000 0000 0000 0000 0000
000003e0: 0000 0000 0000 0000 0000 0000 0000 0000
000003f0: 0000 0000 0000 803f 0000 0000 0000 0000

layers.jordan.hx.bias f4 [16]
0.11428053 -0.11988257 -0.09880928 -0.17429723 0.2982056 -0.077768125 -0.069140226 0.13705544
0.257325 0.09624009 -0.29677713 -0.13535757 -0.36189318 0.19015522 0.056395356 -0.43234622
00000000: e90b ea3d fe84 f5bd 855c cabd f97a 32be
00000010: 68ae 983e e544 9fbd 6499 8dbd 4358 0c3e
00000020: 1ac0 833e 8619 c53d 2cf3 97be 2d9b 0abe
00000030: 104a b9be 0db8 423e d1fe 663d 7c5c ddbe

layers.jordan.hx.weight f4 [16, 22]
-0.50887513 -0.08460001 -0.07549005 -0.8896399 0.60936826 0.675973 0.5173446 0.5885326
0.37528232 0.48761028 0.6985506 0.69845563 0.76255953 0.4084935 0.28028738 0.5008796
-0.5418946 -0.617981 -0.57889634 -0.9871697 -1.0011626 -0.9843771 -0.16577159 0.09108406
-0.07459558 -0.4873579 1.1013023 1.0785904 0.99520576 -0.64534765 -0.49378884 -0.62051237
0.9117335 1.0406497 0.9390785 -0.5586148 -0.4839625 -0.5037719 0.0040427614 -0.27009797
-0.102655135 -0.7801166 -0.7131421 -0.7356808 0.35490173 -0.19885267 0.113306366 0.59581566
-0.3156515 -0.2352052 -0.45943528 -0.5647525 -0.54664147 -0.6267845 -0.31112346 -0.38817388
-0.38974538 -0.54334366 -0.5628254 -0.46818718 0.5141277 0.48821598 0.4276804 0.80873203
0.77155894 0.78187203 0.015223375 0.03543417 -0.0132336 -0.27553928 -0.023297753 0.37199748
0.09656042 0.10389247 -0.020903368 0.34344447 -0.16898288 -0.03977472 -0.13152164 0.34932512
0.23653202 0.37353265 -0.31723768 -0.1480361 -0.36873823 -0.20772694 -0.2559089 -0.07371501
-0.7935208 -0.079844974 -0.13879868 -1.6856124 0.5767703 0.55150324 0.42889848 -0.16706161
-0.3919369 -0.24308619 0.23009752 0.11990854 0.24014564 -0.18728532 -0.49180093 -0.3481636
0.52283585 0.6058158 0.54711264 0.46395364 0.4198932 0.48964614 0.37477186 -0.12166446
0.0113590285 0.7249783 0.48855913 0.41586363 0.56129515 -0.42392328 -0.49724773 -0.58537936
0.51829964 0.46145564 0.548283 -0.22284518 -0.42567083 -0.45744073 -0.93061364 -0.9710054
-0.9627286 0.4976039 0.51357764 0.56513256 0.79587835 -0.11312688 0.1417463 1.3843783
0.48436722 0.6487578 0.6077531 -0.8972402 -0.88253886 -0.9270738 0.72910553 0.68293566
0.7722419 -0.8133752 -0.6674081 -0.7026108 -0.5297457 -0.3356924 -0.6246441 0.005139486
-0.16064507 -0.12260157 -0.51910543 -0.084227905 -0.01864428 -1.3213166 0.60115236 0.5198778
0.58089453 0.3916034 0.12271332 0.25543883 0.45886257 0.3394975 0.17882685 0.14359246
0.03339733 -0.018767288 -0.4893089 -0.3883327 -0.20533311 -0.3287864 -0.3089511 -0.2423791
-0.548436 0.168133 -0.15735437 -1.9833324 -0.15327507 0.058079783 -0.026237817 0.084311396
0.119345434 0.32964095 -0.28533113 -0.19046922 -0.14812836 0.11325022 0.22743948 0.21091159
0.43795726 0.5098464 0.5578732 0.36136135 0.3901094 0.4456454 -0.46450514 -0.023434596
-0.118646294 -0.9903621 0.45991355 0.37137875 0.37646717 -0.016845431 -0.25946894 0.008840005
0.11917564 0.025987562 0.20394382 0.046881218 0.06031622 -0.26580802 0.4410464 0.49019352
0.22844288 -0.159733 -0.27560222 -0.279322 0.12871607 -0.12486567 0.09406134 -0.09799857
-0.045281474 0.053227235 0.23292942 -0.01804945 0.10217724 -0.03059238 0.2576184 0.117750384
0.12859805 -0.016089499 -0.11046744 -0.17468861 -0.037040513 -0.12841453 0.111837246 -0.20792289
-0.32396194 -0.12224372 0.08446751 -0.0028990197 0.1569455 -0.019793866 -0.27491495 -0.39287126
-0.47228745 0.4334177 0.56678486 0.43271065 -0.20352836 -0.18655232 -0.054470178 0.33499682
00000000: a445 02bf c542 adbd 879a 9abd 71bf 63bf
00000010: 8fff 1b3f 910c 2d3f b270 043f 13aa 163f
00000020: 0125 c03e 0ea8 f93e 36d4 323f fdcd 323f
00000030: 1a37 433f 0f26 d13e d481 8f3e a539 003f
00000040: 9bb9 0abf 0134 1ebf 8d32 14bf 27b7 7cbf
00000050: 1926 80bf 2300 7cbf 07c0 29be 488a ba3d
00000060: 91c5 98bd fa86 f9be 79f7 8c3f 400f 8a3f
00000070: cec5 7e3f 8135 25bf e4d1 fcbe e6d9 1ebf
00000080: 5e67 693f 0234 853f 7367 703f 6101 0fbf
00000090: efc9 f7be 32f7 00bf 2479 843b 484a 8abe
000000a0: db3c d2bd b9b5 47bf 7b90 36bf 9455 3cbf
000000b0: aeb5 b53e 09a0 4bbe 2b0d e83d 6087 183f
000000c0: 139d a1be a2d9 70be 1a3b ebbe 9f93 10bf
000000d0: b2f0 0bbf f374 20bf 934b 9fbe babe c6be
000000e0: b58c c7be 9218 0bbf 5315 10bf 3bb6 efbe
000000f0: df9d 033f 72f7 f93e edf8 da3e 1009 4f3f
00000100: e384 453f c428 483f 766b 793c 6c23 113d
00000110: bed1 58bc 7c13 8dbe eeda bebc 7476 be3e
00000120: 78c1 c53d 93c5 d43d 8a3d abbc f4d7 af3e
00000130: d909 2dbe d1ea 22bd 9cad 06be beda b23e
00000140: 7335 723e ac3f bf3e fa6c a2be c796 17be
00000150: 42cb bcbe 5fb6 54be 7e06 83be e5f7 96bd
00000160: 2e24 4bbf c385 a3bd 3e21 0ebe 26c2 d7bf
00000170: 38a7 133f 512f 0d3f 9598 db3e 3312 2bbe
00000180: f4ab c8be 96eb 78be af9e 6b3e 9c92 f53d
00000190: bde8 753e b9c7 3fbe 55cd fbbe 8042 b2be
000001a0: 92d8 053f bf16 1b3f 930f 0c3f 558b ed3e
000001b0: 3efc d63e e6b2 fa3e 19e2 bf3e 372b f9bd
000001c0: 381b 3a3c 2e98 393f 6c24 fa3e 14ec d43e
000001d0: 0ab1 0f3f 790c d9be 4197 febe 6cdb 15bf
000001e0: 49af 043f ea43 ec3e 465c 0c3f 8731 64be
000001f0: 87f1 d9be ac35 eabe b23c 6ebf cf93 78bf
00000200: 6275 76bf f0c5 fe3e d379 033f 87ac 103f
00000210: afbe 4b3f 11af e7bd f125 113e 4f33 b13f
00000220: fbfe f73e fe14 263f b595 1b3f 89b1 65bf
00000230: 11ee 61bf b554 6dbf a9a6 3a3f dfd4 2e3f
00000240: a5b1 453f 5b39 50bf 42db 2abf 4dde 33bf
00000250: 6a9d 07bf e0df abbe ade8 1fbf 2269 a83b
00000260: 2480 24be 8816 fbbd 18e4 04bf ae7f acbd
00000270: e4bb 98bc e720 a9bf 1fe5 193f b616 053f
00000280: 81b5 143f 3e80 c83e 1f51 fb3d e1c8 823e
00000290: 09f0 ea3e 9ed2 ad3e 631e 373e e709 133e
000002a0: a4cb 083d dbbd 99bc b286 fabe 8bd3 c6be
000002b0: d842 52be b156 a8be d72e 9ebe 3a32 78be
000002c0: 4d66 0cbf 0f2b 2c3e 8121 21be d6dd fdbf
000002d0: 24f4 1cbe 11e5 6d3d b1f0 d6bc 74ab ac3d
000002e0: 616b f43d b3c6 a83e ec16 92be 5d0a 43be
000002f0: f6ae 17be bbef e73d e5e5 683e 35f9 573e
00000300: ef3b e03e 4b85 023f c7d0 0e3f 5b04 b93e
00000310: 6bbc c73e a22b e43e 9ed3 edbe e9f9 bfbc
00000320: d4fc f2bd 5f88 7dbf ca79 eb3e 5b25 be3e
00000330: 4ec0 c03e 6eff 89bc 1dd9 84be abd5 103c
00000340: 5c12 f43d dee3 d43c a6d6 503e 8506 403d
00000350: 240e 773d fd17 88be d5d0 e13e a5fa fa3e
00000360: eeec 693e 0c91 23be bc1b 8dbe 4b03 8fbe
00000370: 25ce 033e 93b9 ffbd 3ba3 c03d 79b3 c8bd
00000380: 1179 39bd cd04 5a3d 0d85 6e3e 71dc 93bc
00000390: 4d42 d13d df9c fabc 8fe6 833e 1d27 f13d
000003a0: 35af 033e 20ce 83bc c13c e2bd 92e1 32be
000003b0: cbb7 17bd 197f 03be ed0a e53d bde9 54be
000003c0: 57de a5be ea5a fabd 4dfd ac3d 7bfd 3dbb
000003d0: 52b6 203e bf26 a2bc a7c1 8cbe 6c26 c9be
000003e0: a9cf f1be ede8 dd3e d018 113f 408c dd3e
000003f0: bd69 50be 9207 3fbe 1f1c 5fbd b484 ab3e

layers.jordan.hy.bias f4 [16]
0.082150966 -0.020565476 -0.10243025 -0.39530092 0.078833245 -0.09251174 -0.14137432 0.14040351
0.2998266 0.23593034 -0.17869304 0.08760401 0.047392797 0.08382635 -0.11944628 -0.36459538
00000000: c43e a83d ee78 a8bc f3c6 d1bd e264 cabe
00000010: 5373 a13d cc76 bdbd 6ec4 10be f0c5 0f3e
00000020: df82 993e b997 713e 4ffb 36be bb69 b33d
00000030: f31e 423d 26ad ab3d 40a0 f4bd 3fac babe

layers.jordan.hy.weight f4 [16, 22]
-0.014291516 -0.15376423 -0.10372264 0.10978735 0.2645518 -0.07862376 -0.14839172 -0.008896888
-0.11096716 0.1971979 -0.1683935 0.23017265 0.16976038 0.28502655 -0.08146393 0.27054358
0.010533626 -0.028994778 -0.2628506 -0.0982233 -0.034814004 -0.14895107 0.00091226393 -0.04611961
-0.05527219 -0.20083597 0.18941861 0.18623252 0.19071862 -0.046014547 0.12572913 -0.15036121
-0.024604939 -0.15665464 0.24457046 -0.16480328 -0.014205822 0.1481511 -0.13293874 0.19824013
-0.20894626 -0.20622663 -0.19262975 -0.17862198 -0.024974497 -0.09812875 -0.018670997 -0.10315236
-0.23917997 0.11788654 0.14593273 -0.05149149 0.07208405 -0.29426894 -0.15601547 0.11584398
-0.172887 -0.33409426 0.1749915 -0.18613613 0.2867175 -0.07011809 0.0691372 0.11136835
-0.06629308 -0.11720119 0.09412209 0.043725293 0.18263032 0.12941587 0.1990927 -0.06968505
0.1560878 -0.17721081 0.1748651 -0.10235654 0.1890451 0.13590352 0.053455304 0.20529154
0.07684995 0.015310719 0.12946619 -0.19706725 -0.1727076 0.13878627 -0.14163013 -0.081002206
-0.40174764 -0.13354716 -0.07017549 -0.28429118 -0.064304374 0.26507196 0.10095705 -0.2933425
-0.13888937 -0.24059804 0.13385896 0.062205687 -0.13614173 -0.26184952 0.062406644 -0.08488766
-0.09442443 -0.0677117 0.15921016 -0.14541957 0.37815407 0.035324834 -0.38721442 0.06219079
-0.13990395 0.15229006 0.3206566 0.19648509 0.15902388 -0.25131735 0.11445327 -0.22947414
0.26057664 0.14609674 0.4348978 -0.08287886 0.12284513 -0.38258475 -0.019579012 0.08828626
-0.009640919 0.024982655 -0.018117758 -0.04069991 -0.49851212 -0.07295181 -0.056813594 0.06988999
-0.13381556 -0.09311239 0.25549552 -0.108669214 0.08027481 -0.1542373 0.044516988 0.1652965
0.3444317 -0.17978893 -0.0026855697 -0.324364 -0.014807253 -0.0784051 0.005565823 -0.006792192
-0.0088375015 -0.22285038 -0.20757532 0.10750639 -0.23207225 0.07197097 0.2382428 0.24452135
0.09045866 0.022655793 -0.019739203 -0.1874348 0.15951966 -0.12764555 0.056328785 -0.0039857225
-0.1656876 -0.09661414 0.20642738 -0.1158984 0.06343648 -0.13054897 0.13415562 -0.087605745
-0.06489522 -0.09957288 -0.06856639 -0.3017478 0.09975253 -0.120375186 -0.00549681 -0.027265752
-0.06273919 -0.15956925 0.054087553 -0.18847877 -0.22004887 -0.13432743 -0.091676466 0.07648259
-0.08534693 -0.04975217 0.09491542 0.19637002 0.047355894 0.10987288 0.107454576 0.029727735
-0.036065225 -0.3267573 0.12415815 0.18355845 0.0451987 0.046927996 -0.05058039 -0.10904517
-0.102381475 -0.1450071 0.07395208 0.16236337 -0.04255591 0.120358914 0.08090821 -0.12302046
-0.21300632 0.12617475 0.014006025 0.022507833 -0.087738104 0.2717225 0.21574229 -0.18642947
-0.116402894 -0.030879512 0.015773805 -0.010737726 -0.19233882 -0.016337054 0.20332241 0.19777252
-0.1727693 -0.12138908 0.04857552 0.06274012 -0.16239937 0.1430022 0.032863606 -0.15924309
0.08400552 -0.045133807 0.2715207 0.19599865 0.005442007 -0.044525746 0.1551807 -0.15720104
0.11431847 0.2724405 -0.16179046 0.26340362 -0.016526533 -0.02198661 -0.1999147 0.055158142
00000000: f626 6abc 5f74 1dbe 896c d4bd 31d8 e03d
00000010: 5573 873e 7e05 a1bd 00f4 17be 41c4 11bc
00000020: c042 e3bd 3fee 493e 586f 2cbe 61b2 6b3e
00000030: aad5 2d3e 00ef 913e 90d6 a6bd b084 8a3e
00000040: 3b95 2c3c 7586 edbc 5b94 86be 4c29 c9bd
00000050: 2199 0ebd a186 18be ff24 6f3a ebe7 3cbd
00000060: 1865 62bd f2a7 4dbe f4f6 413e bdb3 3e3e
00000070: be4b 433e c079 3cbd 23bf 003e 4af8 19be
00000080: 4c90 c9bc 136a 20be ae70 7a3e 31c2 28be
00000090: 89bf 68bc ecb4 173e 1821 08be 76ff 4a3e
000000a0: 02f6 55be 132d 53be bc40 45be aee8 36be
000000b0: 5197 ccbc baf7 c8bd ebf3 98bc 8b41 d3bd
000000c0: 98eb 74be 806e f13d 646f 153e bee8 52bd
000000d0: cda0 933d 6baa 96be 85c2 1fbe 9c3f ed3d
000000e0: 4a09 31be 670e abbe f930 333e 789a 3ebe
000000f0: a3cc 923e 139a 8fbd ce97 8d3d 1715 e43d
00000100: abc4 87bd 2d07 f0bd 15c3 c03d 4b19 333d
00000110: 7103 3b3e 9885 043e f5de 4b3e 09b7 8ebd
00000120: 7bd5 1f3e c076 35be d60f 333e 4ea0 d1bd
00000130: 0a95 413e 4b2a 0b3e f3f3 5a3d f237 523e
00000140: 8263 9d3d cfd9 7a3c c992 043e ffcb 49be
00000150: 43da 30be fd1d 0e3e 7d07 11be 7ce4 a5bd
00000160: deb1 cdbe 96c0 08be 2bb8 8fbd 9d8e 91be
00000170: 03b2 83bd 83b7 873e 92c2 ce3d fd30 96be
00000180: 0439 0ebe 555f 76be 5312 093e 64cb 7e3d
00000190: bd68 0bbe 2411 86be 1c9e 7f3d 95d9 adbd
000001a0: 9861 c1bd 6fac 8abd fd07 233e dee8 14be
000001b0: 699d c13e c6b0 103d f840 c6be c5bb 7e3d
000001c0: fb42 0fbe edf1 1b3e 1a2d a43e 6333 493e
000001d0: 28d7 223e abac 80be 7a66 ea3d 45fb 6abe
000001e0: 4d6a 853e 629a 153e edaa de3e 64bc a9bd
000001f0: 3a96 fb3d 26e2 c3be 2a64 a0bc 6dcf b43d
00000200: f2f4 1dbc 6da8 cc3c b16b 94bc f3b4 26bd
00000210: fb3c ffbe c267 95bd 5fb5 68bd 7c22 8f3d
00000220: f206 09be b5b1 bebd 4fd0 823e f78d debd
00000230: 1f67 a43d 62f0 1dbe 7257 363d 7c43 293e
00000240: 5a59 b03e 971a 38be 6200 30bb 0a13 a6be
00000250: 1f9a 72bc da92 a0bd 8261 b63b 0991 debb
00000260: 2bcb 10bc e432 64be a08e 54be 4f2c dc3d
00000270: 59a4 6dbe 8465 933d ecf5 733e ce63 7a3e
00000280: 6442 b93d a498 b93c 1cb4 a1bc e9ee 3fbe
00000290: 1f59 233e 84b5 02be 03b9 663d aa9a 82bb
000002a0: 03aa 29be a2dd c5bd b361 533e 245c edbd
000002b0: fcea 813d a1ae 05be 1760 093e a46a b3bd
000002c0: c9e7 84bd deec cbbd 896c 8cbd b07e 9abe
000002d0: 0e4b cc3d 4487 f6bd 961e b4bb 6d5c dfbc
000002e0: 687d 80bd 1f66 23be e98a 5d3d 9400 41be
000002f0: 7e54 61be 218d 09be dfc0 bbbd e7a2 9c3d
00000300: 5fca aebd eec8 4bbd 0463 c23d 3915 493e
00000310: 41f8 413d 0805 e13d 2511 dc3d 9487 f33c
00000320: 21b9 13bd bc4c a7be a146 fe3d bff6 3b3e
00000330: 4622 393d 9237 403d 622d 4fbd 1353 dfbd
00000340: 61ad d1bd be7c 14be 3074 973d 9542 263e
00000350: 1b4f 2ebd bc7e f63d 34b3 a53d 27f2 fbbd
00000360: 541e 5abe f433 013e 8779 653c 5962 b83c
00000370: 09b0 b3bd 361f 8b3e 8ceb 5c3e 5ee7 3ebe
00000380: a464 eebd 08f7 fcbc 1138 813c 4aed 2fbc
00000390: 78f4 44be 49d5 85bc c033 503e e184 4a3e
000003a0: 6fea 30be d79a f8bd 20f7 463d e47d 803d
000003b0: 054c 26be 2b6f 123e fd9b 063d 9f10 23be
000003c0: 160b ac3d 3ade 38bd c304 8b3e dfb3 483e
000003d0: dd52 b23b a160 36bd b0e7 1e3e 4ff9 20be
000003e0: cd1f ea3d 527d 8b3e 66ac 25be d7dc 863e
000003f0: a762 87bc 431d b4bc 70b6 4cbe 81ed 613d

layers.jordan.lm_head.bias f4 [22]
-1.1341707 -0.9282746 -1.0259675 0.25638506 0.19483003 0.09048042 0.15387198 0.59851396
0.36691615 0.35537383 0.19621867 0.05995431 -0.10936682 -0.11919835 0.022603175 -0.08096867
0.2202665 0.17340785 0.10598243 0.21947029 0.13415413 0.043723635
00000000: 812c 91bf 67a3 6dbf e752 83bf e744 833e
00000010: 8681 473e cc4d b93d 9e90 1d3e 3638 193f
00000020: 6fdc bb3e 8ff3 b53e 8ced 483e a792 753d
00000030: b6fb dfbd 441e f4bd 4b2a b93c e7d2 a5bd
00000040: 8b8d 613e d491 313e 510d d93d d2bc 603e
00000050: b35f 093e 8e17 333d

layers.jordan.lm_head.weight f4 [22, 16]
-0.26343963 0.18026671 0.23734552 0.78660613 -0.24375965 -0.17943789 -0.088236 -0.030404486
-0.32881504 0.05271398 0.22343737 -0.31286886 0.61882114 0.03038309 -0.37860736 0.27081746
-0.06232089 -0.018522784 0.19953056 0.6639958 -0.13899812 -0.30123752 0.0020246818 -0.27758354
-0.32157275 0.04621872 0.5246606 -0.35185346 0.2446433 -0.32684243 -0.29521087 0.44806236
-0.057817508 -0.02024202 0.28189322 0.5363591 -0.41016132 -0.1303421 -0.18185702 -0.079180285
-0.18629278 0.30465612 0.2794501 -0.4594352 0.28903455 -0.35844585 -0.24563776 0.4529037
1.4111627 -1.5756792 -1.8044581 0.6772097 -0.930334 -1.3834095 -2.6905355 0.55394024
0.5829444 -0.17488508 -0.121375255 1.4508039 -1.6936369 1.221923 -2.1453044 -1.2464279
-0.42388627 -0.2806836 0.24182846 -0.12818763 -1.064145 0.26405087 0.6262472 -0.67435217
-1.0885888 -0.5912964 0.020040983 0.04019058 -0.4428643 0.36934307 0.09323272 0.58087975
-0.4276084 -0.20268697 0.2922147 -0.057466056 -0.8429169 0.231276 0.7695369 -0.69967055
-0.9718472 -0.41886756 -0.15673794 0.045742042 -0.5980177 0.6197222 0.12251936 0.6641614
-0.41319484 -0.34413975 0.28497338 0.004787245 -0.8406751 0.25345594 0.48201168 -0.6308609
-1.1635602 -0.46875378 -0.11307768 0.042763233 -0.8162071 0.43602452 0.11024869 0.6199713
-0.67148775 -0.7364715 0.3656437 -0.33455682 0.79426146 -1.1745392 -1.1240444 -0.3267161
1.1069281 0.38161504 -0.12683526 -0.10864584 1.6483122 1.5758159 -0.54405224 -0.6495001
-0.8615917 -0.61911595 0.55738497 -0.51340663 0.91138154 -1.2452965 -1.1475198 -0.3230427
1.2169036 0.3844239 -0.29973203 0.14865066 1.3763719 1.5572889 -0.47882783 -0.6551326
-0.8316064 -0.64620554 0.5358479 -0.458293 1.0525353 -1.1741077 -1.1548308 -0.33058068
1.1482841 0.3878088 -0.13647912 0.10204483 1.4690691 1.6021411 -0.49206948 -0.65878373
-0.42959616 -0.2503359 0.2767818 -0.008963199 -1.1225803 0.2167042 0.6890743 -0.689175
-0.9701765 -0.5882536 -0.018158123 0.05211117 -0.51847327 0.39135072 0.08681935 0.6392752
-0.42708358 -0.44622186 0.27597737 0.06754941 -0.96763724 0.27272353 0.5145487 -0.7763021
-0.8261846 -0.3133048 -0.17475453 0.055790998 -0.82089067 0.68423414 0.11807308 0.60725147
-0.40283766 -0.27540046 0.24494088 -0.36915272 -0.96373683 0.28971428 0.69144255 -0.7186035
-0.90228015 -0.46025816 0.1273423 0.049218167 -0.7234159 0.63490057 0.10523688 0.5422516
-0.77885586 -0.8167069 0.7483895 -0.035359994 0.5002077 0.823077 -0.12931418 -0.0006729378
0.6701812 -0.2340745 -0.37923786 -0.029049698 1.1351448 -1.2751011 -0.7126542 0.583775
-0.5752652 -0.83990026 0.65409553 -0.37164527 0.39768293 0.67419195 -0.12871929 0.009431925
0.81299186 -0.40909904 -0.04036658 -0.03887206 1.1140031 -1.3907233 -0.715495 0.5465221
-1.056156 -0.6479115 0.7635535 0.06831856 0.59709096 0.8427515 -0.16239004 0.14686823
0.3218904 -0.23443806 -0.4539102 -0.045872647 1.0845376 -1.3293157 -0.8243065 0.45876473
00000000: 8fe1 86be d697 383e b40a 733e 055f 493f
00000010: 219c 79be 91be 37be 13b5 b4bd d412 f9bc
00000020: 725a a8be 9dea 573d c4cc 643e 5930 a0be
00000030: 106b 1e3f f5e5 f83c d3d8 c1be 96a8 8a3e
00000040: 3144 7fbd 18bd 97bc bd51 4c3e a1fb 293f
00000050: 8655 0ebe ce3b 9abe 86b0 043b 6e1f 8ebe
00000060: 2fa5 a4be d74f 3d3d 2850 063f 2326 b4be
00000070: c683 7a3e e457 a7be e125 97be 6e68 e53e
00000080: 0dd2 6cbd 98d2 a5bc 4f54 903e d44e 093f
00000090: aa00 d2be 6678 05be ba38 3abe 4629 a2bd
000000a0: 89c3 3ebe e3fb 9b3e 1514 8f3e 173b ebbe
000000b0: 56fc 933e 3786 b7be 7788 7bbe fee2 e73e
000000c0: fba0 b43f dbaf c9bf 7cf8 e6bf 9d5d 2d3f
000000d0: 5e2a 6ebf 9013 b1bf bc31 2cc0 07cf 0d3f
000000e0: d83b 153f 1315 33be 9793 f8bd f1b3 b93f
000000f0: 18c9 d8bf f967 9c3f ab4c 09c0 f38a 9fbf
00000100: 9f07 d9be c3b5 8fbe e1a1 773e 9e43 03be
00000110: e735 88bf ad31 873e bd51 203f 58a2 2cbf
00000120: e156 8bbf 335f 17bf fd2c a43c e19e 243d
00000130: 1cbf e2be 891a bd3e ccf0 be3d 89b4 143f
00000140: 7def dabe 2c8d 4fbe 2a9d 953e 8761 6bbd
00000150: 67c9 57bf 9ed3 6c3e 5f00 453f 9c1d 33bf
00000160: faca 78bf cf75 d6be e97f 20be 025c 3b3d
00000170: b017 19bf 1da6 1e3f 6eeb fa3d 7b06 2a3f
00000180: 468e d3be 1633 b0be 08e8 913e 52de 9c3b
00000190: 7c36 57bf fac4 813e 3cca f63e 1a80 21bf
000001a0: 8aef 94bf 7f00 f0be 4595 e7bd 8028 2f3d
000001b0: f3f2 50bf 9b3e df3e 11ca e13d 70b6 1e3f
000001c0: 9fe6 2bbf 6589 3cbf a735 bb3e 084b abbe
000001d0: b854 4b3f 4d57 96bf b0e0 8fbf 5547 a7be
000001e0: d2af 8d3f 0c63 c33e 1ae1 01be b681 debd
000001f0: e5fb d23f 56b4 c93f 0247 0bbf a345 26bf
00000200: 4691 5cbf 627e 1ebf c8b0 0e3f 9e6e 03bf
00000210: 4d50 693f e065 9fbf eee1 92bf da65 a5be
00000220: 7fc3 9b3f 36d3 c43e 7a76 99be e137 183e
00000230: f42c b03f 3e55 c73f ec28 f5be c5b6 27bf
00000240: 28e4 54bf ba6d 25bf 542d 093f 61a5 eabe
00000250: 7ab9 863f 2949 96bf 7fd1 93bf df41 a9be
00000260: f9fa 923f e08e c63e 2fc1 0bbe e1fc d03d
00000270: 750a bc3f f612 cd3f 88f0 fbbe 0da6 28bf
00000280: 07f4 dbbe 072c 80be 58b6 8d3e 62da 12bc
00000290: b6b0 8fbf b5e7 5d3e 2c67 303f c66d 30bf
000002a0: 7d5d 78bf ca97 16bf 58c0 94bc 8672 553d
000002b0: aaba 04bf 1f5f c83e 58ce b13d 8aa7 233f
000002c0: b3aa dabe 3177 e4be e84c 8d3e 5857 8a3d
000002d0: 13b7 77bf 6ba2 8b3e 77b9 033f bcbb 46bf
000002e0: d580 53bf 7d69 a0be daf2 32be 1a85 643d
000002f0: e425 52bf f829 2f3f 4dd0 f13d d574 1b3f
00000300: bd40 cebe 4a01 8dbe c8d1 7a3e 9601 bdbe
00000310: 75b7 76bf 6e55 943e 6102 313f 66f6 37bf
00000320: d5fb 66bf f5a6 ebbe 0566 023e fd98 493d
00000330: c931 39bf d888 223f 6f86 d73d 00d1 0a3f
00000340: 1963 47bf b413 51bf 7496 3f3f a4d5 10bd
00000350: 9d0d 003f 2db5 523f f06a 04be 1768 30ba
00000360: ff90 2b3f 3ab1 6fbe 772b c2be a2f9 edbc
00000370: 6d4c 913f 8336 a3bf 8170 36bf 4772 153f
00000380: 9544 13bf b403 57bf ce72 273f 4a48 bebe
00000390: 199d cb3e d897 2c3f fdce 03be 5c88 1a3c
000003a0: 3c20 503f 6e75 d1be 6d57 25bd 4f38 1fbd
000003b0: a797 8e3f 3903 b2bf ae2a 37bf dfe8 0b3f
000003c0: 1f30 87bf 87dd 25bf 3e78 433f 9aea 8b3d
000003d0: f4da 183f 90be 573f 9349 26be a064 163e
000003e0: d2ce a43e 8810 70be eb66 e8be f5e4 3bbd
000003f0: 21d2 8a3f 0427 aabf c005 53bf 36e3 ea3e
