jordan_elman_2024/exp2/elman_item_level/run_3/export/model.safetensors (safetensors, 6576 bytes, 7 tensors)

layers.elman.hh.bias f4 [16]
-0.47167075 -0.07811031 0.094398305 -0.08078667 0.07876553 -0.0090758875 0.07075368 0.34410506
-0.34706223 -0.032320734 0.24403545 -0.06019283 0.025301006 0.0881782 -0.13799873 0.15446521
00000000: d47e f1be 4cf8 9fbd e653 c13d 7b73 a5bd
00000010: d24f a13d 08b3 14bc 4ee7 903d 8a2e b03e
00000020: 24b2 b1be bf62 04bd 6ee4 793e c28c 76bd
00000030: 0e44 cf3c c696 b43d 8a4f 0dbe 212c 1e3e

layers.elman.hh.weight f4 [16, 16]
0.31281704 0.16795655 -0.01897567 -0.18721572 0.20236881 0.8559575 2.0383053 -0.3488055
0.38609204 0.41790682 -0.20918809 -0.2366326 1.5485495 0.7892691 -0.016658898 0.37476096
-0.19551942 -0.28243712 0.1901031 -0.36559594 -0.2002914 -1.294134 -2.6380587 -0.0104626035
-0.082701825 -0.3794594 -0.11193738 0.39087448 -1.8638842 -0.7723727 0.221964 -0.16709629
-0.21278901 -0.567562 -0.14042418 -0.15319385 0.0783666 -1.1147245 -2.8397014 -0.3862
0.18457247 -0.08619286 -0.50923735 0.28082517 -1.7593702 -0.58414936 -0.21730828 -0.6106798
0.009396212 -0.32320222 -0.30739743 -0.30006567 -0.08426211 -0.5936764 -0.121017694 0.08533475
0.07241579 0.038546912 0.08374965 0.24472874 -0.19697759 0.34981462 0.45545667 0.33619648
0.22769415 -0.24042124 0.112476885 0.05935342 0.24900322 0.094575554 0.01666868 0.079516515
-0.052687615 0.42431262 -0.14460114 -0.34562537 -0.04989113 0.14831592 -0.24912833 0.18407266
0.027710441 0.008134591 -0.17888156 -0.24731615 0.07169373 -0.2875149 -0.25513038 0.22003315
-0.11987799 -0.27581233 -0.006276706 0.29906476 0.051472582 -0.1292764 0.1581648 0.07222484
0.34384668 0.080480516 0.18846825 -0.19776107 0.1602671 0.35026568 1.2560009 -0.06217886
0.22359546 0.328049 -0.09905572 -0.11794923 0.5704317 0.49640536 -0.17885602 -0.38756153
0.1632762 0.09519395 0.46943542 0.34328038 0.11743261 0.17048284 -0.06130735 -0.18646342
-0.057805344 -0.32284814 0.23026747 -0.011134865 -0.2157177 -0.053091265 -0.43381864 -0.3283336
0.11137122 -0.26424915 -0.53494257 -0.4135843 -0.06465999 -0.1906124 -0.4071 0.007601081
-0.1503583 -0.14181107 -0.36673263 0.019591542 0.18603437 -0.057734005 0.25011596 0.49633256
-0.2063462 0.39295113 0.009822002 -0.059433997 -0.04538631 0.23204905 0.13394353 0.10641895
-0.28742957 0.10818308 0.35926673 -0.43929902 0.00088050414 -0.20181675 0.45426068 0.52760905
0.3875624 -0.004287161 0.17579575 0.21573095 0.19995268 -0.083981454 -0.08106636 -0.18211366
0.22710592 -0.17223904 0.054455712 0.36075646 -0.24471562 0.36726102 -0.019708892 -0.6705703
-0.033038605 -0.22070363 0.040679898 0.21605395 -0.15759575 0.08307709 -0.71477324 -0.27662054
0.34210956 0.21486394 -0.5682345 -0.048613973 -0.019266894 -0.16224378 -0.16894557 -0.2344092
-0.45411152 0.009141593 0.123942405 -0.01484932 -0.18400069 -0.947659 -2.3143096 0.16785167
-0.13044494 -0.49744284 -0.0065432917 -0.101457454 -1.2525846 -1.1446079 -0.024135137 0.33926237
-0.13186498 -0.08071179 -0.039461438 0.41295925 0.48070297 0.059608486 -0.3407019 0.06152398
-0.18323822 0.34341958 0.08128678 -0.42819232 0.23362496 -0.38453716 -0.22334321 0.35065585
-0.36531964 0.37924594 0.29413724 0.3713643 0.0052430984 -0.0876646 0.2964183 -0.06360585
-0.12717415 -0.27704266 0.17259146 -0.008890453 -0.29741865 -0.42205614 -0.18318851 0.30814093
-0.23902701 0.34477437 0.29728103 0.41050944 -0.11192217 -0.06849011 0.35173318 0.26801792
-0.08439856 -0.4991475 0.6255522 0.09517623 -0.11960347 -0.38844457 0.06353796 -0.09388308
00000000: 8e29 a03e cdfc 2b3e dd72 9bbc 7ab5 3fbe
00000010: c539 4f3e 0820 5b3f 9873 0240 a296 b2be
00000020: dbad c53e e2f7 d53e 6735 56be d14f 72be
00000030: df36 c63f 8a0d 4a3f 3e78 88bc abe0 bf3e
00000040: 3e36 48be 999b 90be 63aa 423e 642f bbbe
00000050: 3019 4dbe 2fa6 a5bf f4d5 28c0 576b 2bbc
00000060: 935f a9bd 8148 c2be 6d3f e5bd b320 c83e
00000070: c293 eebf 38ba 45bf 884a 633e 4a1b 2bbe
00000080: 5de5 59be be4b 11bf 5bcb 0fbe d9de 1cbe
00000090: ab7e a03d 4baf 8ebf abbd 35c0 02bc c5be
000000a0: 9100 3d3e e285 b0bd 615d 02bf 51c8 8f3e
000000b0: 0b33 e1bf d08a 15bf 1086 5ebe 8355 1cbf
000000c0: 92f2 193c c37a a5be 3263 9dbe 35a2 99be
000000d0: 9d91 acbd 2dfb 17bf 20d8 f7bd fcc3 ae3d
000000e0: bb4e 943d 5ee3 1d3d f084 ab3d 2c9a 7a3e
000000f0: 7eb4 49be e71a b33e 9e31 e93e f221 ac3e
00000100: a828 693e fc30 76be 485a e63d 921c 733d
00000110: b3fa 7e3e d4b0 c13d c18c 883c 8ed9 a23d
00000120: f8ce 57bd 813f d93e 5212 14be cff5 b0be
00000130: a45a 4cbd 21e0 173e 7f1b 7fbe 8b7d 3c3e
00000140: 0201 e33c f346 053c ba2c 37be 7240 7dbe
00000150: 2ad4 923d 2735 93be 73a0 82be 5f50 613e
00000160: 9782 f5bd 4637 8dbe d3ac cdbb 041f 993e
00000170: ead4 523d 0861 04be f4f5 213e 9eea 933d
00000180: ac0c b03e f8d2 a43d d2fd 403e e181 4abe
00000190: 0f1d 243e 0656 b33e a3c4 a03f 43af 7ebd
000001a0: 35f6 643e 0af6 a73e badd cabd 5e8f f1bd
000001b0: d007 123f d828 fe3e 0826 37be 776e c6be
000001c0: e031 273e 0cf5 c23d d759 f03e 72c2 af3e
000001d0: 8280 f03d 0e93 2e3e 6a1d 7bbd 44f0 3ebe
000001e0: 4cc5 6cbd 5a4c a5be 3ccb 6b3e 026f 36bc
000001f0: 1ae5 5cbe 3a76 59bd 7a1d debe 571b a8be
00000200: 9816 e43d aa4b 87be fff1 08bf 52c1 d3be
00000210: 756c 84bd e62f 43be 696f d0be 7d12 f93b
00000220: 87f7 19be ec36 11be 61c4 bbbe 717e a03c
00000230: cb7f 3e3e 7e7a 6cbd 330f 803e 4d1f fe3e
00000240: 6b4c 53be e430 c93e 76ec 203c 1071 73bd
00000250: ffe6 39bd 449e 6d3e 7e28 093e 2ef2 d93d
00000260: f829 93be 178f dd3d cff1 b73e cdeb e0be
00000270: a2d1 663a 0da9 4ebe db94 e83e 6311 073f
00000280: 946e c63e 507b 8cbb cd03 343e 93e8 5c3e
00000290: 65c0 4c3e 78fe abbd 1f06 a6bd 017c 3abe
000002a0: 748e 683e 6e5f 30be f40c 5f3d 12b5 b83e
000002b0: bb96 7abe a309 bc3e 8b74 a1bc 7faa 2bbf
000002c0: 7d53 07bd 2200 62be f79f 263d 3f3d 5d3e
000002d0: c860 21be 5224 aa3d 61fb 36bf 35a1 8dbe
000002e0: fc28 af3e 4b05 5c3e d177 11bf 721f 47bd
000002f0: 9bd5 9dbc 3c23 26be 1100 2dbe f708 70be
00000300: 4e81 e8be 9fc6 153c 84d5 fd3d 904a 73bc
00000310: ad6a 3cbe c899 72bf a61d 14c0 4fe1 2b3e
00000320: 5c93 05be d4b0 febe 1c69 d6bb edc8 cfbd
00000330: b154 a0bf 8382 92bf 0db7 c5bc ccb3 ad3e
00000340: 9d07 07be 394c a5bd 51a2 21bd 656f d33e
00000350: b31e f63e 0728 743d 7b70 aebe 9200 7c3d
00000360: cda2 3bbe b1d4 af3e af79 a63d 063c dbbe
00000370: 623b 6f3e 0ee2 c4be 15b4 64be 2a89 b33e
00000380: 2d0b bbbe 862c c23e 2899 963e 7623 be3e
00000390: 4cce ab3b 7f89 b3bd 24c4 973e c943 82bd
000003a0: f139 02be 89d8 8dbe d1bb 303e 43a9 11bc
000003b0: 4247 98be be17 d8be c595 3bbe a6c4 9d3e
000003c0: 7fc3 74be 4486 b03e 3835 983e 4b2e d23e
000003d0: 7337 e5bd 8b44 8cbd 5f16 b43e a539 893e
000003e0: 27d9 acbd 4390 ffbe 3024 203f c1eb c23d
000003f0: aaf2 f4bd 35e2 c6be 3120 823d c645 c0bd

layers.elman.hx.bias f4 [16]
-0.121352375 0.14393683 0.2835098 0.027667275 -0.07627932 0.12024664 0.16902658 0.15417852
-0.33024418 -0.09132998 0.047073957 0.015810711 -0.0038423995 -0.10681244 -0.219312 -0.031960778
00000000: 9887 f8bd 2d64 133e 3228 913e 7ba6 e23c
00000010: 5538 9cbd df43 f63d 4e15 2d3e f9e0 1d3e
00000020: c415 a9be 360b bbbd 9fd0 403d 7785 813c
00000030: c4d0 7bbb 7bc0 dabd 5393 60be 4ee9 02bd

layers.elman.hx.weight f4 [16, 22]
-0.3364244 0.40271163 -0.32591003 -0.6653857 -0.199014 0.3764624 -0.4486645 0.21674375
-0.3138682 0.3126217 -0.2154601 0.38548598 0.11863609 0.10541625 -0.44457164 0.49482787
-0.10876294 0.08211921 -0.052338704 -0.13296029 -0.058820516 0.03697302 0.1440218 0.047593772
-0.44102174 0.4187844 -0.42803177 -0.1364908 -0.35109615 0.17569314 -0.45989695 -0.26518333
0.19179977 0.22379786 0.2776903 0.24782023 -0.17066188 -0.42111287 0.040670797 0.022554958
-0.042683385 -0.0140532795 -0.01160406 -0.04448621 -0.06913466 0.062143505 -0.3135652 0.43873757
-0.061421365 -0.5157559 -0.23496719 0.16301438 0.3218049 0.0016209835 0.23353654 0.33606124
0.39797536 0.3871818 0.22729158 0.16235761 -0.10724327 -0.12283983 -0.12576054 -0.12542637
-0.08617835 -0.1912787 0.551995 0.14966822 0.3755932 0.64073306 -0.16422813 -0.14726548
0.23375313 0.20006365 -0.348891 0.30492648 -0.022409493 -0.047371898 -0.16185176 0.09264105
-0.385401 -0.3992889 -0.3839164 0.3553363 -0.119171545 0.12976491 0.414368 0.06175991
0.19003317 0.37662876 0.11702746 0.04452354 -0.15286615 -0.13311738 0.15236312 0.17173019
0.004307083 -0.11912268 0.0051404736 -0.16284208 -0.20362939 -0.3954874 -0.38135344 -0.15498671
0.079325564 0.31928834 0.33108625 0.48776117 0.22242795 0.14661676 0.4216699 0.19384527
-0.16507316 0.2182787 -0.19616602 -0.16400693 -0.3200115 -0.2610371 -0.40844357 -0.016335009
-0.22861478 -0.0022196977 0.18294832 0.2505345 -0.22462472 -0.45019734 -0.056871865 0.34775412
-0.02296226 0.30924284 -0.36695075 0.36303425 0.44052222 -0.3759145 0.14674634 0.46166342
-0.25184476 -0.46995577 -0.42505118 0.23235199 -0.040875446 0.055736147 0.010256825 -0.17062971
0.188973 0.4916084 -0.19095308 0.4672087 0.2074812 0.15053678 0.07945611 0.21075198
0.13531846 0.24929667 0.50505763 -0.06096971 -0.31252265 0.41851243 0.113020375 0.04048346
0.40904215 0.43523756 -0.10278188 -0.29160905 0.47567844 0.009179282 0.010422603 0.06931971
0.21538934 0.061406814 -0.42285168 0.07496682 -0.33936188 0.22700682 -0.0464599 -0.36728835
0.19168581 -0.30502516 0.2241807 -0.36959124 -0.04730811 -0.24616721 -0.44939002 -0.39463052
-0.21655917 -0.113188274 -0.4283995 0.43700576 0.24928325 -0.19142608 -0.14855613 0.23443083
-0.39491838 0.09990545 0.31348866 0.116394505 -0.20376383 -0.0055128997 -0.28050175 0.34276968
0.49944276 -0.11133978 0.100753404 -0.001552803 0.16329776 0.14580356 0.09712735 -0.32529366
-0.029659063 0.52228934 0.2485793 0.07920048 -0.32842913 -0.27114126 -0.089730665 0.36077976
0.43932655 0.22717997 -0.018156655 0.312326 0.5573227 0.09842044 0.3912161 0.6740265
0.017582288 -0.21478362 -0.39451802 -0.20108554 0.05850734 -0.06679788 0.011656493 0.11780812
-0.11635624 -0.35048345 -0.36471203 -0.21595994 -0.13295951 -0.18895465 -0.5036821 0.12642214
-0.46077773 -0.39647582 -0.08941457 -0.3356645 0.02039969 -0.75823534 -0.3733007 0.13641
0.22730908 0.2762943 0.3579627 0.2882313 -0.4229961 0.25166544 -0.50857836 0.0805602
00000000: d23f acbe 3830 ce3e aedd a6be b856 2abf
00000010: 53ca 4bbe aebf c03e 5ab7 e5be 13f2 5d3e
00000020: 55b3 a0be f40f a03e 93a1 5cbe 6b5e c53e
00000030: 7af7 f23d 7ae4 d73d e59e e3be 145a fd3e
00000040: 1bbf debd 1e2e a83d 1c61 56bd be26 08be
00000050: c8ed 70bd 0571 173d 737a 133e b0f1 423d
00000060: 9acd e1be e96a d63e fb26 dbbe 3fc4 0bbe
00000070: e0c2 b3be e7e8 333e 9d77 ebbe 1cc6 87be
00000080: 2967 443e 442b 653e 6c2d 8e3e 96c4 7d3e
00000090: fdc1 2ebe 1b9c d7be 6c96 263d 2dc5 b83c
000000a0: c6d4 2ebd ba3f 66bc f51e 3ebc 2c37 36bd
000000b0: 7996 8dbd 308a 7e3d 9e8b a0be 36a2 e03e
000000c0: f894 7bbd 9408 04bf 3d9b 70be 3eed 263e
000000d0: 9dc3 a43e 2e77 d43a 3424 6f3e 3810 ac3e
000000e0: 6dc3 cb3e b13c c63e 20bf 683e 1341 263e
000000f0: 5ca2 dbbd 7393 fbbd 5fc7 00be c56f 00be
00000100: 467e b0bd 90de 43be 8b4f 0d3f a042 193e
00000110: c04d c03e 1507 243f 6b2b 28be c3cc 16be
00000120: fb5c 6f3e 7cdd 4c3e d7a1 b2be 531f 9c3e
00000130: 1d94 b7bc 0909 42bd 78bc 25be 97ba bd3d
00000140: 4853 c5be 986f ccbe b190 c4be a4ee b53e
00000150: 3610 f4bd 18e1 043e 0b28 d43e f6f7 7c3d
00000160: 0e98 423e 7cd5 c03e 18ac ef3d 515e 363d
00000170: f288 1cbe ec4f 08be 1405 1c3e 0ada 2f3e
00000180: 6e22 8d3b 97f6 f3bd 6b71 a83b 13c0 26be
00000190: 3984 50be 537d cabe c240 c3be d6b4 1ebe
000001a0: 7175 a23d c379 a33e 2384 a93e d5bb f93e
000001b0: 27c4 633e b422 163e 1ee5 d73e 607f 463e
000001c0: f008 29be 7484 5f3e bfdf 48be 6ff1 27be
000001d0: 8cd8 a3be a8a6 85be 841f d1be ffd0 85bc
000001e0: fe19 6abe 5978 11bb ce56 3b3e 0f46 803e
000001f0: 0604 66be 4480 e6be 79f2 68bd d40c b23e
00000200: 591b bcbc 1455 9e3e f8e0 bbbe a0df b93e
00000210: 218c e13e de77 c0be ac44 163e 265f ec3e
00000220: ccf1 80be 0b9e f0be 4fa0 d9be aeed 6d3e
00000230: 036d 27bd 964b 643d 3e0c 283c 8eb9 2ebe
00000240: 2382 413e 19b4 fb3e 3489 43be fb35 ef3e
00000250: f475 543e 5026 1a3e e3b9 a23d 5ecf 573e
00000260: ec90 0a3e a047 7f3e 754b 013f 60bb 79bd
00000270: f802 a0be 4347 d63e 3a77 e73d fcd1 253d
00000280: f96d d13e 75d7 de3e 4e7f d2bd c84d 95be
00000290: 208c f33e b364 163c 91c3 2a3c 7ef7 8d3d
000002a0: 068f 5c3e b685 7b3d 0480 d8be 3488 993d
000002b0: d7c0 adbe 7a74 683e bc4c 3ebd 380d bcbe
000002c0: 4949 443e 422c 9cbe a08f 653e 103b bdbe
000002d0: 26c6 41bd 4213 7cbe 7316 e6be 030d cabe
000002e0: b0c1 5dbe 41cf e7bd 2e57 dbbe 38bf df3e
000002f0: 1c44 7f3e 3305 44be 191f 18be a30e 703e
00000300: be32 cabe 3b9b cc3d 9681 a03e 3e60 ee3d
00000310: 77a7 50be 8ea5 b4bb ed9d 8fbe 827f af3e
00000320: f6b6 ff3e 1c06 e4bd cd57 ce3d 6c87 cbba
00000330: 8737 273e 874d 153e b4ea c63d e48c a6be
00000340: 90f7 f2bc c1b4 053f 928b 7e3e dc33 a23d
00000350: dd27 a8be 07d3 8abe b6c4 b7bd 20b8 b83e
00000360: 69ef e03e dea1 683e 44bd 94bc 32e9 9f3e
00000370: b3ac 0e3f a890 c93d 7a4d c83e 008d 2c3f
00000380: bb08 903c 3df0 5bbe 44fe c9be 5ee9 4dbe
00000390: 64a5 6f3d 54cd 88bd e0fa 3e3c 6245 f13d
000003a0: 2e4c eebd 9172 b3be 89bb babe 9a24 5dbe
000003b0: 8a26 08be 547d 41be 4ff1 00bf ce74 013e
000003c0: 0feb ebbe e1fe cabe fc1e b7bd 38dc abbe
000003d0: 401d a73c b61b 42bf 4521 bfbe 10af 0b3e
000003e0: b6c3 683e 7276 8d3e e346 b73e 0e93 933e
000003f0: f292 d8be 4bda 803e 3132 02bf bffc a43d

layers.embed.emb.weight f4 [22, 22]
1.0 0.0 0.0 0.0 0.0 0.0 0.0 0.0
0.0 0.0 0.0 0.0 0.0 0.0 0.0 0.0
0.0 0.0 0.0 0.0 0.0 0.0 0.0 1.0
0.0 0.0 0.0 0.0 0.0 0.0 0.0 0.0
0.0 0.0 0.0 0.0 0.0 0.0 0.0 0.0
0.0 0.0 0.0 0.0 0.0 0.0 1.0 0.0
0.0 0.0 0.0 0.0 0.0 0.0 0.0 0.0
0.0 0.0 0.0 0.0 0.0 0.0 0.0 0.0
0.0 0.0 0.0 0.0 0.0 1.0 0.0 0.0
0.0 0.0 0.0 0.0 0.0 0.0 0.0 0.0
0.0 0.0 0.0 0.0 0.0 0.0 0.0 0.0
0.0 0.0 0.0 0.0 1.0 0.0 0.0 0.0
0.0 0.0 0.0 0.0 0.0 0.0 0.0 0.0
0.0 0.0 0.0 0.0 0.0 0.0 0.0 0.0
0.0 0.0 0.0 1.0 0.0 0.0 0.0 0.0
0.0 0.0 0.0 0.0 0.0 0.0 0.0 0.0
0.0 0.0 0.0 0.0 0.0 0.0 0.0 0.0
0.0 0.0 1.0 0.0 0.0 0.0 0.0 0.0
0.0 0.0 0.0 0.0 0.0 0.0 0.0 0.0
0.0 0.0 0.0 0.0 0.0 0.0 0.0 0.0
0.0 1.0 0.0 0.0 0.0 0.0 0.0 0.0
0.0 0.0 0.0 0.0 0.0 0.0 0.0 0.0
0.0 0.0 0.0 0.0 0.0 0.0 0.0 0.0
1.0 0.0 0.0 0.0 0.0 0.0 0.0 0.0
0.0 0.0 0.0 0.0 0.0 0.0 0.0 0.0
0.0 0.0 0.0 0.0 0.0 0.0 0.0 1.0
0.0 0.0 0.0 0.0 0.0 0.0 0.0 0.0
0.0 0.0 0.0 0.0 0.0 0.0 0.0 0.0
0.0 0.0 0.0 0.0 0.0 0.0 1.0 0.0
0.0 0.0 0.0 0.0 0.0 0.0 0.0 0.0
0.0 0.0 0.0 0.0 0.0 0.0 0.0 0.0
0.0 0.0 0.0 0.0 0.0 1.0 0.0 0.0
00000000: 0000 803f 0000 0000 0000 0000 0000 0000
00000010: 0000 0000 0000 0000 0000 0000 0000 0000
00000020: 0000 0000 0000 0000 0000 0000 0000 0000
00000030: 0000 0000 0000 0000 0000 0000 0000 0000
00000040: 0000 0000 0000 0000 0000 0000 0000 0000
00000050: 0000 0000 0000 0000 0000 0000 0000 803f
00000060: 0000 0000 0000 0000 0000 0000 0000 0000
00000070: 0000 0000 0000 0000 0000 0000 0000 0000
00000080: 0000 0000 0000 0000 0000 0000 0000 0000
00000090: 0000 0000 0000 0000 0000 0000 0000 0000
000000a0: 0000 0000 0000 0000 0000 0000 0000 0000
000000b0: 0000 0000 0000 0000 0000 803f 0000 0000
000000c0: 0000 0000 0000 0000 0000 0000 0000 0000
000000d0: 0000 0000 0000 0000 0000 0000 0000 0000
000000e0: 0000 0000 0000 0000 0000 0000 0000 0000
000000f0: 0000 0000 0000 0000 0000 0000 0000 0000
00000100: 0000 0000 0000 0000 0000 0000 0000 0000
00000110: 0000 0000 0000 803f 0000 0000 0000 0000
00000120: 0000 0000 0000 0000 0000 0000 0000 0000
00000130: 0000 0000 0000 0000 0000 0000 0000 0000
00000140: 0000 0000 0000 0000 0000 0000 0000 0000
00000150: 0000 0000 0000 0000 0000 0000 0000 0000
00000160: 0000 0000 0000 0000 0000 0000 0000 0000
00000170: 0000 803f 0000 0000 0000 0000 0000 0000
00000180: 0000 0000 0000 0000 0000 0000 0000 0000
00000190: 0000 0000 0000 0000 0000 0000 0000 0000
000001a0: 0000 0000 0000 0000 0000 0000 0000 0000
000001b0: 0000 0000 0000 0000 0000 0000 0000 0000
000001c0: 0000 0000 0000 0000 0000 0000 0000 803f
000001d0: 0000 0000 0000 0000 0000 0000 0000 0000
000001e0: 0000 0000 0000 0000 0000 0000 0000 0000
000001f0: 0000 0000 0000 0000 0000 0000 0000 0000
00000200: 0000 0000 0000 0000 0000 0000 0000 0000
00000210: 0000 0000 0000 0000 0000 0000 0000 0000
00000220: 0000 0000 0000 0000 0000 803f 0000 0000
00000230: 0000 0000 0000 0000 0000 0000 0000 0000
00000240: 0000 0000 0000 0000 0000 0000 0000 0000
00000250: 0000 0000 0000 0000 0000 0000 0000 0000
00000260: 0000 0000 0000 0000 0000 0000 0000 0000
00000270: 0000 0000 0000 0000 0000 0000 0000 0000
00000280: 0000 0000 0000 803f 0000 0000 0000 0000
00000290: 0000 0000 0000 0000 0000 0000 0000 0000
000002a0: 0000 0000 0000 0000 0000 0000 0000 0000
000002b0: 0000 0000 0000 0000 0000 0000 0000 0000
000002c0: 0000 0000 0000 0000 0000 0000 0000 0000
000002d0: 0000 0000 0000 0000 0000 0000 0000 0000
000002e0: 0000 803f 0000 0000 0000 0000 0000 0000
000002f0: 0000 0000 0000 0000 0000 0000 0000 0000
00000300: 0000 0000 0000 0000 0000 0000 0000 0000
00000310: 0000 0000 0000 0000 0000 0000 0000 0000
00000320: 0000 0000 0000 0000 0000 0000 0000 0000
00000330: 0000 0000 0000 0000 0000 0000 0000 803f
00000340: 0000 0000 0000 0000 0000 0000 0000 0000
00000350: 0000 0000 0000 0000 0000 0000 0000 0000
00000360: 0000 0000 0000 0000 0000 0000 0000 0000
00000370: 0000 0000 0000 0000 0000 0000 0000 0000
00000380: 0000 0000 0000 0000 0000 0000 0000 0000
00000390: 0000 0000 0000 0000 0000 803f 0000 0000
000003a0: 0000 0000 0000 0000 0000 0000 0000 0000
000003b0: 0000 0000 0000 0000 0000 0000 0000 0000
000003c0: 0000 0000 0000 0000 0000 0000 0000 0000
000003d0: 0000 0000 0000 0000 0000 0000 0000 0000
000003e0: 0000 0000 0000 0000 0000 0000 0000 0000
000003f0: 0000 0000 0000 803f 0000 0000 0000 0000

layers.lm_head.proj.bias f4 [22]
-0.8307179 -0.5990025 -0.542306 0.37959355 0.27446055 0.18291344 0.03850751 0.22483608
0.11713047 0.059599224 0.0733166 0.0076043997 0.11632054 0.07407257 0.06682146 0.163522
0.10127648 -0.081746526 0.037353717 0.167659 0.072813325 0.043555897
00000000: eea9 54bf 3a58 19bf 91d4 0abf 165a c23e
00000010: 1886 8c3e a94d 3b3e 0dba 1d3d 6e3b 663e
00000020: 1ae2 ef3d 511e 743d 0327 963d 542e f93b
00000030: 7739 ee3d 5cb3 973d b1d9 883d 5072 273e
00000040: 0b6a cf3d b96a a7bd 3600 193d cdae 2b3e
00000050: 271f 953d ab67 323d

layers.lm_head.proj.weight f4 [22, 16]
-0.073519744 0.32412425 -0.012649454 -0.026744321 -0.16559877 -0.16950987 -0.16032408 -0.21691754
0.40283546 -0.16301571 0.08250961 0.39496103 -0.17976181 0.019828316 0.35832962 -0.039742295
0.1456713 0.3574431 -0.25728473 0.20458046 -0.27281842 -0.44084305 -0.30326447 -0.15853524
0.35991445 -0.2819216 -0.0028519046 0.36805692 0.13653508 -0.32561246 0.23432705 -0.06453206
0.037928898 0.082601026 -0.09284298 -0.023234017 -0.45837358 -0.35083422 -0.2848281 -0.3831443
0.4926258 -0.47248486 0.05684094 0.2629846 0.06824346 -0.19424027 0.18010722 -0.06398775
0.58749694 -0.88614327 0.67927474 -1.0368388 0.26475513 -0.80736995 0.70042944 0.42530262
-0.7715673 -0.7659512 0.4696806 1.9273866 -0.86210316 0.57627875 -0.49435163 -1.3822528
-0.68332213 0.41845027 0.4337013 0.3687664 -0.102194905 0.10306365 0.46681812 0.27781084
-0.16668661 -0.5574485 0.88601106 -0.27146736 -0.061723933 -0.76499414 -0.19815604 0.35022596
-0.5285624 0.281764 0.61956245 0.3630469 -0.058037445 0.40976748 0.28147268 0.38964406
-0.46590182 -0.55863154 0.8694094 -0.13496028 -0.16022009 -0.88748753 -0.20592365 0.15305895
-0.6567102 0.68381107 0.34605077 0.230521 0.0016733046 0.3662883 0.65615445 0.52049845
-0.22225498 -0.40162817 0.86431295 -0.24033588 -0.11787725 -0.68646777 -0.1613626 0.18790372
-0.7676338 1.457266 1.7864522 0.118201315 0.14383937 0.41632277 -0.9254579 -0.8061193
0.92898625 0.3194284 -0.5949404 0.18766792 1.4613465 0.39916322 -0.5834556 -0.70439535
-0.72230345 1.4410332 1.7703139 0.50882715 0.3192865 0.29984304 -1.0687654 -0.56700444
0.6769689 0.47919133 -0.50764126 0.16280212 1.4649615 0.5866874 -0.35949653 -0.9343464
-0.8153402 1.5386819 1.707939 0.510211 0.40140286 0.18851055 -0.9799194 -0.46016395
0.82212 0.38689026 -0.6722893 0.21848212 1.4390838 0.5888374 -0.46311527 -0.7557318
-0.610676 0.6437972 0.5184632 0.4559141 -0.091478996 0.28566784 0.30174604 0.6201558
-0.2679352 -0.3394701 0.8581187 -0.28601193 -0.21937975 -0.46437544 -0.26936755 0.36841494
-0.64412946 0.39687786 0.40791792 0.41595718 -0.09944106 0.29206324 0.6624045 0.5833813
-0.17833714 -0.6302808 0.6869143 -0.45789862 -0.15242477 -0.6887521 -0.19324134 0.04574958
-0.56929594 0.59029615 0.38706744 0.55418617 -0.03839303 0.36453375 0.29671124 0.3121928
-0.37602568 -0.58499634 0.64389 -0.26175487 -0.12689716 -0.72329146 -0.2547326 0.30052114
1.6095067 -1.4187648 -1.2312045 0.5006232 0.42564175 0.12234868 0.34749892 -0.920254
0.5949451 0.5028693 -0.4074543 -0.25584292 -1.1231062 0.12640364 -0.78503275 -0.6930434
1.5819393 -1.4433763 -1.2662165 0.4119481 0.34953046 0.13772994 0.3243709 -0.75349957
0.77125293 0.31829616 -0.49960768 -0.25367394 -1.0746703 0.109428346 -0.8247375 -0.7932883
1.5982815 -1.4241263 -1.2443856 0.3215456 0.28398654 0.22773223 0.3403052 -0.9316893
0.54026896 0.30550218 -0.50446856 -0.23861885 -1.2140597 0.020104034 -0.7127917 -0.9390375
00000000: 8591 96bd 9df3 a53e a83f 4fbc e816 dbbc
00000010: b992 29be ff93 2dbe ff2b 24be a21f 5ebe
00000020: 7340 ce3e 97ed 26be ccfa a83d 5538 ca3e
00000030: 7b13 38be fe6e a23c fb76 b73e d1c8 22bd
00000040: db2a 153e c802 b73e d3ba 83be 8a7d 513e
00000050: dbae 8bbe 2eb6 e1be 7b45 9bbe 1057 22be
00000060: b546 b83e 0758 90be 05e7 3abb f571 bc3e
00000070: dacf 0b3e adb6 a6be 6ef3 6f3e 6229 84bd
00000080: 555b 1b3d ba2a a93d 7624 bebd 4455 bebc
00000090: f1af eabe 8ba0 b3be fdd4 91be 7d2b c4be
000000a0: 7339 fc3e 89e9 f1be 0cd2 683d eba5 863e
000000b0: 3ac3 8b3d ece6 46be 076e 383e 020c 83bd
000000c0: 3366 163f 49da 62bf f3e4 2d3f 22b7 84bf
000000d0: fc8d 873e ccaf 4ebf 584f 333f 44c1 d93e
000000e0: 6f85 45bf 6115 44bf fa79 f03e 9bb4 f63f
000000f0: cbb2 5cbf 0187 133f a81b fdbe a9ed b0bf
00000100: 33ee 2ebf 1d3f d63e 190e de3e f3ce bc3e
00000110: 904b d1bd 0913 d33d c902 ef3e 393d 8e3e
00000120: e5af 2abe f2b4 0ebf 9fd1 623f c5fd 8abe
00000130: 3cd2 7cbd a8d6 43bf 6be9 4abe d150 b33e
00000140: de4f 07bf 5f43 903e a59b 1e3f 49e1 b93e
00000150: acb8 6dbd 0bcd d13e 301d 903e 6d7f c73e
00000160: af8a eebe 7a02 0fbf 9d91 5e3f 0733 0abe
00000170: bc10 24be 6232 63bf a6dd 52be 7cbb 1c3e
00000180: 291e 28bf 3e0e 2f3f 912d b13e b20d 6c3e
00000190: c952 db3a 248a bb3e bdf9 273f 633f 053f
000001a0: cf96 63be 35a2 cdbe 9d43 5d3f 9c1a 76be
000001b0: a169 f1bd 5abc 2fbf 3d3c 25be d569 403e
000001c0: a683 44bf b187 ba3f 77aa e43f 8813 f23d
000001d0: a14a 133e 4228 d53e cfea 6cbf d65d 4ebf
000001e0: 0bd2 6d3f 1f8c a33e 044e 18bf 052c 403e
000001f0: 670d bb3f 1f5f cc3e 595d 15bf 4153 34bf
00000200: e1e8 38bf c773 b83f a599 e23f 7f42 023f
00000210: 8579 a33e 0785 993e 4ecd 88bf 3427 11bf
00000220: d54d 2d3f 9158 f53e c7f4 01bf 99b5 263e
00000230: dc83 bb3f 2531 163f ee0f b8be 5331 6fbf
00000240: 23ba 50bf 87f3 c43f bf9d da3f 309d 023f
00000250: ad84 cd3e e908 413e ffdb 7abf 9c9a ebbe
00000260: 7576 523f 7b16 c63e 271b 2cbf c7b9 5f3e
00000270: e633 b83f 0cbe 163f 721d edbe a477 41bf
00000280: 4355 1cbf e5cf 243f 01ba 043f 936d e93e
00000290: 5759 bbbd 0e43 923e 757e 9a3e 88c2 1e3f
000002a0: cd2e 89be 06cf adbe abad 5b3f 2870 92be
000002b0: 16a5 60be 9ec2 edbe 8bea 89be e2a0 bc3e
000002c0: abe5 24bf 9333 cb3e 9eda d03e 57f8 d43e
000002d0: c1a7 cbbd 5089 953e 5793 293f 7a58 153f
000002e0: 039e 36be 155a 21bf 9ed9 2f3f b071 eabe
000002f0: 3d15 1cbe 0f52 30bf 0fe1 45be e963 3b3d
00000300: 61bd 11bf a61d 173f b42d c63e 25df 0d3f
00000310: 0342 1dbd 2ba4 ba3e 89ea 973e bcd7 9f3e
00000320: 7086 c0be 52c2 15bf fad5 243f bc04 86be
00000330: 54f1 01be a129 39bf 506c 82be e8dd 993e
00000340: 5104 ce3f 169a b5bf 1c98 9dbf d828 003f
00000350: b7ed d93e f291 fa3d 61eb b13e c495 6bbf
00000360: 524e 183f 0bbc 003f da9d d0be d8fd 82be
00000370: f2c1 8fbf f56f 013e e8f7 48bf 4b6b 31bf
00000380: fd7c ca3f 8ec0 b8bf 6213 a2bf ddea d23e
00000390: a8f5 b23e 1409 0d3e f113 a63e 59e5 40bf
000003a0: d570 453f b7f7 a23e 94cc ffbe 8de1 81be
000003b0: cc8e 89bf f81b e03d ff21 53bf f114 4bbf
000003c0: 7d94 cc3f c549 b6bf 0748 9fbf a0a1 a43e
000003d0: af66 913e a332 693e 7c3c ae3e 3183 6ebf
000003e0: 114f 0a3f c86a 9c3e da24 01bf 8058 74be
000003f0: 4f66 9bbf 37b1 a43c 8479 36bf c364 70bf
