trainer_output/checkpoint-22000/model.safetensors (safetensors, 5640 bytes, 7 tensors)

model.layers_by_name.elman.sublayers.hh_linear.linear.bias f4 [16]
-0.067158476 0.19005904 0.23276135 -0.118616536 0.096756764 0.054257475 0.04157699 0.020802448
-0.16983068 -0.18299298 0.1104993 0.119299516 -0.20511447 0.085972555 0.07839478 0.21414532
00000000: 628a 89bd d69e 423e fe58 6e3e 3aed f2bd
00000010: 6928 c63d 163d 5e3d a24c 2a3d e569 aa3c
00000020: 18e8 2dbe 8362 3bbe 754d e23d 4e53 f43d
00000030: 8709 52be 6112 b03d 718d a03d e948 5b3e

model.layers_by_name.elman.sublayers.hh_linear.linear.weight f4 [16, 16]
-0.061817 -0.07801842 0.15531537 0.06286773 0.042509444 0.19206706 -0.21586597 0.070216134
0.20574988 -0.21004027 -0.12106624 0.09553327 0.016600864 -0.021352816 0.03927972 0.060176134
0.2041776 0.058098495 0.12815538 -0.057860576 -0.050465856 0.17556556 -0.06332147 0.2356662
-0.18381199 -0.18487698 0.04064603 0.21813892 -0.17328128 0.24460107 0.15647233 0.15688562
-0.09390974 -0.004175908 0.2325378 -0.24298349 0.03249784 -0.21270907 0.041335866 -0.05454943
0.16557947 -0.12280762 0.0062173265 -0.22894877 0.20633732 -0.08019652 -0.09865888 0.11978806
0.21968922 0.22885275 0.019623604 0.0301885 0.00031965564 0.22158219 -0.06824576 0.11658597
-0.20253727 -0.22989517 0.17835508 -0.12343547 0.012662069 -0.07350399 -0.16051584 -0.13497515
0.14858031 0.04266254 0.03221138 0.22775899 -0.1303761 -0.014505364 0.17204823 0.015296206
0.13173981 -0.040839687 -0.033755686 0.1851359 0.13202552 0.23439197 0.05041379 0.18762887
0.033453576 -0.046726502 0.23969543 0.0514629 -0.24318892 0.1565935 0.048557673 0.04422885
0.09733967 -0.026286174 -0.03003642 0.035650812 -0.035065405 -0.14629234 -0.20642017 0.0078059137
0.021024583 -0.15108459 -0.0057788864 -0.13011116 -0.22485864 0.20678471 -0.18180999 -0.073776364
0.08803425 0.10837388 -0.040152133 0.016986175 0.18907022 -0.084842406 0.15804103 -0.15361321
-0.09429616 -0.09306914 0.10413951 0.13518028 -0.10917393 -0.022576457 -0.24017078 0.2048584
-0.11829096 -0.21816893 0.21745813 0.18322447 -0.18884775 -0.05679171 0.13639314 -0.13276877
0.18441862 0.2220241 0.2309216 -0.114055045 -0.060762674 0.107253715 0.024449976 -0.044654105
-0.07769118 0.07479903 -0.029048607 -0.020083472 -0.07553867 -0.036409196 0.008352561 -0.14930868
0.10281702 -0.11516471 -0.11999902 0.045080792 0.17199166 0.23811936 0.0049694544 0.043443102
0.052022185 -0.09050795 -0.16335303 -0.02521083 0.116710484 -0.1911264 0.23198295 0.12544301
0.06128636 0.09442487 -0.18494967 0.18393615 -0.19617717 -0.1922006 -0.08349958 0.13630398
-0.0010861702 0.05485312 -0.055687495 -0.124645345 0.18442044 -0.032537624 -0.046286196 -0.04985478
-0.19162157 -0.043727484 -0.04648359 0.21042016 0.02992654 0.073443264 -0.101966225 -0.1992606
0.19164619 0.09890097 0.24250874 -0.07026042 0.09440878 -0.21959648 0.24498606 0.16707739
-0.07918976 0.10703282 -0.1519296 -0.21772711 0.030276388 0.07426086 0.09243369 -0.2024786
-0.020256909 0.17797728 -0.012815076 -0.162143 -0.059015553 -0.08540718 -0.21646556 0.06570176
0.09488305 -0.098335326 0.048267365 -0.22771765 0.1237655 0.12534896 -0.0003021849 -0.09763948
0.1149338 -0.17631724 -0.24049044 0.06114596 0.011217901 -0.082464546 -0.14212087 0.01872795
0.16601846 -0.09424603 -0.21811353 0.119592644 -0.15263811 0.22184052 -0.016778793 0.019404892
0.00044798938 0.09422451 -0.18826318 0.05639105 -0.21133627 0.1889695 -0.15869811 0.12533337
-0.090129845 -0.18195972 -0.0334528 -0.07859908 -0.1588901 0.072437674 -0.058337748 -0.086285196
-0.18559259 -0.10992393 -0.16075069 -0.08251843 0.24076009 -0.18074878 0.20563729 0.0644469
00000000: d333 7dbd 1fc8 9fbd fe0a 1f3e ccc0 803d
00000010: 621e 2e3d 3aad 443e f80b 5dbe 7acd 8f3d
00000020: 19b0 523e cc14 57be 94f1 f7bd f2a6 c33d
00000030: 89fe 873c 1aec aebc c6e3 203d 407b 763d
00000040: ef13 513e b0f8 6d3d 2a3b 033e 36ff 6cbd
00000050: 49b5 4ebd 75c7 333e b0ae 81bd 7b52 713e
00000060: 3639 3cbe 6450 3dbe 747c 263d cf5f 5f3e
00000070: a670 31be b478 7a3e 483a 203e a0a6 203e
00000080: c053 c0bd 0ed6 88bb 641e 6e3e aad0 78be
00000090: 741c 053d 68d0 59be cc4f 293d 396f 5fbd
000000a0: aa8d 293e 9082 fbbd b7ba cb3b 8c71 6abe
000000b0: 174a 533e 133e a4bd ab0d cabd 7153 f53d
000000c0: 36f6 603e 6058 6a3e aec1 a03c e04d f73c
000000d0: 7497 a739 71e6 623e 6fc4 8bbd a0c4 ee3d
000000e0: ee65 4fbe a469 6bbe b7a2 363e bccb fcbd
000000f0: 9174 4f3c 4389 96bd 445e 24be ed36 0abe
00000100: 7025 183e eabe 2e3d 14f0 033d a739 693e
00000110: 5081 05be e8a7 6dbc 692d 303e f09c 7a3c
00000120: cde6 063e 8447 27bd 6743 0abd 4494 3d3e
00000130: b331 073e 7304 703e b17e 4e3d c821 403e
00000140: 9e06 093d 4a64 3fbd b872 753e c3ca 523d
00000150: 8406 79be 0c5a 203e 69e4 463d 5029 353d
00000160: 055a c73d 1a56 d7bc f00e f6bc 9606 123d
00000170: bea0 0fbd a9cd 15be cf5f 53be c0c8 ff3b
00000180: bf3b ac3c ebb5 1abe d05c bdbb dc3b 05be
00000190: 5841 66be 5fbf 533e 662c 3abe 1018 97bd
000001a0: 4d4b b43d 20f3 dd3d 9076 24bd 9726 8b3c
000001b0: a09b 413e dbc1 adbd 82d5 213e c84c 1dbe
000001c0: 581e c1bd 099b bebd 1847 d53d b36c 0a3e
000001d0: 9596 dfbd 43f2 b8bc 54ef 75be 67c6 513e
000001e0: 8842 f2bd ad67 5fbe 58ad 5e3e 329f 3b3e
000001f0: 4e61 41be 6d9e 68bd a5aa 0b3e 89f4 07be
00000200: 3cd8 3c3e 495a 633e b676 6c3e b195 e9bd
00000210: 48e2 78bd d6a7 db3d 514b c83c 39e7 36bd
00000220: 8e1c 9fbd 3c30 993d 58f7 edbc 1886 a4bc
00000230: 05b4 9abd cf21 15bd 2ed9 083c 60e4 18be
00000240: bb91 d23d 7adb ebbd 0cc2 f5bd a3a6 383d
00000250: 951e 303e 90d5 733e ced6 a23b 65f1 313d
00000260: 3715 553d 3b5c b9bd 0446 27be f186 cebc
00000270: e805 ef3d a4b6 43be f08c 6d3e 2274 003e
00000280: 6807 7b3d d461 c13d 7263 3dbe c259 3c3e
00000290: abe2 48be 3cd0 44be d401 abbd 4593 0b3e
000002a0: d35d 8eba aaad 603d 9218 64bd 0f46 ffbd
000002b0: b6d8 3c3e 2c46 05bd 9896 3dbd 8734 4cbd
000002c0: 7238 44be 971b 33bd 9465 3ebd 6278 573e
000002d0: 8128 f53c 6c69 963d abd3 d0bd f90a 4cbe
000002e0: e63e 443e 978c ca3d 3654 783e b2e4 8fbd
000002f0: 6459 c13d e6dd 60be a0dd 7a3e 5616 2b3e
00000300: 3e2e a2bd 0634 db3d 6f93 1bbe dbf3 5ebe
00000310: 3006 f83c 1416 983d e04d bd3d 8d56 4fbe
00000320: d1f1 a5bc ad3f 363e 53f6 51bc d108 26be
00000330: 4bba 71bd f6e9 aebd 26a9 5dbe a58e 863d
00000340: 0b52 c23d 0864 c9bd 00b4 453d d12e 69be
00000350: c478 fd3d 7a5b 003e 926e 9eb9 35f7 c7bd
00000360: 6a62 eb3d 828c 34be 2043 76be 3074 7a3d
00000370: 49cb 373c 2ce3 a8bd 2288 11be 5c6b 993c
00000380: be00 2a3e 1004 c1bd 2759 5fbe fdec f43d
00000390: 2a4d 1cbe 292a 633e ae73 89bc 02f7 9e3c
000003a0: 1ee0 ea39 c8f8 c03d 10c8 40be 4dfa 663d
000003b0: 8968 58be 3881 413e c281 22be 6457 003e
000003c0: ff95 b8bd a653 3abe ce05 09bd 8ef8 a0bd
000003d0: 16b4 22be 345a 943d 90f3 6ebd 4bb6 b0bd
000003e0: fc0b 3ebe cc1f e1bd d49b 24be 6cff a8bd
000003f0: d089 763e 3516 39be 9592 523e bcfc 833d

model.layers_by_name.elman.sublayers.hx_linear.linear.bias f4 [16]
-0.23524325 -0.22096711 0.15500048 -0.3082707 0.1613973 0.012822302 0.14694804 0.09520715
0.113453284 0.0041800095 -0.10653541 0.23921223 -0.016408756 0.1981975 -0.075492315 0.25973737
00000000: 9be3 70be 3445 62be 72b8 1e3e a8d5 9dbe
00000010: 5545 253e a214 523c 8c79 163e f7fb c23d
00000020: 325a e83d 76f8 883b 3d2f dabd 0df4 743e
00000030: a86b 86bc 49f4 4a3e b79b 9abd 4cfc 843e

model.layers_by_name.elman.sublayers.hx_linear.linear.weight f4 [16, 18]
-0.112795494 -0.17280684 0.98030114 -0.6738835 -0.66471523 -0.465829 -0.4733314 -0.641466
-0.696679 -0.5919057 -0.6346269 -0.35232672 -0.34230494 -0.538357 -0.33124247 -0.588869
0.041214 -0.4188137 0.22321509 -0.027640572 0.79892313 -0.67391783 -0.6577216 -0.48997134
0.7949708 0.47022364 0.7396178 -0.7438615 -0.6489447 -0.7466375 0.7786366 0.5168229
0.48506728 -0.9063421 -0.035222102 -0.84582496 -0.13399674 0.22884694 0.31024295 -0.04229852
0.06380261 -0.08660616 0.7127158 0.5385625 0.64515203 -0.10525707 0.08441335 0.09673963
0.62341285 0.53071874 0.6290841 -0.65460944 -0.019877981 -0.7485208 -0.19909066 -0.113476336
0.45820305 -0.64867514 -0.5304074 -0.6508771 -0.28707486 -0.3809938 -0.2662741 -0.32896018
-0.5393279 -0.5755755 -0.2822357 -0.36557984 -0.21808876 0.25715828 0.015225081 0.21688434
0.09557387 -0.03506395 -0.38980472 0.48482543 0.71624035 0.4947114 -0.7724851 -0.45748132
-0.7935751 0.38318008 0.43935132 0.44186258 -0.8311488 -0.6778788 -0.5795723 0.49321955
0.023985285 0.5136259 -0.14682387 -0.1603191 -0.91575533 -0.70034885 -0.5876295 -0.46625838
0.50058067 0.57540727 0.7328061 -0.6600354 -0.6747065 -0.64821255 0.37352663 0.50827515
0.77224153 0.33990872 0.12157854 0.40505555 -0.20878167 0.03385589 0.6241824 0.4111377
0.074632995 0.21577051 0.64914507 0.4333505 0.7318578 0.19349249 0.24812703 0.095704265
0.7235126 0.7126292 0.6611087 -0.6502925 -0.037437715 -0.47332013 -0.08703351 0.08282081
-0.69153416 0.7422265 0.7390838 0.37595078 0.26566777 0.44872215 0.289604 0.7317877
0.7219827 0.7443687 0.3602055 0.32125401 0.4462023 -0.59797823 -0.17639756 -0.7608019
-0.14198533 0.20326988 0.795782 -0.19065672 -0.22809874 -0.19390905 -0.60016006 -0.63796896
-0.49345693 -0.39757082 -0.18139008 -0.23327468 -0.42146996 -0.35877576 -0.739731 0.7535635
-0.034869622 0.64446867 -0.032281935 -0.20090912 0.509597 -0.42025778 -0.44132465 -0.45248353
-0.6458169 -0.687342 -0.39471105 -0.65084785 -0.63675004 -0.5879122 -0.63187516 -0.57378936
-0.54946667 0.66544634 -0.22246505 0.40094903 -0.032100283 0.08828 0.6238039 0.5653459
0.44776252 0.8355709 -0.38921115 -0.7165359 -0.79128 0.78151864 0.6633591 0.80605304
-0.75070983 -0.3900247 -0.4113661 -0.63046527 -0.045488138 -0.9097826 0.23241371 0.23152845
0.22073382 0.22606798 0.26176667 0.21673888 0.57565993 0.50625044 0.4088865 0.1436328
0.09601575 0.3261292 0.38773918 0.7213729 0.37527013 -0.6105703 -0.0408072 -0.5898536
-0.06683783 -0.14120387 -0.13641392 0.07550388 -0.24516296 -0.02768263 -0.57476836 -0.4915302
-0.3215532 -0.15186225 -0.028212639 -0.20519908 -0.5939827 -0.76778716 -0.6350688 0.898503
0.1915619 1.0009397 -0.014127598 0.08213542 -0.7513043 0.07439747 0.07052548 0.25858477
0.5047543 0.6105792 0.58561677 0.038065467 -0.07744495 0.26703596 0.7673702 0.526365
0.5264767 0.28714895 -0.06916127 0.10029003 -0.021351399 -0.1424835 0.80830634 -0.33204073
00000000: 5301 e7bd 47f4 30be 04f5 7a3f a183 2cbf
00000010: c72a 2abf 2481 eebe 7e58 f2be 1e37 24bf
00000020: 8e59 32bf 2287 17bf e976 22bf 2b64 b4be
00000030: 9842 afbe c4d1 09bf 9d98 a9be 1ec0 16bf
00000040: 03d0 283d c06e d6be 7f92 643e 7b6e e2bc
00000050: 3a86 4c3f e185 2cbf 7160 28bf 86dd fabe
00000060: 3583 4b3f 27c1 f03e 9857 3d3f b56d 3ebf
00000070: 3d21 26bf a323 3fbf ba54 473f 814e 043f
00000080: bd5a f83e 0906 68bf 0d45 10bd fc87 58bf
00000090: 7136 09be da56 6a3e 2ad8 9e3e 3741 2dbd
000000a0: f1aa 823d 925e b1bd 8b74 363f 3bdf 093f
000000b0: af28 253f 0591 d7bd e8e0 ac3d 6d1f c63d
000000c0: fc97 1f3f 2fdd 073f a80b 213f 7c94 27bf
000000d0: 26d7 a2bc 0f9f 3fbf 6cde 4bbe 4866 e8bd
000000e0: 9799 ea3e 930f 26bf c8c8 07bf e29f 26bf
000000f0: 7afb 92be 9f11 c3be 1455 88be 786d a8be
00000100: 6511 0abf ea58 13bf 3381 90be 482d bbbe
00000110: a952 5fbe 40aa 833e 9e72 793c ee16 5e3e
00000120: 3cbc c33d 379f 0fbd 7c94 c7be 0a3b f83e
00000130: 875b 373f d04a fd3e 95c1 45bf fe3a eabe
00000140: bd27 4bbf 2e30 c43e a8f2 e03e d03b e23e
00000150: 2bc6 54bf 7789 2dbf da5e 14bf 4687 fc3e
00000160: ca7c c43c fd7c 033f ff58 16be b12a 24be
00000170: f16e 6abf 104a 33bf e36e 16bf 6bb9 eebe
00000180: 0e26 003f e44d 133f 2e99 3b3f 14f8 28bf
00000190: 91b9 2cbf 42f1 25bf e23e bf3e 521e 023f
000001a0: 9fb1 453f 8408 ae3e 2bfe f83d 7163 cf3e
000001b0: ddca 55be 79ac 0a3d 6bca 1f3f a480 d23e
000001c0: 2fd9 983d f2f2 5c3e 5f2e 263f 1ee0 dd3e
000001d0: 085b 3b3f e522 463e 0315 7e3e 9900 c43d
000001e0: 1f38 393f de6e 363f 6b3e 293f 9279 26bf
000001f0: 4a58 19bd 0457 f2be a03e b2bd f59d a93d
00000200: 6208 31bf 8e02 3e3f 9934 3d3f 9f7c c03e
00000210: 9b05 883e e9be e53e fa46 943e 7056 3b3f
00000220: dcd3 383f f28e 3e3f db6c b83e 687b a43e
00000230: a174 e43e 1a15 19bf 90a1 34be eac3 42bf
00000240: 9a64 11be fb25 503e 5fb8 4b3f 843b 43be
00000250: b792 69be 1890 46be 17a4 19bf ef51 23bf
00000260: 63a6 fcbe 678e cbbe 52be 39be 8fdf 6ebe
00000270: e9ca d7be 75b1 b7be 035f 3dbf 8ae9 403f
00000280: 73d3 0ebd e6fb 243f 103a 04bd 1fbb 4dbe
00000290: f374 023f 072c d7be 4ef5 e1be ecab e7be
000002a0: 4254 25bf a5f5 2fbf 9117 cabe f79d 26bf
000002b0: 0d02 23bf 6a81 16bf 92c2 21bf dce3 12bf
000002c0: d9a9 0cbf b15a 2a3f e1cd 63be 3149 cd3e
000002d0: 967b 03bd 25cc b43d 9db1 1f3f 82ba 103f
000002e0: 2141 e53e f9e7 553f af46 c7be e66e 37bf
000002f0: 5391 4abf 9b11 483f e7d1 293f 7e59 4e3f
00000300: 852e 40bf 51b1 c7be 949e d2be 2c66 21bf
00000310: c551 3abd 83e7 68bf dcfd 6d3e cb15 6d3e
00000320: 0c08 623e 5d7e 673e 4806 863e ccf0 5d3e
00000330: 735e 133f a199 013f 9259 d13e 7a14 133e
00000340: e8a3 c43d 68fa a63e c085 c63e e5ab 383f
00000350: 6823 c03e 564e 1cbf 7325 27bd a500 17bf
00000360: 46e2 88bd bf97 10be 17b0 0bbe c7a1 9a3d
00000370: 000c 7bbe afc6 e2bc 0524 13bf d9a9 fbbe
00000380: 9fa2 a4be c781 1bbe 311e e7bc b51f 52be
00000390: 400f 18bf b38d 44bf de93 22bf 4b04 663f
000003a0: cd28 443e cb1e 803f 7177 67bc 9d36 a83d
000003b0: 7b55 40bf b35d 983d aa6f 903d 3965 843e
000003c0: 9437 013f eb4e 1c3f fbea 153f 89ea 1b3d
000003d0: 759b 9ebd f0b8 883e 6072 443f dbbf 063f
000003e0: 2dc7 063f 3005 933e 6da4 8dbd dc64 cd3d
000003f0: 21e9 aebc 32e7 11be 2aed 4e3f 3e01 aabe

model.layers_by_name.embed.emb.weight f4 [18, 18]
1.0 0.0 0.0 0.0 0.0 0.0 0.0 0.0
0.0 0.0 0.0 0.0 0.0 0.0 0.0 0.0
0.0 0.0 0.0 1.0 0.0 0.0 0.0 0.0
0.0 0.0 0.0 0.0 0.0 0.0 0.0 0.0
0.0 0.0 0.0 0.0 0.0 0.0 1.0 0.0
0.0 0.0 0.0 0.0 0.0 0.0 0.0 0.0
0.0 0.0 0.0 0.0 0.0 0.0 0.0 0.0
0.0 1.0 0.0 0.0 0.0 0.0 0.0 0.0
0.0 0.0 0.0 0.0 0.0 0.0 0.0 0.0
0.0 0.0 0.0 0.0 1.0 0.0 0.0 0.0
0.0 0.0 0.0 0.0 0.0 0.0 0.0 0.0
0.0 0.0 0.0 0.0 0.0 0.0 0.0 1.0
0.0 0.0 0.0 0.0 0.0 0.0 0.0 0.0
0.0 0.0 0.0 0.0 0.0 0.0 0.0 0.0
0.0 0.0 1.0 0.0 0.0 0.0 0.0 0.0
0.0 0.0 0.0 0.0 0.0 0.0 0.0 0.0
0.0 0.0 0.0 0.0 0.0 1.0 0.0 0.0
0.0 0.0 0.0 0.0 0.0 0.0 0.0 0.0
0.0 0.0 0.0 0.0 0.0 0.0 0.0 0.0
1.0 0.0 0.0 0.0 0.0 0.0 0.0 0.0
0.0 0.0 0.0 0.0 0.0 0.0 0.0 0.0
0.0 0.0 0.0 1.0 0.0 0.0 0.0 0.0
0.0 0.0 0.0 0.0 0.0 0.0 0.0 0.0
0.0 0.0 0.0 0.0 0.0 0.0 1.0 0.0
0.0 0.0 0.0 0.0 0.0 0.0 0.0 0.0
0.0 0.0 0.0 0.0 0.0 0.0 0.0 0.0
0.0 1.0 0.0 0.0 0.0 0.0 0.0 0.0
0.0 0.0 0.0 0.0 0.0 0.0 0.0 0.0
0.0 0.0 0.0 0.0 1.0 0.0 0.0 0.0
0.0 0.0 0.0 0.0 0.0 0.0 0.0 0.0
0.0 0.0 0.0 0.0 0.0 0.0 0.0 1.0
0.0 0.0 0.0 0.0 0.0 0.0 0.0 0.0
00000000: 0000 803f 0000 0000 0000 0000 0000 0000
00000010: 0000 0000 0000 0000 0000 0000 0000 0000
00000020: 0000 0000 0000 0000 0000 0000 0000 0000
00000030: 0000 0000 0000 0000 0000 0000 0000 0000
00000040: 0000 0000 0000 0000 0000 0000 0000 803f
00000050: 0000 0000 0000 0000 0000 0000 0000 0000
00000060: 0000 0000 0000 0000 0000 0000 0000 0000
00000070: 0000 0000 0000 0000 0000 0000 0000 0000
00000080: 0000 0000 0000 0000 0000 0000 0000 0000
00000090: 0000 0000 0000 0000 0000 803f 0000 0000
000000a0: 0000 0000 0000 0000 0000 0000 0000 0000
000000b0: 0000 0000 0000 0000 0000 0000 0000 0000
000000c0: 0000 0000 0000 0000 0000 0000 0000 0000
000000d0: 0000 0000 0000 0000 0000 0000 0000 0000
000000e0: 0000 0000 0000 803f 0000 0000 0000 0000
000000f0: 0000 0000 0000 0000 0000 0000 0000 0000
00000100: 0000 0000 0000 0000 0000 0000 0000 0000
00000110: 0000 0000 0000 0000 0000 0000 0000 0000
00000120: 0000 0000 0000 0000 0000 0000 0000 0000
00000130: 0000 803f 0000 0000 0000 0000 0000 0000
00000140: 0000 0000 0000 0000 0000 0000 0000 0000
00000150: 0000 0000 0000 0000 0000 0000 0000 0000
00000160: 0000 0000 0000 0000 0000 0000 0000 0000
00000170: 0000 0000 0000 0000 0000 0000 0000 803f
00000180: 0000 0000 0000 0000 0000 0000 0000 0000
00000190: 0000 0000 0000 0000 0000 0000 0000 0000
000001a0: 0000 0000 0000 0000 0000 0000 0000 0000
000001b0: 0000 0000 0000 0000 0000 0000 0000 0000
000001c0: 0000 0000 0000 0000 0000 803f 0000 0000
000001d0: 0000 0000 0000 0000 0000 0000 0000 0000
000001e0: 0000 0000 0000 0000 0000 0000 0000 0000
000001f0: 0000 0000 0000 0000 0000 0000 0000 0000
00000200: 0000 0000 0000 0000 0000 0000 0000 0000
00000210: 0000 0000 0000 803f 0000 0000 0000 0000
00000220: 0000 0000 0000 0000 0000 0000 0000 0000
00000230: 0000 0000 0000 0000 0000 0000 0000 0000
00000240: 0000 0000 0000 0000 0000 0000 0000 0000
00000250: 0000 0000 0000 0000 0000 0000 0000 0000
00000260: 0000 803f 0000 0000 0000 0000 0000 0000
00000270: 0000 0000 0000 0000 0000 0000 0000 0000
00000280: 0000 0000 0000 0000 0000 0000 0000 0000
00000290: 0000 0000 0000 0000 0000 0000 0000 0000
000002a0: 0000 0000 0000 0000 0000 0000 0000 803f
000002b0: 0000 0000 0000 0000 0000 0000 0000 0000
000002c0: 0000 0000 0000 0000 0000 0000 0000 0000
000002d0: 0000 0000 0000 0000 0000 0000 0000 0000
000002e0: 0000 0000 0000 0000 0000 0000 0000 0000
000002f0: 0000 0000 0000 0000 0000 803f 0000 0000
00000300: 0000 0000 0000 0000 0000 0000 0000 0000
00000310: 0000 0000 0000 0000 0000 0000 0000 0000
00000320: 0000 0000 0000 0000 0000 0000 0000 0000
00000330: 0000 0000 0000 0000 0000 0000 0000 0000
00000340: 0000 0000 0000 803f 0000 0000 0000 0000
00000350: 0000 0000 0000 0000 0000 0000 0000 0000
00000360: 0000 0000 0000 0000 0000 0000 0000 0000
00000370: 0000 0000 0000 0000 0000 0000 0000 0000
00000380: 0000 0000 0000 0000 0000 0000 0000 0000
00000390: 0000 803f 0000 0000 0000 0000 0000 0000
000003a0: 0000 0000 0000 0000 0000 0000 0000 0000
000003b0: 0000 0000 0000 0000 0000 0000 0000 0000
000003c0: 0000 0000 0000 0000 0000 0000 0000 0000
000003d0: 0000 0000 0000 0000 0000 0000 0000 803f
000003e0: 0000 0000 0000 0000 0000 0000 0000 0000
000003f0: 0000 0000 0000 0000 0000 0000 0000 0000

model.layers_by_name.lm_head.proj.bias f4 [18]
-0.8922748 -0.6572242 0.13790211 0.049843147 -0.11483746 0.16168319 -0.07447947 -0.07601991
0.05095478 0.14605038 -0.21182594 -0.124032184 -0.12392524 0.14321218 0.13544983 0.2990924
-0.04109679 -1.0750722
00000000: 1f6c 64bf d83f 28bf 3636 0d3e 5428 4c3d
00000010: e72f ebbd 4790 253e b188 98bd 54b0 9bbd
00000020: f6b5 503d 3b8e 153e e6e8 58be 9604 febd
00000030: 84cc fdbd 37a6 123e 5cb3 0a3e a422 993e
00000040: 1c55 28bd f79b 89bf

model.layers_by_name.lm_head.proj.weight f4 [18, 16]
0.58409667 -0.1603314 -0.7971456 0.84715396 -0.6731679 -0.29106727 -0.6409277 0.19067091
-0.6646888 0.32837364 0.32008323 -0.5836817 -0.032429773 -0.64571095 -0.9283141 -1.1445733
0.76095766 -0.012341531 -1.0096061 0.7758113 -0.9594635 -0.014028228 -0.8918659 0.19693957
-0.92716837 -0.024330337 0.5848582 -0.7367072 0.28709066 -0.71772283 -0.6047272 -0.9075888
-0.363205 1.0078615 0.6717102 -0.24294539 -0.968172 1.0482792 0.54348373 0.48643678
-1.0373663 -0.50602436 -1.1079293 0.40322468 -0.94591355 0.5826315 -0.83641917 0.086245835
0.6068901 0.21847928 0.23253448 0.42991316 -0.6763029 -0.5152453 0.018874003 -0.25884557
0.48116013 0.5349021 0.5754144 0.2634745 -0.031261664 -0.42229372 0.1414463 -0.25753513
0.39158407 0.40686175 -0.05432356 0.112020634 -0.4578218 -0.6043861 0.18705487 -0.4222273
0.4619566 0.32464796 0.5923573 0.15602823 -0.36226255 -0.70439625 0.14508434 -0.30618283
0.6841167 0.37851876 0.11325199 0.29152295 -0.5857996 -0.65888566 0.17442329 -0.34735563
0.15432657 0.3133553 0.37399453 -0.13921891 -0.0005955289 -0.7194325 0.17959832 -0.16118166
-0.24066132 -0.49016356 -0.4779515 0.14612888 0.32087603 0.2214466 -0.5371933 -0.33132038
0.2867459 0.29687977 -0.26879904 -0.38302568 0.512307 0.06831607 -0.18817115 -0.034396615
-0.078181416 -0.54424167 -0.43589061 -0.15995668 0.22647208 0.28273827 -0.34488449 -0.25905567
0.28295937 0.4430055 -0.39038628 -0.5633477 0.5158002 0.005834261 0.14930916 -0.1586637
-0.081636705 -0.4811949 -0.4524358 0.19410361 0.06541174 0.13556515 -0.39467382 -0.45121062
0.45602852 0.15057813 -0.24316975 -0.59550476 0.6250166 0.22390608 0.05126104 -0.08871249
0.7938709 0.39430803 0.00068554305 0.5212562 -0.6207949 -0.6902744 0.04357291 -0.21138763
0.1694133 0.36355048 0.17152749 0.103423014 -0.15245448 -0.36428833 0.47536957 -0.15265235
0.5392643 0.5239049 0.1693265 0.48865962 -0.2807673 -0.58251417 0.29377496 -0.3354856
0.35162607 0.15421548 0.44893467 -0.031884823 -0.33367428 -0.47573566 0.3714885 -0.08064427
0.75901794 0.2844389 0.27900672 0.4615126 -0.22944362 -0.37785283 0.14512749 -0.28180027
0.5149561 0.3433619 0.4239324 0.0762449 -0.007866962 -0.7147978 0.30660918 0.017685778
-0.1920629 -0.60506237 -0.20671971 -0.08193396 0.31168506 0.33211648 -0.50031996 -0.52931595
0.41693744 0.44633308 -0.121494815 -0.5789749 0.4198875 0.044013094 -0.24054068 -0.21828045
-0.33719426 -0.47731072 -0.63063926 0.16454229 0.047297496 -0.09796087 -0.29693583 -0.69637567
0.102572374 0.42837867 -0.35841355 -0.34499496 0.4694785 0.051842477 -0.30732682 -0.11251632
-0.22649774 -0.44030678 -0.4057177 0.35136056 -0.04941238 0.3484228 -0.61087084 -0.39848107
0.4599845 0.4582569 -0.2897559 -0.3310695 0.49383032 -0.19311762 -0.03727682 0.04202827
-0.34558082 -0.5466594 -0.025378708 -0.36435494 0.38775185 -0.5172694 0.12340385 0.6272322
-0.68818885 -0.5367222 0.6633514 0.051131517 -0.3811081 0.021190243 -0.3612275 0.4288718
00000000: 5c87 153f ea2d 24be bc11 4cbf 15df 583f
00000010: bb54 2cbf c506 95be d613 24bf 3c3f 433e
00000020: 0c29 2abf 9720 a83e f3e1 a33e 2a6c 15bf
00000030: 15d5 04bd 504d 25bf fea5 6dbf 6181 92bf
00000040: 1fce 423f 2234 4abc c63a 81bf 929b 463f
00000050: 669f 75bf a7d6 65bc 5351 64bf 87aa 493e
00000060: e85a 6dbf 6a50 c7bc 44b9 153f d898 3cbf
00000070: 8cfd 923e afbc 37bf 67cf 1abf bd57 68bf
00000080: 01f6 b9be 9b01 813f 33f5 2b3f adc6 78be
00000090: 1fda 77bf 032e 863f c021 0b3f 3e0e f93e
000000a0: 6bc8 84bf d08a 01bf a1d0 8dbf 7773 ce3e
000000b0: 6427 72bf 5727 153f 911f 56bf a8a1 b03d
000000c0: 265d 1b3f 08b9 5f3e 851d 6e3e 941d dc3e
000000d0: 3022 2dbf 1ee7 03bf a79d 9a3c 6887 84be
000000e0: 9f5a f63e 58ef 083f 5c4e 133f 21e6 863e
000000f0: 3b0c 00bd e236 d8be 4dd7 103e a5db 83be
00000100: b57d c83e 2f50 d03e 6282 5ebd 136b e53d
00000110: 9e67 eabe 0cb9 1abf 508b 3f3e 2d2e d8be
00000120: 9385 ec3e 4238 a63e baa4 173f ddc5 1f3e
00000130: 7a7a b9be 5053 34bf fd90 143e ffc3 9cbe
00000140: 4622 2f3f 36cd c13e a9f0 e73d 7f42 953e
00000150: f6f6 15bf bbac 28bf 059c 323e 99d8 b1be
00000160: c907 1e3e 1b70 a03e 367c bf3e 678f 0ebe
00000170: 451d 1cba ba2c 38bf 9fe8 373e ce0c 25be
00000180: ec6f 76be b8f6 fabe 0fb6 f4be cfa2 153e
00000190: dd49 a43e e6c2 623e 8085 09bf d3a2 a9be
000001a0: 5cd0 923e a000 983e 07a0 89be f11b c4be
000001b0: 8d26 033f 4ce9 8b3d f0af 40be 77e3 0cbd
000001c0: 941d a0bd 6c53 0bbf 0e2d dfbe afcb 23be
000001d0: 4ce8 673e 12c3 903e b394 b0be f2a2 84be
000001e0: 0de0 903e 9ed1 e23e b6e0 c7be 8e37 10bf
000001f0: 7b0b 043f 542d bf3b 80e4 183e bd78 22be
00000200: 2531 a7bd 2e5f f6be aaa5 e7be 19c3 463e
00000210: 97f6 853d 97d1 0a3e b012 cabe 1405 e7be
00000220: 927c e93e 2731 1a3e 7e01 79be 0073 18bf
00000230: 1701 203f a347 653e 19f7 513d e5ae b5bd
00000240: 203b 4b3f bee2 c93e 04b6 333a 0c71 053f
00000250: 6aec 1ebf d3b5 30bf 8279 323d 0076 58be
00000260: ae7a 2d3e 4a23 ba3e e7a4 2f3e 72cf d33d
00000270: 071d 1cbe 0084 babe a463 f33e e650 1cbe
00000280: 3a0d 0a3f a21e 063f ed63 2d3e 9831 fa3e
00000290: bbc0 8fbe a61f 15bf ac69 963e c5c4 abbe
000002a0: 5508 b43e aaea 1d3e c4da e53e a999 02bd
000002b0: 5bd7 aabe a093 f3be be33 be3e d328 a5bd
000002c0: 004f 423f faa1 913e f8d9 8e3e 614b ec3e
000002d0: 45f3 6abe ed75 c1be 4d9c 143e 2048 90be
000002e0: 2ad4 033f 22cd af3e ab0d d93e 4926 9c3d
000002f0: 6ee4 00bc fdfc 36bf e1fb 9c3e c4e1 903c
00000300: 23ac 44be 5ee5 1abf 55ae 53be fecc a7bd
00000310: 2f95 9f3e 2c0b aa3e f814 00bf 4081 07bf
00000320: d378 d53e c585 e43e 46d2 f8bd b337 14bf
00000330: 7ffb d63e 1347 343d 4c50 76be e984 5fbe
00000340: baa4 acbe 1262 f4be 9371 21bf c67d 283e
00000350: 05bb 413d b59f c8bd f907 98be ad45 32bf
00000360: 7711 d23d 7354 db3e fb81 b7be 2ea3 b0be
00000370: 7c5f f03e c758 543d f159 9dbe f56e e6bd
00000380: 06ef 67be e46f e1be 3bba cfbe 88e5 b33e
00000390: a364 4abd 7964 b23e 0862 1cbf b605 ccbe
000003a0: 1783 eb3e a6a0 ea3e e35a 94be f181 a9be
000003b0: 54d7 fc3e a0c0 45be 94af 18bd d625 2c3d
000003c0: f8ef b0be dff1 0bbf 02e7 cfbc bb8c babe
000003d0: 6987 c63e c46b 04bf 28bb fc3d 4a92 203f
000003e0: 252d 30bf a066 09bf 66d1 293f 486f 513d
000003f0: 9a20 c3be 2997 ad3c d0f2 b8be 1695 db3e
