jordan_elman_2024/exp1/mlp/run_9/export/model.safetensors (safetensors, 5336 bytes, 5 tensors)

layers.embed.emb.weight f4 [22, 22]
1.0 0.0 0.0 0.0 0.0 0.0 0.0 0.0
0.0 0.0 0.0 0.0 0.0 0.0 0.0 0.0
0.0 0.0 0.0 0.0 0.0 0.0 0.0 1.0
0.0 0.0 0.0 0.0 0.0 0.0 0.0 0.0
0.0 0.0 0.0 0.0 0.0 0.0 0.0 0.0
0.0 0.0 0.0 0.0 0.0 0.0 1.0 0.0
0.0 0.0 0.0 0.0 0.0 0.0 0.0 0.0
0.0 0.0 0.0 0.0 0.0 0.0 0.0 0.0
0.0 0.0 0.0 0.0 0.0 1.0 0.0 0.0
0.0 0.0 0.0 0.0 0.0 0.0 0.0 0.0
0.0 0.0 0.0 0.0 0.0 0.0 0.0 0.0
0.0 0.0 0.0 0.0 1.0 0.0 0.0 0.0
0.0 0.0 0.0 0.0 0.0 0.0 0.0 0.0
0.0 0.0 0.0 0.0 0.0 0.0 0.0 0.0
0.0 0.0 0.0 1.0 0.0 0.0 0.0 0.0
0.0 0.0 0.0 0.0 0.0 0.0 0.0 0.0
0.0 0.0 0.0 0.0 0.0 0.0 0.0 0.0
0.0 0.0 1.0 0.0 0.0 0.0 0.0 0.0
0.0 0.0 0.0 0.0 0.0 0.0 0.0 0.0
0.0 0.0 0.0 0.0 0.0 0.0 0.0 0.0
0.0 1.0 0.0 0.0 0.0 0.0 0.0 0.0
0.0 0.0 0.0 0.0 0.0 0.0 0.0 0.0
0.0 0.0 0.0 0.0 0.0 0.0 0.0 0.0
1.0 0.0 0.0 0.0 0.0 0.0 0.0 0.0
0.0 0.0 0.0 0.0 0.0 0.0 0.0 0.0
0.0 0.0 0.0 0.0 0.0 0.0 0.0 1.0
0.0 0.0 0.0 0.0 0.0 0.0 0.0 0.0
0.0 0.0 0.0 0.0 0.0 0.0 0.0 0.0
0.0 0.0 0.0 0.0 0.0 0.0 1.0 0.0
0.0 0.0 0.0 0.0 0.0 0.0 0.0 0.0
0.0 0.0 0.0 0.0 0.0 0.0 0.0 0.0
0.0 0.0 0.0 0.0 0.0 1.0 0.0 0.0
00000000: 0000 803f 0000 0000 0000 0000 0000 0000
00000010: 0000 0000 0000 0000 0000 0000 0000 0000
00000020: 0000 0000 0000 0000 0000 0000 0000 0000
00000030: 0000 0000 0000 0000 0000 0000 0000 0000
00000040: 0000 0000 0000 0000 0000 0000 0000 0000
00000050: 0000 0000 0000 0000 0000 0000 0000 803f
00000060: 0000 0000 0000 0000 0000 0000 0000 0000
00000070: 0000 0000 0000 0000 0000 0000 0000 0000
00000080: 0000 0000 0000 0000 0000 0000 0000 0000
00000090: 0000 0000 0000 0000 0000 0000 0000 0000
000000a0: 0000 0000 0000 0000 0000 0000 0000 0000
000000b0: 0000 0000 0000 0000 0000 803f 0000 0000
000000c0: 0000 0000 0000 0000 0000 0000 0000 0000
000000d0: 0000 0000 0000 0000 0000 0000 0000 0000
000000e0: 0000 0000 0000 0000 0000 0000 0000 0000
000000f0: 0000 0000 0000 0000 0000 0000 0000 0000
00000100: 0000 0000 0000 0000 0000 0000 0000 0000
00000110: 0000 0000 0000 803f 0000 0000 0000 0000
00000120: 0000 0000 0000 0000 0000 0000 0000 0000
00000130: 0000 0000 0000 0000 0000 0000 0000 0000
00000140: 0000 0000 0000 0000 0000 0000 0000 0000
00000150: 0000 0000 0000 0000 0000 0000 0000 0000
00000160: 0000 0000 0000 0000 0000 0000 0000 0000
00000170: 0000 803f 0000 0000 0000 0000 0000 0000
00000180: 0000 0000 0000 0000 0000 0000 0000 0000
00000190: 0000 0000 0000 0000 0000 0000 0000 0000
000001a0: 0000 0000 0000 0000 0000 0000 0000 0000
000001b0: 0000 0000 0000 0000 0000 0000 0000 0000
000001c0: 0000 0000 0000 0000 0000 0000 0000 803f
000001d0: 0000 0000 0000 0000 0000 0000 0000 0000
000001e0: 0000 0000 0000 0000 0000 0000 0000 0000
000001f0: 0000 0000 0000 0000 0000 0000 0000 0000
00000200: 0000 0000 0000 0000 0000 0000 0000 0000
00000210: 0000 0000 0000 0000 0000 0000 0000 0000
00000220: 0000 0000 0000 0000 0000 803f 0000 0000
00000230: 0000 0000 0000 0000 0000 0000 0000 0000
00000240: 0000 0000 0000 0000 0000 0000 0000 0000
00000250: 0000 0000 0000 0000 0000 0000 0000 0000
00000260: 0000 0000 0000 0000 0000 0000 0000 0000
00000270: 0000 0000 0000 0000 0000 0000 0000 0000
00000280: 0000 0000 0000 803f 0000 0000 0000 0000
00000290: 0000 0000 0000 0000 0000 0000 0000 0000
000002a0: 0000 0000 0000 0000 0000 0000 0000 0000
000002b0: 0000 0000 0000 0000 0000 0000 0000 0000
000002c0: 0000 0000 0000 0000 0000 0000 0000 0000
000002d0: 0000 0000 0000 0000 0000 0000 0000 0000
000002e0: 0000 803f 0000 0000 0000 0000 0000 0000
000002f0: 0000 0000 0000 0000 0000 0000 0000 0000
00000300: 0000 0000 0000 0000 0000 0000 0000 0000
00000310: 0000 0000 0000 0000 0000 0000 0000 0000
00000320: 0000 0000 0000 0000 0000 0000 0000 0000
00000330: 0000 0000 0000 0000 0000 0000 0000 803f
00000340: 0000 0000 0000 0000 0000 0000 0000 0000
00000350: 0000 0000 0000 0000 0000 0000 0000 0000
00000360: 0000 0000 0000 0000 0000 0000 0000 0000
00000370: 0000 0000 0000 0000 0000 0000 0000 0000
00000380: 0000 0000 0000 0000 0000 0000 0000 0000
00000390: 0000 0000 0000 0000 0000 803f 0000 0000
000003a0: 0000 0000 0000 0000 0000 0000 0000 0000
000003b0: 0000 0000 0000 0000 0000 0000 0000 0000
000003c0: 0000 0000 0000 0000 0000 0000 0000 0000
000003d0: 0000 0000 0000 0000 0000 0000 0000 0000
000003e0: 0000 0000 0000 0000 0000 0000 0000 0000
000003f0: 0000 0000 0000 803f 0000 0000 0000 0000

layers.lm_head.proj.bias f4 [22]
-1.3443177 -1.180505 -1.3560644 0.012142972 0.017144518 -0.029186236 0.02049654 0.17255706
0.12798855 0.24651864 0.10350731 0.19868565 0.05424817 0.24796177 0.30732998 0.22197427
0.26330024 0.20985872 0.22637148 0.19875878 0.20493543 0.20278654
00000000: 9a12 acbf ca1a 97bf 8593 adbf 51f3 463c
00000010: a972 8c3c f917 efbc 5ce8 a73c ccb2 303e
00000020: 6e0f 033e 626f 7c3e a4fb d33d 4074 4b3e
00000030: 5433 5e3d b1e9 7d3e 5b5a 9d3e 394d 633e
00000040: 4acf 863e 34e5 563e edcd 673e 6c87 4b3e
00000050: 98da 513e 46a7 4f3e

layers.lm_head.proj.weight f4 [22, 16]
0.19295023 -0.019410495 0.39411768 0.01607844 0.12762897 -0.07883931 0.09007295 0.0724702
-0.3391196 0.22095832 -0.32350302 -0.2656781 0.28980732 -0.024066808 -0.63891655 0.22120956
0.35748476 -0.0032248679 0.36305043 0.004375791 0.33680654 0.12472684 0.24548016 0.3793902
-0.080623135 -0.055428654 -0.18444718 -0.33294442 0.2721334 0.035430588 -0.64179564 0.4084229
0.24682936 -0.080462165 0.28436545 0.06483709 0.36765164 0.101549424 0.19676596 0.36823878
0.02280008 0.09257221 -0.11607209 -0.19874437 0.09965466 0.060055744 -0.47367477 0.50463367
1.6356547 -1.8062866 -0.07046738 1.2286063 2.056222 -1.3084702 -0.15342243 -1.0174289
0.6410576 0.28034908 -1.2613581 1.8002231 -0.1015058 -2.61435 -0.17002283 -0.7230406
-0.89215034 0.16291432 -0.13674027 0.14855023 0.7952936 -0.05817031 -0.13899802 0.12252491
-0.56522673 -0.14437884 1.4351269 -0.889247 0.45284742 -0.4544629 -0.036343347 -0.07548864
-1.061333 0.21889643 -0.14099541 0.1712838 0.7930686 -0.089369155 -0.16311236 -0.008107389
-0.6578726 0.005262366 1.432704 -0.91651875 0.5616778 -0.3948359 0.014210448 -0.1504334
-1.0504498 0.17984013 -0.0445687 0.16245137 0.75122577 -0.07977579 -0.15144089 0.05065105
-0.68110055 -0.12337889 1.3959367 -0.8894131 0.30997792 -0.4809779 0.011614559 -0.11879957
0.8954444 0.07824395 0.90637696 0.3130837 -0.92611337 -0.06439484 0.0568355 -0.4573351
0.48002985 1.26627 0.14602691 0.117550835 -0.34090236 0.5263842 1.0014778 0.34569016
0.8509789 0.10811259 0.9000315 0.2827215 -0.86894006 -0.020559756 0.19308886 -0.61038464
0.47005302 1.3084759 0.16682303 0.16571963 -0.3206895 0.65254337 1.0042714 0.20400979
0.8084077 -0.0023526563 1.0083414 0.2997987 -0.83895785 -0.10097209 0.051198676 -0.4994001
0.4762206 1.2499008 0.087881245 0.13894783 -0.22964256 0.6762653 1.0400428 0.32615855
-0.988092 0.08468799 0.08633081 0.07691594 0.75127804 -0.21592665 -0.0448451 -0.026424056
-0.7767706 -0.12723364 1.4090235 -0.80189896 0.24714482 -0.34223172 -0.02406899 -0.16872533
-0.96123654 0.18020405 0.10094652 0.09700916 0.6773532 -0.23023714 -0.08122355 0.22498679
-0.7342038 -0.03089193 1.3933543 -0.718018 0.2448602 -0.48114267 -0.039432157 -0.09618545
-0.93993026 0.19415055 0.069278985 0.1428436 0.8370444 -0.17491892 -0.09076337 0.21045525
-0.82195437 -0.14446953 1.440834 -0.863683 0.30299306 -0.43233252 0.15016496 -0.13602294
0.7208897 -0.061700642 0.50240093 0.20422111 -1.0718405 0.38091916 -0.026459001 -0.62685335
0.9256527 1.4236146 0.18769886 0.11928705 0.548518 0.44098994 0.39321434 0.36594003
0.59824115 -0.20713317 0.50721955 0.14650819 -0.9819936 0.25868404 0.038982112 -0.6982348
0.97279537 1.4133215 0.087495685 0.014962527 0.54927045 0.52725464 0.40895313 0.33165023
0.7608403 -0.075844206 0.45249066 0.17942208 -1.1415893 0.25850672 0.03689035 -0.66671216
0.9189122 1.4690968 0.118179895 -0.008539702 0.57237756 0.40686297 0.46434557 0.22062717
00000000: bf94 453e c202 9fbc cbc9 c93e efb6 833c
00000010: 2bb1 023e 8176 a1bd 2b78 b83d 426b 943d
00000020: 16a1 adbe e642 623e 30a2 a5be f606 88be
00000030: a061 943e c127 c5bc 0990 23bf c284 623e
00000040: 3e08 b73e 4e58 53bb bfe1 b93e cc62 8f3b
00000050: e871 ac3e c970 ff3d 275f 7b3e 6f3f c23e
00000060: be1d a5bd 2809 63bd b9df 3cbe b177 aabe
00000070: 1255 8b3e aa1f 113d b84c 24bf ce1c d13e
00000080: d6c0 7c3e 59c9 a4bd 5998 913e 4fc9 843d
00000090: d63c bc3e 25f9 cf3d 047d 493e cb89 bc3e
000000a0: 3cc7 ba3c 8096 bd3d 34b7 edbd a583 4bbe
000000b0: be17 cc3d 03fd 753d 8085 f2be ac2f 013f
000000c0: 225d d13f 6634 e7bf 3451 90bd f942 9d3f
000000d0: 2499 0340 f47b a7bf c51a 1dbe 1c3b 82bf
000000e0: 5a1c 243f ea89 8f3e 2f74 a1bf b66d e63f
000000f0: 46e2 cfbd 8351 27c0 771a 2ebe 3019 39bf
00000100: f763 64bf 03d3 263e a405 0cbe 8d1d 183e
00000110: 5d98 4b3f fe43 6ebd 7f55 0ebe 57ee fa3d
00000120: b3b2 10bf 0cd8 13be 3db2 b73f b1a5 63bf
00000130: 9edb e73e 5caf e8be c3dc 14bd ca99 9abd
00000140: c2d9 87bf 6326 603e 1a61 10be 0565 2f3e
00000150: 8b06 4b3f 2d07 b7bd ed06 27be dbd4 04bc
00000160: 576a 28bf ed6f ac3b d862 b73f f9a0 6abf
00000170: 1eca 0f3f ee27 cabe f0d2 683c 370b 1abe
00000180: 2475 86bf 0328 383e ab8d 36bd a759 263e
00000190: 5550 403f 7d61 a3bd 5213 1bbe 7a77 4f3d
000001a0: 9b5c 2ebf 12ae fcbd 0eae b23f 94b0 63bf
000001b0: 6db5 9e3e bc42 f6be fe4a 3e3c 304d f3bd
000001c0: d83b 653f 5d3e a03d 5208 683f 824c a03e
000001d0: c415 6dbf 71e1 83bd 57cc 683d d427 eabe
000001e0: 79c6 f53e 2315 a23f 1488 153e 7ebe f03d
000001f0: c18a aebe 1dc1 063f 6d30 803f 4dfe b03e
00000200: c1d9 593f 226a dd3d 7768 663f dfc0 903e
00000210: db72 5ebf ef6c a8bc 16b9 453e 2b42 1cbf
00000220: caaa f03e 237c a73f a8d3 2a3e 68b2 293e
00000230: 6a31 a4be 150d 273f f78b 803f f1e7 503e
00000240: cff3 4e3f 062f 1abb 5511 813f 377f 993e
00000250: f1c5 56bf 75ca cebd b4b5 513d 5fb1 ffbe
00000260: 30d3 f33e c0fc 9f3f 15fb b33d 5748 0e3e
00000270: 6b27 6bbe b91f 2d3f 1f20 853f 41fe a63e
00000280: 99f3 7cbf e670 ad3d 35ce b03d 1b86 9d3d
00000290: c253 403f e01b 5dbe 7faf 37bd 4377 d8bc
000002a0: 70da 46bf 8949 02be e25a b43f 4049 4dbf
000002b0: 8813 7d3e ff38 afbe 552c c5bc 55c6 2cbe
000002c0: 9913 76bf 6987 383e 0dbd ce3d bdac c63d
000002d0: 0567 2d3f 49c3 6bbe 8858 a6bd f062 663e
000002e0: c8f4 3bbf 1311 fdbc 6f59 b23f 07d0 37bf
000002f0: a2bc 7a3e 5558 f6be 9d83 21bd e1fc c4bd
00000300: 459f 70bf 67cf 463e 24e2 8d3d 9845 123e
00000310: 8b48 563f f21d 33be 25e2 b9bd 9581 573e
00000320: 9a6b 52bf d2ef 13be 406d b83f 541a 5dbf
00000330: e821 9b3e b05a ddbe d8c4 193e 9949 0bbe
00000340: 3a8c 383f d0b9 7cbd 599d 003f 571f 513e
00000350: 1232 89bf d607 c33e 8cc0 d8bc 7679 20bf
00000360: 93f7 6c3f 0139 b63f 2134 403e c54c f43d
00000370: ad6b 0c3f 6fc9 e13e 6453 c93e 7e5c bb3e
00000380: 5526 193f b81a 54be 24d9 013f 3e06 163e
00000390: ef63 7bbf 3c72 843e b5ab 1f3d 84bf 32bf
000003a0: 1e09 793f b8e7 b43f f030 b33d 6325 753c
000003b0: fd9c 0c3f 29fa 063f 4e62 d13e 0fce a93e
000003c0: 6ec6 423f 3554 9bbd dbac e73e 6cba 373e
000003d0: 991f 92bf fe5a 843e 561a 173d a6ad 2abf
000003e0: d43d 6b3f 5d0b bc3f 4d08 f23d 1bea 0bbc
000003f0: 5687 123f 5850 d03e b4be ed3e 17ec 613e

layers.mlp.linear.bias f4 [16]
0.309611 -0.15193936 -0.13495755 0.0169619 -0.1546843 -0.06915615 -0.058771964 -0.16683853
0.27570316 -0.020874329 -0.41771132 0.41051364 -0.15138066 -0.10360394 0.21754439 -0.10812326
00000000: 5585 9e3e fe95 1bbe 5032 0abe aff3 8a3c
00000010: 9065 1ebe bda1 8dbd dfba 70bd b8d7 2abe
00000020: f728 8d3e a400 abbc 42de d5be d82e d23e
00000030: 8803 1bbe 4d2e d4bd f5c3 5e3e ba6f ddbd

layers.mlp.linear.weight f4 [16, 22]
-0.8962885 -0.09526004 0.12679318 -1.2644726 -0.52789986 -0.6996129 -0.6045779 0.57667583
0.6067681 0.46102688 -0.2216648 -0.23377666 -0.32223418 0.53207016 0.7155928 0.4662888
0.34952006 0.2746811 0.4448536 0.21972531 0.30875447 0.1357393 0.18709145 0.006997016
0.106627375 0.28252065 0.38780713 0.23884575 0.38518813 -0.7360382 -0.47747558 -0.6523414
0.3908968 0.3295068 0.43978396 -0.6552972 -0.74227667 -0.4390015 0.17915556 0.19407608
0.32259557 0.14146146 0.083834104 0.004911426 0.21963155 -0.053418897 -0.123888396 0.13449052
-0.66714287 -0.7264694 -0.5594357 -0.12822586 -0.25866494 -0.14906889 -0.8103759 -0.65394604
-0.8245592 0.07457552 0.06382829 -0.079834364 0.95731616 0.9804336 1.0483918 0.49277982
0.42656112 0.3704031 -0.015884971 -0.021854285 -0.0030847054 0.10901699 -0.637381 -0.61499155
-0.6403043 0.5113912 0.2949323 0.36994576 -0.20101167 -0.36663675 -0.22329511 0.55994236
0.30160818 0.57606673 0.19656508 0.21615633 0.06276344 0.14621004 -0.10024708 0.20872459
0.55785114 0.12086438 0.15779378 0.8884345 0.2931524 0.123306684 0.22652881 0.7600016
0.7178477 0.78023225 -0.3847313 -0.4570533 -0.3896631 0.3764771 0.5301181 0.76461995
-0.67109126 -0.69385326 -0.59405804 -0.82088643 -0.81375885 -0.999793 -0.15500186 0.04982649
0.08556702 -0.10458746 0.6704457 0.68043333 0.71821797 -0.56425256 -0.6197054 -0.38738573
-0.18406624 -0.14722751 -0.12275954 -0.42976066 -0.50613534 -0.23170578 0.032142878 -0.040030405
-0.0962178 0.40742737 0.29283458 0.40681633 0.071076624 0.082994945 -0.004647098 -0.09765526
0.41354355 0.28226626 0.3312076 0.11734663 -0.1416033 -0.00957109 -0.133486 -0.22165027
-0.17004666 0.11475093 -0.22873606 -0.10385695 0.20002994 0.15821443 0.19272205 0.105541684
-0.0578197 -0.09412888 -0.059986163 0.14382355 0.09581874 0.2482826 0.41936994 0.5179986
0.5311651 -0.16134177 -0.30831072 -0.3541246 0.7042094 0.7136635 0.7329791 -0.43526125
-0.43227437 -0.5353882 -0.24155933 -0.27998832 -0.19420204 -0.31992275 -0.46977568 -0.50454164
-0.6108751 0.10765978 0.021257885 -0.9486781 -0.41058666 -0.4909206 -0.43141663 0.06984156
0.32010573 0.23545408 -0.07384012 -0.1893206 -0.01950565 0.22525856 0.17413913 0.443189
-0.002673248 0.029607603 0.061346184 0.7101949 0.62472355 0.54315865 -0.18317004 0.14079201
0.14542983 -0.07742159 -0.89485425 -0.77569634 -0.88124514 0.21031289 0.10396416 0.1491794
-1.3278378 -1.4013426 -1.2760223 -0.11456289 -0.015117877 -0.047282774 0.98551124 1.0134724
1.0000681 1.2180121 1.185729 1.1522373 1.1620487 0.1775941 -0.067720555 1.8003483
-0.8265595 -0.80187166 -0.7810821 -0.28877547 -0.5205142 -0.56371504 -0.54546136 -0.4294545
-0.5212919 -0.6416695 -0.35792142 -0.523513 0.54428744 0.5253949 0.52202827 0.48568103
0.63763386 0.49846172 -0.91970044 0.03877298 -0.024661047 -1.1694634 0.19579118 0.3161226
0.29903638 0.73514825 0.7810487 0.6281426 -0.27217162 -0.15567274 -0.29345617 0.6196239
00000000: 2a73 65bf b217 c3bd 12d6 013e 3dda a1bf
00000010: 7224 07bf d519 33bf 9ec5 1abf 07a1 133f
00000020: 2755 1b3f b70b ec3e 19fc 62be 2663 6fbe
00000030: e1fb a4be c035 083f 1731 373f 68bd ee3e
00000040: 4bf4 b23e 00a3 8c3e dac3 e33e acff 603e
00000050: 1115 9e3e 3eff 0a3e e794 3f3e 3947 e53b
00000060: 745f da3d 8ca6 903e a88e c63e fb93 743e
00000070: 6137 c53e 006d 3cbf ae77 f4be d9ff 26bf
00000080: a023 c83e 1eb5 a83e 5d2b e13e 8fc1 27bf
00000090: d805 3ebf cec4 e0be 8e74 373e e1bb 463e
000000a0: 3f2b a53e 46db 103e 37b1 ab3d 07f0 a03b
000000b0: 18e7 603e c6cd 5abd 33b9 fdbd e2b7 093e
000000c0: e0c9 2abf e6f9 39bf 2e37 0fbf a44d 03be
000000d0: bb6f 84be 84a5 18be cc74 4fbf 0269 27bf
000000e0: 5016 53bf 0dbb 983d 68b8 823d 3380 a3bd
000000f0: ac12 753f b2fd 7a3f b431 863f a34d fc3e
00000100: 3866 da3e 7aa5 bd3e 3321 82bc c207 b3bc
00000110: c528 4abb 4d44 df3d 672b 23bf 1670 1dbf
00000120: fcea 23bf 89ea 023f 5e01 973e 8869 bd3e
00000130: 01d6 4dbe d0b7 bbbe 79a7 64be 6258 0f3f
00000140: 636c 9a3e 1c79 133f 5b48 493e 1658 5d3e
00000150: 1e8a 803d 16b8 153e 574e cdbd e6bb 553e
00000160: 55cf 0e3f be87 f73d b194 213e 7270 633f
00000170: 1218 963e 3788 fc3d 2bf7 673e 778f 423f
00000180: dec4 373f 4dbd 473f 80fb c4be e402 eabe
00000190: ec81 c7be 9bc1 c03e d2b5 073f 22be 433f
000001a0: a3cc 2bbf 5ea0 31bf 3014 18bf 9d25 52bf
000001b0: 8052 50bf 6ff2 7fbf cfb8 1ebe dd16 4c3d
000001c0: c33d af3d f331 d6bd 54a2 2b3f e130 2e3f
000001d0: 22dd 373f db72 10bf 03a5 1ebf 6c57 c6be
000001e0: dc7b 3cbe cfc2 16be 5b69 fbbd 9709 dcbe
000001f0: 1692 01bf 4844 6dbe 40a8 033d ecf6 23bd
00000200: d70d c5bd 529a d03e 6aee 953e 3b4a d03e
00000210: 9f90 913d 41f9 a93d af46 98bb 7bff c7bd
00000220: fbbb d33e 3485 903e 0b94 a93e 6e53 f03d
00000230: 7500 11be 10d0 1cbc 8eb0 08be 4af8 62be
00000240: b620 2ebe 8902 eb3d c939 6abe f4b2 d4bd
00000250: a6d4 4c3e f702 223e ee58 453e 3d26 d83d
00000260: 5ad4 6cbd a4c6 c0bd 0db4 75bd 7b46 133e
00000270: 9e3c c43d cb3d 7e3e a8b7 d63e 8e9b 043f
00000280: 70fa 073f c736 25be e7da 9dbe d24f b5be
00000290: 1147 343f a7b2 363f 85a4 3b3f 90da debe
000002a0: 1153 ddbe 330f 09bf 545b 77be a15a 8fbe
000002b0: e6dc 46be eacc a3be 7086 f0be a429 01bf
000002c0: 5062 1cbf bb7c dc3d 0425 ae3c 91dc 72bf
000002d0: 6a38 d2be f259 fbbe a4e2 dcbe 1809 8f3d
000002e0: e6e4 a33e e01a 713e 7d39 97bd 42dd 41be
000002f0: 50ca 9fbc 2eaa 663e 8751 323e abe9 e23e
00000300: a931 2fbb a58b f23c 2346 7b3d 55cf 353f
00000310: e2ed 1f3f 720c 0b3f ed90 3bbe c82b 103e
00000320: 8feb 143e 368f 9ebd 2b15 65bf 0994 46bf
00000330: 4899 61bf 435c 573e 29eb d43d 7cc2 183e
00000340: 97f6 a9bf 325f b3bf b354 a3bf f39f eabd
00000350: f9b0 77bc 95ab 41bd 774a 7c3f 77b9 813f
00000360: 3b02 803f d2e7 9b3f f8c5 973f 837c 933f
00000370: 03be 943f 3adb 353e 13b1 8abd d071 e63f
00000380: 6799 53bf 7647 4dbf fff4 47bf 61da 93be
00000390: 6b40 05bf a14f 10bf 5ba3 0bbf 76e1 dbbe
000003a0: 6373 05bf 7444 24bf 7a41 b7be f304 06bf
000003b0: 6c56 0b3f 4880 063f a5a3 053f 2fab f83e
000003c0: f93b 233f 6036 ff3e 7d71 6bbf 6bd0 1e3d
000003d0: f705 cabc fab0 95bf 7c7d 483e d2da a13e
000003e0: 4c1b 993e ad32 3c3f cff2 473f f4cd 203f
000003f0: 145a 8bbe ad68 1fbe e33f 96be ac9f 1e3f
