jordan_elman_2024/exp3/jordan_sequence_level/run_13/export/model.safetensors (safetensors, 6976 bytes, 7 tensors)

layers.embed.emb.weight f4 [22, 22]
1.0 0.0 0.0 0.0 0.0 0.0 0.0 0.0
0.0 0.0 0.0 0.0 0.0 0.0 0.0 0.0
0.0 0.0 0.0 0.0 0.0 0.0 0.0 1.0
0.0 0.0 0.0 0.0 0.0 0.0 0.0 0.0
0.0 0.0 0.0 0.0 0.0 0.0 0.0 0.0
0.0 0.0 0.0 0.0 0.0 0.0 1.0 0.0
0.0 0.0 0.0 0.0 0.0 0.0 0.0 0.0
0.0 0.0 0.0 0.0 0.0 0.0 0.0 0.0
0.0 0.0 0.0 0.0 0.0 1.0 0.0 0.0
0.0 0.0 0.0 0.0 0.0 0.0 0.0 0.0
0.0 0.0 0.0 0.0 0.0 0.0 0.0 0.0
0.0 0.0 0.0 0.0 1.0 0.0 0.0 0.0
0.0 0.0 0.0 0.0 0.0 0.0 0.0 0.0
0.0 0.0 0.0 0.0 0.0 0.0 0.0 0.0
0.0 0.0 0.0 1.0 0.0 0.0 0.0 0.0
0.0 0.0 0.0 0.0 0.0 0.0 0.0 0.0
0.0 0.0 0.0 0.0 0.0 0.0 0.0 0.0
0.0 0.0 1.0 0.0 0.0 0.0 0.0 0.0
0.0 0.0 0.0 0.0 0.0 0.0 0.0 0.0
0.0 0.0 0.0 0.0 0.0 0.0 0.0 0.0
0.0 1.0 0.0 0.0 0.0 0.0 0.0 0.0
0.0 0.0 0.0 0.0 0.0 0.0 0.0 0.0
0.0 0.0 0.0 0.0 0.0 0.0 0.0 0.0
1.0 0.0 0.0 0.0 0.0 0.0 0.0 0.0
0.0 0.0 0.0 0.0 0.0 0.0 0.0 0.0
0.0 0.0 0.0 0.0 0.0 0.0 0.0 1.0
0.0 0.0 0.0 0.0 0.0 0.0 0.0 0.0
0.0 0.0 0.0 0.0 0.0 0.0 0.0 0.0
0.0 0.0 0.0 0.0 0.0 0.0 1.0 0.0
0.0 0.0 0.0 0.0 0.0 0.0 0.0 0.0
0.0 0.0 0.0 0.0 0.0 0.0 0.0 0.0
0.0 0.0 0.0 0.0 0.0 1.0 0.0 0.0
00000000: 0000 803f 0000 0000 0000 0000 0000 0000
00000010: 0000 0000 0000 0000 0000 0000 0000 0000
00000020: 0000 0000 0000 0000 0000 0000 0000 0000
00000030: 0000 0000 0000 0000 0000 0000 0000 0000
00000040: 0000 0000 0000 0000 0000 0000 0000 0000
00000050: 0000 0000 0000 0000 0000 0000 0000 803f
00000060: 0000 0000 0000 0000 0000 0000 0000 0000
00000070: 0000 0000 0000 0000 0000 0000 0000 0000
00000080: 0000 0000 0000 0000 0000 0000 0000 0000
00000090: 0000 0000 0000 0000 0000 0000 0000 0000
000000a0: 0000 0000 0000 0000 0000 0000 0000 0000
000000b0: 0000 0000 0000 0000 0000 803f 0000 0000
000000c0: 0000 0000 0000 0000 0000 0000 0000 0000
000000d0: 0000 0000 0000 0000 0000 0000 0000 0000
000000e0: 0000 0000 0000 0000 0000 0000 0000 0000
000000f0: 0000 0000 0000 0000 0000 0000 0000 0000
00000100: 0000 0000 0000 0000 0000 0000 0000 0000
00000110: 0000 0000 0000 803f 0000 0000 0000 0000
00000120: 0000 0000 0000 0000 0000 0000 0000 0000
00000130: 0000 0000 0000 0000 0000 0000 0000 0000
00000140: 0000 0000 0000 0000 0000 0000 0000 0000
00000150: 0000 0000 0000 0000 0000 0000 0000 0000
00000160: 0000 0000 0000 0000 0000 0000 0000 0000
00000170: 0000 803f 0000 0000 0000 0000 0000 0000
00000180: 0000 0000 0000 0000 0000 0000 0000 0000
00000190: 0000 0000 0000 0000 0000 0000 0000 0000
000001a0: 0000 0000 0000 0000 0000 0000 0000 0000
000001b0: 0000 0000 0000 0000 0000 0000 0000 0000
000001c0: 0000 0000 0000 0000 0000 0000 0000 803f
000001d0: 0000 0000 0000 0000 0000 0000 0000 0000
000001e0: 0000 0000 0000 0000 0000 0000 0000 0000
000001f0: 0000 0000 0000 0000 0000 0000 0000 0000
00000200: 0000 0000 0000 0000 0000 0000 0000 0000
00000210: 0000 0000 0000 0000 0000 0000 0000 0000
00000220: 0000 0000 0000 0000 0000 803f 0000 0000
00000230: 0000 0000 0000 0000 0000 0000 0000 0000
00000240: 0000 0000 0000 0000 0000 0000 0000 0000
00000250: 0000 0000 0000 0000 0000 0000 0000 0000
00000260: 0000 0000 0000 0000 0000 0000 0000 0000
00000270: 0000 0000 0000 0000 0000 0000 0000 0000
00000280: 0000 0000 0000 803f 0000 0000 0000 0000
00000290: 0000 0000 0000 0000 0000 0000 0000 0000
000002a0: 0000 0000 0000 0000 0000 0000 0000 0000
000002b0: 0000 0000 0000 0000 0000 0000 0000 0000
000002c0: 0000 0000 0000 0000 0000 0000 0000 0000
000002d0: 0000 0000 0000 0000 0000 0000 0000 0000
000002e0: 0000 803f 0000 0000 0000 0000 0000 0000
000002f0: 0000 0000 0000 0000 0000 0000 0000 0000
00000300: 0000 0000 0000 0000 0000 0000 0000 0000
00000310: 0000 0000 0000 0000 0000 0000 0000 0000
00000320: 0000 0000 0000 0000 0000 0000 0000 0000
00000330: 0000 0000 0000 0000 0000 0000 0000 803f
00000340: 0000 0000 0000 0000 0000 0000 0000 0000
00000350: 0000 0000 0000 0000 0000 0000 0000 0000
00000360: 0000 0000 0000 0000 0000 0000 0000 0000
00000370: 0000 0000 0000 0000 0000 0000 0000 0000
00000380: 0000 0000 0000 0000 0000 0000 0000 0000
00000390: 0000 0000 0000 0000 0000 803f 0000 0000
000003a0: 0000 0000 0000 0000 0000 0000 0000 0000
000003b0: 0000 0000 0000 0000 0000 0000 0000 0000
000003c0: 0000 0000 0000 0000 0000 0000 0000 0000
000003d0: 0000 0000 0000 0000 0000 0000 0000 0000
000003e0: 0000 0000 0000 0000 0000 0000 0000 0000
000003f0: 0000 0000 0000 803f 0000 0000 0000 0000

layers.jordan.hx.bias f4 [16]
-0.5627483 0.17009602 -0.008946698 -0.03580825 -0.16304658 0.040056292 0.01385908 0.34306747
-0.019553803 0.102063745 -0.089502975 -0.14126381 0.2451121 0.055637576 0.45192176 0.12840052
00000000: 4610 10bf a72d 2e3e 2c95 12bc acab 12bd
00000010: aff5 26be 1112 243d 3211 633c 8aa6 af3e
00000020: 4c2f a0bc cc06 d13d 564d b7bd 76a7 10be
00000030: abfe 7a3e 3ae4 633d 4a62 e73e 6d7b 033e

layers.jordan.hx.weight f4 [16, 22]
-0.162922 -0.10563261 0.13869165 -0.36851192 -0.243704 -0.19347103 -0.24155582 -0.19450903
0.12801354 0.038774416 0.021076454 0.28644812 0.10478876 0.07600137 0.04040295 0.030405385
-0.36613902 -0.39994633 -0.51422006 0.509365 0.43962404 0.51326907 -0.24309611 0.19797741
-0.17426167 -0.0070013106 0.5928988 0.62270415 0.51680046 0.22664861 0.20631354 -0.05656079
0.1548658 0.20828448 0.13306977 -0.1376156 -0.05533423 -0.17923856 0.31332532 0.28775918
0.5380752 -0.9948747 -1.0954319 -0.99412596 0.23711766 -0.011176316 -0.14329806 1.0055709
0.63955456 0.63593733 0.5697074 -0.93181455 -0.8614071 -0.8679322 0.5949822 0.5555013
0.6135844 -0.7738049 -0.66218466 -0.76036865 0.32874185 0.3608483 0.24704985 -0.4840029
-0.37468 -0.2878195 -0.28324392 -0.09439012 -0.17364806 -0.77335536 -0.29661366 0.074206874
-0.035404187 -0.24871343 -0.356607 -0.073710114 -0.034847505 0.0053303908 -0.00011896955 -0.26942623
-0.08891633 -0.3216565 0.2712565 0.38377392 0.3993742 0.62620145 0.47732678 0.5551083
0.6062085 -0.028258942 0.03339666 1.8520046 -0.29596874 -0.29945263 -0.27139857 0.0055454513
-0.2541842 -0.0010529836 -0.23010904 -0.22454976 -0.08902582 0.10608041 -0.107930444 -0.22475703
-0.33702824 -0.08383562 -0.2648263 -0.20170946 -0.29405963 -0.17656426 -0.8990067 -0.008411211
-0.033139583 -1.6882174 0.30706576 0.18073773 0.19653189 0.5810812 0.4439623 0.5874341
0.4287791 0.41667277 0.34924328 0.28902146 0.26862666 0.43536437 -0.71535397 -0.57607055
-0.44852668 -0.10666422 -0.04409894 0.08283062 0.38710326 0.098644316 -0.18087624 1.2720842
0.44460312 0.5831756 0.51535314 -0.20006059 0.06506023 -0.0529408 0.7234777 0.7311566
0.7216388 0.17062059 -0.10103567 -0.045405462 -0.8683123 -0.93074346 -0.92233825 -1.0042391
-1.0024315 -1.0833495 -1.0042117 0.04408462 0.008946462 -1.8754652 0.50883824 0.5472766
0.58262485 -0.19857304 -0.42011365 -0.19532435 0.41159362 0.34026363 0.43297386 -0.009135657
-0.3482037 -0.24890493 0.68778837 0.7089115 0.60687685 -0.106390774 -0.24995854 -0.27391824
-0.29349434 -0.15470706 -0.04421068 -0.65450513 -0.50106215 -0.53505975 -0.6222069 0.8549071
0.85754305 0.8842751 -0.91061443 -0.8469876 -0.75162894 0.76912487 0.6647614 0.7323323
1.043848 0.9278264 0.97962576 -0.7239324 -0.6509431 -0.7020011 -0.59691876 -0.20440039
0.21209906 -1.1523061 0.06682963 0.1855201 0.04543342 0.7882817 0.7933687 0.7457664
0.4714204 0.4437452 0.49235466 0.5327903 0.5924503 0.6850636 -1.0629354 -0.92685235
-1.0047816 -0.19066925 -0.17713498 -0.17482138 0.3397277 -0.0131035745 0.043975588 1.1730888
-0.48610392 -0.5133319 -0.61675155 -0.21664207 -0.29563564 -0.11418953 -0.6483649 -0.53659344
-0.61826605 -0.16641665 -0.29429382 -0.18684699 0.11543945 0.40815917 0.47103882 0.7572838
0.76555043 0.8615399 -0.04628029 -0.027343197 0.01891633 0.54425496 -0.33977237 -0.35635507
-0.3741198 -0.48948282 -0.37620422 -0.46927536 -0.521355 -0.6705289 -0.67267156 -0.17912689
00000000: 06d5 26be e955 d8bd 2f05 0e3e 98ad bcbe
00000010: 8b8d 79be 451d 46be 695a 77be 602d 47be
00000020: fb15 033e ecd1 1e3d 87a8 ac3c 54a9 923e
00000030: 7d9b d63d 9ba6 9b3d 907d 253d b714 f93c
00000040: 9376 bbbe c4c5 ccbe eda3 03bf bf65 023f
00000050: 6716 e13e 9a65 033f 30ee 78be 97ba 4a3e
00000060: a771 32be 406b e5bb 37c8 173f 8a69 1f3f
00000070: 094d 043f 9316 683e db43 533e 49ac 67bd
00000080: 2495 1e3e 8748 553e 7143 083e 1beb 0cbe
00000090: 25a6 62bd 508a 37be 2d6c a03e 2c55 933e
000000a0: 4cbf 093f 1cb0 7ebf 1d37 8cbf 0a7f 7ebf
000000b0: f9ce 723e de1c 37bc babc 12be 8cb6 803f
000000c0: d9b9 233f cacc 223f 58d8 113f 668b 6ebf
000000d0: 2d85 5cbf ce30 5ebf c150 183f 5535 0e3f
000000e0: de13 1d3f 1418 46bf ef84 29bf 85a7 42bf
000000f0: da50 a83e 1cc1 b83e a3fa 7c3e 3acf f7be
00000100: 0fd6 bfbe 145d 93be 5905 91be 9b4f c1bd
00000110: ccd0 31be 9efa 45bf bfdd 97be c6f9 973d
00000120: fb03 11bd bcae 7ebe 3195 b6be 54f5 96bd
00000130: 42bc 0ebd 8faa ae3b 4a7f f9b8 3cf2 89be
00000140: c419 b6bd 29b0 a4be 22e2 8a3e 047e c43e
00000150: c67a cc3e bd4e 203f 2d64 f43e 941b 0e3f
00000160: 7b30 1b3f 4c7f e7bc f0ca 083d 7d0e ed3f
00000170: 3789 97be db51 99be c1f4 8abe 9eb6 b53b
00000180: 6e24 82be 4404 8aba b4a1 6bbe 5ff0 65be
00000190: 2b53 b6bd b040 d93d a30a ddbd b526 66be
000001a0: f78e acbe 02b2 abbd 5097 87be ed8c 4ebe
000001b0: fc8e 96be 43cd 34be 4e25 66bf 2dcf 09bc
000001c0: 5fbd 07bd 8217 d8bf b937 9d3e 5013 393e
000001d0: a83f 493e bdc1 143f 074f e33e 1562 163f
000001e0: ef88 db3e 2256 d53e 04d0 b23e 9ffa 933e
000001f0: 6f89 893e 14e8 de3e 7021 37bf 5c79 13bf
00000200: 4aa5 e5be c572 dabd 17a1 34bd 1aa3 a93d
00000210: 6632 c63e 0806 ca3d 9f37 39be a8d3 a23f
00000220: 05a3 e33e ff4a 153f 2fee 033f afdc 4cbe
00000230: 4c3e 853d 74d8 58bd d635 393f 142d 3b3f
00000240: 52bd 383f 2ab7 2e3e caeb cebd 14fb 39bd
00000250: b749 5ebf 3445 6ebf 5c1e 6cbf e88a 80bf
00000260: ad4f 80bf 32ab 8abf 028a 80bf 1392 343d
00000270: 2e94 123c 3e0f f0bf 3943 023f 521a 0c3f
00000280: e726 153f bb56 4bbe 2319 d7be 1b03 48be
00000290: 66bc d23e 0937 ae3e c0ae dd3e b9ad 15bc
000002a0: c147 b2be efe0 7ebe e612 303f 397b 353f
000002b0: 485c 1b3f 68e3 d9bd 22f5 7fbe 033f 8cbe
000002c0: e444 96be 876b 1ebe 4216 35bd a68d 27bf
000002d0: 9c45 00bf adf9 08bf f448 1fbf 31db 5a3f
000002e0: f187 5b3f da5f 623f 071e 69bf 2ed4 58bf
000002f0: c16a 40bf 5ee5 443f ce2d 2a3f 217a 3b3f
00000300: d09c 853f 0886 6d3f c1c8 7a3f a253 39bf
00000310: 35a4 26bf 58b6 33bf abcf 18bf 564e 51be
00000320: 7f30 593e c47e 93bf f9dd 883d fbf8 3d3e
00000330: 6518 3a3d d4cc 493f 361a 4b3f 8cea 3e3f
00000340: 045e f13e 9232 e33e e915 fc3e f264 083f
00000350: d3aa 173f 5460 2f3f 440e 88bf 3246 6dbf
00000360: af9c 80bf cd3e 43be df62 35be 6004 33be
00000370: caf0 ad3e 60b0 56bc bf1f 343d c627 963f
00000380: 9de2 f8be b869 03bf 6ee3 1dbf 6bd7 5dbe
00000390: 8e5d 97be 33dc e9bd 3efb 25bf 305e 09bf
000003a0: af46 1ebf 2069 2abe aead 96be d154 3fbe
000003b0: 856b ec3d 3dfa d03e 002c f13e 5add 413f
000003c0: 1dfb 433f e18d 5c3f 6790 3dbd d7fe dfbc
000003d0: 6bf6 9a3c 4b54 0b3f a5f6 adbe 2c74 b6be
000003e0: a18c bfbe 7e9d fabe d79d c0be dc44 f0be
000003f0: 8577 05bf c8a7 2bbf 3434 2cbf 0a6d 37be

layers.jordan.hy.bias f4 [16]
-0.584535 0.11229614 0.01346931 -0.012788726 -0.45236355 0.40287358 0.09349865 0.14088264
-0.04489819 -0.04506923 -0.025840038 -0.0059339036 -0.044456303 0.02994456 0.44726777 0.354812
00000000: 16a4 15bf 85fb e53d 61ae 5c3c ce87 51bc
00000010: 329c e7be 7245 ce3e 387c bf3d 8a43 103e
00000020: 2ae7 37bd 839a 38bd 7dae d3bc 3171 c2bb
00000030: d017 36bd 4b4e f53c 4800 e53e eba9 b53e

layers.jordan.hy.weight f4 [16, 22]
0.15644035 0.23706754 0.31578857 0.21362515 -0.011261169 -0.03300915 0.1625611 0.02083312
-0.37713355 -0.25499445 -0.25100496 -0.24372944 -0.11428537 0.18306437 0.16381356 -0.07296422
0.019983705 -0.16547656 0.22330159 0.21556184 -0.037562586 -0.014310583 -0.335907 -0.02161717
-0.22155446 -0.29934984 0.16554931 0.012621753 -0.1955984 0.21516317 0.21222289 0.4676687
0.13126929 0.09639736 -0.0031824193 -0.32761005 -0.09027528 0.14239427 0.14086652 0.11907546
-0.14605744 0.17829044 -0.17560497 -0.06702448 -0.08886691 -0.088453494 -0.4169677 0.28266352
0.023709062 0.03892551 0.074592665 0.05467382 -0.13010406 -0.19260666 -0.016560137 0.23745961
0.038291037 -0.1901995 0.044960946 -0.10329127 -0.11536467 0.14936735 0.09751474 -0.026846236
-0.17278942 -0.21464503 -0.034406316 0.08446432 -0.11207015 -0.22951551 0.029756878 0.02287221
0.034696013 -0.0767483 -0.28366256 -0.16695194 -0.10288921 -0.12682177 -0.14936611 -0.20153266
0.077146105 0.096327044 -0.035481464 -0.06284601 0.20961767 0.04246405 0.27209523 -0.15616442
0.12249137 0.064635165 -0.0152918175 0.39992312 -0.12130932 -0.1677103 0.1080401 -0.14053611
-0.18313853 -0.28032088 -0.07413378 -0.02420635 -0.06843763 0.27060506 -0.17191024 0.21258023
-0.14596231 0.20825784 -0.15281281 -0.10672507 -0.18080606 0.04728839 0.14716451 -0.22139524
-0.041633524 -0.2594945 -0.09274815 0.12464621 -0.002257899 0.0906208 -0.14054324 0.002908643
0.06067608 0.07054586 0.1539567 -0.13213708 0.1370149 0.30915245 -0.009142341 0.057871133
0.019133763 -0.09924619 0.09183469 0.11816855 -0.21491665 -0.15620682 0.053339496 0.41758737
0.21954691 -0.22368936 0.10784469 -0.058292232 0.13178943 0.0064894683 0.17946935 0.17629585
-0.003876235 0.30338395 -0.026610944 0.09222949 -0.08947722 0.030670859 -0.19555163 0.10805516
0.13223086 -0.18994664 -0.19010338 -0.32317016 -0.43946737 -0.3318238 -0.15565613 0.23423202
-0.037934955 0.05053389 0.1698793 0.35445067 0.32807663 0.03138044 0.07158391 -0.24164887
-0.06069438 0.08063721 0.007929487 -0.1939909 -0.111504875 0.20372532 0.03164372 -0.2362212
-0.10975582 0.11819239 0.02598373 -0.47509667 -0.19510837 0.09435017 -0.30338764 0.36815897
0.42852926 0.6455233 -0.04329175 -0.1046807 -0.09164777 -0.30903953 -0.28811467 -0.086744525
0.100366436 0.13047351 -0.04930958 -0.20820701 0.09974324 -0.06890513 0.03082728 -0.21696499
0.31319478 -0.2851791 0.1543647 -0.10704774 -0.14309624 0.042029813 -0.024773763 0.049755596
0.12167974 -0.1372067 0.19518168 -0.030313097 0.0992249 0.3666288 0.104233444 0.016665643
0.16151549 0.021222163 0.01693566 0.08153891 -0.08923627 0.24514112 0.08975394 0.35489342
0.084190056 -0.23661685 0.012742481 0.05205549 -0.017204933 -0.34716958 -0.12074355 0.10643663
-0.042746235 0.039283436 -0.0022561871 -0.0884938 0.19755906 0.21754253 0.13861333 -0.043567676
0.08987741 -0.14691101 -0.1896561 -0.08799104 0.21321751 0.3855454 -0.2716223 -0.2715974
0.14327836 -0.080822445 -0.22679093 -0.20436601 -0.30529484 0.05824394 -0.027131986 0.039974052
00000000: e631 203e d5c1 723e 0aaf a13e 8dc0 5a3e
00000010: c480 38bc 9a34 07bd 6b76 263e 38aa aa3c
00000020: a617 c1be a28e 82be b983 80be 3694 79be
00000030: 730e eabd 3a75 3b3e bebe 273e 446e 95bd
00000040: deb4 a33c b072 29be 2ca9 643e 3ebc 5c3e
00000050: 3adb 19bd ef76 6abc 01fc abbe 7e16 b1bc
00000060: 2cdf 62be 6244 99be c285 293e 78cb 4e3c
00000070: f24a 48be bc53 5c3e f550 593e 4672 ef3e
00000080: 756b 063e fb6b c53d 2390 50bb 81bc a7be
00000090: 3fe2 b8bd cecf 113e 503f 103e d6dd f33d
000000a0: 1590 15be c591 363e cad1 33be 2144 89bd
000000b0: dbff b5bd 1b27 b5bd ca7c d5be 46b9 903e
000000c0: 8239 c23c 5b70 1f3d 0ac4 983d a8f1 5f3d
000000d0: 003a 05be ae3a 45be 20a9 87bc 9d28 733e
000000e0: 10d7 1c3d a8c3 42be f828 383d 608a d3bd
000000f0: 5044 ecbd c1f3 183e cfb5 c73d a3ec dbbc
00000100: b6ef 30be e8cb 5bbe a3ed 0cbd a1fb ac3d
00000110: 0985 e5bd 1d06 6bbe b2c4 f33c 805e bb3c
00000120: 681d 0e3d 362e 9dbd 383c 91be 73f5 2abe
00000130: 94b7 d2bd 91dd 01be 6ef3 18be 945e 4ebe
00000140: c7fe 9d3d 1d47 c53d 0355 11bd 69b5 80bd
00000150: 04a6 563e c9ee 2d3d 1150 8b3e 91e9 1fbe
00000160: c1dc fa3d 715f 843d 888a 7abc b9c2 cc3e
00000170: 0571 f8bd 40bc 2bbe 2144 dd3d b3e8 0fbe
00000180: ab88 3bbe 3886 8fbe 74d3 97bd 654c c6bc
00000190: 0729 8cbd bf8c 8a3e 3d09 30be a2ae 593e
000001a0: 2577 15be 8b41 553e f67a 1cbe ac92 dabd
000001b0: 3925 39be 79b1 413d 4bb2 163e 6fb5 62be
000001c0: ea87 2abd 77dc 84be bef2 bdbd 8346 ff3d
000001d0: 42f9 13bb 6697 b93d 91ea 0fbe ef9e 3e3b
000001e0: 7b87 783d 597a 903d d3a6 1d3e f14e 07be
000001f0: a24d 0c3e 3b49 9e3e c2c9 15bc 480a 6d3d
00000200: 69be 9c3c 9641 cbbd d313 bc3d 5a02 f23d
00000210: 1c13 5cbe aef4 1fbe 847a 5a3d 03ce d53e
00000220: e8d0 603e d30e 65be addd dc3d d6c3 6ebd
00000230: cff3 063e 9ba5 d43b d0c6 373e e686 343e
00000240: 6f08 7ebb 2455 9b3e 32ff d9bc d1e2 bc3d
00000250: d53f b7bd 7441 fb3c b03e 48be 064c dd3d
00000260: 8767 073e 5f81 42be 76aa 42be 8f76 a5be
00000270: de01 e1be cfe4 a9be 5264 1fbe 85da 6f3e
00000280: af61 1bbd a0fc 4e3d d7f4 2d3e 8f7a b53e
00000290: a9f9 a73e c788 003d 969a 923d cd72 77be
000002a0: ac9a 78bd 1f25 a53d aeea 013c 8da5 46be
000002b0: ab5c e4bd 5f9d 503e d89c 013d f8e3 71be
000002c0: a9c7 e0bd da0e f23d d5db d43c df3f f3be
000002d0: 7dca 47be a93a c13d a055 9bbe 557f bc3e
000002e0: 3068 db3e 0441 253f b152 31bd d662 d6bd
000002f0: d3b1 bbbd 6e3a 9ebe c483 93be 1da7 b1bd
00000300: eb8c cd3d d99a 053e d8f8 49bd 3834 55be
00000310: 2f46 cc3d 221e 8dbd 7e89 fc3c 122c 5ebe
00000320: 115b a03e ff02 92be c811 1e3e d83b dbbd
00000330: d287 12be 7427 2c3d 59f2 cabc 86cc 4b3d
00000340: 3a33 f93d ea7f 0cbe b5dd 473e 2c53 f8bc
00000350: 6d36 cb3d c5b6 bb3e 5878 d53d 6386 883c
00000360: 5164 253e 1ada ad3c a7bc 8a3c dffd a63d
00000370: 81c1 b6bd 4606 7b3e ead0 b73d 97b4 b53e
00000380: d66b ac3d b04b 72be d7c5 503c 2338 553d
00000390: 5cf1 8cbc 36c0 b1be 6548 f7bd 73fb d93d
000003a0: ad16 2fbd abe7 203d 8adc 13bb 3d3c b5bd
000003b0: ec4c 4a3e 78c3 5e3e a7f0 0d3e 0574 32bd
000003c0: a611 b83d d76f 16be 3535 42be a534 b4bd
000003d0: b155 5a3e 3566 c53e 1412 8bbe d00e 8bbe
000003e0: 90b7 123e 3d86 a5bd e23b 68be 5345 51be
000003f0: 9b4f 9cbe 3391 6e3d e643 debc d5bb 233d

layers.jordan.lm_head.bias f4 [22]
-0.88221234 -1.118953 -1.0553001 0.616624 0.18198124 -0.15378387 -0.10652117 0.22773911
0.2621515 0.39648756 0.18253219 -0.12638988 -0.1293345 0.3242573 0.38429472 0.26379046
-0.13800868 0.16868478 0.06309326 0.0154747935 -0.003943086 0.0923269
00000000: abd8 61bf da39 8fbf 1314 87bf 12db 1d3f
00000010: 4a59 3a3e 8579 1dbe c527 dabd 7134 693e
00000020: b938 863e 6b00 cb3e b8e9 3a3e 596c 01be
00000030: 4370 04be 0e05 a63e 47c2 c43e 8b0f 873e
00000040: 2652 0dbe b4bb 2c3e 0a37 813d fd89 7d3c
00000050: 0135 81bb e315 bd3d

layers.jordan.lm_head.weight f4 [22, 16]
0.7850713 -0.3843704 0.11853281 0.2051039 0.43299106 0.093762204 -0.12426585 0.01626391
0.22338732 -0.04238426 0.040132955 -0.018877104 -0.23105352 0.260604 -0.645171 -0.36382428
0.70343155 -0.05318656 0.022626076 0.0991585 0.0017603361 0.099195726 -0.09161127 0.07490379
0.027213916 0.2148381 -0.053465206 0.32160664 -0.44272658 -0.09358231 -0.69036114 -0.16856983
0.8676551 -0.29496735 -0.15901642 0.2900317 0.08655062 0.050668597 0.07966539 -0.150705
0.103239015 0.15385926 -0.1239856 -0.13576044 -0.0456918 0.26823673 -0.3614948 -0.5124581
-0.24011101 0.173804 -2.7867138 -0.6950368 -0.30959582 1.3606917 -0.32082695 -0.35756007
2.7221284 2.0435507 -0.83125746 -1.1652888 0.79400784 -2.1847658 -0.008013025 1.1073463
-0.12045721 0.037565276 0.2239342 -0.41390324 1.0874 -0.9565265 0.5144746 -1.2075132
-0.30978355 -0.64498746 0.3089585 0.07017037 0.13655932 -0.34809852 -0.15260847 0.11164738
-0.41425022 0.04105131 0.36481604 -0.5059865 1.0864974 -0.88842094 0.60684973 -0.79133576
-0.29650277 -0.7683381 0.47869548 0.20045492 0.16402699 -0.48894 -0.08101059 -0.19883297
-0.14544292 0.019090055 0.5866074 -0.37810078 1.1056446 -0.8549441 0.76615065 -1.2000474
-0.044092115 -0.3367486 0.5245638 0.09024244 0.0043871645 -0.32945192 0.14740022 0.1689327
-0.5734945 0.21438707 -0.20240651 0.5851046 -0.52435225 -0.24798858 -1.7843097 0.98405546
1.2564949 -0.85535115 0.39670134 0.9018417 1.4082748 0.67729753 0.3298289 0.43922704
-0.5683533 0.20069453 -0.19869485 0.6302685 -0.6562094 -0.24150068 -1.6826279 0.9733336
1.2710624 -0.8603582 0.38870788 0.9086983 1.3377694 0.70481807 0.33941072 0.45158318
-0.55669993 0.22845401 -0.19734105 0.46858296 -0.45551044 -0.25054908 -1.7835565 0.99736273
1.2744848 -0.85367066 0.508644 0.918129 1.2162106 0.7691588 0.3197412 0.44371697
-0.14031994 0.051700715 0.2841909 -0.32742774 0.9871796 -0.97855204 0.54956216 -1.0956656
-0.056711216 -0.7521889 0.6160191 0.2597567 -0.00072045956 -0.25240678 -0.16392328 0.21488796
-0.3490018 0.05101719 0.22683772 -0.23777649 0.98057073 -1.0408742 0.7181037 -1.079983
-0.041832745 -0.44846362 0.5451986 0.39560485 0.00431928 -0.56356215 0.21037555 -0.05531088
-0.22913346 0.038317293 0.48170385 -0.38992503 0.85027206 -0.9955101 0.5458914 -1.0199332
-0.2302386 -0.5446112 0.6880701 -0.010513025 0.058278825 -0.55044305 0.0616484 0.043895397
0.6196833 -1.3192744 -0.69060224 0.3564108 -0.44082466 0.52446353 -0.92004377 -0.34590125
-1.0026256 0.4570934 0.51399034 0.61647147 0.85671926 0.4232061 -0.24486801 -0.70593566
0.6493477 -1.3254814 -0.68373126 0.77169347 -0.44036883 0.34248948 -0.71578294 -0.337022
-1.024591 0.3895171 0.51824737 0.5649295 0.58941066 0.6737209 -0.16221535 -0.6334589
0.6688037 -1.2411375 -0.6668598 0.43180284 -0.37632617 0.3858451 -0.9945558 -0.27678713
-1.0283256 0.399187 0.71657544 0.51694274 0.73169816 0.61450475 -0.18791784 -0.6977451
00000000: 6ffa 483f 32cc c4be 54c1 f23d c206 523e
00000010: 01b1 dd3e 6606 c03d 187f febd e43b 853c
00000020: a5bf 643e 1e9b 2dbd 7462 243d 28a4 9abc
00000030: 4b99 6cbe e36d 853e ed29 25bf 2d47 babe
00000040: 1714 343f 26da 59bd 525a b93c 9d13 cb3d
00000050: 14bb e63a 2127 cb3d b19e bbbd 2967 993d
00000060: b8ef de3c 85fe 5b3e 55fe 5abd a0a9 a43e
00000070: 0fad e2be 15a8 bfbd 82bb 30bf 929d 2cbe
00000080: a51e 5e3f f605 97be 33d5 22be 097f 943e
00000090: 7441 b13d e089 4f3d 9c27 a33d 6952 1abe
000000a0: fa6e d33d 488d 1d3e 2aec fdbd c904 0bbe
000000b0: 5327 3bbd 5356 893e d915 b9be 7430 03bf
000000c0: a9df 75be adf9 313e 8559 32c0 efed 31bf
000000d0: 5883 9ebe 252b ae3f 6e43 a4be 1d12 b7be
000000e0: 5a37 2e40 89c9 0240 4acd 54bf 2f28 95bf
000000f0: 1944 4b3f 34d3 0bc0 1049 03bc 86bd 8d3f
00000100: 45b2 f6bd 0cde 193d 024f 653e 20eb d3be
00000110: ec2f 8b3f ecde 74bf 9bb4 033f cb8f 9abf
00000120: f39b 9ebe e61d 25bf cf2f 9e3e 7cb5 8f3d
00000130: 35d6 0b3e f839 b2be 6545 1cbe 62a7 e43d
00000140: 9b18 d4be 6b25 283d 2bc9 ba3e 5588 01bf
00000150: 5912 8b3f 8e6f 63bf 815a 1b3f fb94 4abf
00000160: 36cf 97be ceb1 44bf 9317 f53e 0e44 4d3e
00000170: b1f6 273e 5856 fabe e1e8 a5bd df9a 4bbe
00000180: fdee 14be bf62 9c3c e72b 163f 6d96 c1be
00000190: c385 8d3f 9edd 5abf 7322 443f 279b 99bf
000001a0: ef99 34bd 506a acbe d049 063f 07d1 b83d
000001b0: 34c2 8f3b ecad a8be 15f0 163e b2fc 2c3e
000001c0: 89d0 12bf 4988 5b3e a743 4fbe 6ac9 153f
000001d0: f33b 06bf b8f0 7dbe 4364 e4bf 0feb 7b3f
000001e0: d3d4 a03f 4bf8 5abf 701c cb3e 19df 663f
000001f0: 5942 b43f 5f63 2d3f 55df a83e 5ee2 e03e
00000200: 9a7f 11bf de82 4d3e aa76 4bbe 4759 213f
00000210: 57fd 27bf f44b 77be 5a60 d7bf 642c 793f
00000220: 2cb2 a23f 6f40 5cbf b804 c73e 74a0 683f
00000230: 073c ab3f f56e 343f 3ec7 ad3e e935 e73e
00000240: e383 0ebf d9ef 693e c613 4abe 1bea ef3e
00000250: aa38 e9be f847 80be 944b e4bf 2a53 7f3f
00000260: 5122 a33f 298a 5abf 7e36 023f 810a 6b3f
00000270: caac 9b3f 97e7 443f 1eb5 a33e df2e e33e
00000280: 08b0 0fbe 21c4 533d 7881 913e 9ca4 a7be
00000290: cdb7 7c3f 6382 7abf 1bb0 0c3f c53e 8cbf
000002a0: 054a 68bd 748f 40bf 6eb3 1d3f d5fe 843e
000002b0: 39dd 3cba 763b 81be 81db 27be 970b 5c3e
000002c0: 5db0 b2be 67f7 503d 2648 683e ae7b 73be
000002d0: af06 7b3f 5e3b 85bf a5d5 373f e23c 8abf
000002e0: d058 2bbd 069d e5be 2392 0b3f b88c ca3e
000002f0: bf88 8d3b 9c45 10bf b06c 573e a98d 62bd
00000300: f6a1 6abe 98f2 1c3d e3a1 f63e 41a4 c7be
00000310: 6eab 593f c0d9 7ebf 8abf 0b3f 2c8d 82bf
00000320: abc3 6bbe a46b 0bbf 5d25 303f d33e 2cbc
00000330: c7b5 6e3d d6e9 0cbf 0883 7c3d a9cb 333d
00000340: 91a3 1e3f fcdd a8bf 4fcb 30bf 7a7b b63e
00000350: c5b3 e1be 3e43 063f fd87 6bbf f819 b1be
00000360: 0956 80bf 2508 ea3e df94 033f 13d1 1d3f
00000370: f451 5b3f 78ae d83e aebe 7abe 33b8 34bf
00000380: a73b 263f 60a9 a9bf 0309 2fbf b48d 453f
00000390: 0678 e1be c85a af3e 8d3d 37bf 268e acbe
000003a0: cc25 83bf c96e c73e dcab 043f 389f 103f
000003b0: 9ee3 163f f978 2c3f c81b 26be 5d2a 22bf
000003c0: b836 2b3f 98dd 9ebf 53b7 2abf 4315 dd3e
000003d0: d3ad c0be 7d8d c53e 359b 7ebf 0bb7 8dbe
000003e0: 2ca0 83bf 3d62 cc3e 7d71 373f 5c56 043f
000003f0: 9250 3b3f 2f50 1d3f 896d 40be 6c9f 32bf
