jordan_elman_2024/exp2/jordan_item_level/run_4/export/model.safetensors (safetensors, 6976 bytes, 7 tensors)

layers.embed.emb.weight f4 [22, 22]
000000 00 00 80 3f 00 00 00 00 00 00 00 00 00 00 00 00
       1.0 0.0 0.0 0.0
000010 00 00 00 00 00 00 00 00 00 00 00 00 00 00 00 00
       0.0 0.0 0.0 0.0
000020 00 00 00 00 00 00 00 00 00 00 00 00 00 00 00 00
       0.0 0.0 0.0 0.0
000030 00 00 00 00 00 00 00 00 00 00 00 00 00 00 00 00
       0.0 0.0 0.0 0.0
000040 00 00 00 00 00 00 00 00 00 00 00 00 00 00 00 00
       0.0 0.0 0.0 0.0
000050 00 00 00 00 00 00 00 00 00 00 00 00 00 00 80 3f
       0.0 0.0 0.0 1.0
000060 00 00 00 00 00 00 00 00 00 00 00 00 00 00 00 00
       0.0 0.0 0.0 0.0
000070 00 00 00 00 00 00 00 00 00 00 00 00 00 00 00 00
       0.0 0.0 0.0 0.0
000080 00 00 00 00 00 00 00 00 00 00 00 00 00 00 00 00
       0.0 0.0 0.0 0.0
000090 00 00 00 00 00 00 00 00 00 00 00 00 00 00 00 00
       0.0 0.0 0.0 0.0
0000a0 00 00 00 00 00 00 00 00 00 00 00 00 00 00 00 00
       0.0 0.0 0.0 0.0
0000b0 00 00 00 00 00 00 00 00 00 00 80 3f 00 00 00 00
       0.0 0.0 1.0 0.0
0000c0 00 00 00 00 00 00 00 00 00 00 00 00 00 00 00 00
       0.0 0.0 0.0 0.0
0000d0 00 00 00 00 00 00 00 00 00 00 00 00 00 00 00 00
       0.0 0.0 0.0 0.0
0000e0 00 00 00 00 00 00 00 00 00 00 00 00 00 00 00 00
       0.0 0.0 0.0 0.0
0000f0 00 00 00 00 00 00 00 00 00 00 00 00 00 00 00 00
       0.0 0.0 0.0 0.0
000100 00 00 00 00 00 00 00 00 00 00 00 00 00 00 00 00
       0.0 0.0 0.0 0.0
000110 00 00 00 00 00 00 80 3f 00 00 00 00 00 00 00 00
       0.0 1.0 0.0 0.0
000120 00 00 00 00 00 00 00 00 00 00 00 00 00 00 00 00
       0.0 0.0 0.0 0.0
000130 00 00 00 00 00 00 00 00 00 00 00 00 00 00 00 00
       0.0 0.0 0.0 0.0
000140 00 00 00 00 00 00 00 00 00 00 00 00 00 00 00 00
       0.0 0.0 0.0 0.0
000150 00 00 00 00 00 00 00 00 00 00 00 00 00 00 00 00
       0.0 0.0 0.0 0.0
000160 00 00 00 00 00 00 00 00 00 00 00 00 00 00 00 00
       0.0 0.0 0.0 0.0
000170 00 00 80 3f 00 00 00 00 00 00 00 00 00 00 00 00
       1.0 0.0 0.0 0.0
000180 00 00 00 00 00 00 00 00 00 00 00 00 00 00 00 00
       0.0 0.0 0.0 0.0
000190 00 00 00 00 00 00 00 00 00 00 00 00 00 00 00 00
       0.0 0.0 0.0 0.0
0001a0 00 00 00 00 00 00 00 00 00 00 00 00 00 00 00 00
       0.0 0.0 0.0 0.0
0001b0 00 00 00 00 00 00 00 00 00 00 00 00 00 00 00 00
       0.0 0.0 0.0 0.0
0001c0 00 00 00 00 00 00 00 00 00 00 00 00 00 00 80 3f
       0.0 0.0 0.0 1.0
0001d0 00 00 00 00 00 00 00 00 00 00 00 00 00 00 00 00
       0.0 0.0 0.0 0.0
0001e0 00 00 00 00 00 00 00 00 00 00 00 00 00 00 00 00
       0.0 0.0 0.0 0.0
0001f0 00 00 00 00 00 00 00 00 00 00 00 00 00 00 00 00
       0.0 0.0 0.0 0.0
000200 00 00 00 00 00 00 00 00 00 00 00 00 00 00 00 00
       0.0 0.0 0.0 0.0
000210 00 00 00 00 00 00 00 00 00 00 00 00 00 00 00 00
       0.0 0.0 0.0 0.0
000220 00 00 00 00 00 00 00 00 00 00 80 3f 00 00 00 00
       0.0 0.0 1.0 0.0
000230 00 00 00 00 00 00 00 00 00 00 00 00 00 00 00 00
       0.0 0.0 0.0 0.0
000240 00 00 00 00 00 00 00 00 00 00 00 00 00 00 00 00
       0.0 0.0 0.0 0.0
000250 00 00 00 00 00 00 00 00 00 00 00 00 00 00 00 00
       0.0 0.0 0.0 0.0
000260 00 00 00 00 00 00 00 00 00 00 00 00 00 00 00 00
       0.0 0.0 0.0 0.0
000270 00 00 00 00 00 00 00 00 00 00 00 00 00 00 00 00
       0.0 0.0 0.0 0.0
000280 00 00 00 00 00 00 80 3f 00 00 00 00 00 00 00 00
       0.0 1.0 0.0 0.0
000290 00 00 00 00 00 00 00 00 00 00 00 00 00 00 00 00
       0.0 0.0 0.0 0.0
0002a0 00 00 00 00 00 00 00 00 00 00 00 00 00 00 00 00
       0.0 0.0 0.0 0.0
0002b0 00 00 00 00 00 00 00 00 00 00 00 00 00 00 00 00
       0.0 0.0 0.0 0.0
0002c0 00 00 00 00 00 00 00 00 00 00 00 00 00 00 00 00
       0.0 0.0 0.0 0.0
0002d0 00 00 00 00 00 00 00 00 00 00 00 00 00 00 00 00
       0.0 0.0 0.0 0.0
0002e0 00 00 80 3f 00 00 00 00 00 00 00 00 00 00 00 00
       1.0 0.0 0.0 0.0
0002f0 00 00 00 00 00 00 00 00 00 00 00 00 00 00 00 00
       0.0 0.0 0.0 0.0
000300 00 00 00 00 00 00 00 00 00 00 00 00 00 00 00 00
       0.0 0.0 0.0 0.0
000310 00 00 00 00 00 00 00 00 00 00 00 00 00 00 00 00
       0.0 0.0 0.0 0.0
000320 00 00 00 00 00 00 00 00 00 00 00 00 00 00 00 00
       0.0 0.0 0.0 0.0
000330 00 00 00 00 00 00 00 00 00 00 00 00 00 00 80 3f
       0.0 0.0 0.0 1.0
000340 00 00 00 00 00 00 00 00 00 00 00 00 00 00 00 00
       0.0 0.0 0.0 0.0
000350 00 00 00 00 00 00 00 00 00 00 00 00 00 00 00 00
       0.0 0.0 0.0 0.0
000360 00 00 00 00 00 00 00 00 00 00 00 00 00 00 00 00
       0.0 0.0 0.0 0.0
000370 00 00 00 00 00 00 00 00 00 00 00 00 00 00 00 00
       0.0 0.0 0.0 0.0
000380 00 00 00 00 00 00 00 00 00 00 00 00 00 00 00 00
       0.0 0.0 0.0 0.0
000390 00 00 00 00 00 00 00 00 00 00 80 3f 00 00 00 00
       0.0 0.0 1.0 0.0
0003a0 00 00 00 00 00 00 00 00 00 00 00 00 00 00 00 00
       0.0 0.0 0.0 0.0
0003b0 00 00 00 00 00 00 00 00 00 00 00 00 00 00 00 00
       0.0 0.0 0.0 0.0
0003c0 00 00 00 00 00 00 00 00 00 00 00 00 00 00 00 00
       0.0 0.0 0.0 0.0
0003d0 00 00 00 00 00 00 00 00 00 00 00 00 00 00 00 00
       0.0 0.0 0.0 0.0
0003e0 00 00 00 00 00 00 00 00 00 00 00 00 00 00 00 00
       0.0 0.0 0.0 0.0
0003f0 00 00 00 00 00 00 80 3f 00 00 00 00 00 00 00 00
       0.0 1.0 0.0 0.0

layers.jordan.hx.bias f4 [16]
000000 b8 71 9a 3c c5 b5 01 3d 9c d9 24 3c fd d5 0f 3e
       0.018853053 0.03166749 0.010061648 0.14046474
000010 35 bb 36 3e 41 a0 8e bd e2 3c 8a bd cb a1 d1 be
       0.17844851 -0.0696416 -0.06749894 -0.4094375
000020 b1 9c 89 bd da 8b 30 bd 57 16 b5 3d cc 94 57 3d
       -0.0671934 -0.043102123 0.088421516 0.052632138
000030 ae c3 0d be e8 7f 07 3e 19 8e 19 3e 54 d0 85 be
       -0.13844177 0.13232386 0.14995612 -0.26135504

layers.jordan.hx.weight f4 [16, 22]
000000 82 22 cc be e8 02 76 bd 04 bc 8a bd e7 d5 4b bf
       -0.39870077 -0.060061365 -0.067741424 -0.79623264
000010 8b 61 ca 3d ab 6f ec bd c4 d3 f0 3d 7b 19 11 3e
       0.09881886 -0.115447365 0.11759141 0.14169876
000020 84 43 95 bd 40 10 dc 3d a3 73 41 3e 70 37 59 bd
       -0.07288268 0.10745287 0.18891768 -0.053031385
000030 db cb 21 be c4 f9 5b 3d 87 7c d6 bd 36 85 ba 3d
       -0.15800421 0.053704992 -0.104729705 0.09107439
000040 57 b3 a8 3b 18 ea 98 3d 47 6b 57 3e 99 17 c3 bc
       0.005148332 0.07466525 0.21037017 -0.023814963
000050 3b b2 84 3e f7 8a 41 3e 3a f5 dd be b3 75 1c 3e
       0.2591723 0.18900667 -0.43351156 0.15279274
000060 8d 79 51 bd 68 d3 0f bf 09 53 5b bd f9 97 3f be
       -0.05114131 -0.56181955 -0.053545985 -0.18710317
000070 3d 18 07 be 71 16 78 3e 00 1f 03 bc 3c 46 ce 3c
       -0.1319284 0.2422731 -0.008002996 0.025179975
000080 73 ca 40 bd a7 e9 f1 bd 79 c1 12 3e 6f c0 b0 3c
       -0.04706807 -0.11812144 0.14331616 0.021576134
000090 8f d0 75 bd 98 45 85 bd 48 c1 c2 bd 15 31 53 bd
       -0.06001335 -0.065074146 -0.09509522 -0.05156048
0000a0 5b 19 2f 3d ea 19 26 3e c9 7c 0b be 9e 0b 72 3d
       0.04274879 0.16220823 -0.1362182 0.05909311
0000b0 92 2f 2e 3e 18 05 3a be 19 62 73 bd a4 93 c7 3e
       0.17010334 -0.18166006 -0.059419725 0.38979828
0000c0 3f 74 ab bd e9 78 fe bc bd bc 58 be 15 e8 08 3e
       -0.083717816 -0.031063514 -0.21165748 0.13369782
0000d0 b6 69 63 3e c1 09 34 3d 52 76 82 bc f9 3d 53 be
       0.22208294 0.043954615 -0.01592556 -0.2062911
0000e0 89 1e 80 be 88 67 56 bd d4 65 9e 3d de 8c 5f 3e
       -0.25023296 -0.05234483 0.07734266 0.2183108
0000f0 02 9f 8e be 27 2c 62 3d 6d 77 d3 bd b3 85 ee bd
       -0.27855688 0.05521789 -0.10325513 -0.11646595
000100 33 73 8f be d0 24 42 be f7 cd bf bd b6 1e bc 3d
       -0.28017578 -0.18959355 -0.093654566 0.09185545
000110 f6 22 57 be 69 06 c5 bd 96 e2 26 3e 35 57 a3 bc
       -0.2100943 -0.09620363 0.16297373 -0.019939044
000120 42 e8 b6 3d 38 38 06 bd 07 fd 19 3d 58 f1 d5 3d
       0.089310184 -0.032768458 0.03759482 0.10446423
000130 c6 23 aa bd f1 f1 03 bb e6 2d b6 3d 72 e2 96 bd
       -0.083076045 -0.0020133222 0.08895473 -0.0736741
000140 df 82 89 3e 81 e0 53 3e f5 90 3f 3d 45 66 0e 3d
       0.2685766 0.2069111 0.0467691 0.0347655
000150 78 da 0e 3e 9d be 2a 3c bd 12 b4 3d 0c b2 cd 3c
       0.13950527 0.010421422 0.087926365 0.025109313
000160 24 f8 c3 3b 87 43 0f 3e ed 36 9b 3d 8a f7 df 3b
       0.0059805084 0.13990603 0.07578836 0.006834929
000170 8f a9 61 be 4c 57 7e be 7a 25 df bd 7b d5 58 3e
       -0.22037338 -0.24837989 -0.1089582 0.21175186
000180 92 77 8c bc a7 f2 f6 bc 64 83 14 bd af e4 37 be
       -0.01714686 -0.030145003 -0.036258116 -0.1795833
000190 b4 78 8b bd f5 49 e2 ba 12 80 01 3e 58 84 d1 bd
       -0.06810132 -0.0017264473 0.12646511 -0.10230321
0001a0 98 7f 72 3d 97 95 dc bd 3a f5 17 3b 8d 8c c9 bd
       0.059203714 -0.107707195 0.0023186938 -0.09841261
0001b0 7b 63 a7 bd 37 59 ac bd 5b e6 40 3e 99 54 5d bd
       -0.08173271 -0.08415454 0.18837874 -0.054035757
0001c0 7f 0c 2d 3e b0 50 0c 3e 26 95 0e 3e 4d c9 4a be
       0.16899298 0.13702655 0.13924083 -0.19803353
0001d0 2b 09 8c bd 84 5e 74 3e a9 fe 75 3d 3e 4a 92 3e
       -0.06837686 0.2386418 0.060057316 0.28572267
0001e0 b8 c6 f2 3d 56 99 72 bd b1 41 d3 bd a3 4d 6c 3e
       0.11854309 -0.059228264 -0.10315264 0.23076491
0001f0 e9 be 83 3e 90 f4 36 3e 0f 77 95 3c ab 81 c1 3b
       0.2573159 0.1786673 0.018245248 0.00590535
000200 de cc 65 bc 9f 45 a7 bd 6e 56 e3 bd f1 0d de 3b
       -0.014025895 -0.08167576 -0.111004695 0.0067765643
000210 99 5a 2c bd 6d 5c 0e 3d e0 bd 12 3e a4 77 74 be
       -0.04207859 0.034756113 0.14330244 -0.23873764
000220 bf fe bc bd c5 6e 0d be 56 08 c2 3d 22 7f 27 be
       -0.092282765 -0.13811786 0.09474246 -0.16357091
000230 24 e4 37 be 89 84 22 be b8 e1 2d be fc c0 3a 3e
       -0.17958122 -0.1587087 -0.16980636 0.1823768
000240 32 03 56 3e f6 12 37 3d b1 19 d7 3d e7 db 91 bc
       0.20899656 0.044695817 0.10502947 -0.017805053
000250 39 17 ab 3d 34 cc 62 3e bb 4a c9 bd ca bd 1b 3e
       0.08354039 0.2214821 -0.09828707 0.15209118
000260 db 61 e3 bd f0 29 02 3e 90 c5 af 3d d6 25 dc 3d
       -0.11102649 0.1271131 0.08582604 0.10749404
000270 83 61 52 be 95 b9 c3 be dd a2 02 3e e5 0b 59 bd
       -0.2054501 -0.38227525 0.1275744 -0.05298986
000280 34 35 46 3d 54 84 51 3e 46 1e 8d 3c 9d a7 13 3e
       0.048390582 0.20460635 0.01722635 0.14419408
000290 6b 03 bf 3c df 42 16 be 16 4c 45 be 1e 2c bf bc
       0.02331706 -0.14673947 -0.19267306 -0.023336466
0002a0 97 68 2f bd dd 7a 96 3c 9e 88 39 bb fd 02 b9 3d
       -0.042824354 0.018369133 -0.002831019 0.09033773
0002b0 f7 a2 1d 3e 66 eb df bd b8 28 0d be 42 36 01 bd
       0.15394197 -0.109335706 -0.13785064 -0.031545885
0002c0 8d 77 19 3e ee a0 67 3d 55 79 6f bc e8 fd 08 be
       0.14987011 0.05654996 -0.01461633 -0.13378108
0002d0 f2 38 f9 3d 07 c9 28 3d 19 be cc bc 20 4e 34 3e
       0.121690646 0.04120734 -0.02499299 0.17607927
0002e0 37 0c 5e 3d 80 a0 ac bd 0e 5a bd bb 61 49 dc bd
       0.054210868 -0.084290504 -0.0057785576 -0.107561834
0002f0 13 eb 96 bd cd f1 18 3e 81 94 e8 bd c4 72 1d 3e
       -0.073690556 0.1493599 -0.1135645 0.15375811
000300 27 b5 35 bc aa 25 b4 bd b7 3c 19 be e5 b8 8a be
       -0.011090553 -0.08796246 -0.14964567 -0.27094188
000310 ef 8b 5b 3d 6b db 1a 3d 11 51 8a be 93 14 20 3e
       0.053600248 0.03780691 -0.27014974 0.15632848
000320 36 88 e8 bd b0 70 8b be 51 5d 5c 3e bc 17 a1 bd
       -0.11354105 -0.2723441 0.21519972 -0.07865855
000330 6d a6 d9 bd d4 26 41 3d 1c 78 af bd 5d 77 49 be
       -0.10627446 0.04715617 -0.08567831 -0.1967444
000340 ad b8 b2 3d bb f8 45 3e 70 80 ff bc e5 a0 d0 bd
       0.0872663 0.19333164 -0.031189173 -0.10186938
000350 9b 0b 43 3d fb 6a 05 be ee 7b 20 be 21 1c 8c 3d
       0.04761849 -0.13029091 -0.15672275 0.06841303
000360 ad 40 67 3c 56 2a dd bd 22 3a 64 3e 65 d4 e1 3d
       0.014114541 -0.107990906 0.22287801 0.11026839
000370 cd 94 fb 3d 74 6f 46 be 88 f0 27 be a0 bb 84 3e
       0.12284241 -0.19378453 -0.16400349 0.25924397
000380 77 0a d0 bd b5 80 65 be 45 0f 95 be 86 16 20 be
       -0.10158246 -0.22412379 -0.29113212 -0.15633592
000390 c1 1e 65 bd 79 34 3c bc 67 f2 4c be 16 81 20 3d
       -0.055937532 -0.01148712 -0.20014344 0.039185606
0003a0 5a f0 6d be db 61 3b be 86 74 19 bd 9f 40 ec 3d
       -0.23236218 -0.18299048 -0.03746464 0.11535763
0003b0 f6 a7 91 bd 21 44 92 3e 16 6c 8d 3e 04 69 57 3e
       -0.07112114 0.28567603 0.27621526 0.21036154
0003c0 4d 52 99 3e 28 5e 37 3e 91 50 5a 3e b1 78 2e be
       0.29945603 0.17907012 0.21319796 -0.17038228
0003d0 76 c9 0c be 2e d8 8b 3e 36 f9 84 be a4 70 3e be
       -0.13748726 0.2731337 -0.25971383 -0.18597656
0003e0 06 10 83 be 67 7d 3f 3e 0c 66 ae bb 15 96 dd bd
       -0.25598162 0.18700181 -0.0053222235 -0.108196415
0003f0 5b 5c 30 be 14 b3 f1 3d 49 24 70 bd d5 73 bd 3d
       -0.17222731 0.118017346 -0.058628354 0.09250609

layers.jordan.hy.bias f4 [16]
000000 0a d9 11 be 44 08 21 3d d9 e3 65 3e fb 72 94 3e
       -0.1424295 0.039314523 0.22450198 0.28993973
000010 a3 23 28 3e 01 47 8e 3e be 50 97 be 0a c6 41 be
       0.16419844 0.27788547 -0.2955379 -0.18923202
000020 54 96 88 3e 07 d4 5b be aa 32 49 3e 35 37 bf 3e
       0.2667719 -0.21467601 0.19648233 0.37346807
000030 b2 01 10 be e2 22 65 3e 3e 83 09 3e de 26 41 bb
       -0.14063147 0.22376588 0.13428971 -0.002947263

layers.jordan.hy.weight f4 [16, 22]
000000 83 18 9c be 7a 48 0c bd 99 d5 9c be d6 e2 99 be
       -0.3048745 -0.034248807 -0.30631712 -0.30055875
000010 10 bf 8a 3d b7 96 64 3e 73 82 5e 3d 43 ad c0 3d
       0.067747235 0.22323118 0.054323625 0.09408047
000020 32 0e c4 bd 29 46 61 3e b4 a3 af 3d 3b 8d 57 be
       -0.0957302 0.2199942 0.08576146 -0.21049969
000030 c4 67 37 3e 99 a9 e6 3d 4d 59 08 bd 0d 02 16 3e
       0.17910677 0.11262817 -0.03328829 0.1464922
000040 bf d8 30 3e 0c 8b 17 3e 39 68 78 bd 88 04 5b bd
       0.17270182 0.14799136 -0.06064627 -0.05347112
000050 5f 43 99 3d cf 0b f9 3d e5 46 82 be b2 6c 51 be
       0.07483553 0.121604554 -0.25444713 -0.2045162
000060 fc 13 d5 bd fb 0b ab be c1 c8 f3 3d 98 06 61 3c
       -0.10404202 -0.33407578 0.11903525 0.013734482
000070 4c fb 95 3c d9 ba df 3d 1e 29 44 be 3e 9f 76 3e
       0.018308304 0.1092431 -0.1915631 0.24084184
000080 8a 54 0a 3e 67 d3 e0 3c 38 04 86 3d 07 78 60 bd
       0.13508812 0.027444554 0.065437734 -0.054801967
000090 7c 71 83 3e b8 00 44 3d a9 84 ad 3d aa 6b 0a 3e
       0.2567252 0.047852248 0.084725685 0.13517633
0000a0 f6 df 14 be 87 53 ac 3d 9e 4a 26 be 4c ef a5 3e
       -0.1453856 0.08414369 -0.16239402 0.32409132
0000b0 82 b6 69 3e cc b5 62 3e 0b b7 9d 3d 69 80 a8 3e
       0.22823527 0.22139663 0.07700928 0.3291047
0000c0 81 e1 45 be ce 1f 62 be ca 3a 0d be 03 06 35 3e
       -0.19324304 -0.22082445 -0.13791957 0.17678075
0000d0 87 8f 0c be 2a 0b e0 3d 6c a8 0f be 93 da 60 3e
       -0.13726626 0.109396294 -0.14029092 0.2195838
0000e0 b9 63 9e be 4e 71 43 3e 3d e1 aa 3e 21 cb bc 3e
       -0.30935457 0.19086191 0.33374968 0.36873725
0000f0 98 e5 98 be a4 4a c7 bd 94 88 22 3e a0 4a 16 bd
       -0.29862666 -0.097310334 0.15872413 -0.03669226
000100 df 30 96 bd 73 b0 1e be 74 a2 f3 bd 4c a4 30 bd
       -0.0733354 -0.15496998 -0.1189622 -0.043125436
000110 23 56 80 be 74 82 ad be 99 f0 56 3e 1d 34 be bc
       -0.25065717 -0.3388859 0.20990218 -0.023218209
000120 e5 b8 57 3e 85 74 9e 3e a3 bf 11 be 47 ea cd 3d
       0.21066625 0.30948272 -0.1423326 0.100544505
000130 2b 1f 0f 3d 57 ae a6 bc f4 81 3c 3e b0 1d 03 3e
       0.034941833 -0.020346804 0.18408948 0.12804294
000140 42 c6 6d bc 61 59 4b 3e 1c f6 5d 3e 3b f2 a9 3d
       -0.0145126 0.19858314 0.21675915 0.08298155
000150 01 8b 18 bc 18 d9 c5 3d 65 48 b7 bd 4c c1 9d 3d
       -0.009310485 0.09660548 -0.08949355 0.07702884
000160 cb 21 b3 3a 61 3c 5c be 93 f2 06 bd e9 ed 36 3e
       0.0013666687 -0.21507408 -0.03294618 0.17864193
000170 ed 1d ce bd c4 ae 38 bd 21 20 93 be fe f9 26 3e
       -0.10064302 -0.045088544 -0.2873545 0.16306302
000180 12 43 59 bd f5 29 9b bd d0 1c 7e bd e9 02 df ba
       -0.05304248 -0.07576362 -0.062039196 -0.0017014417
000190 64 7a 91 bd 45 7c af 3c e3 4a 5d bd fb 52 44 bc
       -0.07103422 0.021421561 -0.054026496 -0.011982675
0001a0 78 01 19 3d 17 5c 66 3e cd 76 02 3e 1f fb 25 3e
       0.037354916 0.22496067 0.12740631 0.16209076
0001b0 b3 79 12 3e 97 8f f5 3b e3 76 62 bc c2 c1 52 bc
       0.14304237 0.007493924 -0.01382229 -0.012863578
0001c0 64 5e df bd 37 d7 93 3e a0 d6 67 3e 48 f4 c4 bc
       -0.109066755 0.28875133 0.22640467 -0.024042264
0001d0 00 4b 87 be c4 c6 4e 3e 73 bb d5 3a 0b ad 23 3e
       -0.26424408 0.2019301 0.0016306475 0.1598398
0001e0 e1 38 96 bd 17 10 14 be 6f 9a cb bd 0c 5d ae 3c
       -0.073350675 -0.14459263 -0.09941565 0.021284603
0001f0 1e 25 9e bd 7c 84 a7 3e 27 9d 80 bd 86 e5 1b be
       -0.07721923 0.32718265 -0.062799744 -0.15224275
000200 4a 1d fb bd 2a ae 45 be 1b ef d2 bc 9f 9d 82 bd
       -0.12261446 -0.1930472 -0.02574878 -0.0637772
000210 ab db ce bd be e9 98 3e 8c c8 15 3d a7 61 98 be
       -0.10100492 0.2986583 0.03656821 -0.29762003
000220 88 98 80 be 37 7c 56 be a0 b3 3d 3e bf ae 28 be
       -0.25116372 -0.20945822 0.18525553 -0.1647291
000230 1c ff fa bc f2 3d d3 bd a5 13 61 be b0 6c 56 be
       -0.030639224 -0.103145495 -0.2198015 -0.20939898
000240 ee 75 70 3e 14 37 a5 3d dc 9d 1c bd 8f ab 40 bd
       0.23482487 0.08067146 -0.038236484 -0.04703861
000250 c7 39 a2 bd 2d 39 12 3d 23 f2 73 3e ac 6c 94 3e
       -0.079211764 0.03569906 0.23822837 0.2898916
000260 80 5f 28 3e d0 10 d6 bc 13 f6 9b 3e f2 64 e3 3d
       0.1644268 -0.026131064 0.30461177 0.11103238
000270 87 d6 4b bd 4f 8e 3e be f1 ab 22 bd b3 df ab bd
       -0.049765136 -0.18608974 -0.039714757 -0.083922766
000280 99 36 7a be 86 fe 16 bd ad 10 f4 3d 1c 51 00 3d
       -0.2443489 -0.036863826 0.11917243 0.031327352
000290 c9 01 3f 3e 5d 90 03 be 73 f5 b7 bd 5e bd 3d 3e
       0.18653025 -0.12848039 -0.089823626 0.18529269
0002a0 26 41 3f 3e ba ab 92 3d 8c 98 45 be 07 a9 2a be
       0.18677196 0.071616605 -0.19296473 -0.16666041
0002b0 47 e9 18 be c7 7d 85 bd 1c f8 d7 3c 31 45 06 3e
       -0.14932738 -0.06518131 0.026363425 0.13112332
0002c0 8c 48 ae bd 78 81 07 3d d7 73 68 be 71 86 b4 3e
       -0.08509931 0.033082455 -0.2270044 0.3525882
0002d0 b8 86 82 3e c1 88 47 bc 4f 89 2c 3e 6e 42 05 bc
       0.25493407 -0.012178601 0.16849254 -0.008133514
0002e0 9c 49 d6 3d f7 5c 0f 3d 4d 82 1a 3e ee 09 f0 3c
       0.104632586 0.035000768 0.15088768 0.02930161
0002f0 c2 59 ff 3d c3 10 0f 3e 26 ac 51 3e 3c 65 49 3e
       0.12468292 0.13971238 0.20475826 0.19667524
000300 e1 dd dc 3d c0 44 f1 3d 23 9c a1 be 11 bd 8a be
       0.107845075 0.11780691 -0.31564435 -0.2709737
000310 17 02 cc bd 03 fc 49 bb 09 dd 66 3e bb 07 90 3d
       -0.09961336 -0.0030820377 0.22545256 0.070327245
000320 04 3a 34 bd d4 55 27 be 47 a6 30 be bb b3 ab bd
       -0.04400064 -0.16341335 -0.1725093 -0.0838389
000330 f3 cf 80 3d 8d d2 3e be 3a b9 b8 bd 5d 3f 21 be
       0.06289663 -0.18635006 -0.09019704 -0.15746827
000340 7a ef b7 bd 89 8f 60 be f0 c1 ec 3d 9a 31 3f 3e
       -0.089812234 -0.21929754 0.11560428 0.18671265
000350 6e 94 6e be 60 08 28 3b 66 b2 b1 3c 3a 2e 1a 3e
       -0.23298809 0.0025639758 0.021691512 0.15056697
000360 eb eb 88 3c 68 0a 91 bd 65 35 11 3e 2a 9b 85 3e
       0.016714057 -0.07082063 0.14180525 0.26094943
000370 39 60 39 bd 08 bf 40 be 35 6b a0 3e e4 8a 19 3e
       -0.04525778 -0.18822873 0.31331792 0.14994389
000380 86 32 81 be 95 39 74 be d5 d8 67 be 25 fd 81 bd
       -0.2523386 -0.23850091 -0.22641309 -0.063471116
000390 c8 12 5b be 99 a9 07 be 69 64 d2 bd da 31 d9 3d
       -0.21393883 -0.1324829 -0.10273058 0.106052116
0003a0 b4 86 93 bd 70 0c 48 bd 12 64 98 be c2 82 2b 3d
       -0.07203427 -0.048839986 -0.29763848 0.041872747
0003b0 6e 54 2f 3e b6 f8 6d bd ee f6 0e 3e ee fa 58 3e
       0.17122051 -0.058098517 0.13961384 0.21189472
0003c0 94 05 c6 3d 41 28 3b be 2f 15 79 3d ad 1a a4 3d
       0.09669033 -0.18277074 0.060811218 0.080129005
0003d0 60 1c 7b bd fd 20 85 3e 72 64 95 3c e6 c6 a3 be
       -0.061306357 0.2600173 0.018236373 -0.31987685
0003e0 32 4b 20 be 16 5e b5 3d a9 b6 07 3e 93 2e b6 bd
       -0.15653685 0.08855836 0.13253273 -0.08895602
0003f0 99 bb 8e bc 4e 03 ad bd 49 0a 07 bd 17 5c cd bd
       -0.017423438 -0.08447896 -0.032968793 -0.1002733

layers.jordan.lm_head.bias f4 [22]
000000 1c a3 17 bf 7d bf 21 bf 80 5f f2 be 73 47 b2 3e
       -0.5923326 -0.6318281 -0.47338486 0.34820136
000010 b2 c2 4c ba ec 5d 51 3c 84 40 3f bb c9 2a bc 3d
       -0.0007810994 0.01277874 -0.0029182741 0.09187848
000020 70 4f 33 3e 18 5e 54 3e e3 25 c8 3d 61 0c c3 3d
       0.17510772 0.20739019 0.09772851 0.095238455
000030 2c 93 56 3e f1 11 7f 3d aa d3 0a 3e a1 cb 8f 3c
       0.20954579 0.06227297 0.13557306 0.017553153
000040 32 b3 4e 3e 78 bb 7e 3c b2 4d 99 bc 67 5f 42 3e
       0.20185545 0.015547626 -0.018713806 0.18981706
000050 7a 50 50 bd 51 fb f2 bc
       -0.050858 -0.029660853

layers.jordan.lm_head.weight f4 [22, 16]
000000 f4 26 aa be be 11 b9 be 3b 53 b5 bc 7f cc f3 be
       -0.33232844 -0.3614635 -0.022134414 -0.47616956
000010 6a 6d 81 be f5 3f 51 3d 1c 45 4d 3e 31 81 b8 3e
       -0.2527879 0.051086385 0.20045894 0.36036065
000020 22 c1 39 be 49 02 77 3d 9a ab cb bd 43 b4 bc be
       -0.1814008 0.060304914 -0.0994484 -0.3685628
000030 91 d7 26 3e c0 45 a1 be 01 93 89 3c 0c bc 8a 3e
       0.1629317 -0.31498528 0.01679373 0.27096593
000040 f6 f8 0b be ea 6d ac be d2 25 7a 3e f1 65 8e be
       -0.1366919 -0.33677608 0.2442849 -0.2781215
000050 2b 40 99 be 36 cf 12 be e9 94 27 bd e8 27 e4 3e
       -0.2993177 -0.14336857 -0.040913496 0.44561696
000060 e7 3a 82 be c2 8e 81 3e af 4c d7 3d a3 97 92 be
       -0.25435564 0.25304228 0.10512673 -0.28631315
000070 57 ec 32 bc b4 d1 42 bd fa 5d 99 bd 34 f3 a5 3d
       -0.010920606 -0.04756327 -0.07488628 0.08103028
000080 0d ac dc 3c 4b 93 8b be f6 66 b1 3e 4a 6e eb be
       0.026937509 -0.27260813 0.34648865 -0.4598258
000090 6f 05 20 bd 0a be 89 be 12 9e 33 3e ef e5 16 3f
       -0.039067682 -0.269028 0.17540768 0.589446
0000a0 c6 d9 28 bd 41 a0 39 3d 93 a7 da bd 82 4f 50 bb
       -0.04122331 0.045318846 -0.106764935 -0.0031785672
0000b0 51 3e 25 be d1 b2 a2 be bc 22 97 be de 28 be 3e
       -0.16137053 -0.3177705 -0.29518688 0.37140554
0000c0 9c 6e 05 3f fd 4e 1f 3f 3b bc 7d 3f 99 24 0e 3f
       0.521219 0.622299 0.9911534 0.55524594
0000d0 c9 7f ef bc c4 78 7e 3f 94 55 c6 be bc e8 74 3f
       -0.029235737 0.99403024 -0.38737166 0.95667624
0000e0 bf 16 0e 3f 9c 63 f8 be c0 07 43 bf 24 51 59 3e
       0.5550346 -0.48513496 -0.761837 0.21222359
0000f0 c3 9a 9d 3f a2 c9 03 3f 77 de e4 3d ac 68 95 3f
       1.2312855 0.5147954 0.11175244 1.1672568
000100 c4 c3 37 bf bf b6 af be d4 70 9a 3e 1d e9 08 bf
       -0.7178309 -0.34319112 0.30164206 -0.534807
000110 3c 87 08 3e cd 38 f7 3e 97 1d e0 be 10 94 b8 be
       0.13332838 0.48285523 -0.43772575 -0.36050463
000120 2c 3b 86 3d 26 ba 65 be dc ae e3 3e 63 ed 9d 3e
       0.06554255 -0.22434291 0.44469345 0.30845174
000130 2d 9c 4d be af 2a 0c 3f 9d 29 b6 3e 72 2e 15 be
       -0.20079108 0.5475263 0.35578623 -0.14568499
000140 07 04 19 bf 09 34 16 bf 7f 7b 08 3f 9a 3c 84 be
       -0.5977177 -0.5867315 0.5331344 -0.25827485
000150 9b db 98 3e ee 99 fc 3e ff 6b d4 be f9 1e 81 be
       0.29855046 0.4933619 -0.41488644 -0.25218943
000160 a6 ba 8b bb 46 16 40 be 7d 38 cb 3e 93 ff bb 3e
       -0.0042641936 -0.18758497 0.39691535 0.36718425
000170 e2 ef de bd 03 f8 d5 3e 48 10 3b 3e 0c 87 0a bf
       -0.10885598 0.4179078 0.1826793 -0.54112315
000180 7f 8e 3f bf 48 a4 d7 be e3 71 fc 3e e7 b7 60 be
       -0.74826807 -0.42117524 0.4930564 -0.21945153
000190 a2 7c 06 3c d0 7f a1 3e df cc 7b be df e5 60 be
       0.008208426 0.31542826 -0.24589871 -0.21962689
0001a0 07 76 0f 3e ea f9 a9 be 2b 12 fa 3e 10 39 10 3f
       0.14009868 -0.33198482 0.48841986 0.5633707
0001b0 97 62 ee be 95 7c d8 3e cd 62 93 3e 69 92 8f be
       -0.46559593 0.4228255 0.28786317 -0.2804139
0001c0 9b 95 e5 3e 71 e7 25 3e 67 08 08 bf 9c 5c be 3c
       0.44840702 0.16201569 -0.5313782 0.023237519
0001d0 54 de 5c 3e fb 24 db be 57 8c 1d 3f 3b d5 8a bd
       0.21569186 -0.4280165 0.61542267 -0.06778952
0001e0 58 89 c7 be fd a5 1e 3f 50 5a 29 3f 5e 56 cb 3e
       -0.38971972 0.6197203 0.6615343 0.3971433
0001f0 bf 9f a6 3e 0d 2c 99 3c c8 17 7c 3e 22 1b 91 3e
       0.32543752 0.018697763 0.24618447 0.28341013
000200 a4 a7 94 3e 7b eb 79 3e ed 42 9b be ee a8 c6 3d
       0.2903415 0.24406235 -0.30324498 0.097001895
000210 72 d0 86 3e 7d a0 ac be ef 3b 18 3f 4f 58 15 be
       0.26330906 -0.33716193 0.5946645 -0.14584468
000220 ca 3d 2f bf cd 32 c9 3e cf bc fb 3e 5c ac f5 3e
       -0.6845366 0.3929657 0.49167487 0.47983062
000230 8c e9 8d 3e ae b3 52 bd 94 32 6f 3e 31 57 e8 3e
       0.27717245 -0.051440887 0.23359138 0.45379022
000240 68 49 09 3f f2 08 25 bd 1a aa 18 be 52 f8 71 3d
       0.53627634 -0.040291734 -0.14908639 0.059074707
000250 a1 f7 c1 3d a8 84 94 be 44 29 32 3f 95 81 a1 be
       0.094710596 -0.2900746 0.69594216 -0.31544176
000260 d2 01 2e bf 6a 1f 8d 3e 99 88 ee 3e 59 49 f9 3e
       -0.6797153 0.2756303 0.4658859 0.48688772
000270 de 88 2a 3f 14 90 8f be db ee 3f 3e 08 f3 21 3e
       0.6661509 -0.2803961 0.1874346 0.15815365
000280 0f b8 41 bf 9f 01 e1 be fa f0 f5 3e bb 20 85 be
       -0.75671476 -0.4394655 0.48035413 -0.26001534
000290 30 f8 b2 3e 98 e2 ab 3e 2d ee 89 be ec 3c 74 be
       0.34954977 0.33571315 -0.26939526 -0.23851365
0002a0 5b 6e 9b 3e 96 49 04 be c2 a8 00 3f e5 17 e4 3d
       0.30357632 -0.12918696 0.50257504 0.1113737
0002b0 2b 95 c1 be 3f e2 e6 3e 82 3a cb 3e 30 af 10 be
       -0.3780912 0.45094487 0.39693075 -0.14129329
0002c0 24 65 eb be 94 55 0f bf bb e7 18 3f 4e b5 16 bf
       -0.45975602 -0.55989957 0.5972859 -0.588704
0002d0 ee cb a1 3e 3b 5e b2 3e af e8 9d be 90 de 55 be
       0.31600899 0.34837517 -0.30841586 -0.20885682
0002e0 a2 6d a9 bd 28 2e e5 be 22 2e e8 3d 6c f8 f2 3e
       -0.08272864 -0.44761777 0.11336924 0.47455156
0002f0 9f 70 12 be b0 09 d9 3e 6c b6 a0 3e 73 e9 b4 be
       -0.14300774 0.42390203 0.31389177 -0.35334358
000300 4c 92 c1 be 85 05 17 bf e4 b5 14 3f 7a 6d 0a bf
       -0.37806928 -0.589928 0.58090043 -0.540733
000310 91 b3 c1 3d 5e 7e 8c 3e 3e 01 78 be e5 cf 61 be
       0.09458078 0.2744016 -0.24219224 -0.22051962
000320 a9 61 e2 3d da 85 7b bd d3 76 a2 3e c3 8c ec 3e
       0.110537834 -0.061406948 0.3173128 0.46201143
000330 e5 01 d7 be 28 12 61 3e ee b4 be 3e b5 8a 03 bf
       -0.41993633 0.21979582 0.37247413 -0.51383525
000340 c5 01 2c 3e b5 22 21 3b 8e a6 e9 be b2 2f 67 3e
       0.1679755 0.0024587337 -0.45634884 0.22576788
000350 a0 3e b8 3e a5 0d 57 bd be d7 e4 3e ae c5 a7 be
       0.3598528 -0.052503247 0.44695848 -0.32768005
000360 3e 13 35 bf 84 94 bc 3e 79 95 06 3f 5b ec 44 3c
       -0.70732486 0.36832058 0.5257183 0.012019242
000370 66 93 04 3f 6d 0a c0 be 33 f5 eb 3e 78 94 02 3f
       0.5178741 -0.37507954 0.4608551 0.51007795
000380 25 95 d2 3e 12 75 0f 3e fc 1c a2 be 43 73 23 3e
       0.41129413 0.14009503 -0.31662738 0.15961938
000390 75 79 73 3e b6 62 e7 be 53 8c eb 3e ba 54 16 be
       0.23776801 -0.45192498 0.46005496 -0.14680758
0003a0 ed 4f 04 bf e2 93 0a 3f 57 e1 1b 3f 89 d7 bf 3e
       -0.5168446 0.541319 0.60890716 0.37469128
0003b0 07 94 bd 3e d4 91 f0 bb 41 6e df 3d 28 3e 01 3f
       0.37026998 -0.007341603 0.10909701 0.5048547
0003c0 b0 e7 dc 3e 6f 0d 8e 3e ff f2 e5 be 03 9a b3 3d
       0.43145514 0.27744624 -0.44911954 0.0876961
0003d0 60 dd ee 3e 28 9c 98 be d2 7f 08 3f 8e c7 2f bd
       0.4665327 -0.29806638 0.5332004 -0.04291492
0003e0 74 da 0c bf c8 9c d3 3e 0d 22 1d 3f f9 34 31 3e
       -0.55020833 0.41330552 0.6138008 0.17305364
0003f0 45 8e 15 3f e0 f7 db bd 18 93 ac 3e 64 d4 05 3e
       0.5842021 -0.10740638 0.33705974 0.13069302
