jordan_elman_2024/exp1/jordan_sequence_level/run_27/export/model.safetensors (safetensors, 6976 bytes, 7 tensors)

layers.embed.emb.weight f4 [22, 22]
000000 00 00 80 3f 00 00 00 00 00 00 00 00 00 00 00 00
       1.0 0.0 0.0 0.0
000010 00 00 00 00 00 00 00 00 00 00 00 00 00 00 00 00
       0.0 0.0 0.0 0.0
000020 00 00 00 00 00 00 00 00 00 00 00 00 00 00 00 00
       0.0 0.0 0.0 0.0
000030 00 00 00 00 00 00 00 00 00 00 00 00 00 00 00 00
       0.0 0.0 0.0 0.0
000040 00 00 00 00 00 00 00 00 00 00 00 00 00 00 00 00
       0.0 0.0 0.0 0.0
000050 00 00 00 00 00 00 00 00 00 00 00 00 00 00 80 3f
       0.0 0.0 0.0 1.0
000060 00 00 00 00 00 00 00 00 00 00 00 00 00 00 00 00
       0.0 0.0 0.0 0.0
000070 00 00 00 00 00 00 00 00 00 00 00 00 00 00 00 00
       0.0 0.0 0.0 0.0
000080 00 00 00 00 00 00 00 00 00 00 00 00 00 00 00 00
       0.0 0.0 0.0 0.0
000090 00 00 00 00 00 00 00 00 00 00 00 00 00 00 00 00
       0.0 0.0 0.0 0.0
0000a0 00 00 00 00 00 00 00 00 00 00 00 00 00 00 00 00
       0.0 0.0 0.0 0.0
0000b0 00 00 00 00 00 00 00 00 00 00 80 3f 00 00 00 00
       0.0 0.0 1.0 0.0
0000c0 00 00 00 00 00 00 00 00 00 00 00 00 00 00 00 00
       0.0 0.0 0.0 0.0
0000d0 00 00 00 00 00 00 00 00 00 00 00 00 00 00 00 00
       0.0 0.0 0.0 0.0
0000e0 00 00 00 00 00 00 00 00 00 00 00 00 00 00 00 00
       0.0 0.0 0.0 0.0
0000f0 00 00 00 00 00 00 00 00 00 00 00 00 00 00 00 00
       0.0 0.0 0.0 0.0
000100 00 00 00 00 00 00 00 00 00 00 00 00 00 00 00 00
       0.0 0.0 0.0 0.0
000110 00 00 00 00 00 00 80 3f 00 00 00 00 00 00 00 00
       0.0 1.0 0.0 0.0
000120 00 00 00 00 00 00 00 00 00 00 00 00 00 00 00 00
       0.0 0.0 0.0 0.0
000130 00 00 00 00 00 00 00 00 00 00 00 00 00 00 00 00
       0.0 0.0 0.0 0.0
000140 00 00 00 00 00 00 00 00 00 00 00 00 00 00 00 00
       0.0 0.0 0.0 0.0
000150 00 00 00 00 00 00 00 00 00 00 00 00 00 00 00 00
       0.0 0.0 0.0 0.0
000160 00 00 00 00 00 00 00 00 00 00 00 00 00 00 00 00
       0.0 0.0 0.0 0.0
000170 00 00 80 3f 00 00 00 00 00 00 00 00 00 00 00 00
       1.0 0.0 0.0 0.0
000180 00 00 00 00 00 00 00 00 00 00 00 00 00 00 00 00
       0.0 0.0 0.0 0.0
000190 00 00 00 00 00 00 00 00 00 00 00 00 00 00 00 00
       0.0 0.0 0.0 0.0
0001a0 00 00 00 00 00 00 00 00 00 00 00 00 00 00 00 00
       0.0 0.0 0.0 0.0
0001b0 00 00 00 00 00 00 00 00 00 00 00 00 00 00 00 00
       0.0 0.0 0.0 0.0
0001c0 00 00 00 00 00 00 00 00 00 00 00 00 00 00 80 3f
       0.0 0.0 0.0 1.0
0001d0 00 00 00 00 00 00 00 00 00 00 00 00 00 00 00 00
       0.0 0.0 0.0 0.0
0001e0 00 00 00 00 00 00 00 00 00 00 00 00 00 00 00 00
       0.0 0.0 0.0 0.0
0001f0 00 00 00 00 00 00 00 00 00 00 00 00 00 00 00 00
       0.0 0.0 0.0 0.0
000200 00 00 00 00 00 00 00 00 00 00 00 00 00 00 00 00
       0.0 0.0 0.0 0.0
000210 00 00 00 00 00 00 00 00 00 00 00 00 00 00 00 00
       0.0 0.0 0.0 0.0
000220 00 00 00 00 00 00 00 00 00 00 80 3f 00 00 00 00
       0.0 0.0 1.0 0.0
000230 00 00 00 00 00 00 00 00 00 00 00 00 00 00 00 00
       0.0 0.0 0.0 0.0
000240 00 00 00 00 00 00 00 00 00 00 00 00 00 00 00 00
       0.0 0.0 0.0 0.0
000250 00 00 00 00 00 00 00 00 00 00 00 00 00 00 00 00
       0.0 0.0 0.0 0.0
000260 00 00 00 00 00 00 00 00 00 00 00 00 00 00 00 00
       0.0 0.0 0.0 0.0
000270 00 00 00 00 00 00 00 00 00 00 00 00 00 00 00 00
       0.0 0.0 0.0 0.0
000280 00 00 00 00 00 00 80 3f 00 00 00 00 00 00 00 00
       0.0 1.0 0.0 0.0
000290 00 00 00 00 00 00 00 00 00 00 00 00 00 00 00 00
       0.0 0.0 0.0 0.0
0002a0 00 00 00 00 00 00 00 00 00 00 00 00 00 00 00 00
       0.0 0.0 0.0 0.0
0002b0 00 00 00 00 00 00 00 00 00 00 00 00 00 00 00 00
       0.0 0.0 0.0 0.0
0002c0 00 00 00 00 00 00 00 00 00 00 00 00 00 00 00 00
       0.0 0.0 0.0 0.0
0002d0 00 00 00 00 00 00 00 00 00 00 00 00 00 00 00 00
       0.0 0.0 0.0 0.0
0002e0 00 00 80 3f 00 00 00 00 00 00 00 00 00 00 00 00
       1.0 0.0 0.0 0.0
0002f0 00 00 00 00 00 00 00 00 00 00 00 00 00 00 00 00
       0.0 0.0 0.0 0.0
000300 00 00 00 00 00 00 00 00 00 00 00 00 00 00 00 00
       0.0 0.0 0.0 0.0
000310 00 00 00 00 00 00 00 00 00 00 00 00 00 00 00 00
       0.0 0.0 0.0 0.0
000320 00 00 00 00 00 00 00 00 00 00 00 00 00 00 00 00
       0.0 0.0 0.0 0.0
000330 00 00 00 00 00 00 00 00 00 00 00 00 00 00 80 3f
       0.0 0.0 0.0 1.0
000340 00 00 00 00 00 00 00 00 00 00 00 00 00 00 00 00
       0.0 0.0 0.0 0.0
000350 00 00 00 00 00 00 00 00 00 00 00 00 00 00 00 00
       0.0 0.0 0.0 0.0
000360 00 00 00 00 00 00 00 00 00 00 00 00 00 00 00 00
       0.0 0.0 0.0 0.0
000370 00 00 00 00 00 00 00 00 00 00 00 00 00 00 00 00
       0.0 0.0 0.0 0.0
000380 00 00 00 00 00 00 00 00 00 00 00 00 00 00 00 00
       0.0 0.0 0.0 0.0
000390 00 00 00 00 00 00 00 00 00 00 80 3f 00 00 00 00
       0.0 0.0 1.0 0.0
0003a0 00 00 00 00 00 00 00 00 00 00 00 00 00 00 00 00
       0.0 0.0 0.0 0.0
0003b0 00 00 00 00 00 00 00 00 00 00 00 00 00 00 00 00
       0.0 0.0 0.0 0.0
0003c0 00 00 00 00 00 00 00 00 00 00 00 00 00 00 00 00
       0.0 0.0 0.0 0.0
0003d0 00 00 00 00 00 00 00 00 00 00 00 00 00 00 00 00
       0.0 0.0 0.0 0.0
0003e0 00 00 00 00 00 00 00 00 00 00 00 00 00 00 00 00
       0.0 0.0 0.0 0.0
0003f0 00 00 00 00 00 00 80 3f 00 00 00 00 00 00 00 00
       0.0 1.0 0.0 0.0

layers.jordan.hx.bias f4 [16]
000000 14 50 a5 3d 73 99 2e be 87 5c 9f bd 86 1c dd bd
       0.08071914 -0.17050724 -0.0778132 -0.10796456
000010 2d 90 a5 3e 81 1d b7 3c 91 f6 f6 bc 33 c4 8a 3e
       0.3233656 0.022352936 -0.030146869 0.27102813
000020 ff 0d d2 3e b9 e3 27 bd b7 e2 fa bd 3c d9 a4 bd
       0.41026303 -0.040988658 -0.12250274 -0.08049247
000030 0f 82 b1 be c7 db 40 3d 5d 8d 31 bd 68 bd 6f be
       -0.3466954 0.047084596 -0.043347705 -0.23412097

layers.jordan.hx.weight f4 [16, 22]
000000 b1 5d cf be c5 42 ad bd 87 9a 9a bd c9 fe 4c bf
       -0.40501168 -0.08460001 -0.07549005 -0.8007627
000010 2d 03 22 3f c8 49 30 3f 39 5f 0c 3f 80 72 03 3f
       0.63286096 0.6886258 0.548328 0.5134659
000020 00 6f 9e 3e 39 43 bd 3e 75 70 0e 3f da eb 08 3f
       0.3094406 0.3696535 0.55640346 0.5348488
000030 fb be 18 3f 51 31 d4 3e 8a 04 9a 3e 9a 7e 04 3f
       0.59666413 0.41443875 0.30081588 0.5175568
000040 1f 8c 2f bf f2 ca 3e bf 9f 90 35 bf 93 b8 3a bf
       -0.6857318 -0.7452842 -0.709238 -0.7293789
000050 0a d5 3a bf eb d1 37 bf 17 7d fb bd 48 8a ba 3d
       -0.7298132 -0.71804684 -0.12279718 0.09108406
000060 91 c5 98 bd fb aa db be c0 1b 8b 3f 2b c4 89 3f
       -0.07459558 -0.42903885 1.0867844 1.0762991
000070 4f 7d 7b 3f f7 f3 15 bf 91 72 da be bd 64 0c bf
       0.9823808 -0.58575386 -0.42665532 -0.54841214
000080 61 4b 60 3f ec a5 81 3f 68 60 65 3f e9 2a 1a bf
       0.8761502 1.012876 0.8960023 -0.60221726
000090 53 bf 04 bf d6 93 09 bf 16 f6 8d be 81 b9 f1 be
       -0.5185444 -0.53741205 -0.2772681 -0.4721184
0000a0 57 be b9 be 12 84 0e bf a4 9a fe be 42 d1 08 bf
       -0.3627803 -0.55670273 -0.49727356 -0.534443
0000b0 75 b9 94 3e 09 a0 4b be 2b 0d e8 3d 7b a4 1d 3f
       0.29047742 -0.19885267 0.113306366 0.615791
0000c0 62 08 f9 be f3 af cb be bf 40 18 bf 84 03 25 bf
       -0.48639208 -0.39782676 -0.59473795 -0.6445849
0000d0 ca 6c 24 bf 99 53 31 bf c0 b5 af be f2 b7 e2 be
       -0.642285 -0.69268185 -0.34318352 -0.44280964
0000e0 88 dd dc be ee cd 31 bf 63 27 33 bf 83 d8 1d bf
       -0.43137765 -0.6945485 -0.69981974 -0.61658496
0000f0 dd cc 70 3f 34 bb 69 3f 4b 8d 5f 3f be eb 50 3f
       0.94062597 0.91301274 0.8732497 0.81609714
000100 18 10 4a 3f bb d8 4c 3f 98 1c e0 3d 6c 23 11 3d
       0.7893081 0.80018204 0.10942954 0.03543417
000110 be d1 58 bc ec 6c d3 bd 73 26 53 3d 3b 8a c0 3e
       -0.0132336 -0.103235096 0.05155034 0.3760546
000120 0e c4 11 3e 24 21 77 3e 31 b3 bf 3d 57 01 fe 3e
       0.14234945 0.24133736 0.0936035 0.49610397
000130 71 00 f5 be 05 a4 b3 be 09 78 d0 be fa e6 f7 3e
       -0.478519 -0.35086074 -0.4071658 0.4841841
000140 60 b9 b5 3e ea b8 f6 3e 11 dd c6 be ab 3d 7a be
       0.35492992 0.48187953 -0.38840535 -0.24437587
000150 01 36 c6 be e7 d7 5e be 38 bf 88 be 0b 69 7c bd
       -0.38713077 -0.21762048 -0.26708388 -0.061623614
000160 ca fd ff be c3 85 a3 bd 3e 21 0e be 1d 46 d0 bf
       -0.49998313 -0.079844974 -0.13879868 -1.6271397
000170 7c 83 07 3f fb fd 06 3f d8 e7 c4 3e b6 84 b5 bd
       0.52935004 0.52731293 0.38458133 -0.08863203
000180 3e 43 b6 be 24 94 d6 bd bc 42 9f 3e 9d a6 6b 3e
       -0.35598177 -0.10477474 0.31105602 0.23012777
000190 c9 38 b7 3e 01 89 ee bd af 78 db be 31 d9 95 be
       0.3578551 -0.11647225 -0.42865512 -0.29267266
0001a0 f2 51 b8 3e 6a fa f4 3e b9 7c c1 3e 07 2a a1 3e
       0.3600002 0.478473 0.37790468 0.31477377
0001b0 46 ad 6d 3e 88 f8 a5 3e 6e 48 81 3e 37 2b f9 bd
       0.2321063 0.32416177 0.25250572 -0.12166446
0001c0 38 1b 3a 3c 84 57 17 3f 26 d7 53 3e 94 bb 09 3e
       0.0113590285 0.59117913 0.20687541 0.13450462
0001d0 73 c2 99 3e 7d 4e c2 be 06 67 f5 be 71 54 12 bf
       0.30031165 -0.37950507 -0.47930163 -0.571601
0001e0 44 87 ee 3e 64 8c c6 3e ac 40 df 3e 05 bf 8f be
       0.46587574 0.38778985 0.43604028 -0.28075424
0001f0 70 83 f3 be 44 be 04 bf 34 ff 42 be e0 b6 97 be
       -0.47561216 -0.5185282 -0.19042665 -0.2963171
000200 b0 67 04 be d6 ff 34 3e 15 c8 8e 3e 55 75 c4 3e
       -0.12930179 0.17675719 0.27887025 0.38370767
000210 5a b0 1e 3f 11 af e7 bd f1 25 11 3e 45 1b a2 3f
       0.6198784 -0.11312688 0.1417463 1.2664572
000220 a3 0f dd 3e c1 3b 18 3f 00 71 11 3f 9d 06 51 bf
       0.43175992 0.5946618 0.5681305 -0.81650716
000230 1c 84 4e bf 89 66 59 bf 3f ca 2e 3f 20 8b 19 3f
       -0.8067033 -0.8492208 0.68277353 0.5997791
000240 de f4 32 3f 67 2e 5b bf 28 15 37 bf 57 09 40 bf
       0.6990489 -0.8561768 -0.71516657 -0.7501425
000250 42 fc ac be ee d8 42 be 6d b7 ba be cd 1c 3b 3c
       -0.33786207 -0.19028065 -0.36468068 0.011420441
000260 11 fe 32 be 39 ab 01 be 6c 16 a3 be ae 7f ac bd
       -0.17479731 -0.12662973 -0.31853044 -0.084227905
000270 e4 bb 98 bc f4 cf a7 bf 59 e1 f8 3e a6 01 ce 3e
       -0.01864428 -1.3110337 0.48609427 0.40235633
000280 50 ef eb 3e 41 3a 7e 3e 1b 41 5d bd ba 88 b4 3d
       0.46081018 0.2482691 -0.054017168 0.08815141
000290 f5 f6 c7 3e cc 65 77 3e c2 af eb 3d 3a 48 cb 3c
       0.390556 0.24159926 0.115081325 0.024814714
0002a0 2d 5b 84 bd 9a e1 e9 bd 88 90 7a be 07 72 13 be
       -0.06462703 -0.11419983 -0.24469197 -0.14398967
0002b0 27 5b 07 3d fe 84 13 be f1 d8 02 be fe a5 f7 bc
       0.033045914 -0.14406201 -0.12778069 -0.030230518
0002c0 4c 60 2e be 0f 2b 2c 3e 81 21 21 be 8c 3b f1 bf
       -0.17028922 0.168133 -0.15735437 -1.8846297
0002d0 7a e0 1d bf 65 fa 99 be e6 15 d4 be 26 f9 3e 3e
       -0.6167065 -0.30073848 -0.41422957 0.1864973
0002e0 51 4d 3a 3e a7 6c d5 3e c9 81 39 3e 31 7c 81 3e
       0.18193556 0.41684458 0.18115915 0.25290063
0002f0 78 c2 8d 3e 19 c0 9d 3e ba d7 c7 3e ac cd b9 3e
       0.2768743 0.3081062 0.39031774 0.36289728
000300 35 40 aa 3e 0e b6 d5 3e 0c 76 d9 3e ac c1 89 3d
       0.3325211 0.4174046 0.42472875 0.06726393
000310 2b 52 bf 3d 08 11 21 3e 74 03 a3 be e9 f9 bf bc
       0.09341844 0.15729153 -0.31838572 -0.023434596
000320 d4 fc f2 bd 5e ca 62 bf f8 42 c6 3e 64 ed 99 3e
       -0.118646294 -0.8859004 0.38722968 0.30063927
000330 69 b4 92 3e 0c 06 69 3d 52 82 49 be 47 d0 04 3e
       0.28653267 0.056890532 -0.1967862 0.12970077
000340 51 b7 63 3e f3 e2 19 3e a1 1f a3 3e 84 6c ab 3d
       0.22237898 0.1502798 0.31860068 0.08370307
000350 5b b8 b1 3d cd fe 6e be 24 4b 80 3d 90 24 de 3d
       0.08677741 -0.23339386 0.06264332 0.108468175
000360 61 10 0d be 42 1f 05 bd 89 41 3e be 02 d1 60 be
       -0.1377578 -0.032500513 -0.18579687 -0.2195473
000370 4c 67 ac 3d 93 b9 ff bd 3b a3 c0 3d 25 88 99 bc
       0.0841814 -0.12486567 0.09406134 -0.018741677
000380 bc a2 33 3e b1 7f 7e 3e 17 be d1 3e 86 9f 2c be
       0.17542547 0.24853398 0.4096534 -0.16857728
000390 23 80 85 bc 7a ff 2d be 99 44 87 3e 91 8e b6 3d
       -0.016296452 -0.16991988 0.26419523 0.08913911
0003a0 11 22 f5 3d e7 dd 2f be 3c 86 77 be 4b 75 93 be
       0.11969388 -0.17174493 -0.241723 -0.28800425
0003b0 32 d1 bd 3d d7 98 da 3d 6b 5c 3c 3e 0e cf 5b be
       0.092684165 0.10673683 0.1839463 -0.21465704
0003c0 5f c3 af be 9e 5e 16 be f4 9c 90 3d 7b fd 3d bb
       -0.34328744 -0.14684531 0.070611864 -0.0028990197
0003d0 52 b6 20 3e d7 c4 01 be ef 64 a1 bf 3a d7 a4 bf
       0.1569455 -0.12672745 -1.2608927 -1.2878182
0003e0 1a 81 ab bf c8 b7 b0 3e ce 83 fb 3e 0c bb a2 3e
       -1.3398774 0.34515214 0.49123996 0.3178333
0003f0 ee 28 59 3f 03 48 54 3f 46 a4 53 3f a8 79 ab 3e
       0.8482808 0.8292238 0.82672536 0.33491254

layers.jordan.hy.bias f4 [16]
000000 92 06 47 3d 42 cd 91 bd 1f c7 a6 bd 19 6f a8 be
       0.04859025 -0.07119228 -0.08143448 -0.3289726
000010 4b fb d4 3d ef 48 f9 3b f7 ac d1 bd 33 7b 8c 3e
       0.10399493 0.0076075713 -0.102380686 0.27437744
000020 fd d0 e7 3e 47 23 ca 3d 6c 8a 90 bb 35 e3 11 3e
       0.45276633 0.0987001 -0.0044110324 0.14246829
000030 6b 2d 80 3d 8a a8 72 bd b6 72 60 be 7a 5b 2a be
       0.06258663 -0.059242763 -0.21918759 -0.16636458

layers.jordan.hy.weight f4 [16, 22]
000000 0e 5f 42 3d f2 4b af bd 14 83 18 bd 74 33 34 3d
       0.047453932 -0.08559407 -0.03723438 0.043994382
000010 3b 97 85 3e b5 90 f5 bd 15 00 18 be dd 7e 5a bd
       0.26091942 -0.11990491 -0.14843781 -0.053343643
000020 10 bf 32 be e5 cc 14 3e de de 2e be 7c 39 51 3e
       -0.17455697 0.14531286 -0.17077205 0.20432085
000030 99 bd 2c 3e 77 ce b1 3e de 72 6f 3c 39 38 bb 3e
       0.16869201 0.34727833 0.014614789 0.36566332
000040 f6 4f b6 bb d5 75 83 bc 8c 04 7c be 82 e1 e6 bd
       -0.0055637313 -0.016047398 -0.2461111 -0.11273481
000050 ce a1 66 bd 45 5d 03 be ce 1a cd 3c dc 16 f2 bc
       -0.056306653 -0.12828548 0.025037196 -0.029551916
000060 6d 5f 2f bd 9b b8 7d be 77 76 34 3e a8 60 32 3e
       -0.042815614 -0.24777453 0.17623316 0.17419684
000070 c4 da 36 3e ef af 42 bd cd 1c 0b 3e 59 30 15 be
       0.1785689 -0.047531065 0.13585205 -0.14569224
000080 f8 69 17 bd f2 39 2b be 9e b2 67 3e e2 90 11 be
       -0.036966294 -0.16721323 0.22626731 -0.14215425
000090 93 99 7b 3c 45 58 32 3e 27 fd 08 be a6 49 4a 3e
       0.015356439 0.17416485 -0.1337782 0.19754657
0000a0 24 df 54 be 2b 56 45 be 5e 3e 3a be 38 a4 25 be
       -0.20788246 -0.19271152 -0.18187854 -0.16175926
0000b0 c9 b6 d1 ba b4 6e d5 bd 59 a1 30 bc ad ed a5 bd
       -0.0015999909 -0.104215056 -0.010780656 -0.08101974
0000c0 14 12 88 be 3f 41 11 3e ef 3f 05 3e fa a8 97 bc
       -0.26576293 0.14185046 0.1301267 -0.018513191
0000d0 09 18 0d 3e a5 dc 7d be f8 d4 34 be c4 b0 01 3e
       0.137787 -0.247912 -0.17659366 0.12665087
0000e0 83 ef 50 be d8 38 df be 53 2d 4a 3d bc f1 aa be
       -0.20403866 -0.43598056 0.04935963 -0.33387554
0000f0 d6 dc a8 3e 6c 8b 79 bd 3c 0e 89 3d 79 29 12 3e
       0.32980984 -0.06092398 0.06692168 0.14273633
000100 c7 7a 40 bd 88 58 13 be d0 09 16 3d 03 04 e9 bc
       -0.04699209 -0.1438924 0.03663045 -0.028444296
000110 a9 07 0f 3e 70 01 1a 3e 46 f6 33 3e 2b d6 f9 bd
       0.13967766 0.15039611 0.17574415 -0.121990524
000120 fb 34 f2 3d 7f d8 bc bd cb f9 60 3e 63 aa 6b bc
       0.118265115 -0.09220981 0.21970288 -0.014383885
000130 f3 89 25 3e 16 c0 01 3e 45 28 78 3b f9 ce 89 3e
       0.16165905 0.12670931 0.00378658 0.2691572
000140 0c 11 bb 3d 63 28 8e 3d 71 5a f2 3d 97 73 60 be
       0.09134111 0.06941297 0.118336566 -0.21919094
000150 86 e9 2d be 02 50 3f 3e 88 32 af bd 1f bd 4b bc
       -0.16983613 0.18682864 -0.0855456 -0.012435227
000160 3f dd ca be 1b d2 dc bd 50 0c 95 bd b0 a9 99 be
       -0.39621922 -0.10782262 -0.07277739 -0.30012274
000170 d0 58 93 bd 97 c8 81 3e 1a 8c c2 3d ae 95 9b be
       -0.07194674 0.2534835 0.094993785 -0.30387634
000180 42 6a 13 be 59 7d 80 be f5 cd 00 3e 78 ea 56 3d
       -0.14396003 -0.25095633 0.12578566 0.0524697
000190 d6 b4 0b be 84 5d 63 be 1e 63 fa 3d ec fa 12 bd
       -0.13643202 -0.22203642 0.12225936 -0.03588383
0001a0 93 d9 bb bd e5 89 76 bd ab 51 2a 3e 7d 69 27 be
       -0.09172358 -0.0601901 0.16632716 -0.16348834
0001b0 05 9c b1 3e 87 4b d7 3c 86 b7 01 bf 83 58 26 be
       0.34689346 0.026281131 -0.5067066 -0.16244702
0001c0 e8 89 8d be 90 fc b3 3e 73 8d 44 3e a7 25 4b 3e
       -0.27644277 0.35153627 0.19194584 0.19838582
0001d0 0f c9 15 3d 28 3d 0f be c9 b4 ad 3e 99 a0 0c bc
       0.036568698 -0.13988173 0.3392699 -0.008583211
0001e0 f9 ed 23 3e 40 b8 0a 3e aa be ae 3e 16 bd e8 3d
       0.16008748 0.13546848 0.3412984 0.1136419
0001f0 d7 91 2a 3e 71 b2 bd be 98 ae 0d be fc e4 2c be
       0.16657196 -0.37050202 -0.13836133 -0.16884226
000200 30 1f 4e be b7 77 6e 3e fb fa 6e 3e cb cd 22 3e
       -0.20129085 0.23287855 0.23337929 0.15898816
000210 1e 4e 1c bf cf 85 8b be 1b 73 46 be 5f c5 51 3e
       -0.610567 -0.27250525 -0.19379847 0.20485447
000220 ba 9e 4f be 4c cd f0 bc 18 e1 45 3e 6e ad 8b bd
       -0.20275393 -0.029394768 0.19324148 -0.068201885
000230 e7 57 81 3e 81 f3 df bb 7f db 1c 3c 36 32 5b 3e
       0.25262377 -0.006834448 0.009573816 0.21405873
000240 61 9d 9a 3e 20 45 e6 bc 8d c3 74 3a 1d 5d b6 be
       0.30198196 -0.028109133 0.00093370007 -0.35617915
000250 68 36 07 be 32 7a aa be 62 ce 45 be 32 4c 43 3e
       -0.13204348 -0.33296353 -0.1931701 0.19072035
000260 d2 b8 63 3e 10 a4 85 bd d9 16 57 be e2 02 eb 3d
       0.22238472 -0.06525433 -0.2100481 0.11475159
000270 0b be 64 be b4 da 5e bd ee 27 5f 3e 1c 3c 6f 3e
       -0.2233812 -0.05440779 0.21792576 0.23362774
000280 74 6d a6 3d c6 0e de bb 88 dc 00 bd 63 a5 4f be
       0.08126345 -0.0067766635 -0.031460315 -0.20277934
000290 f1 a2 0e 3e 64 e2 2a be 50 c9 20 3d 02 a5 74 3d
       0.13929345 -0.16687924 0.039254487 0.059727676
0002a0 df 54 97 bd 5a 48 0a bd ef 85 3a 3e 70 ce e8 bd
       -0.07389235 -0.033760406 0.18215154 -0.113675
0002b0 08 31 78 3d 4f 21 fc bd 08 24 1b 3e 18 e4 85 bd
       0.060593635 -0.123110406 0.15150464 -0.06537646
0002c0 78 3f 24 3e 31 9f eb 3d f3 df ec 3d 3c 58 63 be
       0.16039836 0.11504973 0.115661524 -0.22201627
0002d0 6f 98 f2 3d 1d 26 20 be ad e7 a5 bb 04 9f df 3c
       0.11845481 -0.15639539 -0.0050630183 0.027297504
0002e0 96 e9 96 bd 64 35 16 be 10 9d 42 3d fb 69 5f be
       -0.07368772 -0.14668804 0.047513068 -0.21817772
0002f0 b8 d2 59 be 29 68 9a bd 59 96 eb bc 24 27 82 3e
       -0.21271789 -0.07539398 -0.028758215 0.25420487
000300 87 65 11 be 81 96 62 bd 91 53 b5 3d e2 57 ad bb
       -0.14198886 -0.055319313 0.0885383 -0.0052900175
000310 b8 90 2b be c5 ca 58 bd c8 2e 0d 3e d8 76 9d 3d
       -0.16754425 -0.05292775 0.13787377 0.07688683
000320 4c e7 11 bc b9 42 cd be 11 0e 31 3e e0 39 60 3e
       -0.008905243 -0.40089968 0.17290522 0.21897078
000330 8f cc ba 3d dc db 92 3c 2c ca bd bd 55 d8 15 be
       0.09121048 0.017927103 -0.09267077 -0.14633305
000340 15 ee 5c bd c1 71 d6 bd 3f d3 01 3e c7 47 ed 3d
       -0.05393799 -0.104709156 0.1267824 0.11585956
000350 2e 58 7e bd b8 56 c3 3d da 43 b0 3d b9 84 d9 bd
       -0.062095813 0.09538025 0.08606692 -0.10621018
000360 2a 18 56 be 52 2d b0 3d a4 7e 15 bd 92 5b 42 bc
       -0.20907655 0.08602394 -0.036497727 -0.011862652
000370 f0 c7 8e 3d 7f e8 f7 3e 21 b3 c0 3e 60 59 ff be
       0.06971729 0.48419568 0.37636665 -0.49872875
000380 56 68 98 bd 91 77 77 bd db 5d 59 3d 71 27 64 bd
       -0.074417755 -0.06041676 0.053068023 -0.055701677
000390 17 fe af be 79 08 27 be 43 61 5b 3e 5d 38 12 3e
       -0.34373543 -0.16311826 0.21423821 0.14279313
0003a0 d1 41 41 be 4a 7a 95 be 61 67 a9 bc 51 0f 96 3d
       -0.18872763 -0.29194862 -0.020679178 0.0732714
0003b0 48 b0 b0 bc f3 e3 c7 3e b8 83 6e 3e 76 03 93 be
       -0.021568432 0.390411 0.23292434 -0.28713578
0003c0 8e c9 60 bd ae 70 20 be a0 16 16 3d e2 25 43 bd
       -0.054879718 -0.15667984 0.03664267 -0.04764355
0003d0 59 33 38 be 36 a8 57 bd 05 36 fa 3d c5 93 70 bd
       -0.17988338 -0.052650653 0.12217335 -0.058734674
0003e0 30 6c d4 3d e9 d8 de 3d 40 8f 1f be d3 9a 57 3e
       0.10372198 0.10881216 -0.1558199 0.21055155
0003f0 f4 e1 94 bc 22 fd 01 3b c9 bc 16 be 3e 1f 4d 3e
       -0.01817415 0.0019834717 -0.14720453 0.20031449

layers.jordan.lm_head.bias f4 [22]
000000 62 42 95 bf 85 16 79 bf b7 e6 87 bf 02 18 92 3e
       -1.1660883 -0.9729999 -1.0617284 0.28533942
000010 87 c6 64 3e 44 33 0e 3d 7e 8d 04 3e d2 ea fa 3e
       0.22341357 0.03471686 0.129446 0.4900728
000020 43 8b a7 3e 94 e9 82 3e 13 70 55 3e fc 8c 94 3d
       0.32723436 0.2556883 0.20843534 0.07253453
000030 d6 87 3b bd a8 fb 9d 3d 44 6e 52 3e 85 4a aa 3d
       -0.04578384 0.07714015 0.20549875 0.08314995
000040 ea 81 97 3e 63 31 62 3e f2 b0 03 3e be 03 32 3e
       0.29591304 0.22089152 0.12860468 0.1738424
000050 2b c1 9d 3d 65 ac 15 bc
       0.077028595 -0.00913534

layers.jordan.lm_head.weight f4 [22, 16]
000000 db 86 6b be 12 9b 62 3e 0b 00 14 3e 4c 33 3b 3f
       -0.23000662 0.22129467 0.14453141 0.7312515
000010 7f 82 7a be 5a 14 9c be 00 8a 9f bd 7c a4 ea bd
       -0.24463843 -0.30484277 -0.07789993 -0.11457154
000020 d4 c7 c9 be c2 bb 58 3d c5 27 7e 3e 70 4f 0d bf
       -0.3941027 0.052913435 0.24819858 -0.55199337
000030 7a 37 02 3f 4c fc 62 bd db 1a a9 be 2b e3 2d 3e
       0.508659 -0.05541639 -0.33028302 0.16981189
000040 84 df ab bd 66 61 e8 3c 13 16 46 3d ac 6b 2c 3f
       -0.083922416 0.028366756 0.048360895 0.67351794
000050 4d ee e0 bd f7 ae c3 be 35 9f 6e 3c a7 05 a1 be
       -0.10982952 -0.38219425 0.014564325 -0.31449625
000060 c7 65 c0 be d0 72 d5 3d 1c 72 f1 3e f3 ee 19 bf
       -0.3757765 0.10422289 0.4715737 -0.6013023
000070 79 ee 72 3e 3a a8 c9 be d5 20 3f be 7f 60 c2 3e
       0.23723783 -0.3938616 -0.18664868 0.37964246
000080 16 d5 8d bd bf da a7 3a e9 da 15 3e 9b 17 00 3f
       -0.069254085 0.001280628 0.14634289 0.5003602
000090 97 03 c4 be fa b8 4b be db 45 22 be 81 f8 28 be
       -0.3828399 -0.19894782 -0.1584696 -0.16501047
0000a0 1d 90 40 be 49 85 ad 3e 15 4e 72 3e 40 05 20 bf
       -0.18804975 0.3389075 0.23662598 -0.6250801
0000b0 42 7a 8c 3e 31 a8 be be c5 17 a4 bd 55 a7 cb 3e
       0.27437025 -0.37237695 -0.08012346 0.39776102
0000c0 5b d2 a7 3f 41 89 bf bf 0b bf 0c c0 a6 f2 84 3f
       1.311107 -1.4963762 -2.1991603 1.038655
0000d0 5c c4 60 bf c3 80 aa bf 6e b0 21 c0 e2 64 23 3d
       -0.8779962 -1.3320545 -2.5263934 0.03989113
0000e0 98 32 58 3f 9c 0d ab bc c7 6c 08 bf be d8 a1 3f
       0.844522 -0.020880513 -0.5329098 1.264427
0000f0 7e a2 53 bf ae 5d f6 3f 83 c2 9a bf a4 1b bb bf
       -0.8266982 1.9247339 -1.209061 -1.461781
000100 67 17 f2 be ca 27 6a be 91 63 a4 3e ec f3 fa 3c
       -0.4728348 -0.22866741 0.32107213 0.03063389
000110 83 f6 7e bf 47 7b a6 3e 75 29 26 3f ce dc 2a bf
       -0.995949 0.32515928 0.6490701 -0.6674317
000120 ee 21 85 bf 84 e2 0b bf 32 46 fc 3b db 8f 3b 3d
       -1.040098 -0.5464251 0.0076987976 0.04579149
000130 26 ff c1 be d7 1c ac 3e 25 7e 70 bd 50 db 1a 3f
       -0.37889975 0.33615753 -0.05871405 0.60490894
000140 a2 c0 ca be 5e 79 77 be 36 60 ac 3e 78 e3 c9 3c
       -0.39600092 -0.24167392 0.33667153 0.024644598
000150 ae 8b 44 bf cc 71 50 3e b0 7e 47 3f 60 a3 30 bf
       -0.76775634 0.2035591 0.77927685 -0.6899929
000160 7e a7 5a bf 5d a4 f0 be b5 0e 85 be c2 43 a6 3d
       -0.8541182 -0.470004 -0.25987783 0.081183925
000170 6f 82 f6 be ba dc 2f 3f bd 34 3c 3e 73 d4 47 3f
       -0.48146388 0.68696177 0.18379493 0.78058547
000180 2c 35 be be 8f 18 ac be d5 03 b3 3e bb 6a 40 3d
       -0.37149942 -0.33612487 0.3496386 0.046976786
000190 a9 5a 41 bf f4 0c aa 3e a2 bf 04 3f b8 c6 0d bf
       -0.7552896 0.33213007 0.5185491 -0.55381346
0001a0 a8 0d 88 bf 20 32 e8 be dd a1 38 be 97 a1 59 3d
       -1.0629168 -0.45350742 -0.18030496 0.05313262
0001b0 15 37 30 bf 40 1e e5 3e ce a8 08 3e db 72 37 3f
       -0.6883405 0.4474964 0.13345644 0.7165963
0001c0 f2 48 fb be 1e 46 36 bf 5f ff 27 3f 99 59 b1 be
       -0.4907909 -0.7120074 0.6562404 -0.3463867
0001d0 ed b5 05 3f 3f 88 2d bf 85 51 92 bf a0 9e f1 3b
       0.5223072 -0.6778602 -1.1431128 0.007373646
0001e0 d7 f3 7a 3f 8f a2 f8 3d 1f ca fe 3e 5b 01 f6 be
       0.9802832 0.121403806 0.4976358 -0.4804791
0001f0 dd ad 98 3f 5f 01 c4 3e 61 83 83 bf 59 2e 31 3e
       1.1928059 0.38282296 -1.0274469 0.17302836
000200 cd 07 2b bf 9a b8 12 bf a9 80 4c 3f 96 0f 0b bf
       -0.6680878 -0.5731293 0.7988382 -0.5432066
000210 6c 33 1e 3f f6 3d 67 bf 64 a0 97 bf 22 23 c7 3d
       0.61797214 -0.9032892 -1.1845822 0.09723498
000220 b4 9b 92 3f 19 00 bb bc 2d 2e 4e 3e a0 10 10 be
       1.1453767 -0.022827195 0.20134802 -0.14068842
000230 52 bc 6e 3f 93 46 05 3f fa 84 40 bf 33 48 33 3e
       0.93256104 0.5206081 -0.75202906 0.1750801
000240 47 75 22 bf 9c 75 1c bf 8d 23 58 3f 95 68 ef be
       -0.634602 -0.6111696 0.84429246 -0.46759477
000250 1c e2 40 3f 64 9e 2d bf b8 43 99 bf 42 40 13 bd
       0.75345016 -0.6781981 -1.1973791 -0.035949953
000260 b5 2a 81 3f 68 b8 1e 3e e7 a2 f4 3e 0d 94 30 be
       1.0091158 0.15500033 0.47780535 -0.17243977
000270 35 01 81 3f 75 d1 fa 3e 32 e8 5f bf 71 35 fa 3d
       1.0078493 0.48987928 -0.87463677 0.122172244
000280 9e 52 cd be 48 7e 6a be 57 1d a8 3e fb ad 3a 3d
       -0.40102094 -0.22899735 0.32834885 0.045576077
000290 3f b4 81 bf 15 29 69 3e 92 1f 36 3f 4a fc 1f bf
       -1.0133132 0.22769578 0.7114192 -0.6249434
0002a0 61 0b 72 bf e7 f4 0f bf 6e 32 ec bc ff a6 29 3d
       -0.9454861 -0.56233066 -0.02883264 0.041419026
0002b0 31 7a ea be 2a 37 a9 3e b9 6a 1a bd 94 af 3e 3f
       -0.4579635 0.330499 -0.037699435 0.7448666
0002c0 0b cc da be 1d aa d3 be da f1 b5 3e 21 31 61 3d
       -0.42733797 -0.41340724 0.3553608 0.054978494
0002d0 3c 3b 5a bf 72 a2 ba 3e fa 87 fd 3e 62 95 44 bf
       -0.85246634 0.3645206 0.49517804 -0.7679044
0002e0 2f be 2e bf a0 15 92 be 47 ab 3a be aa c6 24 3d
       -0.6825895 -0.28532124 -0.182294 0.040228523
0002f0 8a 32 38 bf cb 36 28 3f ba 13 3f 3e 43 50 2b 3f
       -0.71952116 0.6570861 0.18659869 0.66919345
000300 f8 32 e3 be 93 30 8a be c7 c1 ad 3e 4c d9 49 bb
       -0.44374824 -0.26990184 0.33936903 -0.0030799685
000310 82 82 67 bf b6 10 c0 3e 35 46 38 3f 8e 30 3f bf
       -0.90433514 0.3751275 0.7198213 -0.74683464
000320 e7 2e 47 bf c3 79 d9 be 38 0a b1 3d a3 a4 b6 3d
       -0.7780594 -0.4247571 0.08644527 0.08918121
000330 b2 b3 1c bf 49 d3 33 3f 9a 04 14 bd 0a 23 1c 3f
       -0.61211693 0.7024427 -0.0361372 0.60990965
000340 51 64 30 bf 52 74 41 bf 21 e0 57 3f 79 e9 57 be
       -0.6890307 -0.75568116 0.8432637 -0.21085157
000350 86 0e 11 3f c3 fa 13 3f ff f5 ba bd df c1 24 3d
       0.56662786 0.57804507 -0.09128951 0.040223952
000360 4c 12 0a 3f b9 5f a5 3c f8 83 54 bf 30 4e cb 3e
       0.5393417 0.020187246 -0.8301387 0.3970809
000370 9d 19 a6 3f 58 9c 41 bf 96 6e 78 bf 9e f9 e9 be
       1.2976567 -0.75629187 -0.9704374 -0.45698255
000380 f7 40 e1 be 69 62 43 bf 84 f1 37 3f 6f ca b6 be
       -0.43994877 -0.76322037 0.718529 -0.3570132
000390 63 46 d5 3e 31 0a d2 3e ff 75 1a bd 04 72 89 3d
       0.41655263 0.410234 -0.037710186 0.067112
0003a0 16 1b 0b 3f a5 1f 84 be dc 7e 23 bf 2f 35 b6 3e
       0.54338205 -0.25805393 -0.6386545 0.3558745
0003b0 3f 81 9d 3f 77 92 7c bf b7 a7 93 bf 90 db 01 bf
       1.2305068 -0.9866099 -1.1535558 -0.5072565
0003c0 54 fc 53 bf d8 2d 05 bf 9d 49 5c 3f bb 30 0b 3c
       -0.828069 -0.52023077 0.86049825 0.008495505
0003d0 27 9f 1e 3f d6 20 fa 3e 8b 99 47 be 1f b7 81 3e
       0.619616 0.48853177 -0.19492166 0.25335023
0003e0 22 be ca 3e 14 97 21 3d 70 53 45 bf eb 3c 7c 3e
       0.39598185 0.03945072 -0.7708044 0.24632613
0003f0 f6 cc 89 3f 37 0e 61 bf b5 79 9d bf b2 e5 13 bf
       1.0765674 -0.87912315 -1.2302767 -0.5777236
