jordan_elman_2024/exp4/elman_sequence_level/run_23/export/model.safetensors (safetensors, 6576 bytes, 7 tensors)

layers.elman.hh.bias f4 [16]
000000 b2 5b 2a 3e 4a 94 04 be 61 41 4b 3d a8 d0 e4 bd
       0.16636541 -0.12947193 0.049622897 -0.111726105
000010 90 42 fd 3d 64 18 b6 bd cb f1 9a bd 25 b5 0b 3f
       0.123662114 -0.08891371 -0.075656496 0.5457328
000020 54 96 d2 bc 5c 17 41 be ab 43 30 be c5 ff 4b 3e
       -0.025706448 -0.18856567 -0.17213313 0.19921787
000030 b1 67 18 bf 8d f1 47 3e 48 f2 98 3e 4e ae 34 be
       -0.5953322 0.19525738 0.29872346 -0.17644617

layers.elman.hh.weight f4 [16, 16]
000000 2e ba e5 3d cf ca ab bd 70 5a 8b be 15 bd 74 be
       0.112171516 -0.08388292 -0.27217436 -0.23900254
000010 e2 f0 80 3e 8f 8f 08 bd 30 8e 0a 3e ce f0 cc bd
       0.2518378 -0.033340033 0.13530803 -0.10006867
000020 83 1e 1f be d1 44 40 3d ac 03 2d 3d bb 5f 0a 3c
       -0.15538983 0.04694063 0.04223983 0.0084456755
000030 7a 0f 01 be a7 05 17 3e d9 04 0a be ed c3 31 3e
       -0.1260356 0.1474825 -0.13478412 0.17359896
000040 67 52 ed bb 39 d5 66 3e a7 48 1e be 7a 9f 25 be
       -0.007242489 0.22542275 -0.15457402 -0.16174117
000050 4c 02 1f 3c f6 8d ed bd b6 f5 69 3e 27 09 58 be
       0.009705137 -0.115993425 0.22847638 -0.21097241
000060 b7 16 70 3d 25 94 05 3e 0b 90 ae 3e c4 31 67 3d
       0.058615413 0.13044794 0.3409427 0.056443945
000070 81 db 65 be 09 7b c1 3d 34 ec 83 bd 47 d1 79 bd
       -0.22447015 0.09447295 -0.064415365 -0.060990598
000080 9e 3e a3 bd 67 8e 24 3e 63 82 80 3e 29 3b bf 3c
       -0.07970928 0.16069947 0.25099477 0.02334364
000090 ec 08 03 bd f8 61 2b be 8f 71 40 be c4 49 c8 3e
       -0.03199093 -0.16736591 -0.18793319 0.3911878
0000a0 70 90 f7 3d a9 2b 43 be 87 f7 05 be 7e b1 eb 3d
       0.12088096 -0.19059624 -0.13082705 0.11508463
0000b0 2e f1 b6 be 61 b7 8f 3e b7 2b ba bd 1f 10 84 3c
       -0.3573088 0.28069595 -0.09090369 0.016120968
0000c0 ad 6c 84 3c ae 56 8a bd 89 d3 f8 bd c8 12 c1 bd
       0.016165102 -0.06754814 -0.12149722 -0.0942741
0000d0 8c be 46 be 0d 08 6a be 4d fd c8 bc 58 94 c1 bd
       -0.19408625 -0.22854634 -0.024534846 -0.094521224
0000e0 2e 23 2b be 76 4c 5b 3e 29 41 03 3e cc 5d 9f be
       -0.16712639 0.21415886 0.12817825 -0.3112625
0000f0 c3 e6 8a 3d 04 28 bd 3d 59 3a 54 be 3a 29 84 be
       0.067822956 0.09236148 -0.20725383 -0.25812703
000100 d2 02 d6 3d b1 b1 3d 3d 2c 86 6a be 09 1d 29 3c
       0.10449757 0.046312038 -0.22902745 0.010321864
000110 75 7a 21 bc 0c 4b 1a bd 41 1c 74 3e 22 dc 66 bd
       -0.009855856 -0.037669227 0.23838903 -0.05636228
000120 1c fb c8 bd 22 74 55 3e db 63 08 be 0d 8c cc 3d
       -0.0981352 0.20845082 -0.13319342 0.0998765
000130 c4 bb 53 be 93 81 33 3c 37 06 75 3c 80 5e 2e 3e
       -0.20677096 0.010956186 0.014955095 0.17028236
000140 87 05 0d be 70 e9 44 3e 83 41 92 3e 4a 0a 8f 3d
       -0.1377164 0.19229674 0.28565606 0.06984384
000150 91 05 49 be 03 1d 95 bd 0e 40 c3 be 7a 56 4a 3b
       -0.1963103 -0.07280924 -0.38134807 0.0030874298
000160 d4 74 0a 3e 8b 9d 09 3e 2d 74 2f 3e 0c 71 13 be
       0.13521129 0.13439004 0.17134161 -0.14398593
000170 40 d7 3e ba 60 c0 0a be df 58 ae 3c ea 54 9e be
       -0.00072799996 -0.13549948 0.021282611 -0.3092416
000180 82 32 3b be 70 00 f8 3c 0b 24 6e 3e 26 cc 68 3e
       -0.18280986 0.030273646 0.23255937 0.22734126
000190 02 2f af be 28 65 6d bd 7c 74 20 bf 21 1d f8 bb
       -0.34215552 -0.0579578 -0.6267774 -0.007571832
0001a0 f1 9c 89 bd 33 4e 72 3e a6 32 08 bd 55 88 16 be
       -0.06719387 0.23662643 -0.033251427 -0.14700444
0001b0 9f 8b e3 bd 40 b3 b1 bd ea 3a 32 3e 12 81 82 be
       -0.11110615 -0.08676767 0.17405286 -0.25489098
0001c0 7d f3 99 be f3 51 c7 be 6a e6 d9 3e 84 c2 7d 3f
       -0.3006858 -0.3892971 0.42558604 0.9912493
0001d0 3a 89 79 bf 93 14 bc 3d 85 35 17 bf 1f fd 71 3e
       -0.97475016 0.09183612 -0.5906604 0.23631714
0001e0 c3 04 c5 be 64 60 da 3e c8 83 ba be 09 3f 54 be
       -0.38480195 0.42651665 -0.36428666 -0.20727171
0001f0 9f bb 24 3b 12 97 ca be 71 99 d4 3e 77 3c 83 be
       0.0025136245 -0.39568383 0.41523317 -0.2563207
000200 e1 94 37 be 7f a8 20 be 67 bf 9f be 89 24 16 be
       -0.17927887 -0.15689276 -0.31200716 -0.14662375
000210 61 50 63 bd 8a 8a e4 bd 45 78 e4 3d 50 f0 d2 bd
       -0.055496577 -0.11159237 0.11155752 -0.10299742
000220 92 82 9d be 84 34 f4 bd b6 e9 8f bd 31 2d 61 3e
       -0.3076368 -0.11924079 -0.07026999 0.21989895
000230 9f af 83 bd 83 35 42 bd 7d e8 a6 3e a0 9a 30 3e
       -0.064299814 -0.047414314 0.3259925 0.17246485
000240 0a a4 dd bd 14 07 08 3d 04 cf c6 3d 20 8e ac 3d
       -0.108223036 0.033209875 0.09707454 0.08425546
000250 ea 44 14 bf 1c 63 cf 3d 0a 11 2c bf f5 81 ba bd
       -0.57917655 0.101263255 -0.672135 -0.091068186
000260 5e 9c 06 be ac 5f e0 3d 83 b4 82 3d 9d 24 35 3e
       -0.13145587 0.10955748 0.06382086 0.17689748
000270 c6 85 8f bd a2 87 1d bc d2 2a 11 3e 8e e1 1c be
       -0.07007937 -0.009614857 0.14176491 -0.15320417
000280 fb d9 13 3e 65 bc 0a be 8d f5 f0 be 76 26 e7 be
       0.14438622 -0.1354843 -0.4706234 -0.4514653
000290 ce 31 1c 3f 8a 7d 89 3d 61 c4 90 3f 4e b9 6d bd
       0.61013496 0.06713398 1.130993 -0.05803805
0002a0 39 7d 03 be ff 93 e0 bd c6 2f 4b bc a1 d7 87 3e
       -0.12840737 -0.10965728 -0.012401527 0.265317
0002b0 47 3c 9c 3d 4e 1e 75 bd 4f b4 1d be 04 69 c7 3d
       0.076286845 -0.059843354 -0.15400814 0.09736827
0002c0 a6 64 55 3d c2 af a1 be dd a4 5b 3d d2 da 05 3f
       0.05209794 -0.31579405 0.053624023 0.5228702
0002d0 38 e5 06 bf f9 8b 64 bd 8b 36 45 bf 6f 14 19 3f
       -0.5269351 -0.05579755 -0.7703635 0.59796804
0002e0 d8 a0 9e 3d 5a 61 96 3d 5e d2 80 be bc 95 29 3e
       0.07745522 0.07342787 -0.25160497 0.16561025
0002f0 82 35 3c be 52 7e 72 be 6d 3d 0a 3e cb 78 97 bb
       -0.18379787 -0.23681 0.13499995 -0.004622554
000300 a9 d1 9c bd b1 b3 ca be be 7c 0a 3e a2 2e b8 3e
       -0.07657177 -0.3959022 0.13524148 0.35973078
000310 85 93 41 bf 25 b0 8a 3c fe c6 6b bf db 83 e6 3d
       -0.7561572 0.016929695 -0.92100513 0.11255618
000320 be ee bf 3d 53 3a 93 3e 4f 95 bc 3d a5 27 24 be
       0.09371708 0.28755435 0.09208166 -0.16030748
000330 3d 97 4c be ea 86 7d bd 48 f4 98 3e 5b 91 83 be
       -0.19979568 -0.061896242 0.29873872 -0.25696835
000340 f0 18 80 3d 09 d6 70 bd 56 f9 a7 be 56 e6 2c bf
       0.062547565 -0.05879787 -0.32807416 -0.67538965
000350 df 27 c4 3e 7f 05 24 3e 5e e4 18 3f 21 88 05 be
       0.3831167 0.16017722 0.5972346 -0.1304021
000360 8f d6 56 be 25 14 c2 bd 26 a5 f1 3d 0f a5 e6 3e
       -0.20980285 -0.094764985 0.11799078 0.45047805
000370 e6 ff bc bd d9 eb 51 3e 25 a7 19 3b 85 06 2c 3e
       -0.09228496 0.20500125 0.0023445573 0.16799362
000380 5c 54 f4 3e ec 13 ba 3e 07 e7 8b bd e7 be 83 bf
       0.4772061 0.36343324 -0.06831174 -1.0292634
000390 ec c6 8f 3f 0a 00 eb bd cb 9d 77 3f ba 86 19 3e
       1.1232581 -0.11474617 0.9672515 0.149928
0003a0 72 b0 df 3e a0 b6 04 bf 88 bc 10 3e ac 36 44 3e
       0.43689305 -0.51841164 0.14134419 0.1916148
0003b0 73 09 bc bd be 22 ab 3e 50 3a 4f be e1 89 d4 3e
       -0.0918149 0.33424944 -0.20237088 0.41511443
0003c0 3d 63 88 3d 22 ac 63 3e 8a e1 3d be 1a 10 35 3d
       0.06659553 0.22233632 -0.18543068 0.04420481
0003d0 62 e4 1a be fb dd 05 be d6 c7 02 bd 68 cc 83 bc
       -0.15126184 -0.1307296 -0.03192886 -0.01608868
0003e0 d5 1d d9 3a 15 6a dd bd d9 41 26 be 25 8e 81 be
       0.0016564677 -0.10811249 -0.16236056 -0.2530376
0003f0 f2 91 fd 3b a0 e0 89 be d9 2e 94 bd fb b1 42 3c
       0.0077383453 -0.26929188 -0.07235498 0.011883254

layers.elman.hx.bias f4 [16]
000000 a1 d9 a1 3e 7c 50 4d 3d 0c f4 2b bd 7d 7d 34 3e
       0.3161135 0.050125584 -0.041980788 0.17625995
000010 49 ed e0 bc a5 0c 76 bc f1 a8 f3 3d 2c 19 32 3f
       -0.027456896 -0.015017663 0.118974574 0.6956966
000020 fe 8a b2 3e fb 56 b2 3d 71 46 62 be f6 7b 33 be
       0.34871668 0.087079965 -0.22097184 -0.17527756
000030 e5 86 f0 be d4 c1 60 3e 18 12 59 3e df 62 19 bd
       -0.46977916 0.2194894 0.21198308 -0.037447806

layers.elman.hx.weight f4 [16, 22]
000000 7e 94 33 be 2c 02 a1 be 00 0c bc 3e 71 ef d2 bf
       -0.17537114 -0.3144697 0.36727905 -1.6479322
000010 23 8f 57 3d 90 3c 58 3f 17 3d f1 be 11 78 cd 3d
       0.05262674 0.8446741 -0.4711692 0.100326665
000020 71 03 3b be d4 b8 48 bf a8 64 9a 3e e2 a3 ee 3e
       -0.18263032 -0.78407025 0.3015492 0.46609408
000030 d0 76 db 3e 45 89 bf be da cf 1c 3f 18 3c 51 3f
       0.42864084 -0.37409416 0.61254656 0.8173232
000040 71 84 b1 be e2 ca 8b bf 16 be e9 3d d6 cb 87 bf
       -0.34671357 -1.092129 0.11413209 -1.0609081
000050 13 06 64 bf 20 94 df 3e ee 32 ca be 00 7f f5 bd
       -0.8907177 0.43667698 -0.3949198 -0.11987114
000060 2e 4e 30 bf 33 3c 4f bf ae 29 66 3f 7c 26 a9 3f
       -0.6886929 -0.8095123 0.8990735 1.321487
000070 0e 57 7e 3f 7c 38 85 bf b0 0b 13 bf 91 6f b7 be
       0.99351585 -1.0407863 -0.5743971 -0.35827306
000080 c0 f7 a3 3f 5d 14 b6 3f 12 d8 89 3f 3c 36 68 be
       1.2809982 1.4224964 1.0769064 -0.22676939
000090 0b 59 a1 3e e2 a4 75 bf e5 83 d3 be 9b 05 26 bf
       0.31513247 -0.95954716 -0.41311565 -0.64852303
0000a0 5d 69 4d bf e7 e0 21 bf e1 cf 59 bf 98 75 00 bf
       -0.80238897 -0.632338 -0.85082823 -0.50179434
0000b0 8a 3c c1 bd b8 84 1b 3f 66 f3 0b 3f 90 12 4b bf
       -0.09435375 0.6074939 0.5466827 -0.793252
0000c0 ee 6a 47 3f 68 18 a2 3f 49 a3 8e 3f 6e e6 82 bf
       0.77897537 1.2663698 1.1143581 -1.0226572
0000d0 67 69 30 3d e8 0a cc be 94 31 99 3f 56 b3 8a 3c
       0.04306927 -0.3985207 1.1968255 0.016931217
0000e0 da 6f 38 3f 85 19 2e 3e dc 39 91 be 00 96 84 be
       0.7204567 0.17001922 -0.28364456 -0.2589569
0000f0 02 6f c8 be a7 57 38 3e 41 07 ef 3d 83 40 ac be
       -0.39147192 0.18002187 0.116713054 -0.3364297
000100 77 0e 16 be 79 a9 5f bf 1e 55 9b be 30 32 c4 3d
       -0.14653955 -0.8736797 -0.30338377 0.09579885
000110 84 4f 9e 3e 4e 8e 90 3e c3 12 a1 3f 97 74 6d 3f
       0.3092004 0.2823357 1.2583851 0.92756027
000120 78 36 93 3f fd f9 45 bf 4a e1 88 bf 1c 06 92 bf
       1.1500998 -0.77334577 -1.0693753 -1.1408114
000130 3a 48 38 bc 78 84 29 be 79 0e 71 be f5 42 9a bf
       -0.011247689 -0.16554439 -0.23540677 -1.2051684
000140 47 b1 63 bf 7c d7 58 bf 7a 50 e2 3e 1f ee 34 bf
       -0.8894238 -0.84703803 0.44202024 -0.70675844
000150 24 17 a2 be 3b a6 30 bf cb 15 c6 bd 6b d5 6a bc
       -0.3165828 -0.6900365 -0.096721254 -0.014333109
000160 51 74 2d 3e a0 b0 3c 3d c0 63 8a be fe 3b d5 bf
       0.16938902 0.04606688 -0.27029228 -1.6658933
000170 99 6b 3c be 46 84 c0 be 04 f8 8f bf 5b 0e c5 be
       -0.1840042 -0.37600917 -1.1247563 -0.38487515
000180 b1 ae 5b 3d 94 9f 90 be 08 7f 78 3f 54 5a 3e 3f
       0.053633396 -0.28246748 0.97068834 0.7435658
000190 d6 48 89 3f 01 fe 83 3d 73 9e 45 3f 67 5e eb be
       1.0725353 0.06444932 0.771949 -0.4597046
0001a0 e4 5d a3 3d 06 2b 81 be 97 0c 5e 3f 45 8f ae 3e
       0.079768926 -0.25228137 0.8673796 0.3409368
0001b0 a8 1e 24 3d 85 4c 1a 3f 00 ac 3f be a8 af 66 bf
       0.0400683 0.6027301 -0.18717957 -0.9011178
0001c0 80 10 62 3d 62 9f 02 3d 7b 7b f1 be 64 3c 7b bf
       0.055191517 0.03189028 -0.4716452 -0.98139024
0001d0 4d 6c f9 be 72 32 4b bf 1c f8 59 bf 33 6a 92 3e
       -0.4871544 -0.7937385 -0.8514421 0.2859665
0001e0 dd 5a 52 bf e2 b9 1b bf 24 65 bf be 66 4a 3a be
       -0.82169896 -0.6083051 -0.37381852 -0.18192443
0001f0 84 30 0a 3e 70 02 9b be cc e3 a5 3f 2a 59 af 3f
       0.1349507 -0.30275297 1.2960143 1.3699086
000200 2f 5d 73 3f ec 3a fa 3e 69 74 8a 3e e2 1f e9 3e
       0.9506406 0.4887308 0.2704194 0.45532137
000210 bd 5c 32 3f e0 28 75 3f cc c9 1a bf f1 4d 5b bc
       0.6967276 0.95765495 -0.6046417 -0.013385282
000220 51 27 07 bf 37 e4 4c bf e6 66 03 bf 12 51 5d bf
       -0.5279437 -0.8003573 -0.51328886 -0.8645183
000230 cf c8 8d bf 05 86 15 bf f4 42 83 3f b9 75 86 3f
       -1.1076907 -0.5840762 1.0254807 1.0504676
000240 f0 d9 56 3f 80 ba 93 bf e2 07 98 bf b0 65 8c bf
       0.83926296 -1.154129 -1.1877406 -1.0968533
000250 7e a4 0b 3e 52 77 64 3f 19 88 37 3f f9 53 a5 3f
       0.13636968 0.8924457 0.71692044 1.2916251
000260 cb 0c c3 3f 10 43 a4 3f a4 9b e1 bf a0 94 03 3d
       1.5238279 1.2832966 -1.7625623 0.03212416
000270 10 62 e8 be e6 7b 1c c0 37 f1 5a 3e 61 25 96 3e
       -0.45387316 -2.4450622 0.21381079 0.29325393
000280 34 a8 57 3f 57 b6 05 3e ac a6 6d 3e bc 49 23 3f
       0.8424103 0.13057838 0.23208112 0.63784385
000290 18 d2 62 3f 74 aa b7 be 2e 51 30 be c5 40 b7 3e
       0.8860183 -0.35872233 -0.17218468 0.35791603
0002a0 cb d5 3b 3f ed 44 26 bd 1d 9c df 3f 44 3d dc 3f
       0.733731 -0.040593076 1.7469517 1.7206197
0002b0 5a 80 ed 3f b8 9e 77 be 59 d3 ec be df 07 1e bf
       1.8554795 -0.2418164 -0.46254995 -0.6173076
0002c0 11 0a 67 bf 92 52 4f 3f 2c 8d bb be 60 bd 6c bf
       -0.90249735 0.8098537 -0.36631143 -0.92476463
0002d0 5a ee 5d 3f 39 67 f4 3b 0d 7f 59 3f 32 1d cd be
       0.8669182 0.007458594 0.8495949 -0.40061337
0002e0 e3 f0 85 3f fc 17 8a 3f 33 3b a3 3e bf 67 b1 3f
       1.0464138 1.078857 0.31881103 1.3859786
0002f0 4f 30 0c 3f 7d 98 b9 bd e3 02 8b 3f 2d 19 cf bd
       0.54761213 -0.09062288 1.0860256 -0.10112224
000300 1b 38 b3 bf 31 26 97 bf 79 1f 91 bf 95 2e 4b bf
       -1.4001497 -1.180853 -1.133773 -0.79367954
000310 08 1a f4 be c2 f6 82 bf 32 9d 58 3f 60 42 8e bd
       -0.4767611 -1.0231555 0.8461486 -0.06946254
000320 98 3d 53 3f 2c a7 e1 3f 76 08 d5 3e ea e2 21 be
       0.8251586 1.7629142 0.41608018 -0.15809217
000330 53 9f 47 bf a2 93 3c 3e a5 de 6f bf a2 20 e1 bd
       -0.77977484 0.18415692 -0.93699104 -0.10992552
000340 ca 13 16 be 87 8a 65 bf a6 46 e4 be a3 91 5f bf
       -0.14655986 -0.896645 -0.4458515 -0.873316
000350 fc 07 42 3e 94 09 e9 be 4f 2d 72 bf da e4 8c bf
       0.18948358 -0.4551512 -0.94600385 -1.100734
000360 85 ef 21 bf 41 63 9c 3e 70 95 b2 be 0c 41 3a be
       -0.632561 0.30544475 -0.34879637 -0.18188876
000370 29 55 41 3f 82 bc 37 bf 80 8f 10 3c 46 e1 4e 3f
       0.7552057 -0.71772015 0.008823276 0.8081249
000380 87 48 61 bd 28 cd 72 3e da cf 83 bf 9b 0e 9c 3f
       -0.055000808 0.23711073 -1.0297806 1.2191957
000390 97 82 05 bd a4 c7 ab 3f d1 4e d9 3e 80 18 c2 3e
       -0.032595243 1.34203 0.42442945 0.37909317
0003a0 db ee b5 be 9c 16 99 3f 9d 22 ae 3f 43 f7 9f 3f
       -0.35533795 1.1960025 1.3604313 1.2497333
0003b0 b9 8b b3 bf 95 d8 b6 bf 6e e0 b5 bf a9 0a 34 3f
       -1.4027015 -1.4284846 -1.4209116 0.70328766
0003c0 8f 9a da 3e 40 ae eb 3e 86 93 08 be 48 c3 3b bf
       0.42696044 0.4603138 -0.13337526 -0.7334485
0003d0 88 e7 47 be fa a7 75 bf 54 af 90 bf 35 b1 21 bf
       -0.19521916 -0.95959437 -1.1303506 -0.6316102
0003e0 64 29 87 bf 85 16 22 3f 71 a6 45 3f 77 5b e9 3d
       -1.0559506 0.6331561 0.77207094 0.11394399
0003f0 b5 a3 1c bf dc 5b 4c bf dc a9 20 bf d2 0a 01 3f
       -0.611873 -0.79827666 -0.62759185 0.50407135

layers.embed.emb.weight f4 [22, 22]
000000 00 00 80 3f 00 00 00 00 00 00 00 00 00 00 00 00
       1.0 0.0 0.0 0.0
000010 00 00 00 00 00 00 00 00 00 00 00 00 00 00 00 00
       0.0 0.0 0.0 0.0
000020 00 00 00 00 00 00 00 00 00 00 00 00 00 00 00 00
       0.0 0.0 0.0 0.0
000030 00 00 00 00 00 00 00 00 00 00 00 00 00 00 00 00
       0.0 0.0 0.0 0.0
000040 00 00 00 00 00 00 00 00 00 00 00 00 00 00 00 00
       0.0 0.0 0.0 0.0
000050 00 00 00 00 00 00 00 00 00 00 00 00 00 00 80 3f
       0.0 0.0 0.0 1.0
000060 00 00 00 00 00 00 00 00 00 00 00 00 00 00 00 00
       0.0 0.0 0.0 0.0
000070 00 00 00 00 00 00 00 00 00 00 00 00 00 00 00 00
       0.0 0.0 0.0 0.0
000080 00 00 00 00 00 00 00 00 00 00 00 00 00 00 00 00
       0.0 0.0 0.0 0.0
000090 00 00 00 00 00 00 00 00 00 00 00 00 00 00 00 00
       0.0 0.0 0.0 0.0
0000a0 00 00 00 00 00 00 00 00 00 00 00 00 00 00 00 00
       0.0 0.0 0.0 0.0
0000b0 00 00 00 00 00 00 00 00 00 00 80 3f 00 00 00 00
       0.0 0.0 1.0 0.0
0000c0 00 00 00 00 00 00 00 00 00 00 00 00 00 00 00 00
       0.0 0.0 0.0 0.0
0000d0 00 00 00 00 00 00 00 00 00 00 00 00 00 00 00 00
       0.0 0.0 0.0 0.0
0000e0 00 00 00 00 00 00 00 00 00 00 00 00 00 00 00 00
       0.0 0.0 0.0 0.0
0000f0 00 00 00 00 00 00 00 00 00 00 00 00 00 00 00 00
       0.0 0.0 0.0 0.0
000100 00 00 00 00 00 00 00 00 00 00 00 00 00 00 00 00
       0.0 0.0 0.0 0.0
000110 00 00 00 00 00 00 80 3f 00 00 00 00 00 00 00 00
       0.0 1.0 0.0 0.0
000120 00 00 00 00 00 00 00 00 00 00 00 00 00 00 00 00
       0.0 0.0 0.0 0.0
000130 00 00 00 00 00 00 00 00 00 00 00 00 00 00 00 00
       0.0 0.0 0.0 0.0
000140 00 00 00 00 00 00 00 00 00 00 00 00 00 00 00 00
       0.0 0.0 0.0 0.0
000150 00 00 00 00 00 00 00 00 00 00 00 00 00 00 00 00
       0.0 0.0 0.0 0.0
000160 00 00 00 00 00 00 00 00 00 00 00 00 00 00 00 00
       0.0 0.0 0.0 0.0
000170 00 00 80 3f 00 00 00 00 00 00 00 00 00 00 00 00
       1.0 0.0 0.0 0.0
000180 00 00 00 00 00 00 00 00 00 00 00 00 00 00 00 00
       0.0 0.0 0.0 0.0
000190 00 00 00 00 00 00 00 00 00 00 00 00 00 00 00 00
       0.0 0.0 0.0 0.0
0001a0 00 00 00 00 00 00 00 00 00 00 00 00 00 00 00 00
       0.0 0.0 0.0 0.0
0001b0 00 00 00 00 00 00 00 00 00 00 00 00 00 00 00 00
       0.0 0.0 0.0 0.0
0001c0 00 00 00 00 00 00 00 00 00 00 00 00 00 00 80 3f
       0.0 0.0 0.0 1.0
0001d0 00 00 00 00 00 00 00 00 00 00 00 00 00 00 00 00
       0.0 0.0 0.0 0.0
0001e0 00 00 00 00 00 00 00 00 00 00 00 00 00 00 00 00
       0.0 0.0 0.0 0.0
0001f0 00 00 00 00 00 00 00 00 00 00 00 00 00 00 00 00
       0.0 0.0 0.0 0.0
000200 00 00 00 00 00 00 00 00 00 00 00 00 00 00 00 00
       0.0 0.0 0.0 0.0
000210 00 00 00 00 00 00 00 00 00 00 00 00 00 00 00 00
       0.0 0.0 0.0 0.0
000220 00 00 00 00 00 00 00 00 00 00 80 3f 00 00 00 00
       0.0 0.0 1.0 0.0
000230 00 00 00 00 00 00 00 00 00 00 00 00 00 00 00 00
       0.0 0.0 0.0 0.0
000240 00 00 00 00 00 00 00 00 00 00 00 00 00 00 00 00
       0.0 0.0 0.0 0.0
000250 00 00 00 00 00 00 00 00 00 00 00 00 00 00 00 00
       0.0 0.0 0.0 0.0
000260 00 00 00 00 00 00 00 00 00 00 00 00 00 00 00 00
       0.0 0.0 0.0 0.0
000270 00 00 00 00 00 00 00 00 00 00 00 00 00 00 00 00
       0.0 0.0 0.0 0.0
000280 00 00 00 00 00 00 80 3f 00 00 00 00 00 00 00 00
       0.0 1.0 0.0 0.0
000290 00 00 00 00 00 00 00 00 00 00 00 00 00 00 00 00
       0.0 0.0 0.0 0.0
0002a0 00 00 00 00 00 00 00 00 00 00 00 00 00 00 00 00
       0.0 0.0 0.0 0.0
0002b0 00 00 00 00 00 00 00 00 00 00 00 00 00 00 00 00
       0.0 0.0 0.0 0.0
0002c0 00 00 00 00 00 00 00 00 00 00 00 00 00 00 00 00
       0.0 0.0 0.0 0.0
0002d0 00 00 00 00 00 00 00 00 00 00 00 00 00 00 00 00
       0.0 0.0 0.0 0.0
0002e0 00 00 80 3f 00 00 00 00 00 00 00 00 00 00 00 00
       1.0 0.0 0.0 0.0
0002f0 00 00 00 00 00 00 00 00 00 00 00 00 00 00 00 00
       0.0 0.0 0.0 0.0
000300 00 00 00 00 00 00 00 00 00 00 00 00 00 00 00 00
       0.0 0.0 0.0 0.0
000310 00 00 00 00 00 00 00 00 00 00 00 00 00 00 00 00
       0.0 0.0 0.0 0.0
000320 00 00 00 00 00 00 00 00 00 00 00 00 00 00 00 00
       0.0 0.0 0.0 0.0
000330 00 00 00 00 00 00 00 00 00 00 00 00 00 00 80 3f
       0.0 0.0 0.0 1.0
000340 00 00 00 00 00 00 00 00 00 00 00 00 00 00 00 00
       0.0 0.0 0.0 0.0
000350 00 00 00 00 00 00 00 00 00 00 00 00 00 00 00 00
       0.0 0.0 0.0 0.0
000360 00 00 00 00 00 00 00 00 00 00 00 00 00 00 00 00
       0.0 0.0 0.0 0.0
000370 00 00 00 00 00 00 00 00 00 00 00 00 00 00 00 00
       0.0 0.0 0.0 0.0
000380 00 00 00 00 00 00 00 00 00 00 00 00 00 00 00 00
       0.0 0.0 0.0 0.0
000390 00 00 00 00 00 00 00 00 00 00 80 3f 00 00 00 00
       0.0 0.0 1.0 0.0
0003a0 00 00 00 00 00 00 00 00 00 00 00 00 00 00 00 00
       0.0 0.0 0.0 0.0
0003b0 00 00 00 00 00 00 00 00 00 00 00 00 00 00 00 00
       0.0 0.0 0.0 0.0
0003c0 00 00 00 00 00 00 00 00 00 00 00 00 00 00 00 00
       0.0 0.0 0.0 0.0
0003d0 00 00 00 00 00 00 00 00 00 00 00 00 00 00 00 00
       0.0 0.0 0.0 0.0
0003e0 00 00 00 00 00 00 00 00 00 00 00 00 00 00 00 00
       0.0 0.0 0.0 0.0
0003f0 00 00 00 00 00 00 80 3f 00 00 00 00 00 00 00 00
       0.0 1.0 0.0 0.0

layers.lm_head.proj.bias f4 [22]
000000 ef 9f 93 bf f0 a9 85 bf bc ee 8b bf a7 75 ca 3e
       -1.1533183 -1.0442486 -1.0932231 0.39542887
000010 41 31 fd bd 66 a4 7f 3e b6 50 00 3e 98 38 bd be
       -0.1236291 0.24965057 0.12530789 -0.3695724
000020 7d ea 69 be 2f 9d 8f be 4a 2e 89 3d de ed b9 3d
       -0.22843356 -0.2804961 0.06698282 0.09078573
000030 73 07 09 3b a0 b1 c7 3e e7 13 d3 3e c7 92 00 3f
       0.002090898 0.39002705 0.41226122 0.50223964
000040 41 99 97 3e 5c 2b a9 3e ba 35 9b 3e ed 52 98 3e
       0.2960911 0.33040893 0.30314428 0.29750767
000050 fb a5 a1 3e 6d 14 e3 3e
       0.31571946 0.4435152

layers.lm_head.proj.weight f4 [22, 16]
000000 81 23 0d 3e 45 a9 40 be a9 6a 58 3e 85 dc 4e be
       0.13783075 -0.18814571 0.21134438 -0.20201309
000010 1e e7 9f be 17 16 34 3e 0e 67 6f be a7 ec 17 be
       -0.31231016 0.17586552 -0.23379156 -0.1483637
000020 e6 b4 89 3d 30 58 46 3e fa 44 8d 3e 31 18 18 3e
       0.06723957 0.19369578 0.27591687 0.14852978
000030 2a 65 2b 3f 18 0d 27 bd ee 43 11 bf 6c c6 98 3d
       0.6695124 -0.04078397 -0.5674428 0.07459721
000040 1d 6d 0c 3e 99 98 90 bc 3e 40 aa 3d d3 38 9e be
       0.13713498 -0.01765089 0.083130345 -0.30902728
000050 9c 36 30 bd 05 71 b6 3e 2b ae 06 be d4 80 14 bf
       -0.04302083 0.35633102 -0.13152377 -0.58009076
000060 dc c9 71 3e 50 aa 21 3e 6d ea 1f 3e 71 b3 bb 3e
       0.2361216 0.15787625 0.1561677 0.3666034
000070 b4 03 0f 3f bb 0c 34 3e 07 94 22 bf f8 09 cf bb
       0.55865026 0.17582981 -0.6350712 -0.006318327
000080 c6 19 26 bd 7b 85 6d bd 58 5d 89 3e 75 99 e8 be
       -0.040551923 -0.057988625 0.26829028 -0.45429578
000090 7b 06 8f be 9b 95 a1 3e 63 15 86 be 96 53 8a be
       -0.27934632 0.31559452 -0.26188192 -0.27016896
0000a0 15 6d 4f 3e 0b 2a 9a 3d ac f8 d7 3d ea 19 0a 3c
       0.20256455 0.0752755 0.10545477 0.00842903
0000b0 23 b4 1b 3f aa 3a 44 bd 88 2c 04 bf f3 f3 0f 3e
       0.6082174 -0.04790751 -0.5163045 0.14057903
0000c0 ed fe 15 3f 19 fc 87 bf 13 77 74 bf 47 ad 0e c0
       0.5859211 -1.0623809 -0.9549419 -2.229326
0000d0 5f c7 39 3e 7f 85 3f bf be 75 50 c0 93 12 64 3f
       0.1814246 -0.74813074 -3.2571864 0.8909084
0000e0 6b 71 de 3f 93 08 0b bf ac a6 12 40 bf 20 93 3f
       1.7378362 -0.5430996 2.2914228 1.1494368
0000f0 08 20 8a be 18 65 05 40 a5 da a2 be b1 de 92 3f
       -0.26977563 2.0842953 -0.31807438 1.147421
000100 85 df 37 bf ea ed e8 be fd 5b 04 bf f6 fb 42 3e
       -0.7182544 -0.45494014 -0.5170286 0.19041428
000110 f3 a2 2f bf d8 83 ca bd 5b 8c 7d bd 03 c7 a2 bf
       -0.68608016 -0.098884284 -0.06190143 -1.2716984
000120 77 d7 18 bf 48 f8 80 3f 22 4a d8 3e cc ec b6 be
       -0.59703773 1.007577 0.4224406 -0.35727537
000130 0b e4 95 be cf 4d ec bc ab a8 02 3f a0 63 97 bf
       -0.29275545 -0.028845696 0.51038617 -1.1827278
000140 7c b7 0a bf 88 6c 29 bf 9c 26 12 bf 84 29 f5 3d
       -0.54186225 -0.6618123 -0.57090163 0.11970809
000150 7f 77 1f bf 94 e4 0f bd 69 ab 06 bd 11 cd ab bf
       -0.6229171 -0.0351301 -0.032878313 -1.3421956
000160 f8 40 09 bf 8f b3 71 3f f6 d3 d8 3e 49 13 11 bf
       -0.5361476 0.9441461 0.42349213 -0.5667005
000170 bf 03 95 bd 07 75 7a 3d 65 2a fc 3e 05 14 63 bf
       -0.07276105 0.061146762 0.49251094 -0.8870242
000180 81 b5 0a bf cd 8b f1 be 5f d3 03 bf e7 e7 1a 3e
       -0.54183203 -0.47176972 -0.514944 0.15127526
000190 0d fb 33 bf 27 69 17 bd f2 73 19 bb e4 c4 ab bf
       -0.7030495 -0.036965515 -0.0023415056 -1.3419461
0001a0 c1 ad 05 bf 65 f5 51 3f ef c4 ee 3e 6f 21 06 bf
       -0.5221825 0.8201507 0.46634623 -0.52394766
0001b0 54 69 25 be 26 35 53 3d 3a b8 fc 3e e0 65 87 bf
       -0.1615346 0.05156436 0.49359304 -1.0577965
0001c0 50 ec 5f bc 4f bc 43 bf d9 7e 70 be 44 e8 1b be
       -0.013667181 -0.7645921 -0.23485889 -0.15225321
0001d0 9a 69 94 3e 70 7f 8b 3f cd b4 d2 3e 27 69 00 40
       0.28986818 1.0898266 0.41153565 2.006418
0001e0 88 8a 67 bf 89 41 61 be 7e 14 c5 bf 4b 1b fb 3e
       -0.90445757 -0.21997656 -1.5396879 0.4904426
0001f0 7b fc 2c 3f 3d 1f 33 3e 07 aa 0c 40 3b c6 bc 3f
       0.67572755 0.17492385 2.1978776 1.4747995
000200 50 45 f4 3b 93 c3 35 bf f5 d4 68 be 7d 8a 34 be
       0.0074545518 -0.7100155 -0.22737487 -0.17630954
000210 83 1a 8c 3e 30 66 91 3f dd 88 be 3e 8e 1b f6 3f
       0.27363977 1.135931 0.37213793 1.9227159
000220 ac 5f 52 bf 77 6d 66 be 55 47 c1 bf b6 e2 ed 3e
       -0.82177234 -0.22502695 -1.5099894 0.4646203
000230 25 20 38 3f fb 28 2a 3e d5 a1 09 40 a3 5a c2 3f
       0.7192405 0.16617195 2.1505024 1.518391
000240 76 7f 03 bd bf c7 50 bf 14 84 78 be f3 73 25 be
       -0.032103978 -0.8155479 -0.24269134 -0.16157512
000250 07 a1 a5 3e 87 51 8a 3f 22 58 ca 3e 77 17 ff 3f
       0.32349417 1.080613 0.39520365 1.9929036
000260 48 ba 6e bf 7c 8b 79 be 54 4a c6 bf d8 16 f9 3e
       -0.9325299 -0.24369615 -1.5491433 0.4865024
000270 89 99 31 3f e0 a0 38 3e d1 be 0c 40 d0 81 be 3f
       0.693749 0.18030119 2.1991465 1.4883366
000280 fd ce ff be d3 bf 06 bf d1 66 0d bf 70 24 41 3e
       -0.49962607 -0.5263645 -0.5523501 0.18861556
000290 94 1f 62 bf 7d e6 49 bd c0 4d 3c bd 21 f7 ad bf
       -0.88329434 -0.049292076 -0.045972586 -1.3591043
0002a0 65 6d 11 bf 40 d7 80 3f ea b8 a9 3e 5c fd f8 be
       -0.5680755 1.0065689 0.3314889 -0.48630798
0002b0 c2 ec 23 be de 36 c0 3b ab 6e d6 3e f2 aa 52 bf
       -0.16008285 0.0058659157 0.41881308 -0.8229209
0002c0 43 42 4b bf 35 32 26 bf 28 51 03 bf 7f c7 83 3e
       -0.7939798 -0.6492036 -0.5129571 0.2573814
0002d0 b4 a4 58 bf c3 c6 26 be 8d 53 b9 bc ac ff 98 bf
       -0.8462632 -0.16286759 -0.022622848 -1.1953025
0002e0 59 74 0a bf e0 7c 82 3f 6f 0a b9 3e 7e 06 f2 be
       -0.5408378 1.0194359 0.36140773 -0.47270578
0002f0 ad 81 04 be 3b b9 8d 3c f5 a4 c5 3e 17 ed 5a bf
       -0.12940092 0.017300239 0.38602415 -0.8551802
000300 ce 24 4c bf f3 2c d3 be db 82 01 bf 4b 15 8e 3e
       -0.7974366 -0.4124523 -0.50590295 0.2775062
000310 78 59 38 bf d3 ed be bd 59 97 62 bd ca 36 ba bf
       -0.7201152 -0.09322705 -0.055320118 -1.454797
000320 fa 85 2d bf c7 e6 5e 3f e4 67 89 3e d1 ee cf be
       -0.67782557 0.8707089 0.26837075 -0.4061189
000330 26 f2 7f be 97 e2 3b bd 8b 19 ad 3e 7f 88 93 bf
       -0.24994716 -0.04587039 0.3380855 -1.152603
000340 40 fe a0 be 39 d2 66 bf 22 22 c2 be db 2d aa be
       -0.31443977 -0.90164524 -0.37916666 -0.3323811
000350 35 1e d3 3e 38 be 29 3f 17 d8 a7 3f 45 4d 44 bf
       0.41233984 0.66305876 1.311282 -0.76680404
000360 72 70 5d bf 92 ab 5b bf 04 f6 ec 3e a0 c5 f9 3f
       -0.864997 -0.8580867 0.46281445 1.9513435
000370 4e 57 99 bf 09 42 8d bf c7 7f c3 bf 42 22 d5 3f
       -1.1979768 -1.1035777 -1.527337 1.665108
000380 41 dd 99 be ac ed 62 bf ae a6 ad be 82 53 a9 be
       -0.30051616 -0.8864391 -0.3391623 -0.33071524
000390 f2 e9 cf 3e de 9e 2d 3f d6 87 a8 3f 59 f5 3b bf
       0.40608174 0.6782054 1.3166454 -0.73421246
0003a0 f6 03 64 bf 57 cb 5b bf 91 e3 ed 3e cc 47 fc 3f
       -0.89068544 -0.85857147 0.46462682 1.9709411
0003b0 46 29 9b bf f5 55 8d bf 2e 7b bf bf 03 31 d2 3f
       -1.2121971 -1.1041857 -1.4959466 1.6421207
0003c0 88 90 9b be f9 76 72 bf 1f ee cb be 6e 0c ab be
       -0.30383706 -0.9471279 -0.3983011 -0.3340792
0003d0 97 07 d6 3e f0 96 15 3f 73 70 a0 3f 49 2a 47 bf
       0.41802666 0.5843344 1.2534317 -0.777989
0003e0 b4 69 69 bf 3b dc 5e bf dc 31 fc 3e 03 29 f3 3f
       -0.91176915 -0.87054795 0.4925679 1.8996891
0003f0 f8 f9 84 bf 4b 19 8b bf e7 7b c9 bf 5d 56 de 3f
       -1.0388784 -1.0867094 -1.5740937 1.7370106
