jordan_elman_2024/exp4/jordan_item_level/run_27/export/model.safetensors (safetensors, 6976 bytes, 7 tensors)

layers.embed.emb.weight f4 [22, 22]
1.0 0.0 0.0 0.0 0.0 0.0 0.0 0.0
0.0 0.0 0.0 0.0 0.0 0.0 0.0 0.0
0.0 0.0 0.0 0.0 0.0 0.0 0.0 1.0
0.0 0.0 0.0 0.0 0.0 0.0 0.0 0.0
0.0 0.0 0.0 0.0 0.0 0.0 0.0 0.0
0.0 0.0 0.0 0.0 0.0 0.0 1.0 0.0
0.0 0.0 0.0 0.0 0.0 0.0 0.0 0.0
0.0 0.0 0.0 0.0 0.0 0.0 0.0 0.0
0.0 0.0 0.0 0.0 0.0 1.0 0.0 0.0
0.0 0.0 0.0 0.0 0.0 0.0 0.0 0.0
0.0 0.0 0.0 0.0 0.0 0.0 0.0 0.0
0.0 0.0 0.0 0.0 1.0 0.0 0.0 0.0
0.0 0.0 0.0 0.0 0.0 0.0 0.0 0.0
0.0 0.0 0.0 0.0 0.0 0.0 0.0 0.0
0.0 0.0 0.0 1.0 0.0 0.0 0.0 0.0
0.0 0.0 0.0 0.0 0.0 0.0 0.0 0.0
0.0 0.0 0.0 0.0 0.0 0.0 0.0 0.0
0.0 0.0 1.0 0.0 0.0 0.0 0.0 0.0
0.0 0.0 0.0 0.0 0.0 0.0 0.0 0.0
0.0 0.0 0.0 0.0 0.0 0.0 0.0 0.0
0.0 1.0 0.0 0.0 0.0 0.0 0.0 0.0
0.0 0.0 0.0 0.0 0.0 0.0 0.0 0.0
0.0 0.0 0.0 0.0 0.0 0.0 0.0 0.0
1.0 0.0 0.0 0.0 0.0 0.0 0.0 0.0
0.0 0.0 0.0 0.0 0.0 0.0 0.0 0.0
0.0 0.0 0.0 0.0 0.0 0.0 0.0 1.0
0.0 0.0 0.0 0.0 0.0 0.0 0.0 0.0
0.0 0.0 0.0 0.0 0.0 0.0 0.0 0.0
0.0 0.0 0.0 0.0 0.0 0.0 1.0 0.0
0.0 0.0 0.0 0.0 0.0 0.0 0.0 0.0
0.0 0.0 0.0 0.0 0.0 0.0 0.0 0.0
0.0 0.0 0.0 0.0 0.0 1.0 0.0 0.0
00000000: 0000 803f 0000 0000 0000 0000 0000 0000
00000010: 0000 0000 0000 0000 0000 0000 0000 0000
00000020: 0000 0000 0000 0000 0000 0000 0000 0000
00000030: 0000 0000 0000 0000 0000 0000 0000 0000
00000040: 0000 0000 0000 0000 0000 0000 0000 0000
00000050: 0000 0000 0000 0000 0000 0000 0000 803f
00000060: 0000 0000 0000 0000 0000 0000 0000 0000
00000070: 0000 0000 0000 0000 0000 0000 0000 0000
00000080: 0000 0000 0000 0000 0000 0000 0000 0000
00000090: 0000 0000 0000 0000 0000 0000 0000 0000
000000a0: 0000 0000 0000 0000 0000 0000 0000 0000
000000b0: 0000 0000 0000 0000 0000 803f 0000 0000
000000c0: 0000 0000 0000 0000 0000 0000 0000 0000
000000d0: 0000 0000 0000 0000 0000 0000 0000 0000
000000e0: 0000 0000 0000 0000 0000 0000 0000 0000
000000f0: 0000 0000 0000 0000 0000 0000 0000 0000
00000100: 0000 0000 0000 0000 0000 0000 0000 0000
00000110: 0000 0000 0000 803f 0000 0000 0000 0000
00000120: 0000 0000 0000 0000 0000 0000 0000 0000
00000130: 0000 0000 0000 0000 0000 0000 0000 0000
00000140: 0000 0000 0000 0000 0000 0000 0000 0000
00000150: 0000 0000 0000 0000 0000 0000 0000 0000
00000160: 0000 0000 0000 0000 0000 0000 0000 0000
00000170: 0000 803f 0000 0000 0000 0000 0000 0000
00000180: 0000 0000 0000 0000 0000 0000 0000 0000
00000190: 0000 0000 0000 0000 0000 0000 0000 0000
000001a0: 0000 0000 0000 0000 0000 0000 0000 0000
000001b0: 0000 0000 0000 0000 0000 0000 0000 0000
000001c0: 0000 0000 0000 0000 0000 0000 0000 803f
000001d0: 0000 0000 0000 0000 0000 0000 0000 0000
000001e0: 0000 0000 0000 0000 0000 0000 0000 0000
000001f0: 0000 0000 0000 0000 0000 0000 0000 0000
00000200: 0000 0000 0000 0000 0000 0000 0000 0000
00000210: 0000 0000 0000 0000 0000 0000 0000 0000
00000220: 0000 0000 0000 0000 0000 803f 0000 0000
00000230: 0000 0000 0000 0000 0000 0000 0000 0000
00000240: 0000 0000 0000 0000 0000 0000 0000 0000
00000250: 0000 0000 0000 0000 0000 0000 0000 0000
00000260: 0000 0000 0000 0000 0000 0000 0000 0000
00000270: 0000 0000 0000 0000 0000 0000 0000 0000
00000280: 0000 0000 0000 803f 0000 0000 0000 0000
00000290: 0000 0000 0000 0000 0000 0000 0000 0000
000002a0: 0000 0000 0000 0000 0000 0000 0000 0000
000002b0: 0000 0000 0000 0000 0000 0000 0000 0000
000002c0: 0000 0000 0000 0000 0000 0000 0000 0000
000002d0: 0000 0000 0000 0000 0000 0000 0000 0000
000002e0: 0000 803f 0000 0000 0000 0000 0000 0000
000002f0: 0000 0000 0000 0000 0000 0000 0000 0000
00000300: 0000 0000 0000 0000 0000 0000 0000 0000
00000310: 0000 0000 0000 0000 0000 0000 0000 0000
00000320: 0000 0000 0000 0000 0000 0000 0000 0000
00000330: 0000 0000 0000 0000 0000 0000 0000 803f
00000340: 0000 0000 0000 0000 0000 0000 0000 0000
00000350: 0000 0000 0000 0000 0000 0000 0000 0000
00000360: 0000 0000 0000 0000 0000 0000 0000 0000
00000370: 0000 0000 0000 0000 0000 0000 0000 0000
00000380: 0000 0000 0000 0000 0000 0000 0000 0000
00000390: 0000 0000 0000 0000 0000 803f 0000 0000
000003a0: 0000 0000 0000 0000 0000 0000 0000 0000
000003b0: 0000 0000 0000 0000 0000 0000 0000 0000
000003c0: 0000 0000 0000 0000 0000 0000 0000 0000
000003d0: 0000 0000 0000 0000 0000 0000 0000 0000
000003e0: 0000 0000 0000 0000 0000 0000 0000 0000
000003f0: 0000 0000 0000 803f 0000 0000 0000 0000

layers.jordan.hx.bias f4 [16]
0.13881883 0.2548858 -0.23710445 0.044361163 0.2543845 0.1590085 -0.13300888 0.1991781
0.0030383763 -0.11434094 -0.20189026 0.2674995 -0.46369624 0.33426595 0.06991259 -0.09396245
00000000: 8626 0e3e 6480 823e 82cb 72be 0db4 353d
00000010: af3e 823e 20d3 223e 7b33 08be 58f5 4b3e
00000020: 7f1f 473b 952b eabd 52bc 4ebe b2f5 883e
00000030: 9869 edbe e824 ab3e 552e 8f3d 636f c0bd

layers.jordan.hx.weight f4 [16, 22]
0.53872424 -0.6329329 -0.49178052 0.15721682 0.7965469 0.026314896 0.44198796 0.032143395
0.11853979 -0.16232966 -0.06455535 0.07561758 0.3182178 0.74081874 0.860547 0.3849736
0.58627355 0.965223 0.9800277 -0.16945751 -0.44907144 -0.83087546 -0.085303634 -0.58915377
0.8300545 0.9504724 0.295663 0.9888529 -0.50780916 -0.41360208 -0.9618905 -0.891137
0.7606703 0.43104488 0.70678914 -0.9889134 -0.9177676 -0.81554157 -0.49597728 -0.38656387
-0.9135366 -0.41345415 -0.28053024 0.57566696 -0.50385636 -0.98363566 -0.6173495 -0.5116843
-0.22515836 0.78202397 0.8956493 -0.21767895 0.15481594 -0.82050955 -0.08064819 0.6398751
-0.2852952 0.36520326 -0.3726091 0.05274165 -0.6126503 0.4279101 -0.6503186 0.33553782
-0.9340463 -0.2247888 -0.70238185 -0.98897195 0.6155145 0.6040667 0.6464618 -0.39960533
-0.3769804 -0.7021239 -0.4381192 -0.073611684 -0.75505704 0.6200702 0.5442585 -0.61959136
-0.40277985 -0.11191249 -0.1446825 -0.09297647 -0.9833648 -0.9195791 -0.74834263 0.49090603
-0.019295117 0.61363614 0.79080725 0.7249847 -0.23400794 -0.45083633 -0.35147408 0.893208
-0.3052509 0.5950899 0.21918216 0.21666665 0.7363822 0.28901806 0.27794647 0.6102886
-0.49572596 0.12212837 0.20426275 -0.12195451 0.6467206 0.8045933 0.9483577 0.64443386
0.69958746 0.16007666 0.3737995 0.95478487 -0.4888369 0.6853934 0.56811804 -0.20115432
-0.31837636 0.8438438 -0.39781788 0.38413236 -0.04906654 0.19012907 0.39209154 0.4031697
-0.97341543 -0.7743535 -1.0121125 -0.87202615 -0.19095422 0.15616882 0.7577071 -0.46717605
-0.07067883 -0.19603103 0.4508366 0.5441038 0.035038795 -0.9275836 -0.9122986 -0.54556865
-0.13088505 0.4733722 -0.794167 0.4609467 -0.29652995 -0.30032516 0.50284934 0.7744182
0.67768323 -0.017401855 -0.13337031 0.7426008 0.34484005 0.7307404 -0.97286254 0.21931392
0.019595878 -0.8789642 0.80312854 0.52287126 -0.48267832 0.72771484 0.30559683 0.2614443
0.6230916 0.0084145125 0.28369194 -0.19206522 -0.90662676 -0.6266633 -0.9019113 0.8808258
0.7585542 -0.36976898 -0.14867973 0.46122813 0.12339027 0.16330715 -0.90333074 1.0148028
0.6918819 0.8400364 -0.17749156 0.2717307 0.25425768 0.18623723 -0.57444406 0.77852917
-0.366571 -0.22037145 0.45688948 -0.67370105 -0.2582462 -0.4838078 -0.5276896 -0.48537457
-0.7598065 -0.28062308 0.07338726 -0.808803 -0.827116 0.06715665 0.9973656 -0.9482533
-0.39469522 0.5870114 -0.8114713 0.0745003 -0.20356348 0.99679095 -0.4063039 0.44043744
-0.2617105 -0.2156975 -0.87257326 -0.012885874 -0.44486126 0.045580387 -0.20087099 -0.55160815
0.2905682 -0.99768555 -0.37499744 0.055432692 0.26430967 -0.1635455 0.48023865 0.6656694
0.47094035 0.6637644 -0.14561185 -0.72857624 0.8645057 -0.21242411 0.37942788 -0.115178406
0.9300768 -0.009370776 -0.2174789 -0.47169626 -0.2070508 0.978813 0.1645901 0.29318896
0.36499625 0.67176837 0.78838193 -0.35329804 -0.65364915 -0.31640592 -0.18074454 0.7954967
00000000: d5e9 093f e407 22bf a8ca fbbe 72fd 203e
00000010: 7fea 4b3f 5692 d73c 3f4c e23e cba8 033d
00000020: fdc4 f23d bf39 26be 9835 84bd 64dd 9a3d
00000030: 72ed a23e 4ca6 3d3f cf4c 5c3f 421b c53e
00000040: 0616 163f db18 773f 18e3 7a3f 4586 2dbe
00000050: b1ec e5be 41b4 54bf acb3 aebd c8d2 16bf
00000060: 747e 543f 2952 733f 2461 973e 7725 7d3f
00000070: c8ff 01bf a7c3 d3be 753e 76bf 8e21 64bf
00000080: 4abb 423f eab1 dc3e 22f0 343f 6e29 7dbf
00000090: d1f2 6abf 55c7 50bf bcf0 fdbe b3eb c5be
000000a0: 89dd 69bf 43b0 d3be a9a1 8fbe e95e 133f
000000b0: bbfc 00bf 8ccf 7bbf 9e0a 1ebf befd 02bf
000000c0: ea8f 66be b932 483f 4649 653f 3be7 5ebe
000000d0: 1288 1e3e ea0c 52bf e12a a5bd dbce 233f
000000e0: 3612 92be ecfb ba3e 9fc6 bebe a107 583d
000000f0: a6d6 1cbf 0817 db3e 487b 26bf 9dcb ab3e
00000100: a91d 6fbf 092f 66be 4ccf 33bf 442d 7dbf
00000110: 5c92 1d3f 1ea4 1a3f 857e 253f 1299 ccbe
00000120: 9303 c1be 64be 33bf 2951 e0be b9c1 96bd
00000130: 6b4b 41bf ecbc 1e3f 8654 0b3f 8a9d 1ebf
00000140: 2939 cebe 6032 e5bd a627 14be 736a bebd
00000150: ccbd 7bbf 8969 6bbf 6293 3fbf 0958 fb3e
00000160: cb10 9ebc 4217 1d3f 5872 4a3f 9998 393f
00000170: c79f 6fbe 05d4 e6be 69f4 b3be 48a9 643f
00000180: d949 9cbe d057 183f 4a71 603e dddd 5d3e
00000190: 8b83 3c3f 2dfa 933e 004f 8e3e e03b 1c3f
000001a0: cbcf fdbe 701e fa3d 412a 513e 49c3 f9bd
000001b0: 7b8f 253f d4f9 4d3f 92c7 723f 9ef9 243f
000001c0: 2a18 333f 23eb 233e a662 bf3e c86c 743f
000001d0: d548 fabe f175 2f3f 2f70 113f 66fb 4dbe
000001e0: 3a02 a3be 2606 583f c9ae cbbe ffac c43e
000001f0: fff9 48bd 32b1 423e 39c0 c83e 426c ce3e
00000200: c131 79bf 083c 46bf e78c 81bf 1b3d 5fbf
00000210: 8189 43be b8ea 1f3e 18f9 413f b331 efbe
00000220: 10c0 90bd 5cbc 48be 0ed4 e63e 634a 0b3f
00000230: d784 0f3d 1e76 6dbf 678c 69bf 63aa 0bbf
00000240: bb06 06be d75d f23e 874e 4bbf 3501 ec3e
00000250: c6d2 97be 38c4 99be bcba 003f 4540 463f
00000260: a67c 2d3f 568e 8ebc 3a92 08be 161b 3e3f
00000270: e08e b03e ce11 3b3f 850d 79bf d493 603e
00000280: 8987 a03c cc03 61bf d599 4d3f e4da 053f
00000290: 9d21 f7be 854b 3a3f 3077 9c3e 07dc 853e
000002a0: ee82 1f3f 06dd 093c 1240 913e bfac 44be
000002b0: b118 68bf 026d 20bf a9e3 66bf cd7d 613f
000002c0: 9c30 423f 5c52 bdbe 803f 18be 1826 ec3e
000002d0: 0ab4 fc3d fd39 273e af40 67bf 0fe5 813f
000002e0: 2c1f 313f a00c 573f 59c0 35be 4920 8b3e
000002f0: 102e 823e f9b4 3e3e c40e 13bf b04d 473f
00000300: 32af bbbe 0ea9 61be 6bed e93e ac77 2cbf
00000310: d938 84be a8b5 f7be aa16 07bf 0483 f8be
00000320: ae82 42bf d4ad 8fbe 0f4c 963d b70d 4fbf
00000330: e0bd 53bf 6d89 893d 5a53 7f3f bac0 72bf
00000340: 7e15 cabe 6146 163f 95bc 4fbf 9d93 983d
00000350: f272 50be b12d 7f3f 1107 d0be 0481 e13e
00000360: ebfe 85be cedf 5cbe f660 5fbf 461f 53bc
00000370: dbc4 e3be 80b2 3a3d 20b1 4dbe 3136 0dbf
00000380: 5bc5 943e 5268 7fbf aaff bfbe 640d 633d
00000390: 9953 873e 7978 27be d7e1 f53e 4f69 2a3f
000003a0: 181f f13e 77ec 293f 461b 15be f983 3abf
000003b0: 3f50 5d3f b585 59be 5f44 c23e a8e2 ebbd
000003c0: 8319 6e3f e287 19bc cab2 5ebe 2c82 f1be
000003d0: 2005 54be 7d93 7a3f 4f8a 283e dd1c 963e
000003e0: cae0 ba3e 03f9 2b3f 66d3 493f 7be3 b4be
000003f0: 8d55 27bf f5ff a1be 1915 39be aca5 4b3f

layers.jordan.hy.bias f4 [16]
0.10669106 0.3542677 -0.24072552 -0.1766293 0.03508947 0.14426383 -0.20523219 0.20252517
0.04553768 0.025360292 -0.08383289 0.49039465 -0.054362584 0.2278792 -0.105932 -0.026236065
00000000: d880 da3d 9362 b53e c080 76be 50de 34be
00000010: fab9 0f3d e6b9 133e 6328 52be c262 4f3e
00000020: b885 3a3d 63c0 cf3c 94b0 abbd 0215 fb3e
00000030: 4dab 5ebd 2a59 693e e0f2 d8bd 04ed d6bc

layers.jordan.hy.weight f4 [16, 22]
0.028740855 -0.03751342 0.089319244 0.17426075 -0.13992576 -0.400171 -0.34955353 0.2272901
0.05259144 0.50210434 -0.5531259 -0.03202446 -0.18497136 0.50762635 0.123725116 0.5796271
0.0006741604 0.022262476 -0.22062092 -0.061378144 -0.11812251 -0.22997837 0.08307274 -0.1035002
0.05427216 0.14612672 0.243641 0.19231418 0.27049202 -0.06983387 0.12913409 -0.15091848
0.14666083 0.055042267 0.11773631 -0.21304475 -0.20615019 0.08920785 -0.15388818 0.021379748
-0.17648338 -0.17309445 -0.15007906 -0.086637996 -0.082850784 -0.18248487 -0.13179164 -0.38196844
-0.06725936 0.28647622 0.24264143 0.10464369 0.25021872 -0.11675866 0.007077782 0.2668951
-0.017291583 -0.15864016 0.25979635 -0.044370055 0.095396675 -0.30996922 -0.16233149 -0.09163917
-0.15245783 -0.26232985 0.022252375 -0.027844656 0.20246583 0.32649106 0.26239926 -0.01106792
0.21124251 -0.2355189 0.13633592 -0.14500047 0.31374133 0.24255162 0.053322334 0.16271721
0.015699351 -0.072628476 0.060976215 -0.34079945 -0.21066798 0.116882056 -0.14723752 -0.0939699
-0.28977254 -0.09304904 0.030354828 0.22652371 -0.030994032 0.22839247 0.08510425 -0.03429872
0.10325824 0.026624905 0.21967822 0.13323328 -0.18971741 -0.08799174 0.1379219 -0.063970275
-0.34031528 -0.3831647 -0.071698904 -0.269834 0.11420712 -0.22781517 -0.34948248 0.039052926
-0.07567573 0.41303435 0.22059049 0.08243469 -0.016858181 0.099675134 0.31665847 0.06909468
0.11643045 -0.017986074 0.24077299 0.111607134 0.18612957 -0.2512505 -0.18672171 -0.04564008
-0.083200365 0.04159511 -0.04714061 -0.12688275 -0.18709986 0.094959185 0.24133632 0.00783238
-0.37731898 -0.37184903 0.02793399 0.23466907 0.21512397 0.17907068 -0.23858519 0.07369865
-0.020672198 0.12608413 -0.035105895 0.19633326 0.007710487 -0.081094906 0.083509274 0.03898516
0.13806532 -0.06670273 -0.07080916 0.30128387 -0.059488043 0.30687192 0.13230242 0.10147595
-0.071282595 0.13664001 0.046195175 -0.08469518 0.059471205 -0.29545158 -0.022833372 0.09046517
-0.0048337057 -0.10535124 0.09412969 -0.18671119 -0.02594409 -0.1853963 -0.054922204 -0.26583493
0.020087974 0.047644902 0.066912815 0.18975966 -0.092794314 -0.33375204 -0.19743548 0.20689198
0.10530214 0.08519152 -0.122134745 -0.3463851 -0.32479295 0.06484648 0.08246027 0.1534887
-0.19756122 -0.1465549 -0.027105946 0.13610637 -0.20219766 -0.07228023 0.031073425 -0.08933237
-0.122806355 -0.40540913 0.123258285 0.15326428 0.05608467 0.11739496 0.022279236 -0.028236818
-0.08624238 -0.10365001 0.027751619 0.1669954 -0.07763932 0.1340113 0.14198235 -0.0853268
-0.14691985 0.21145806 0.051010385 0.06804256 -0.047215167 0.29670334 0.21809794 -0.3430675
-0.22311887 -0.13404569 -0.06618452 -0.0457933 -0.23204574 -0.05800335 0.07399577 0.12603676
-0.2580632 -0.13980623 0.03526797 0.15786156 -0.0063505303 0.31709236 0.16173522 -0.08802976
0.21708643 0.13751318 0.0876315 0.13860844 -0.09278906 0.20776936 -0.016850503 -0.2463838
-0.01598499 0.20754755 -0.23361675 0.19346394 -0.21496849 -0.24736318 -0.27268323 0.028379664
00000000: f171 eb3c aca7 19bd 02ed b63d 6971 323e
00000010: b348 0fbe 37e3 ccbe aef8 b2be bcbe 683e
00000020: 1f6a 573d e989 003f a999 0dbf 152c 03bd
00000030: 2269 3dbe cdf3 013f 9863 fd3d 7162 143f
00000040: 23ba 303a cc5f b63c 73ea 61be a667 7bbd
00000050: 37ea f1bd 737f 6bbe 0a22 aa3d eaf7 d3bd
00000060: 7c4c 5e3d 3ea2 153e 077d 793e 02ee 443e
00000070: ee7d 8a3e 0f05 8fbd ba3b 043e 608a 1abe
00000080: 422e 163e 0074 613d bc1f f13d 6728 5abe
00000090: 0919 53be 9bb2 b63d dd94 1dbe 9524 af3c
000000a0: 0fb8 34be ac3f 31be 53ae 19be 436f b1bd
000000b0: acad a9bd 50dd 3abe 63f4 06be 5e91 c3be
000000c0: 46bf 89bd 03ad 923e ff76 783e 6e4f d63d
000000d0: ab1c 803e 2a1f efbd bdec e73b 79a6 883e
000000e0: 14a7 8dbc 9172 22be 0704 853e 60bd 35bd
000000f0: 555f c33d 49b4 9ebe 3a3a 26be 51ad bbbd
00000100: e81d 1cbe 1950 86be 9d4a b63c 7a1a e4bc
00000110: 3453 4f3e d629 a73e 3259 863e 3956 35bc
00000120: f54f 583e de2b 71be a59b 0b3e 017b 14be
00000130: b4a2 a03e 745f 783e 8568 5a3d 579f 263e
00000140: ed9b 803c 3dbe 94bd 32c2 793d 447d aebe
00000150: 59b9 57be dc5f ef3d 6fc5 16be 4a73 c0bd
00000160: 115d 94be 7f90 bebd b0aa f83c d5f5 673e
00000170: 32e7 fdbc b7df 693e 234b ae3d d17c 0cbd
00000180: 0e79 d33d 791c da3c 54f3 603e 4e6e 083e
00000190: 4845 42be 0335 b4bd 663b 0d3e d902 83bd
000001a0: ce3d aebe 2a2e c4be e0d6 92bd af27 8abe
000001b0: 6ce5 e93d 6148 69be 5eef b2be f6f5 1f3d
000001c0: e1fb 9abd 3d79 d33e 79e2 613e 85d3 a83d
000001d0: 2b1a 8abc 7a22 cc3d 0f21 a23e 8381 8d3d
000001e0: 1673 ee3d 8857 93bc 328d 763e 4892 e43d
000001f0: c098 3e3e e8a3 80be fa33 3fbe 18f1 3abd
00000200: f464 aabd a25f 2a3d 8316 41bd 8ded 01be
00000210: 1b97 3fbe f679 c23d de20 773e 6253 003c
00000220: f42f c1be ff62 bebe d3d5 e43c 174d 703e
00000230: 7549 5c3e 4e5e 373e ad4f 74be 51ef 963d
00000240: be58 a9bc 331c 013e 33cb 0fbd 960b 493e
00000250: 41a8 fc3b 1615 a6bd e906 ab3d e7ae 1f3d
00000260: ff60 0d3e 719b 88bd 6504 91bd e141 9a3e
00000270: bca9 73bd 511e 9d3e 497a 073e 9fd2 cf3d
00000280: 9cfc 91bd 5ceb 0b3e 2737 3d3d ab74 adbd
00000290: 1498 733d 6e45 97be 0d0d bbbc ce45 b93d
000002a0: 1064 9ebb 64c2 d7bd 11c7 c03d 3831 3fbe
000002b0: b388 d4bc 87d8 3dbe 1bf6 60bd 841b 88be
000002c0: 898f a43c 4d27 433d 9609 893d 5b50 423e
000002d0: f20a bebd 8ce1 aabe 872c 4abe 7edb 533e
000002e0: a6a8 d73d e478 ae3d c821 fabd 6359 b1be
000002f0: 434b a6be 3bce 843d eee0 a83d 242c 1d3e
00000300: 7d4d 4abe 7d12 16be 4a0d debc 785f 0b3e
00000310: e70c 4fbe a807 94bd b28d fe3c e4f3 b6bd
00000320: e681 fbbd c991 cfbe d76e fc3d 50f1 1c3e
00000330: 0ab9 653d c56c f03d f282 b63c e650 e7bc
00000340: d89f b0bd 7546 d4bd 5d57 e33c d800 2b3e
00000350: 5d01 9fbd 423a 093e d263 113e d1bf aebd
00000360: 2872 16be 7688 583e 44f0 503d e659 8b3d
00000370: b164 41bd 80e9 973e 1155 5f3e 8ba6 afbe
00000380: 4679 64be 4643 09be c08b 87bd c191 3bbd
00000390: 669d 6dbe ec94 6dbd 188b 973d c80f 013e
000003a0: dc20 84be 5d29 0fbe 2675 103d 76a6 213e
000003b0: 1c18 d0bb ee59 a23e eb9d 253e f248 b4bd
000003c0: e84b 5e3e 41d0 0c3e 2578 b33d 5fef 0d3e
000003d0: 3108 bebd 7ec1 543e 110a 8abc 094c 7cbe
000003e0: f4f2 82bc 5887 543e 3b39 6fbe 691b 463e
000003f0: b320 5cbe c64c 7dbe 239d 8bbe 787c e83c

layers.jordan.lm_head.bias f4 [22]
-0.7729952 -0.5003394 -0.4723869 0.33179528 0.18020882 0.21625467 0.14502098 0.29302776
0.062489882 0.045254778 0.16543709 0.02628781 -0.058281668 0.15114163 0.2493832 0.056353528
-0.098670155 -0.06156015 0.026492776 0.08593662 0.07819537 -0.16385442
00000000: 03e3 45bf 3e16 00bf b2dc f1be 12e1 a93e
00000010: a988 383e dd71 5d3e 6180 143e bc07 963e
00000020: 64f5 7f3d 135d 393d 5768 293e 8959 d73c
00000030: c2b8 6ebd dfc4 1a3e 4f5e 7f3e f5d2 663d
00000040: 9413 cabd 7f26 7cbd 6107 d93c 8aff af3d
00000050: e524 a03d 74c9 27be

layers.jordan.lm_head.weight f4 [22, 16]
-0.043612286 0.046089116 0.19272158 0.18722025 -0.33456376 -0.1091861 0.39836168 0.08783277
0.010030285 -0.10819347 0.068466134 -0.11434308 0.5751706 -0.15808058 0.033550836 0.24412423
0.0013502125 -0.08684758 0.18299107 0.21105032 -0.09437053 -0.0947493 0.51643765 -0.08768194
-0.006571236 -0.021431603 0.23063421 -0.2582712 0.37619135 -0.5208355 0.0636291 0.46559736
0.02682533 -0.08897874 0.23886912 0.037443057 -0.2869525 -0.016928313 0.2423501 0.1136968
0.220746 0.21541567 0.012669803 -0.34394047 0.39693505 -0.5094744 0.031072646 0.32143205
0.54779273 -1.4160092 0.30325967 -0.87497663 0.39124796 0.68296015 0.5141364 0.68242985
0.9640829 0.48655993 -0.5114209 0.42139742 1.0973525 -1.0337224 0.51981175 -0.95252997
0.4076227 0.41729778 -0.7134622 0.38422883 0.1308299 0.32806662 -0.30054238 0.57350326
0.5939442 -0.5237157 -0.27128014 0.41422388 -0.07199971 0.069389045 0.5686588 0.8445456
0.42857105 0.36209717 -0.5630689 0.273088 0.19954702 0.22986713 -0.054413393 0.45807114
0.5580527 -0.35520113 -0.5104451 0.46276718 -0.16554043 0.3187816 0.7001792 0.96266454
0.42845896 0.26689184 -0.6221117 0.30966073 0.2462038 0.31724292 -0.28858694 0.5582838
0.45996547 -0.27591458 -0.4056035 0.42379344 -0.2833926 0.11299889 0.64765465 0.903402
0.02457009 -0.7366208 -0.4443893 -0.549457 -0.5752218 -0.6142581 -0.09573269 -0.42810804
-0.14617804 0.43606937 0.67958534 0.14501634 -0.1725973 0.1902598 -0.54181165 -0.1942697
-0.0038797825 -0.652458 -0.35041136 -0.7088347 -0.5927106 -0.945961 -0.09293602 -0.3248361
-0.16994919 0.28087828 0.4680915 0.3508483 -0.1527545 0.32899222 -0.4511975 -0.19252275
-0.0016120556 -0.6070873 -0.31848663 -0.7236207 -0.38475683 -0.7309134 -0.08282404 -0.5396521
-0.17242314 0.5626029 0.8033701 0.40261927 -0.18111841 0.33702198 -0.32303256 -0.19907844
0.4417209 0.35364953 -0.6143592 0.4720415 0.074224055 0.2943039 -0.2046689 0.45126092
0.6060307 -0.5104561 -0.3669705 0.561917 -0.03586029 0.1083237 0.501334 0.90429807
0.47643387 0.14636217 -0.4360935 0.5636526 0.22727324 0.2855619 -0.26992333 0.4483766
0.8833701 -0.19385198 -0.45186883 0.41725543 -0.24435784 0.26436982 0.69225085 0.89210916
0.40817782 0.43640792 -0.53750616 0.3059872 0.19547997 0.41353893 -0.08804739 0.5473116
0.6388495 -0.46476927 -0.31746003 0.5114334 -0.29894692 0.29529235 0.52198046 0.95290935
-0.40299627 -0.7066388 -0.20546256 -0.6450049 -0.63070333 -0.580255 -0.039671924 -0.522838
-0.34506708 0.46562278 0.44415522 0.3839669 0.010633138 0.15071228 -0.31175923 -0.20045687
-0.37565175 -0.53094363 -0.26813084 -0.7991887 -0.7098438 -0.66810524 -0.06844991 -0.4876626
-0.38495108 0.16245092 0.8302929 0.14913419 -0.008769788 0.025978293 -0.36675945 -0.19500746
-0.3642074 -0.6451693 -0.30118215 -0.60404855 -0.6123698 -0.608296 -0.060795087 -0.31565118
-0.43984318 0.5811201 0.545385 0.41788018 0.018248716 -0.03454534 -0.4493688 -0.19554217
00000000: cca2 32bd f1c7 3c3d ce58 453e aab6 3f3e
00000010: f14b abbe f69c dfbd 10f6 cb3e abe1 b33d
00000020: 1156 243c 8a94 ddbd f937 8c3d b42c eabd
00000030: 613e 133f e0df 21be 9a6c 093d b4fb 793e
00000040: 9df9 b03a 25dd b1bd 0362 3b3e 931d 583e
00000050: 5645 c1bd ec0b c2bd 4235 043f 9792 b3bd
00000060: 8653 d7bb 5491 afbc 602b 6c3e 1f3c 84be
00000070: 279c c03e 7a55 05bf f94f 823d c762 ee3e
00000080: cbc0 db3c 7c3a b6bd 1b9a 743e e45d 193d
00000090: 70eb 92be 3fad 8abc a02a 783e ded9 e83d
000000a0: 3d0b 623e ed95 5c3e 0195 4f3c f718 b0be
000000b0: 123b cb3e ea6c 02bf 108c fe3c be92 a43e
000000c0: 253c 0c3f ca3f b5bf da44 9b3e 78fe 5fbf
000000d0: a751 c83e 7ad6 2e3f 719e 033f b9b3 2e3f
000000e0: 23ce 763f 621e f93e 7bec 02bf 67c1 d73e
000000f0: 0c76 8c3f 0451 84bf 6212 053f 01d9 73bf
00000100: ecb3 d03e 0ea8 d53e 75a5 36bf a4b9 c43e
00000110: 46f8 053e 59f8 a73e b1e0 99be 1cd1 123f
00000120: ba0c 183f 3b12 06bf 3be5 8abe 2715 d43e
00000130: 9574 93bd d81b 8e3d a093 113f 2434 583f
00000140: aa6d db3e cd64 b93e 4925 10bf 31d2 8b3e
00000150: 0e56 4c3e 4a62 6b3e 94e0 5ebd 4d88 ea3e
00000160: 8bdc 0e3f ecdc b5be 88ac 02bf d2ef ec3e
00000170: 6e83 29be 5837 a33e f23e 333f 2f71 763f
00000180: f95e db3e 0ca6 883e b642 1fbf da8b 9e3e
00000190: d91c 7c3e aa6d a23e abc1 93be b0eb 0e3f
000001a0: 9880 eb3e ad44 8dbe 43ab cfbe 74fb d83e
000001b0: d618 91be f66b e73d b2cc 253f 5a45 673f
000001c0: 3747 c93c 2e93 3cbf ff86 e3be 37a9 0cbf
000001d0: bc41 13bf 0540 1dbf 800f c4bd fa30 dbbe
000001e0: b2af 15be 7c44 df3e 4ef9 2d3f 2a7f 143e
000001f0: 59bd 30be 77d3 423e 2bb4 0abf a3ee 46be
00000200: f343 7ebb 7d07 27bf 1e69 b3be 3176 35bf
00000210: e2bb 17bf 802a 72bf 3d55 bebd eb50 a6be
00000220: 2907 2ebe 47cf 8f3e b0a9 ef3e 63a2 b33e
00000230: ad6b 1cbe ab71 a83e 5c03 e7be af24 45be
00000240: 9c4b d3ba 136a 1bbf ae10 a3be 353f 39bf
00000250: d9fe c4be 241d 3bbf a69f a9bd a426 0abf
00000260: b18f 30be be06 103f aaa9 4d3f 1d24 ce3e
00000270: 1b77 39be 258e ac3e 8664 a5be 38db 4bbe
00000280: 3e29 e23e 8d11 b53e a546 1dbf 6caf f13e
00000290: c802 983d 00af 963e b994 51be ac0b e73e
000002a0: d424 1b3f 40ad 02bf 8fe3 bbbe cbd9 0f3f
000002b0: 3de2 12bd d1d8 dd3d 6d57 003f 1480 673f
000002c0: 24ef f33e f7df 153e a647 dfbe 894b 103f
000002d0: 51ba 683e 2b35 923e 6433 8abe 9e91 e53e
000002e0: 8b24 623f 2281 46be 5a5b e7be 81a2 d53e
000002f0: f138 7abe 7b5b 873e 5a37 313f 4461 643f
00000300: affc d03e dc70 df3e 019a 09bf 5baa 9c3e
00000310: e72b 483e 60bb d33e 3152 b4bd 9d1c 0c3f
00000320: a48b 233f 3df6 edbe 1f8a a2be 4ded 023f
00000330: 920f 99be 8f30 973e 83a0 053f def1 733f
00000340: 8755 cebe 48e6 34bf c764 52be 0b1f 25bf
00000350: c675 21bf 978b 14bf 077f 22bd b6d8 05bf
00000360: a2ac b0be 1c66 ee3e 5068 e33e 4f97 c43e
00000370: 9d36 2e3c 5254 1a3e e89e 9fbe 9144 4dbe
00000380: 6d55 c0be eceb 07bf 7248 89be a197 4cbf
00000390: 53b8 35bf f208 2bbf 772f 8cbd eaae f9be
000003a0: 4f18 c5be 8959 263e 138e 543f a2b6 183e
000003b0: 28af 0fbc 6ed0 d43c e5c7 bbbe 09b0 47be
000003c0: 6479 babe d129 25bf 8c34 9abe eda2 1abf
000003d0: 44c4 1cbf 49b9 1bbf 4504 79bd 089d a1be
000003e0: 2033 e1be 49c4 143f 5a9e 0b3f 64f4 d53e
000003f0: 557e 953c 6a7f 0dbd ab13 e6be 353c 48be
