ayb_2022/transformer-4/run_15/export/model.safetensors (safetensors, 1572 bytes, 6 tensors)

layers_by_name.causal_self_attention.w_qkv.bias f4 [12]
0	0x3da88339	0.08228154
1	0x3f03a40e	0.514222
2	0x3ea9e6ac	0.331838
3	0xbf4fcf2e	-0.81175506
4	0x3f0851ec	0.5325
5	0x3dc96ec2	0.098355785
6	0xbf84034e	-1.0313509
7	0x3e12f119	0.14349784
8	0xbd75ee98	-0.060041994
9	0xbd0b82b1	-0.034060184
10	0xbf621dab	-0.8832652
11	0xbeff3444	-0.49844563

layers_by_name.causal_self_attention.w_qkv.weight f4 [12, 4]
0	0x3e7527cb	0.23940961
1	0x3d297020	0.041366696
2	0xbec4bd66	-0.3842575
3	0xbe52c4e5	-0.20582922
4	0xbf4cb34c	-0.79961085
5	0x3f95d371	1.1705152
6	0xbf7b2cb6	-0.981151
7	0xbe6d6899	-0.23184432
8	0xbec9f21c	-0.39442527
9	0xbfa79ec6	-1.3095329
10	0xbfac8cea	-1.3480504
11	0xbebfc91f	-0.3745813
12	0x3f4261de	0.75930583
13	0xbfa6e429	-1.3038379
14	0xbf849cfa	-1.0360405
15	0xbffaa110	-1.9580402
16	0x3de35ee8	0.11102086
17	0x3dc0aa20	0.09407449
18	0xbea5e12a	-0.3239835
19	0x3dd2765d	0.10276482
20	0x3d38a184	0.04507591
21	0x3eac2a47	0.33626005
22	0xbfce8461	-1.6134149
23	0x3f110f36	0.56663835
24	0xbf6c16b6	-0.92222154
25	0xbf20f164	-0.6286833
26	0xbf8a256b	-1.0792669
27	0x3d5936c3	0.05303074
28	0x3f9a7e11	1.2069722
29	0xc001b430	-2.0266228
30	0xc0190278	-2.3907757
31	0xbe10263e	-0.14077088
32	0xbece58c2	-0.40302092
33	0x3e7a9866	0.24472198
34	0xbf4eb973	-0.80751723
35	0xbf49b97c	-0.7879865
36	0xbc5db6fd	-0.013532397
37	0x3c0536cc	0.00813074
38	0xbb79780e	-0.0038065943
39	0xbd27d5b7	-0.0409753
40	0xbebabd63	-0.36472616
41	0xbf13ebf6	-0.5778192
42	0xbe405751	-0.18783309
43	0xbf59bf07	-0.8505711
44	0xbee7b8a7	-0.45258066
45	0xbf96047a	-1.1720116
46	0xbd00f67b	-0.031485062
47	0x3ea9cf56	0.33165997

layers_by_name.lm_head.proj.bias f4 [19]
0	0xc10f2599	-8.946679
1	0xc10fc1ef	-8.984847
2	0xc140eae5	-12.057347
3	0xbe5da749	-0.21645845
4	0xbe708137	-0.23486792
5	0xbec40a6f	-0.3828921
6	0x3d56890e	0.0523768
7	0x3ddae6aa	0.10688527
8	0xbf7f2bc8	-0.9967618
9	0xbe9b3e00	-0.3032074
10	0xbe970b14	-0.2950064
11	0xbebd00a1	-0.36914542
12	0x3e9ac310	0.30226946
13	0x3ead1a32	0.33809048
14	0x3f559d61	0.83443266
15	0x3de2330c	0.11044893
16	0x3dc543d3	0.09632077
17	0x3db77e39	0.08959622
18	0xc1117e5c	-9.093349

layers_by_name.lm_head.proj.weight f4 [19, 4]
0	0xbe9bf9e6	-0.30464095
1	0xbf875133	-1.0571655
2	0x3ed4ab6a	0.4153703
3	0xbeeb2f43	-0.45934495
4	0xbe9c71ce	-0.30555576
5	0xbf4d7317	-0.8025374
6	0x3ed55716	0.41668004
7	0xbeeb839b	-0.45998845
8	0xbefc3ade	-0.49263662
9	0xbf700f27	-0.9377312
10	0xc04e818b	-3.2266567
11	0xc02d9b16	-2.7125907
12	0xbf093d71	-0.5360938
13	0x3cea8e71	0.028632374
14	0x3f8d436d	1.1036202
15	0x3fb65deb	1.4247411
16	0xbeb76cee	-0.35825294
17	0x3cf2bce3	0.029631084
18	0x3f8c1f65	1.0947081
19	0x3fafb19a	1.3726075
20	0xbf4596a4	-0.77182984
21	0x3b957bbf	0.004561871
22	0x3f8a269f	1.0793036
23	0x3fb441ae	1.4082544
24	0xbf48beee	-0.78416336
25	0xbe40c85f	-0.18826436
26	0xbfcb9273	-1.5904068
27	0xbf2bd97d	-0.67128736
28	0xbf554bef	-0.8331899
29	0xbe1e1ed6	-0.1544145
30	0xbfd200a8	-1.640645
31	0xbf2cb709	-0.6746679
32	0xbfd18da9	-1.6371356
33	0xbd44aa35	-0.048013885
34	0xbfca7308	-1.5816355
35	0xbf17ae23	-0.59250087
36	0xbef959da	-0.48701364
37	0x3c9dcbe9	0.019262271
38	0x3f8cedfc	1.1010127
39	0x3fb6dbd0	1.4285831
40	0xbf206670	-0.6265631
41	0x3cd691cf	0.026192574
42	0x3f8ac254	1.0840554
43	0x3fabbf1a	1.3417695
44	0xbebf4bd7	-0.3736255
45	0x3d2f0068	0.042724997
46	0x3f8bef9b	1.0932497
47	0x3fb55675	1.416701
48	0xbfcb371c	-1.5876193
49	0xbdb3f999	-0.08787841
50	0xbdf6c2ca	-0.12048872
51	0xbfde58bc	-1.737083
52	0xbfca25e9	-1.5792819
53	0xbe0e3e1d	-0.13890882
54	0xbe1e202c	-0.1544196
55	0xbfdb6b5d	-1.714214
56	0xbffb19e2	-1.9617274
57	0xbd65cbb8	-0.056102484
58	0x3e7d2338	0.24720466
59	0xbf97e4de	-1.186672
60	0x3fa18951	1.2620031
61	0x3e5d158c	0.2159025
62	0x3f25cda5	0.64766914
63	0xbf6c8c17	-0.9240126
64	0x3fa09a59	1.2547103
65	0x3e60a566	0.21938094
66	0x3f197d37	0.5995669
67	0xbf71b0c0	-0.94410324
68	0x3fa256e4	1.2682767
69	0x3e5c9360	0.21540594
70	0x3f15ad67	0.58467716
71	0xbf74d3b8	-0.9563556
72	0xbe9bd7c6	-0.3043806
73	0xbf8b86c2	-1.09005
74	0x3ed3e0bf	0.41382405
75	0xbee7d26a	-0.4527772

layers_by_name.pos_embed.pos_embed.weight f4 [3, 4]
0	0x3edc38cb	0.4301208
1	0x3effdbc9	0.4997237
2	0x3f5ef5f0	0.8709402
3	0xbfaec803	-1.3654789
4	0xbcba9f8e	-0.02278116
5	0x3f29e020	0.6635761
6	0xbf98fede	-1.1952779
7	0x3fac94e7	1.3482941
8	0xbf1ed12e	-0.6203793
9	0xbfb656b3	-1.4245209
10	0x3f0b1b2b	0.5433833
11	0xbf07c3ad	-0.5303295

layers_by_name.word_embed.emb.weight f4 [19, 4]
0	0xbf1a99ea	-0.60391104
1	0xbe93de69	-0.28880623
2	0xbf5d7074	-0.86499715
3	0xbf6f645d	-0.9351252
4	0xbcfd1883	-0.030895477
5	0xbf86f7b8	-1.0544348
6	0xbdf2d673	-0.11857309
7	0xbf617c7a	-0.8808056
8	0xbf80392d	-1.0017449
9	0xc02a6170	-2.662197
10	0xbd85f92a	-0.06541665
11	0x3e56c287	0.20972644
12	0xbe0a74cd	-0.13521118
13	0xbeb9e99f	-0.3631105
14	0xc0094fb8	-2.1454906
15	0xbfbb948d	-1.4654709
16	0xbe4ab512	-0.19795635
17	0xbed17de7	-0.40916368
18	0xc00db29c	-2.2140265
19	0xbfb09230	-1.3794613
20	0xbea77974	-0.3270985
21	0xbeda0962	-0.42585284
22	0xc07f8f3c	-3.9931173
23	0xbec05b54	-0.37569678
24	0x3fb4077e	1.4064786
25	0x40ab02a4	5.3440723
26	0xbf99b182	-1.2007296
27	0x3ee0fe3f	0.43943974
28	0x3ee50b94	0.44735396
29	0x40b87779	5.764584
30	0xbe4cd111	-0.20001628
31	0x3f403e31	0.75094897
32	0x3fede135	1.8584353
33	0x40ae26a3	5.4422164
34	0xbf848fcb	-1.0356382
35	0xbef65cb1	-0.48117593
36	0xbfe8d946	-1.8191307
37	0x3e385fae	0.18005249
38	0xbfe8980b	-1.81714
39	0xbf97a9cb	-1.1848692
40	0xc026fd56	-2.6092124
41	0x3e8cacfa	0.2747572
42	0xbe9dd009	-0.3082278
43	0xbfe34a22	-1.7756999
44	0xbe5ed7a3	-0.21761946
45	0x40150be6	2.3288512
46	0xc0175474	-2.3645296
47	0xbf901fb6	-1.1259677
48	0x40327b49	2.7887747
49	0x408f97ee	4.487296
50	0xbee328bc	-0.44367015
51	0x3f71205e	0.94190013
52	0x3fd398b7	1.653098
53	0x40a3986e	5.112357
54	0xbe5f866f	-0.21828626
55	0x3f2a18e5	0.66444236
56	0x3f82886c	1.0197883
57	0x40a156ea	5.0418596
58	0x3f31ec80	0.69501495
59	0x3f2d11e2	0.6760541
60	0xbe9331db	-0.28748974
61	0xbefefd2a	-0.49802524
62	0x3d081c2f	0.033230003
63	0x3fd26903	1.6438297
64	0xbe53b126	-0.20673046
65	0xbf182716	-0.5943464
66	0x3e10c26e	0.14136669
67	0x3fcdbd8b	1.6073469
68	0xbe99f135	-0.3006684
69	0xbefe5eb0	-0.49681616
70	0xbce390d8	-0.027779028
71	0x3fd865c0	1.6906052
72	0xbf1cb4c4	-0.61213326
73	0xc04ac064	-3.1679926
74	0x3f463f32	0.7744018
75	0x3d50ed4b	0.05100755
